model.pt (torch, 348727 bytes, 50 tensors)

1.conv1.weight f4 [32, 1, 15]
00000000: cbf0 6a3d 9a96 73be 0b9d 8abe f664 67be
00000010: 7be6 a9bd 2f26 8d3d 4b14 e2bd 5bb6 5bbe
00000020: 4e1f 0dbe 530f c33d d63d 5dbe 8550 00be
00000030: 4b5f 3dbd 335a ef3d 5322 343d db98 e83d
00000040: d8f7 6f3d 8b66 b9bd 5680 973e b7c0 963e
00000050: 36b0 cf3d 6a4a ce3d ce4a 5abe f8a9 cc3d
00000060: d89c 78bd 7595 05be 6682 433d 466e 463e
00000070: 8451 073e 4ef0 1e3e 69e4 29bc a6c6 15bd
00000080: ffce 643d 5c44 55bd 6bf0 7d3e 96f8 803e
00000090: 440c b13c 93d6 313c e9d3 58be 816c 2a3e
000000a0: 6ec0 113d 0736 a6bd 9a69 05be b2e4 73bd
000000b0: be3c b3be 55d9 263e a670 153e d632 c93d
000000c0: 384e 8ebd a881 a2bd 6513 333e f32a babe
000000d0: e99d 003e 8614 bebe dc12 95be fb7a 313e
000000e0: c07a 74be 4521 833e b11a 003a d3bb 593d
000000f0: c204 a1be 97df b3be 0d24 03be 5e69 5bbe
00000100: 6339 fabd 0570 fe3d b7ed 5e3e e3c8 6d3e
00000110: 3eaf 8a3e 5e25 2d3e d782 40bc 523e 1ebe
00000120: b678 c43d 22cf 153e bd27 cabd 6475 26be
00000130: f7eb 173e 18ec 1e3d 71f0 923e 5922 af3c
00000140: db5c a0be f277 3cbd dbf1 efbc 7024 0e3d
00000150: c06d fc3d 48df b7be c943 8d3e ef9c 94be
00000160: 4ae5 fe3d c675 353e b729 ebb9 eecd 623e
00000170: ce07 603e caeb b13d 0481 773e 9634 80be
00000180: 806e 023e 8248 c2be 14dc 4abe a6f1 253d
00000190: 8568 09be a03a 7b3e 34bd c8be eaff 923e
000001a0: 7751 fb3d 6dd7 063e a03f 9b3e ed2c 7bbe
000001b0: 6f50 f93c 37a3 28be 9d03 45bd 612c 3dbe
000001c0: fafb f03d aa3d f9bd aac4 60be c950 22be
000001d0: 7382 83bd 3953 c03b 28de 823e e4f5 343d
000001e0: 2ca2 03be ddec 0d3e ddbc 78be 2091 3abe
000001f0: eb5d 39be 7a73 7abd 77e7 ccbd bc78 bb3c
00000200: 6e9d 863e c121 94be cf4f 68be f696 3abd
00000210: 95bc 0d3d 872b 033e 7254 4b3e 9b47 833e
00000220: 6522 193d 4ec8 3fbe d46b f2bd 2826 f7bd
00000230: 8e47 c73d c1fc ea3d 3944 cb3d a6bf 77be
00000240: 5219 80be 28fb 703d 043e 3f3e ef60 a23d
00000250: ae0d 34be 669f e7bd bbfb 14be cdd6 123e
00000260: 1ec4 89be 0a6d 3cbe 77d3 ce3c 9cab 1bbe
00000270: 7a8d 89be 87dc 82be dec4 29be 344e 71be
00000280: bbaa 6d3d db6a 3d3d 75bf 0d3e ec70 853d
00000290: 5f5f 883e 6da9 d73d 16c1 33be 3a3f 2d3e
000002a0: b9df 8c3e 951b e53d 9386 fb3d b370 903d
000002b0: cdc1 2cbe b373 523e 7a1f 02be 856c bbbd
000002c0: 42c7 933d 13b3 39be 651b 13be 85e3 7ebe
000002d0: ad5e 5f3e b37b e5bc 14b8 553d c651 3bbe
000002e0: 1d86 96bd 48bf babc 9860 8c3d 6aa5 d63d
000002f0: 6ad5 91be da01 63be 82b3 52be fab2 30be
00000300: e53e 1f3d d750 193e 0145 ebbc 9236 0e3e
00000310: 4be6 1cbe 4a5f 8cbe 7d4d 3a3e 0298 483e
00000320: d214 773d a05e ae3d 8b28 a7be 0f2e 2cbe
00000330: 1157 ab3e 5177 9a3d dab2 74be 5085 793e
00000340: d883 91bd a379 1bbe e006 a4be cc78 06be
00000350: 233a 92be e510 453d a6b5 8fbe 9f7e 263d
00000360: 3b18 d5bd 7953 923d 4d3f 90be 7f92 10be
00000370: 32e5 f83d 8c22 8c3e dc25 3b3e 0e00 d03d
00000380: aa01 13be d33c b7bd 332a 11be 0126 97be
00000390: 37f4 f9bd aa99 3ebe 57b3 8ebd 7bc2 ed3d
000003a0: be8b 763e 90a9 89be e0c4 b63d 6484 a6bd
000003b0: 82a6 973e 417a 80be 5568 693d 3bee 9b3e
000003c0: 0ad4 c3bd ab51 cbbd c8be 5a3e 045c 97bd
000003d0: dea1 1a3e 8000 153e 8d8e 37bd db22 553e
000003e0: 3331 593d b960 a7be 391a 4abe 1ad7 e5be
000003f0: b739 d93d c8ca 873e ec4d 303e 9f52 63bd
0.057358544 -0.23787919 -0.2707294 -0.22597107 -0.08295914 0.068920486 -0.11039027 -0.21456282
-0.13781473 0.09524407 -0.2160562 -0.12530716 -0.046233457 0.11687126 0.043978047 0.1135728
0.05858597 -0.09052762 0.295901 0.29443905 0.101410314 0.10072787 -0.21317598 0.099933565
-0.060696453 -0.13045295 0.04773178 0.19378003 0.1321469 0.15521356 -0.010369399 -0.0365664
0.05586147 -0.052067146 0.24798743 0.25189656 0.021612294 0.010854381 -0.21174587 0.16642953
0.035583906 -0.08115774 -0.13028565 -0.059544273 -0.3500728 0.16293843 0.14593753 0.09824149
-0.06948513 -0.07934886 0.17487867 -0.36360893 0.12560238 -0.37125033 -0.2911595 0.1733207
-0.2387495 0.2561132 0.000488679 0.05315764 -0.31448942 -0.35131523 -0.12806721 -0.21426913
-0.12217977 0.1242371 0.21770369 0.23221163 0.27086824 0.16908786 -0.011749945 -0.15453461
0.09593336 0.14629796 -0.09870861 -0.16255718 0.14836107 0.038799375 0.28699067 0.021378683
-0.31320843 -0.046012826 -0.02929013 0.03470272 0.12325621 -0.35912538 0.27590778 -0.2902598
0.12446077 0.17720708 -0.00044853773 0.22148868 0.21877977 0.08687551 0.2417031 -0.2504012
0.12737465 -0.37945944 -0.19810516 0.040513657 -0.13418777 0.24534082 -0.3920685 0.28710872
0.122713976 0.13168116 0.3032198 -0.24528857 0.030433862 -0.16468512 -0.04809915 -0.1847396
0.11766811 -0.121699646 -0.21950021 -0.1585113 -0.064213656 0.005869296 0.25560117 0.044179812
-0.12854832 0.13859887 -0.24290796 -0.18219423 -0.18102233 -0.061145283 -0.10005086 0.02288472
0.26291984 -0.28932002 -0.22686695 -0.045554124 0.034603674 0.12809573 0.19856432 0.25640568
0.037386317 -0.18728754 -0.11836973 -0.120678246 0.09730445 0.1147399 0.09925122 -0.24194202
-0.25019318 0.05883327 0.18676001 0.07928645 -0.17583343 -0.113097 -0.14549153 0.14339752
-0.26907438 -0.1840097 0.025247319 -0.15202183 -0.2686575 -0.25558874 -0.16579005 -0.23564988
0.05802415 0.046244483 0.13842566 0.06515679 0.26635262 0.10530362 -0.17554125 0.1691865
0.27514437 0.111869015 0.12281527 0.07052746 -0.16870804 0.20551948 -0.1270732 -0.09151558
0.0721574 -0.18134718 -0.14365919 -0.2489148 0.2181346 -0.028013086 0.052177504 -0.18292913
-0.07349799 -0.022796288 0.06854361 0.10480769 -0.28483135 -0.22168675 -0.2057629 -0.17255774
0.03887834 0.14972244 -0.028719427 0.13888004 -0.15322225 -0.2741645 0.18193622 0.19589236
0.06032259 0.08514142 -0.3264812 -0.16814445 0.33464864 0.07542289 -0.23896351 0.24367261
-0.07105225 -0.1518312 -0.32036495 -0.13132018 -0.2855998 0.048111815 -0.28068274 0.0406481
-0.10405012 0.071448274 -0.28173295 -0.14118384 0.121530905 0.27370107 0.18276161 0.101562604
-0.14356104 -0.08947148 -0.14176254 -0.29521182 -0.122047834 -0.18613306 -0.069678 0.1160936
0.24076745 -0.26887178 0.0892427 -0.0813072 0.29619223 -0.25093272 0.056984264 0.30455193
-0.095619276 -0.09927686 0.2136184 -0.073905975 0.1510081 0.14550972 -0.04481368 0.20814078
0.053025436 -0.3269098 -0.19736566 -0.44890672 0.10606711 0.26521897 0.17217225 -0.055498715

1.conv1.bias f4 [32]
00000000: f387 a3bd e229 803e 6b9a 703e cc11 57be
00000010: 6607 aabd bfbd ac3c 638c 9cbc 2317 b4bd
00000020: 4442 3cbe dda3 263e 99c5 4b3e 40df 343e
00000030: 1dbb 57be e24d 163e 4811 31be 7a0d c23d
00000040: 351f 273e ef4b bc3d 4228 7ebd 0dc9 debd
00000050: 9db6 49bb 909b 98bc f213 8b3c 9bc5 833d
00000060: 61df 83be b06c 613e d1c6 80be df19 fa3c
00000070: e8a3 d3bd ead9 433d 9fb7 953d 6f32 7dbe
-0.07984915 0.25031954 0.23496406 -0.21002883 -0.083021924 0.021086572 -0.01910991 -0.087934755
-0.18384653 0.16273446 0.19899596 0.17663288 -0.21067472 0.14678147 -0.17291749 0.09475227
0.16320498 0.09194171 -0.06205011 -0.10878191 -0.0030779012 -0.018628865 0.016977284 0.064341746
-0.25756362 0.22014117 -0.25151685 0.030529914 -0.10333997 0.04781524 0.073104136 -0.2472627

1.bn1.weight f4 [32]
00000000: 6abe 803f 2311 203f bd83 853f 7048 7b3f
00000010: f892 803f f66c 663f d6e3 853f 94ba 7c3f
00000020: e3ef 823f e017 7c3f cb1b 873f c6f9 873f
00000030: 490a 833f 1c38 813f f391 8c3f 4fc0 883f
00000040: 466c 823f c87c 7c3f 2613 813f 7a69 793f
00000050: 7f98 7d3f 0c69 863f aa59 7f3f e63f 813f
00000060: fb5b 813f 2226 823f 3db1 7e3f 0af6 823f
00000070: 8eba 883f 3328 7e3f bccd 6a3f 98a3 763f
1.005811 0.6252615 1.0430828 0.98157406 1.0044851 0.9001001 1.0460155 0.98722196
1.0229458 0.9847393 1.0555357 1.06231 1.0237514 1.0095248 1.098204 1.0683688
1.0189292 0.986279 1.0083969 0.9742657 0.99060816 1.0500808 0.9974619 1.0097625
1.0106195 1.0167887 0.99489194 1.0231335 1.0681932 0.9928009 0.91720176 0.96343374

1.bn1.bias f4 [32]
00000000: ea0b 813c b809 8f3d 3b8e 953c ba19 84bc
00000010: 1055 fb3c 4d9a ee3c d16d 07bd e295 173d
00000020: 0b14 fc3d e9ae 01bd 7ab5 83bc 86a7 033d
00000030: 74e5 aebd 901b f339 01ba 1f3d e8cf 403d
00000040: 94fd 9b3d 51a8 35bd f082 c43d daa2 3e3d
00000050: 64da 863c 378a 0fbd 63ab 8b3d 6a8a 0bbc
00000060: fd51 d7bc ac39 a23d ec9e c3bd fc18 8cbd
00000070: 6a53 143d e055 e03d db65 6b3d c7ae b6bc
0.015752751 0.069842756 0.018256297 -0.016125549 0.03068021 0.02912631 -0.033063713 0.037008174
0.123085104 -0.031660948 -0.016077746 0.032142185 -0.085398585 0.00046369107 0.038995747 0.047073275
0.076167256 -0.044349972 0.09595287 0.046542026 0.016461559 -0.03504392 0.06819799 -0.008516887
-0.026284212 0.07921156 -0.09551796 -0.06840703 0.036212362 0.10953879 0.057470184 -0.022300137

1.bn1.running_mean f4 [32]
00000000: 965f 2a3e a98b 6a3d 00a8 7b3e 3a81 17be
00000010: ec85 b1bd ccbe c33c adef 27bd 7691 2fbc
00000020: 6da4 53bd 0c18 5d3e 4891 cb3e 5099 2a3e
00000030: 996c b8bd 3788 223e e636 8cbc 594d 2c3e
00000040: 4bc7 243e 40fb 183e 72bb 3ebd 2be5 bbbd
00000050: 253d 803d f2b8 05bd 05c6 57bd 57d7 3b3e
00000060: 516e 53be 960b 433e 0fcf cdbc 73b9 d53d
00000070: a35f 09bd 0a24 2f3d 5295 c53d 28b8 90be
0.16638026 0.057262097 0.24575806 -0.1479539 -0.08668122 0.02389469 -0.041000057 -0.010715833
-0.05167048 0.21591204 0.39759278 0.16660047 -0.09005088 0.15872274 -0.017116021 0.16826381
0.16091649 0.14939594 -0.04656548 -0.0917457 0.062616624 -0.03264708 -0.05267908 0.18343864
-0.20647551 0.19047388 -0.025123147 0.10435762 -0.033538472 0.04275898 0.09647621 -0.282655

1.bn1.running_var f4 [32]
00000000: d5f1 653c 402e 0e3c ee64 d63b b1ff a03b
00000010: b7d4 233c 1a54 c33a 8b15 7b3b 5250 8f3b
00000020: 265d ea3b 5f4e 313b b185 853c 0699 063c
00000030: 3b17 ee3b 3587 bf3a 5708 463c b08b f03b
00000040: b4ed 993b 7b47 503b 8183 a13b fb3e 8d3b
00000050: ccf9 603b 1b35 303c cd6d 113c 0483 d63b
00000060: ca64 fb3b 6ae3 0f3c e800 343c b22f d33b
00000070: 9715 ad3b 120c 0c3b d162 153c 8a3f 343b
0.014034708 0.008678019 0.0065427935 0.0049132933 0.009999446 0.0014902384 0.00383124 0.0043735886
0.0071522174 0.002705477 0.0162991 0.008215195 0.007265953 0.0014612438 0.012086949 0.007340871
0.004697526 0.0031780887 0.0049290066 0.0043104864 0.0034328578 0.010754849 0.008876276 0.00654638
0.007671927 0.008782247 0.010986544 0.0064448947 0.0052821147 0.00213695 0.009117798 0.0027503693

1.conv2.weight f4 [32, 32, 13]
00000000: 56c2 963d 10b6 9d3d a065 0a3d 7458 183d
00000010: fe8a a8bc 1345 c1bc 646e af3c 69f0 363d
00000020: 711f 983c 8da0 513c 312f b63c e7b1 b3bc
00000030: 0495 94bc 00e5 663a 68e7 bf3c 4e9d dfbc
00000040: cdaf 4e3c 3ed2 aa3b d670 06bd 1480 2dbd
00000050: 0f49 5bba 833f 00bd f34b e8bc 0361 4ebd
00000060: c828 ce3c 1113 aa3b 5acd d63c 8691 49bd
00000070: 933f ccbc abf6 7e3b f413 88bd 1be9 a93c
00000080: 4781 c13c c296 36bc 01a0 dd3b 97f3 9bbd
00000090: 4c26 9ebc c3df 3bbd ec8a baba fa8b 96bc
000000a0: 87e5 f8bc 4672 7cbc 5a65 fb3c 255c 7d3b
000000b0: fe43 6abc f09a 5bbc d87c 8cbc 9bb9 21bd
000000c0: 2d5a 423d 455c ecbb 3711 c43c ef95 873c
000000d0: 0234 95bd 209e 60bd ceae 583c c183 1cbd
000000e0: dfdf 013d e0a4 213d ae39 1dbd 4cfd 54bd
000000f0: aab0 033d 7617 83bb 505d 183c c36d d03a
00000100: 390f 73bb 9408 453d 15f1 be3c 9f4f 2fbc
00000110: f9a8 61bb 2c72 24bd 00ca 62bd dacd c2bc
00000120: 97b0 2cbd ea8a 553d 3f0d fabc 90f1 343c
00000130: 281a a9bc 48ab 063d a122 92bc 4e0b f73c
00000140: 46c9 13bd 0a8b 33bd 94f1 f93c b70f 60bc
00000150: 9d4c 84bd 7d91 21bd 4d8a 6f3c 603b 99bb
00000160: b1f2 4abd d51f 60bb 316a 45bc 9a39 903d
00000170: 3724 063d f30a 093d 1b72 0c3d dfcb bb3c
00000180: a756 b03c 5749 833c 93e6 a8bd 641d 34bd
00000190: a5fc a1bb 11d0 3abd da7e c63b 9d9d 02bd
000001a0: 0c15 89bc c187 23bc bfab 9c3c 2874 543d
000001b0: cd3b 293d 3c0c 423d 1860 83bc 9699 783d
000001c0: 147f 403d ac69 e63c 745a 813a 7f71 333d
000001d0: 2380 c5bc ba71 9e3c 76be 463d 614a 0abd
000001e0: 32ee 323d ee6c 9fbc a6fc 1cbd c59e 8f3b
000001f0: eb2b dbbc bf14 383a d221 463b 8fe6 74bd
00000200: 5690 09bd 46b0 34bc de75 a83c 83fc 1c3d
00000210: ef9a 743c 1027 013d 70d8 383d f208 cd3c
00000220: ee81 0d3d 9406 153d 758f 333d df76 16bc
00000230: ab91 cc3c 2a99 193d a3d8 6a3c 4c8d 863d
00000240: c9be 293d 7cb4 c1bb 76f2 7b3c c999 7dbc
00000250: e49e be3a 2549 05bd 533d 843c 7037 24bc
00000260: a2b6 0bbd a31a 0c3b aa36 d8bb cfe3 c0bc
00000270: 42ce c0ba 4dfe 13bc 0c38 463d 8262 d3bc
00000280: db90 0dbd d8d4 453c 772d 28bd 15ee 61bd
00000290: 5161 80bd 04a0 87bd 0de7 9fbd 1e1c 97bd
000002a0: 2799 4dbd b212 a13c 55c1 c9bb 3833 20bd
000002b0: 3d77 1fbd 1755 413d 0434 6fbc 51c0 4bbc
000002c0: d2b4 14bd b0da d2bc aa4c d93c 36b4 7b39
000002d0: 0fd4 94bc 5402 1e3d 9741 613c be2b 643c
000002e0: bf3f 3d3d 88df 35bc e89c 433d 21f8 5f3d
000002f0: 5eae 243d ac18 2e3d e9c9 d83c 4d72 dcbc
00000300: ebee 983d 509f 4c3d f170 b1bb a1fb 6b3c
00000310: 4f75 12bd 0e48 2b3d 3478 9ebc 4aff 5f3d
00000320: c667 0b3d 6197 b6bc a33b 7f3d 7480 9c3c
00000330: 9062 5cbd a27b 4abc 2163 78bc 1d47 ab3d
00000340: 769e 1a3d 0a1f b73b 3732 dcbc f130 7abd
00000350: a738 f4bc 8cea 31bc af63 3dbc b790 8cbd
00000360: 2ad0 4ebd 56db 8cba 946c 5ebd 703b 03bc
00000370: 61af 113d 7fc9 583c b736 823a 22c9 093c
00000380: 1824 f93c 4657 183d 7afc 56bc c1bc 883d
00000390: b8c0 9abc 90a2 453d e8de 24bd 1bc9 903b
000003a0: a79e e83b e0e2 663c e396 24bd 53d1 a53a
000003b0: 4c3f b83c 5197 e3bc 0146 23bd dff4 7e3d
000003c0: 95a4 7dbc 5ee9 423d 5a25 c3ba 2414 373d
000003d0: 23f1 c0bc 67a5 c93d db92 663b c618 9d3b
000003e0: 1af0 923c 38e4 8ebc 13c8 4f3c 7dc1 3e3c
000003f0: ed97 27bd e4a8 86bc 0e9b 38bd a6b0 acbd
0.073612854 0.07700741 0.033788323 0.03719373 -0.02057409 -0.023592507 0.021414943 0.044662867
0.01856968 0.012794626 0.0222393 -0.021935416 -0.018137462 0.00088079274 0.023425773 -0.027296688
0.012615156 0.005213051 -0.032822452 -0.042358473 -0.00083650736 -0.03131057 -0.028356528 -0.050385486
0.02516593 0.005190261 0.026220966 -0.049211048 -0.024932658 0.003890435 -0.06644431 0.020741036
0.023621215 -0.011144342 0.0067634587 -0.076148205 -0.01930537 -0.045867693 -0.0014232076 -0.018377293
-0.030382885 -0.015408104 0.030687977 0.0038659659 -0.014298437 -0.013403639 -0.017149374 -0.039483648
0.04744928 -0.007213148 0.02393399 0.016550986 -0.0728531 -0.0548383 0.01322527 -0.038211588
0.03170764 0.039463878 -0.038385086 -0.051999375 0.0321509 -0.0040005995 0.009299591 0.0015901852
-0.003708793 0.048103884 0.023308316 -0.0107001355 -0.003443299 -0.040147945 -0.055368423 -0.023779798
-0.042160597 0.052134432 -0.030523894 0.011043921 -0.020642355 0.03287819 -0.017838778 0.030156758
-0.03608062 -0.04383377 0.030510701 -0.013675622 -0.06459925 -0.03944539 0.014620376 -0.0046762675
-0.049547855 -0.003419866 -0.012049244 0.070422366 0.03274938 0.033457708 0.034288507 0.022924362
0.021525694 0.016026182 -0.082471035 -0.04397334 -0.0049434477 -0.045608584 0.0060576024 -0.031888593
-0.016733669 -0.009981097 0.019124864 0.051868588 0.041316796 0.04737495 -0.016037032 0.060693346
0.04699619 0.02812656 0.0009868876 0.04380941 -0.024108952 0.019341338 0.04852148 -0.03376234
0.043684192 -0.019461121 -0.03832688 0.0043829405 -0.02675434 0.00070221344 0.003023256 -0.05979019
-0.033584915 -0.011028355 0.020564016 0.03832675 0.014929517 0.031531394 0.045128286 0.02502868
0.03454774 0.036383227 0.043837983 -0.0091836145 0.024971804 0.037499584 0.014333877 0.06569919
0.041441713 -0.005911408 0.015377631 -0.01547856 0.0014543203 -0.03254046 0.016142523 -0.010022983
-0.03410972 0.0021378181 -0.0065983133 -0.023546128 -0.0014709907 -0.009032798 0.048393294 -0.025803808
-0.034561973 0.012074672 -0.041058984 -0.055158693 -0.06268562 -0.066223174 -0.07807741 -0.0737841
-0.050194886 0.019662235 -0.00615708 -0.039111346 -0.038932074 0.04720029 -0.014599804 -0.0124359885
-0.036305256 -0.025739044 0.026525814 0.00024004359 -0.018167524 0.03857644 0.013748548 0.013926445
0.04620337 -0.011100657 0.04775706 0.054679994 0.040205352 0.042503998 0.026463466 -0.026909972
0.07467445 0.04995662 -0.005415075 0.014403255 -0.035756405 0.041816764 -0.019344427 0.054686822
0.034034513 -0.02228898 0.062312733 0.01910422 -0.053804934 -0.012358578 -0.015160353 0.08363173
0.037748776 0.005588417 -0.026879413 -0.06108183 -0.02981217 -0.010859143 -0.011559411 -0.0686354
-0.05049149 -0.001074652 -0.054302767 -0.0080097765 0.035567645 0.013231634 0.0009934519 0.00840977
0.030412719 0.037192605 -0.013121719 0.06676627 -0.018890724 0.048250735 -0.040251642 0.004418505
0.007098991 0.014092177 -0.04018296 0.0012650884 0.02249112 -0.027782114 -0.039861683 0.062245246
-0.015481134 0.047585838 -0.0014888451 0.044696942 -0.023552483 0.09846001 0.0035182748 0.004794213
0.017936755 -0.017442808 0.012681979 0.011642811 -0.040916372 -0.016437955 -0.045069747 -0.084321305

1.conv2.bias f4 [32]
00000000: a111 e0bc d42e 9a3b 3294 0e3b 08c2 1abd
00000010: f618 29bc c10d 4abc 5613 0ebb d507 40ba
00000020: 9cd2 343d 8366 223d 374e 1b3d d942 943b
00000030: e912 42bd 8d49 863c c0ac 313d fac1 bfbc
00000040: a22d c6bb e99b 28bd 4ba6 3fbd f384 03bb
00000050: 0f2c 10bd acb2 1ebd 717e 14bc e091 bdba
00000060: 8f97 30bd eb71 473d e54f 483d 9b41 283d
00000070: d598 f9bc f1bd c63c 64c1 2abd 9a4c 3dbd
-0.027352156 0.0047052894 0.0021755812 -0.0377827 -0.010320893 -0.012332381 -0.0021679006 -0.0007325386
0.044146165 0.039648544 0.03791639 0.0045245704 -0.047381315 0.016392494 0.043377638 -0.023407925
-0.0060479203 -0.041164313 -0.04678945 -0.0020068258 -0.035198268 -0.038744614 -0.009063349 -0.001446303
-0.043113288 0.048692625 0.04890432 0.04107819 -0.030468384 0.024260493 -0.041688338 -0.04621563

1.bn2.weight f4 [32]
00000000: f4e6 7c3f bcbb 833f 7769 6b3f 062f 683f
00000010: 13e4 783f 5ea1 783f ea34 773f a5e9 883f
00000020: d4d9 6f3f 0a57 803f c1d2 813f 0761 6a3f
00000030: 2409 6d3f 3e0b 7b3f 3f7b 703f ce25 773f
00000040: e4e4 763f ee9a 7a3f 3e9c 623f ac2f 863f
00000050: 61e2 703f 0b9c 753f 1e50 763f 846e 7e3f
00000060: 1bd8 733f 7918 713f 3e41 793f b5bd 823f
00000070: dc45 763f c4db 813f 6c71 703f a179 793f
0.98789907 1.0291667 0.919578 0.9069675 0.97223014 0.97121227 0.96565115 1.0696303
0.93691754 1.0026562 1.0142442 0.915543 0.9259207 0.9806403 0.9393806 0.9654206
0.9644301 0.97892654 0.88519657 1.0483298 0.94095427 0.9594123 0.96216 0.99387383
0.95251626 0.9417797 0.97365177 1.0214144 0.96200347 1.0145192 0.9392307 0.97451216

1.bn2.bias f4 [32]
00000000: 0695 06bd e153 9b3d 517a 81bd 74aa 43bd
00000010: fe34 783c 6889 843b 2569 76bc a2d6 b3bc
00000020: d657 20bd 52c1 963b 0fae a0ba 5812 1abd
00000030: 4754 a9bc d3f5 4fbd 06e6 76bd 46ce c4bc
00000040: 27a1 3cba 1b67 77bc 3731 84bd 1fbc 97bc
00000050: f11d d9bc ff5e f639 941b adbd b642 553d
00000060: 2249 47bd bc0c 25bd 285d 1ebd 29de 7bbc
00000070: ff16 33bc 74bb 4bbd 6fb8 19bd 1703 61bd
-0.032856964 0.07584358 -0.06322158 -0.04776998 0.015149353 0.0040447004 -0.015039717 -0.02195293
-0.039146267 0.0046006823 -0.0012258905 -0.03761515 -0.02067007 -0.050771546 -0.06027796 -0.02402414
-0.00071956444 -0.015100266 -0.064546995 -0.01852232 -0.026503535 0.00046991554 -0.08452526 0.052065574
-0.04865373 -0.040295348 -0.03866306 -0.015372791 -0.010930776 -0.049739316 -0.037529405 -0.054934587

1.bn2.running_mean f4 [32]
00000000: bd7c cebc 8bbc 6bbf f92a e63e e6b6 eebd
00000010: 1f49 bdbe 04ce 1c3e e28c 23bf b366 efbe
00000020: a68c 8fbe c9b4 78be 323b d4be 1c59 b0be
00000030: 1038 343f 990b 283f 6b9b d53e cedc 47be
00000040: dc80 2bbf 7230 04be d8d3 27bf bfa9 97bf
00000050: 39d4 8fbf b3f6 bebe a970 98be 4eff 1ebf
00000060: a3ea c03e e0f0 3cbd c499 e2be 40c6 c3be
00000070: 6cc6 c8be e788 9abd df34 cebc e7cc ebbc
-0.025205964 -0.9208457 0.4495466 -0.11655979 -0.3696985 0.15312964 -0.63886845 -0.4675804
-0.28036994 -0.24287714 -0.41451412 -0.34442985 0.70398045 0.65642697 0.41720137 -0.19517824
-0.669935 -0.12909105 -0.6555762 -1.1848677 -1.123664 -0.37297592 -0.29773453 -0.62108314
0.37679014 -0.046128154 -0.4425794 -0.3823719 -0.39213884 -0.07545643 -0.025171695 -0.028784228

1.bn2.running_var f4 [32]
00000000: 16d0 803f c135 3740 2ff8 1240 40f4 e33e
00000010: 7074 1040 78ce 663f a43f a63f a490 3b3f
00000020: 9514 203f 1143 bd3e eaae f33f 3ff2 8d3f
00000030: a654 993f a432 1a3f c80e 963f 856b 933f
00000040: 6f1e 1b3f 59bb 493f 98dc 763f 0aea 1a40
00000050: 1d14 f53f bc04 1f3f 7027 a03f 70ce b83f
00000060: c535 1f3f 7e88 fc3e bdaa f73e 5097 ed3f
00000070: 2e67 283f 8517 fd3f beb3 093f b610 2c3f
1.0063503 2.8626559 2.296398 0.44522285 2.2571068 0.90158796 1.2988172 0.7326758
0.62531406 0.3696523 1.9037755 1.1089553 1.1978958 0.6023352 1.1723261 1.1517187
0.6059331 0.78801495 0.9643035 2.4205346 1.9146763 0.621166 1.2512035 1.4438
0.6219142 0.49322885 0.4837245 1.8561802 0.6578244 1.9772803 0.5378989 0.67213

2.conv1.weight f4 [32, 32, 11]
00000000: f2c6 383c 543b 373d 0bb8 4bbd 2602 dabc
00000010: 3d77 393d 5890 173d 9c38 893c d7bb c93c
00000020: 036e 84bd c2d7 993a bae0 003d 83e5 ce3c
00000030: 05e6 e63c d3a2 543d fea5 933b 6a7b 9fbb
00000040: 67cb 073d 13ae c33c 6b4c 87ba 4563 50bc
00000050: a73d b8b9 3c1c ccbc b5cb fbbc da4e fdbc
00000060: 52a5 62bb 9649 0bbc 0412 1e3d 7b6f 2ebd
00000070: 7701 b53c aa9e 80bd 4ab2 fbba 0140 7139
00000080: b39e 05bd b531 f9bc 48dd 19bc 196c 0e3d
00000090: 2037 06bd ad4d 3c3b 354b 7ebb a371 65bc
000000a0: d7dc 4dbd 16aa 0c3c 81b0 d0bc dc38 b83c
000000b0: 9232 6bbd 9453 93bd cd25 423c ff6a 8abc
000000c0: 13d4 5b3c e3a2 6fbb f442 393c 0884 913d
000000d0: 449f 8d3d 559d 8a3d 4a2d 8ebd 9d1e f43c
000000e0: 7eaa c93c dbaf 113d 367d 42bd 3781 b73c
000000f0: 7b49 213d 6076 a3bc 8349 973c ce33 933d
00000100: 629e ac3d 51a0 63bd c768 85bc 8c71 263d
00000110: 8e7b 8fbb c76f 323d fafb 013d 710f a1bc
00000120: fa2e 183d f646 3cbd 8c3f 413c 4cf8 0f3d
00000130: 9eb3 09bc bfd6 87bd 71a0 4fbd 4d3d 513d
00000140: 8f2e 01bc bc19 cf3d 991a bdbd 240f 1b3c
00000150: 166a afbc 35e7 18bd afa2 db3d a23e 083d
00000160: 9f79 82bc 3a61 db3c 9b6e 763d eed0 873d
00000170: dcf0 103d 06d4 2ebd 9afb 89bc a2d0 4bbd
00000180: f135 bf3c bcb4 7cbc a566 d53b 5332 24bd
00000190: ab7f 283d 1463 093d 0bcc 483d e8b6 38bd
000001a0: 15ea 85bc 1ae4 1abc 2d62 01bd 9b9c fcbb
000001b0: ed5c 2dbc 20e1 253d d537 4c3c 8391 3abc
000001c0: 8085 43bd 99ac 413d b7bd 9d3c d304 bfbc
000001d0: 869e bdbc 8df2 6cbc 7dcf d8bc 45d8 1ebc
000001e0: 8ba1 15bc fbd8 4a3d efb9 07bd 8443 abbc
000001f0: 7add cfbc efc2 65bd bd93 e8bc 860b 27bd
00000200: 604d 0e3d 6eb5 1a3c 5150 22bc 5d1f 133c
00000210: b498 36bc 861e 623c 6521 8ebc 0a51 cbbc
00000220: 0327 fabc 9a25 293d a89e 89bd d60f b53d
00000230: 57bf 44bd c42d 803d db07 acbd 47b6 60bd
00000240: eaa0 bbbc 23a6 adbb 4450 033d 967f faba
00000250: 088d 0ebc 669a d9bc 6d21 6cbd 3784 523c
00000260: 0e77 ea3b 309b 503d 2e1f 47bc f8f5 1f3d
00000270: 211f 5abd 9ec7 2fbd 1ca9 26bd b28f 93bd
00000280: 6438 95bd 041f 28bc 409d bd3d e778 113d
00000290: 0047 93bb 72eb 56bd 74b7 8ebb 1649 12bd
000002a0: b512 8abd e4a5 f03c 3c1e c6ba 6a2b 883c
000002b0: e053 4b3d 6bbc 9e3b de37 063d 10e5 0e3c
000002c0: d925 903d a0cd 7e3d 2e42 87bc 347e b93b
000002d0: 17ac 8c3d 9e45 603c a670 c7bc a751 fdbc
000002e0: b3c6 7f3b 299b 623d c612 45bd e27c 2a3d
000002f0: 76e0 c03c 41e8 b4bc 8f0d 473d 750e 86bd
00000300: f2a6 0b3d 5b6a 46bd c159 96bb 81ba 04bc
00000310: edfd 5c3d d1d9 213d cee2 0f3d 8cf8 013d
00000320: a558 43bd c67a 93bc 827b 09bd add3 cfbc
00000330: e64b 14bd 5c3a 8e3c 6665 993c 8bae 8cbd
00000340: dadf 123d 3740 3ebd 9bfb 4bbc be7e 51bd
00000350: f55f c13c 173e 9ebc 78f2 8f3c 2edd cebc
00000360: 2e24 1ebd cf97 56ba 64e6 46bb 1e00 50ba
00000370: 6af7 003d f138 163d 7cf9 52bc bc98 883c
00000380: 5484 18bd 58c0 4ebd 3b4d 2cbd 7518 563c
00000390: 3a4e 1cbd 1f6b 79bd 68e8 9fba 657c 8bbc
000003a0: 6754 8ebc 2a89 87bd 1aa8 133c 857c cf3c
000003b0: ac43 3bbd 5fb2 f93c 4e48 e03c ca1a 61bc
000003c0: 4458 683b 8774 263d f065 423c d669 3f3c
000003d0: 7596 923c 56b2 de3b 7f48 31bd 9440 ae3d
000003e0: 0582 8fbd 6af3 c73c 4f76 0abd 94b8 c2bd
000003f0: d958 44bd 6a31 edbc f780 0dbd 59c4 313d
0.011277901 0.044734314 -0.049736064 -0.026612353 0.04527973 0.03700289 0.016750626 0.024625702
-0.064662956 0.0011737274 0.031464316 0.025255924 0.028185854 0.051913094 0.004505872 -0.004867007
0.033152964 0.023886716 -0.0010322457 -0.01271898 -0.0003514115 -0.024915807 -0.030736784 -0.030921388
-0.0034583402 -0.008501431 0.0385914 -0.042586785 0.022095425 -0.06280263 -0.0019202915 0.00023007394
-0.03262205 -0.03041921 -0.0093911365 0.03477106 -0.032767415 0.0028732822 -0.003880215 -0.014004144
-0.050259437 0.0085854735 -0.025474789 0.02248805 -0.057421274 -0.07193676 0.011849833 -0.016896723
0.013417262 -0.0036565594 0.011307467 0.07105261 0.06915143 0.0676829 -0.06942232 0.029799754
0.02461743 0.0355681 -0.04748269 0.022400482 0.039376717 -0.019953907 0.01846767 0.07187615
0.084286466 -0.05557281 -0.016285313 0.04063563 -0.0043787425 0.04356363 0.031734444 -0.019660683
0.037154175 -0.04596611 0.011794936 0.035148904 -0.0084046405 -0.066327564 -0.05069012 0.05108385
-0.007884636 0.1011233 -0.09233589 0.009464059 -0.02141289 -0.03732987 0.10724389 0.033262856
-0.015927134 0.02677976 0.060164075 0.06631647 0.03538595 -0.04268267 -0.016843606 -0.049759515
0.023341151 -0.01542395 0.0065124803 -0.040087055 0.04113738 0.033541754 0.049022716 -0.045096308
-0.01634697 -0.009453798 -0.03158777 -0.0077090985 -0.010581237 0.0404979 0.012464483 -0.011387232
-0.047734737 0.047283743 0.019255502 -0.02331773 -0.023146879 -0.0144621255 -0.026466126 -0.009695117
-0.009132753 0.049523335 -0.033136304 -0.020906217 -0.025374163 -0.056094106 -0.02839076 -0.040782474
0.03474176 0.00944267 -0.009906844 0.008979646 -0.011144806 0.013801223 -0.017349908 -0.024818916
-0.03053618 0.041295625 -0.067197144 0.08840911 -0.04803404 0.06258729 -0.08399936 -0.054861333
-0.022903878 -0.005299346 0.03205897 -0.001911151 -0.008700617 -0.02656288 -0.057649065 0.012848905
0.0071553057 0.05092925 -0.01215343 0.039052933 -0.053252343 -0.04291498 -0.04068862 -0.07205142
-0.07286146 -0.010261301 0.09258509 0.035515692 -0.004494548 -0.052470632 -0.0043553654 -0.03571423
-0.06741849 0.029375978 -0.0015115212 0.016622264 0.049640536 0.0048442385 0.032768123 0.008721605
0.07038469 0.062207818 -0.01651105 0.0056607965 0.06868761 0.013688473 -0.024345707 -0.030922724
0.0039028346 0.055323754 -0.048113607 0.041623004 0.023544531 -0.022083404 0.048596915 -0.06545726
0.03409476 -0.048441272 -0.004588336 -0.008101107 0.0539531 0.039514367 0.035128407 0.031731173
-0.04769196 -0.018002879 -0.03356505 -0.02536949 -0.036205195 0.017361812 0.018725108 -0.06869229
0.035858013 -0.04644796 -0.012450124 -0.05114626 0.023605326 -0.019316716 0.017571673 -0.025251951
-0.038608722 -0.00081860734 -0.0030349726 -0.0007934588 0.031485952 0.036675397 -0.0128768645 0.016674392
-0.037235573 -0.050476402 -0.04206584 0.013067354 -0.03816054 -0.060893174 -0.00122 -0.01702709
-0.01737423 -0.06617959 0.0090122465 0.02532793 -0.045718834 0.030480562 0.027378228 -0.013739297
0.0035453 0.040638473 0.011865124 0.011682948 0.01789401 0.0067961616 -0.04328203 0.08508411
-0.07007221 0.024408061 -0.033804234 -0.09507862 -0.047936294 -0.028954227 -0.03454682 0.043400142

2.conv1.bias f4 [32]
00000000: 1169 dfbb 480b ba3c 8f0a 46bd 281a e4bc
00000010: 48d8 683c fe57 49bc 63ac 0f3d f277 a83b
00000020: b8d6 9c3c 4080 cbbc 8dbe 313d f9e3 313d
00000030: 0a1d b63c 8a27 20bd ee2b df3c e11c 58bd
00000040: 8a46 85bc b419 9bbb 5053 2bbd 42cc be3c
00000050: df19 413b 15fa 0fbd 9560 32bd 4bf3 f9bc
00000060: 3234 8b3c 3592 a4bc 8457 ac3c 8d49 4fbd
00000070: 718b 18bc a866 373b 317f a0bc 0555 3e3d
-0.006817945 0.022710457 -0.048349913 -0.027844504 0.014211722 -0.012289045 0.03507651 0.0051412517
0.019145355 -0.024841428 0.043394614 0.043430302 0.022230644 -0.039100207 0.027242627 -0.052761916
-0.016268987 -0.0047332887 -0.0418275 0.023290757 0.0029464883 -0.035150606 -0.04354914 -0.030511519
0.016992662 -0.020089248 0.021037824 -0.050607253 -0.009310589 0.0027984772 -0.0195919 0.0464678

2.bn1.weight f4 [32]
00000000: 1532 803f 062e 773f 423f 7e3f ef6b 783f
00000010: dd88 7f3f c850 813f 0de0 843f c096 7b3f
00000020: 2d30 7d3f 81e9 7d3f e520 833f 4b66 813f
00000030: 0bf9 7a3f 2bfc 7f3f 52fd 7c3f 4a21 813f
00000040: 96cb 813f c664 7e3f bf9f 7b3f 3d47 813f
00000050: 5b4c 803f 1e4f 7d3f b6f0 823f 5f85 813f
00000060: b449 7a3f b333 823f 7535 813f 6999 853f
00000070: ee15 813f 731a 7a3f 7bfa 7f3f 4245 7c3f
1.0015284 0.965546 0.99315274 0.97039694 0.9981821 1.0102777 1.0380875 0.982769
0.98901635 0.99184424 1.0244414 1.0109342 0.9803626 0.9999415 0.98824036 1.0088284
1.0140254 0.9937252 0.9829063 1.0099865 1.0023302 0.9894885 1.0229709 1.0118827
0.9776871 1.0172027 1.0094439 1.0437442 1.0084817 0.9769661 0.9999158 0.9854318

2.bn1.bias f4 [32]
00000000: 7d16 8bbc fba9 efbc 7a39 023b a5d1 37bb
00000010: dcfa d93c 0c24 26bd dbec 89bc 49ed a7bc
00000020: 736c a3bc 6910 85bc 6308 d4bc 818b 173b
00000030: e1e7 87bd 4a0d 0bbc 4129 adbb 49c7 d43b
00000040: 5dd0 9dbc de37 aabc 9f1b 3abd 5da3 f3bc
00000050: f893 303c f9bd 96bc 1a46 3bbd 6a07 793c
00000060: c92e 35bd 651c 7dbc f176 a4bb 3fa7 dbbd
00000070: 012e cabc 8288 d5bc 1de7 39bc c53c 3dbc
-0.016978497 -0.029255858 0.0019870684 -0.0028048542 0.026608877 -0.04056172 -0.016836574 -0.020498889
-0.019949174 -0.016243177 -0.025882905 0.0023123922 -0.06636024 -0.008487055 -0.005284459 0.006493483
-0.019264394 -0.020778593 -0.045436498 -0.029740984 0.010777466 -0.018401133 -0.04572115 0.015199522
-0.04423407 -0.015448664 -0.0050190617 -0.10725259 -0.02468014 -0.026066069 -0.011346606 -0.011550133

2.bn1.running_mean f4 [32]
00000000: f98c 2bbe eae9 353f 0546 8f3d ef8e ed3e
00000010: 450b a13c 2b32 0b3e 31c0 21be 39b5 e03c
00000020: 789f 52bd 143a c5be e7d9 17be f30f 33be
00000030: e198 cebd 64c2 95be efe4 7f3e fbe6 10bf
00000040: 9e46 d5be 5f0e 75bd 53fe 403c 53d3 e7be
00000050: c64e f1be 73eb fdbe 50d3 e33d b8e9 243e
00000060: ca3d 2fbe 0044 d4bd 335b f33d 03ba 94be
00000070: d699 4c3c 8f68 d2be 23e9 bfbe 1eb0 49bd
-0.16752996 0.7106005 0.06995777 0.46398112 0.019658694 0.13593356 -0.15795971 0.027430164
-0.051421613 -0.38520873 -0.14829217 -0.17486553 -0.10087753 -0.2924987 0.24989675 -0.5660245
-0.4165544 -0.05982816 0.011779386 -0.45278415 -0.47130412 -0.49593696 0.11124289 0.16104782
-0.17113414 -0.103645325 0.11882629 -0.29048166 0.012487849 -0.41095397 -0.37482557 -0.049240224

2.bn1.running_var f4 [32]
00000000: 88f5 6e3e 54ae 5e3e 2765 0a3f 8989 6a3e
00000010: 3a93 213e ddca 033f bf6b a13e 9036 c73e
00000020: f5a9 ba3e f3fc 773e ca2a bf3e 68ea 1f3e
00000030: 6411 5d3f b0b8 813e 6d5f 533e d890 613e
00000040: 5837 6d3e 1471 7e3e 99ab d63d eac6 f03e
00000050: 3882 493e bfcc 353e 530a b73e 53f3 443e
00000060: 0244 3f3e d456 833e 3d28 5e3e 607f fd3e
00000070: d21c 963e 4eb3 f13e a471 8c3e 7a3b 903e
0.2333585 0.21746188 0.54060596 0.22904028 0.15778819 0.5148142 0.31527516 0.38908815
0.36457792 0.24217586 0.37337333 0.15616763 0.8635466 0.25336218 0.20641871 0.2202791
0.23165643 0.24847823 0.104819484 0.4702676 0.19678581 0.17753886 0.35750064 0.19233446
0.18678287 0.25652182 0.21695037 0.49511242 0.29318863 0.4720711 0.2743045 0.28170377

2.conv2.weight f4 [32, 32, 9]
00000000: 9cf3 0a3d 228c a5bc f5c5 1bbd 1189 07bd
00000010: 80c0 b9bc 75d2 10bd 3b8a a63c dc15 92bc
00000020: c3d2 ce3d 5fdf a0bc fac1 2abd 1d8e 65bd
00000030: f541 5abd 50cd 8fbc 4684 1e3d fbb3 57bb
00000040: 8642 3bbd ee92 fe3c f47e 8abd a537 183d
00000050: 474c 013c 0fbb e23b e0bb 83bd c8b3 93bd
00000060: 3013 edbb 9bdf d9bd 8fd9 b5bd 3eb2 b9bc
00000070: cf69 c23c 0b0a 06bd 2534 0ebd f72b 20bb
00000080: 4153 70bd 9f00 15bd 59d9 363c 1620 27bc
00000090: 4998 1f3d 7064 f53c afd0 4bbd 8b9f b7bc
000000a0: 5c9e 0ebd 3fd7 38bd 0a9b 29bd 5e7d b9bc
000000b0: a2cd bfbb 9870 d53b e40c 36bd fad6 47bd
000000c0: ff06 49bd 41c5 7bbd 8966 6abc c87c 82bd
000000d0: 0f79 3dbd 5111 02bd 3c7b 843c 9e32 6cbd
000000e0: 7f4b 173d 2d66 63bd ac01 46b8 f765 5bbd
000000f0: 44bc b5bc 242e e13c f020 77bc 1161 503d
00000100: 8c21 57bd 92d5 09bd ce0a ae3c c96d dfbc
00000110: a3c4 5ebd b4ec a03b c10b 4f3b 41e5 49bd
00000120: 7a4e 3b3d c6b4 e13c 83c4 95bb 0437 59bd
00000130: a72d 3ebd 7627 6cbd a141 0bbd d0ed 34bd
00000140: f501 ca3c 8461 fcbc a11d e039 53ce a4bb
00000150: 6243 0cbd 9e49 913d 579a c5bc 5b68 f83c
00000160: 3ddb f43b be85 853a 5449 29bd 7a54 00bd
00000170: 3da6 0dbd afef 14bd 6bdc fcbb ee0f 423c
00000180: 0e27 26bd 2966 06bb 42db 48bd 4b67 6bbd
00000190: f3eb 15bd 582f 2bbd e53f 4abc 5ed5 70bd
000001a0: 0a8b 6e3d f1f0 a2bc 32e1 4d3c 6f66 07bd
000001b0: 2b43 0a3d 1537 69bb 1b14 e7bc 865c cfbb
000001c0: 2035 d6bc d894 4e3d 6467 933d 8715 003c
000001d0: c4ea 8dbd b6dd 22bd 164b 26bd dcb4 62bd
000001e0: 18d4 fe3c 699f eb3c 741c 993c f233 4bbd
000001f0: 453a 213d 3657 0a3c e4f6 113d 6262 84bd
00000200: a3fd b13b a712 2abd 5aad 91bd bc2e fbbc
00000210: d978 9abc 7cb0 8f3c 810a 103d 518b 9bbc
00000220: b791 833d 3c08 933d 83f6 0ebc 7cf4 593d
00000230: 454d 57bd 95e4 8cbd 0d7a 033d 6163 64bd
00000240: 9be4 33bc befe 1fbd 2696 253c eed2 3c3d
00000250: 64b9 89bc 1a8c 903d 66f6 a0bb b94b edbc
00000260: ff2b 9f3c f1d7 19bd 95a6 0ebd 77af 97bc
00000270: 0645 c2bc d938 d83c 3bea 293d f55a 8a3c
00000280: 0105 9c39 1a58 d4bc 145c e8bb 5f32 12bd
00000290: 8064 a2bd 9cea f9bc 12ca 6d3c 27f8 783d
000002a0: 4008 dc3c 66d3 6b3c d991 c5bb c5bf 20bb
000002b0: a60e 19bc 7e14 703b b96d 933c c850 2c3d
000002c0: d0dc 46bd 204a 22bd db13 40bd 4b7b 673d
000002d0: b128 e93c 2e64 acbc b44d 7ebd 0364 2fbd
000002e0: 5448 36bb 2547 f43c 98f1 22bd 6b32 223d
000002f0: 86b4 9b3d 897b 3d3b 6bd6 5e3c 05b0 2dbd
00000300: 6cb2 883d 896f 09bd 11ea 483d fdd4 ab3c
00000310: c51e 8bbd 0998 79bd a9ef 7abd 9f3d 02bd
00000320: 4818 f9bc 1f84 c33c 5cd6 9f3c fb58 55bc
00000330: 96e7 403b 0a90 883b 63b3 c7bc 4034 bfbc
00000340: 127e 55bd 1b64 dbbc 0b9b 79bd 93a1 5abc
00000350: 9e69 6c3d 2150 693d 48af 7a3d 209d 343d
00000360: 38c3 063d a865 de3c 6309 3a3b 4141 ff3c
00000370: 020a 3fbd 92a3 3bbd cb9a ca3c 061e 04bc
00000380: 152b b83b 0d05 24bd 3f4c 403c a2f1 1dbd
00000390: a80c 08bd 1c69 db3b b396 eb3c d323 53bd
000003a0: 0df0 babd 96da 4dbc e1b9 20bd 0164 303d
000003b0: d59f 85bd b958 44bd 37d5 0e3d e9e9 9bbb
000003c0: 4e98 b6bc 90a0 803c b3d3 883d 6641 6dbd
000003d0: 0c35 413c 378b 49bd ee33 f8bc 2aa4 f3bc
000003e0: 290f 403d 1172 013d 8a0e dd3c 985f 573d
000003f0: 592a 3ebd 781f 0ebd f7c2 28bc 6d10 13bd
0.03392373 -0.020208422 -0.038030583 -0.0330897 -0.022674799 -0.035356957 0.020329585 -0.017832689
0.10098793 -0.019637762 -0.041688897 -0.056043733 -0.053285558 -0.017553955 0.038700365 -0.0032913673
-0.04571774 0.03107592 -0.06762496 0.03716244 0.007891721 0.006919272 -0.06432319 -0.07212025
-0.0072349533 -0.106383525 -0.08879387 -0.022668 0.023732094 -0.03272442 -0.034717698 -0.0024440268
-0.058673147 -0.036377545 0.011160218 -0.010200521 0.03896359 0.029955119 -0.049759563 -0.022414943
-0.034818992 -0.04512715 -0.041407622 -0.022642788 -0.0058533708 0.0065136664 -0.044445887 -0.048789002
-0.049078938 -0.061467413 -0.014306673 -0.063714564 -0.04625803 -0.031754795 0.016172044 -0.05766546
0.036937233 -0.055517364 -4.7208436e-05 -0.053564038 -0.022184499 0.027487822 -0.0150835365 0.05087382
-0.052522227 -0.033650942 0.021245386 -0.02727403 -0.054386746 0.0049110297 0.00315927 -0.0492909
0.045729138 0.02755202 -0.004570545 -0.053030983 -0.046430256 -0.05765482 -0.033998135 -0.04417211
0.024659136 -0.030808218 0.00042746685 -0.0050294786 -0.03424395 0.070941195 -0.024121447 0.030323198
0.0074724243 0.0010186953 -0.041329697 -0.031330563 -0.034582365 -0.036361393 -0.0077167056 0.011844618
-0.04056459 -0.002050767 -0.049037226 -0.057471555 -0.03660197 -0.041793197 -0.012344335 -0.058797233
0.058238067 -0.01989028 0.012565898 -0.033056673 0.033755463 -0.003558581 -0.02820783 -0.0063281683
-0.026148379 0.050434917 0.071974546 0.0078176325 -0.069295436 -0.03976222 -0.04059895 -0.055348262
0.031106994 0.028762536 0.018690325 -0.049610086 0.03936221 0.008443644 0.035635844 -0.064640775
0.005431847 -0.041521695 -0.07113142 -0.030661933 -0.018856453 0.017540209 0.035166267 -0.01898733
0.06424277 0.07179305 -0.008725765 0.053211674 -0.052563924 -0.06879536 0.03209882 -0.055758838
-0.010979797 -0.0390613 0.010106599 0.046099596 -0.016812034 0.07057972 -0.0049121855 -0.028966771
0.019430159 -0.037559453 -0.034826834 -0.018516285 -0.023714554 0.026394295 0.041483145 0.016889075
0.00029758367 -0.025920916 -0.0070910547 -0.03569257 -0.07929325 -0.030507378 0.014513509 0.06078353
0.026859403 0.014393663 -0.0060293493 -0.0024528366 -0.009341871 0.0036633308 0.017996656 0.042069227
-0.048550427 -0.039621472 -0.046893936 0.056514066 0.028461786 -0.021043863 -0.062085822 -0.042819988
-0.0027814107 0.02981908 -0.039781183 0.039598864 0.076027915 0.0028912744 0.013600926 -0.042404193
0.06674656 -0.033553634 0.049051348 0.020975584 -0.06792978 -0.060936008 -0.061263714 -0.031797048
-0.030407086 0.023866711 0.019511394 -0.013021703 0.002943491 0.0041675614 -0.02437753 -0.023340344
-0.052122183 -0.026781132 -0.060938876 -0.013344186 0.057717912 0.056961183 0.061202317 0.04409516
0.03290102 0.027148083 0.0028386943 0.031159045 -0.046640404 -0.04581029 0.024732014 -0.008063799
0.00562037 -0.04004388 0.0117369285 -0.038560517 -0.033215195 0.0066958796 0.028758382 -0.051547837
-0.09127817 -0.012564322 -0.039239768 0.04306412 -0.06524626 -0.047936175 0.034871306 -0.004758109
-0.022289421 0.015701562 0.066810034 -0.057923697 0.0117924325 -0.04920503 -0.0302982 -0.029741365
0.046889458 0.031602923 0.026984472 0.0525814 -0.046427105 -0.03469798 -0.0103003895 -0.035904337

2.conv2.bias f4 [32]
00000000: f96e 853c 73bd a2bc 7741 c2bc 8a4b 3bbd
00000010: 4040 b0bb 6fe4 4e3d e338 0f3d 877e ce3a
00000020: 64bd 0cbc 02fb 11bc 3590 19bd 72ee 5cbd
00000030: e61d 36bd 07db a0ba 4461 c0bc c5ab e63c
00000040: dc64 f13c b07c 3cbd 5ac3 0d3d 359f 763b
00000050: 1b60 2cbd 49e9 b5bb af38 ac3c fba6 49bd
00000060: 0b2d 6ebd 86b9 593d 8002 403c ff9d 513d
00000070: 21e5 22bd a937 b83c da21 3e3d b615 38ba
0.016288267 -0.019865727 -0.023712857 -0.045726337 -0.005378753 0.05051082 0.03496636 0.0015754261
-0.008590076 -0.008909943 -0.037491042 -0.053938337 -0.044462107 -0.0012272306 -0.02348388 0.028158078
0.029467039 -0.04601735 0.03461013 0.0037631516 -0.04208384 -0.0055514914 0.021023123 -0.04923151
-0.058148425 0.053155445 0.011719346 0.051176067 -0.039769296 0.022487478 0.046419002 -0.0007022278

2.bn2.weight f4 [32]
00000000: dd63 753f db73 683f 8bb5 673f e70c 683f
00000010: b88c 783f 2e12 703f 801c 6d3f e0f3 673f
00000020: 3b68 663f 5ebe 723f 447b 6f3f bfd5 693f
00000030: 8e57 6f3f 3cb6 6e3f e738 773f 1fa1 5f3f
00000040: 9303 6b3f 5342 763f 3741 773f 6812 6e3f
00000050: d1e7 653f 2478 6b3f 8950 7a3f 1003 6b3f
00000060: b18d 6f3f 749a 703f 3836 733f deea 6a3f
00000070: 45f4 793f ee1f 693f 20a0 693f 42a3 743f
0.95855504 0.9080178 0.9051139 0.9064469 0.9708972 0.9377774 0.9262161 0.906065
0.90002793 0.9482173 0.93547463 0.91341776 0.9349297 0.9324682 0.965712 0.87355226
0.9180233 0.9619495 0.96583885 0.92996836 0.8980685 0.91980195 0.97779137 0.9180155
0.9357558 0.93985677 0.95004606 0.9176463 0.9763835 0.91064346 0.91259956 0.9556161

2.bn2.bias f4 [32]
00000000: ee3c 35bd 4020 b9bd 8b8c d0bd 5b47 51bd
00000010: 149c a7bd 0bc8 c1bd fc9c d0bd 03e9 febd
00000020: 9a88 3fbd f6e6 d9bd b821 84bd 4db8 99bd
00000030: 0372 e1bc 03f6 3abd 5bb1 67bd baa0 a9bc
00000040: e6d2 b4bd 59d0 adbd 9ac6 b9bd e675 bdbd
00000050: 7707 8abd 7511 8dbd c8b2 f6bd 4725 e5bd
00000060: e206 a9bd c959 f6bd a654 83bd 9d09 0fbe
00000070: cb4e dabd d0f3 9cbd 6bff 04be 9e08 d4bd
-0.04424756 -0.09039354 -0.101830564 -0.05109344 -0.081840664 -0.09461983 -0.101861924 -0.12446787
-0.046761133 -0.106397554 -0.06451744 -0.07505856 -0.027520185 -0.04564477 -0.056565624 -0.020706523
-0.08829288 -0.08487005 -0.09071083 -0.09251003 -0.06739705 -0.06888095 -0.120458186 -0.11188751
-0.08253266 -0.12028844 -0.0641263 -0.13968511 -0.1065956 -0.07663691 -0.12988059 -0.10353206

2.bn2.running_mean f4 [32]
00000000: 003a 67bf 46ad d7bd a455 dabd f580 9c3e
00000010: 3137 c5be 92fe c7be 2e5b 00bf 32ff 10be
00000020: b358 523f 16d1 8abe 7a0c 5ebf 788b 1cbf
00000030: 2ce4 99be 6668 34bf aeb7 e6be 79c2 243f
00000040: 3006 58bd 70da 8bbe 629b e1be 308f 77bf
00000050: 2ecb 993f c8bf 2a3f fccc 40be 4dd2 53bf
00000060: 6bd1 1fbf 1078 ddbe 2495 1cbf c224 a53e
00000070: 5711 83bf 71e2 943d db68 2d3f 95cb febe
-0.90322876 -0.10531096 -0.10660866 0.30567136 -0.3851867 -0.3906141 -0.5013913 -0.1415985
0.82166594 -0.27112645 -0.8673779 -0.6115031 -0.30056894 -0.704718 -0.4506201 0.6435924
-0.052740276 -0.27315092 -0.4406386 -0.9670286 1.201513 0.66698885 -0.18828195 -0.8274277
-0.6242892 -0.43255663 -0.6116507 0.32254606 -1.0239667 0.07269753 0.6773812 -0.49764696

2.bn2.running_var f4 [32]
00000000: bbce 963f e83f 8c3f aa83 983f 7c92 1a3f
00000010: c7a1 423f 8b38 5b3f 0f80 933f 966c 1d3f
00000020: 3b99 903f f4c2 1b3f 53fe 273f 6185 8b3f
00000030: b448 0f3f bcf8 423f e56d 7f3f f90a 6a3f
00000040: 9342 ae3f 6096 6a3f 876f 3d3f 2d15 463f
00000050: e738 a13f 2d6d 8b3f a732 b43f a4a5 833f
00000060: a40d 603f 89eb 0c3f ccbc 653f ce92 3c3f
00000070: 1bd0 143f ef38 3d3f 1bf4 433f f28f 773f
1.1781839 1.0957003 1.1915181 0.6037977 0.760281 0.8563315 1.1523455 0.61493814
1.1296762 0.6084435 0.6562244 1.0900079 0.5597031 0.7616079 0.9977706 0.9142299
1.3614067 0.91635704 0.739983 0.7737606 1.259549 1.0892693 1.4077958 1.0284925
0.87520814 0.550469 0.89741206 0.73661506 0.58130044 0.73915 0.7654435 0.9670402

3.conv1.weight f4 [32, 32, 7]
00000000: 725b a7bc 6519 e3b9 9875 9c3c 2b6b df3c
00000010: 17ae 893d 6e72 d8bc a831 333d c22f 5dbd
00000020: c875 8dbd f73a 04bc 6796 5abd 008d f83c
00000030: a7e7 17bd eb89 6a3d 41a9 23bb de25 863d
00000040: 3911 a73c b189 11bc 9fd9 be3c 421f 463d
00000050: 8423 21bd 28c7 f43c 5967 cdbc 7eb9 833c
00000060: e02e eabc 7faa 8bbd 905f 94bd cf3b 2abd
00000070: bc58 1fbd d4b2 a53c f513 9cbc 53ea 193a
00000080: 6b18 da3c 857e 54bd b277 76bd a59d b7bc
00000090: f9a4 833d 7f7f 0fbd a6a9 123d 87bf a4bc
000000a0: 9d61 4cbb 0d79 393d b514 46bd 7749 84bd
000000b0: 2f35 71bd c3a7 02bd 4444 1b3c 2b87 82bc
000000c0: 505d 6abd 1da7 1dbd 6fe6 04be b2fd 8dbc
000000d0: 7208 94bd 1bc3 08bd 351c d8bd 0da2 47bd
000000e0: 0bdc 403d 6fa8 82bc 42f8 493b 11a9 d6bc
000000f0: a1bd e23c 9de1 163c 4e05 64bd fb5a b3bd
00000100: 2db2 9cbd fea0 39bc 5500 81bd 7d88 d5bc
00000110: 369c 8e3c 703a 9bba 447f 0c3e a2d8 de3c
00000120: 4e5c ae3d 9ed7 cd3d 9d21 dd3d ca2b 1a3c
00000130: e119 6cbc 08e3 f63a 05c7 66bc 6d71 cdbd
00000140: 414c 6ebd 30e2 4fbd 95cc 71bd 840a a1bc
00000150: 2b65 e7b9 b7b9 1bbb 2141 a4bc c3a7 01bd
00000160: 5a75 a63c 8b77 56bb 5168 39bc 0374 c3ba
00000170: 40bb c5bc 5ece 42ba 9e56 e8bc 3232 263d
00000180: c068 993d f48c bcbc d5c0 e73d 5dba 263d
00000190: 81c7 9abb 847a 39bc 2e43 eabb 2b8c 9c3d
000001a0: 75ce f23d c1a0 703d 7e44 85bd 5a84 3cbd
000001b0: 2167 b3bd e468 6dbd 4b9f 51bd 2c62 8cbc
000001c0: 8653 9dbd 4355 c03c 37b0 543d c630 f03c
000001d0: 8bf8 e43c efc1 1abd 80b0 773d a34b 1bbb
000001e0: 2057 e4bc 90bd 7abd e82d a9bd ee29 b1bd
000001f0: 51de 0a3d 9e9a 73bd d19e bc3c 8a98 3c3d
00000200: 07d3 953c 0099 b4bc e1c1 b4bc d151 bf3c
00000210: 0bee 273d 85e4 0bbd 5f90 133c eec3 18bc
00000220: d14e 583c 79ca 5dbd 8efc a03c eccb 253d
00000230: 64d6 ad3d 67ea acbc b819 0c3d 35bb d1bc
00000240: 332a bf3c e214 4bbd 1b0c 97bd a459 83bc
00000250: 92cf 68bc ca87 6d3b 4afb 11bc f760 acbc
00000260: 5fb8 fc3b 792b 8f3b 6f0e eabd 6f8e 15be
00000270: 195b bebd dcea c1bd 30df 3dbd 4123 bcbd
00000280: ec32 1d3d 9c65 7ebc 3d9b 533d f6d7 eebc
00000290: 001a 8e3d 62f6 993c 5ca5 90bc 216a 573d
000002a0: 9509 943c d74a cebc 4d0f 49bd 90a3 a7bc
000002b0: 16c9 ad3c b385 7b3d 51bb ba3a 4a23 db3b
000002c0: 36ce b1bc b106 17bd 534d 873c 71bd 41bd
000002d0: 86b5 fcbc a69a 1f3d 94c2 973d b80f 833d
000002e0: 5636 dbba 400e 6d3d e417 e73a e658 73bc
000002f0: dbff 3c3d b318 d2bd e9b1 08bd 5564 95bd
00000300: 5105 9dbd 41bc 1abd 47ec d7ba 51c8 303d
00000310: e2bc 0cbd 55e2 19bc b9e2 9d3c 78f7 3c3d
00000320: c8d7 0bbc 38e8 12bc 6eef c23d 6181 f6bd
00000330: dc6e 55bd 9875 78bd 00d1 bdbd 0d58 cabd
00000340: c5d6 a4bd b7b5 14bd 5ddc bfbd 557e eebd
00000350: 55b3 a4bd 5f9d babd 53c2 7bbd f1ce 8c3b
00000360: 135a 3b3c 5d2f f2ba 08f3 3b3d e37e 573d
00000370: 17f9 e3bc 3ad4 80bc f323 1a3d f2a6 43bd
00000380: 64b8 cebc 2a78 ef3c ee15 653d fe0d 613d
00000390: 264a a13c ad23 943b d995 6db9 89d6 35bd
000003a0: 6f2c c7bc 601d b53c b35f 10bd 5d63 0ebd
000003b0: 8520 09bd ca98 9c3d 1607 543c 6430 05bd
000003c0: 4a51 59bc 224d a1bd 7b1c 133d 9797 8cbc
000003d0: 5236 e33b 75d9 ea3c a6ee 383d bb3b 58bd
000003e0: e8af 9b3d 397e bb3d 0f1e 7abd f75d 39bb
000003f0: 8131 88bd ab2a 5bbd 232b 633d cdfe 78bc
-0.020429347 -0.00043315734 0.019099042 0.027272781 0.06722658 -0.026421752 0.043748528 -0.054000624
-0.069072306 -0.008070699 -0.05336609 0.030340672 -0.037086155 0.057260435 -0.002497271 0.06550191
0.020393955 -0.008882926 0.02329713 0.048369654 -0.03934051 0.029880121 -0.025073694 0.01607966
-0.028586805 -0.06819629 -0.072447896 -0.041560944 -0.038902983 0.020226873 -0.019052485 0.0005871404
0.026622972 -0.05187847 -0.060172744 -0.022414038 0.064279504 -0.0350337 0.03580632 -0.020110859
-0.0031186112 0.04528146 -0.04835959 -0.06459325 -0.05888861 -0.03189827 0.009476725 -0.015933594
-0.057217896 -0.03848945 -0.12978528 -0.017332885 -0.07228173 -0.033389192 -0.10552255 -0.048738528
0.04708485 -0.015949456 0.003081814 -0.026203664 0.027678313 0.009209064 -0.05566912 -0.087575875
-0.07651172 -0.011329887 -0.062988915 -0.02606606 0.017408472 -0.0011842977 0.13720423 0.027202908
0.085136995 0.10050891 0.10797427 0.009409854 -0.014410467 0.0018835971 -0.014085536 -0.100314
-0.05817819 -0.05075282 -0.059032995 -0.019658335 -0.0004413513 -0.0023761818 -0.020050587 -0.03165413
0.02031963 -0.0032725062 -0.011316375 -0.0014911894 -0.02413714 -0.0007431264 -0.028361615 0.040575214
0.074906826 -0.02301643 0.11316077 0.040705074 -0.0047234898 -0.011320714 -0.0071491217 0.076439224
0.11855785 0.058747057 -0.065072045 -0.046024658 -0.08759905 -0.05796136 -0.051177304 -0.017136656
-0.076819465 0.023478156 0.051925864 0.029320132 0.027950546 -0.037782606 0.060471058 -0.0023696206
-0.027873576 -0.061215937 -0.08260709 -0.086505756 0.033903424 -0.059473626 0.023024948 0.04604391
0.018289102 -0.022045612 -0.022065105 0.023354443 0.0409985 -0.03415348 0.009006589 -0.009324057
0.013202385 -0.05414817 0.019651677 0.04047768 0.084881574 -0.021107865 0.034204215 -0.025601963
0.023335552 -0.049580462 -0.07375356 -0.016033955 -0.014209645 0.0036244267 -0.00891001 -0.02104233
0.0077124084 0.004369196 -0.11428534 -0.14605115 -0.09294719 -0.09468624 -0.046355426 -0.09186412
0.03837864 -0.015527155 0.05166172 -0.029155713 0.06938553 0.018794242 -0.017656974 0.052591447
0.018070975 -0.02518217 -0.049086858 -0.020463735 0.02121405 0.061406802 0.0014246498 0.0066875564
-0.021704774 -0.036871616 0.016516363 -0.047299806 -0.030848276 0.038965844 0.0741016 0.063994825
-0.0016724567 0.057874918 0.0017631021 -0.014852738 0.04614244 -0.10258617 -0.033372793 -0.072945274
-0.0766703 -0.03777719 -0.0016473614 0.043159787 -0.03435982 -0.009392341 0.019273149 0.046134442
-0.008535333 -0.008966498 0.09518324 -0.12036396 -0.052107677 -0.06065902 -0.09268379 -0.098800756
-0.080487765 -0.03630611 -0.09368203 -0.1164519 -0.08042017 -0.091120474 -0.06146462 0.0042971303
0.01143505 -0.001847725 0.04588607 0.052611243 -0.027828736 -0.015726198 0.03763194 -0.047766633
-0.025234409 0.029232103 0.055929117 0.054944985 0.019688677 0.0045208544 -0.00022657904 -0.04439405
-0.02431318 0.022108734 -0.035247516 -0.03476273 -0.03347828 0.0764633 0.012941143 -0.032516852
-0.01326401 -0.0787604 0.035915833 -0.017162127 0.0069339657 0.028668145 0.045149468 -0.05279134
0.07601911 0.091549344 -0.061063822 -0.0028284767 -0.06650067 -0.05350749 0.05546106 -0.015197468

3.conv1.bias f4 [32]
00000000: a250 1f3c 3e6d 3038 527c 413d 85e4 3fbc
00000010: 576b d33c 752c 34ba 1d6a 1c3c 027a 3cbd
00000020: 5767 2abd 6d0f 323d 695f ef3c 6195 efbb
00000030: a7b8 833c ab0c 033d 7f65 f73b e099 9d3c
00000040: 0058 ecbc ecf0 7f3d 96a9 1e3d 02bf 983c
00000050: 7ac1 3f3c 285c 473d 2aa0 27bc b345 f43c
00000060: 9ff9 1d3d 3562 4e3d 7c56 2cbd 6a45 5bbd
00000070: b5b7 9dbc 8912 16bd c3a7 713d e0c6 443d
0.009723814 4.206341e-05 0.0472377 -0.011712198 0.02580802 -0.00068730797 0.009546784 -0.046014793
-0.04160246 0.043471742 0.0292203 -0.0073115085 0.01607926 0.031994503 0.007549941 0.019238412
-0.028850555 0.06248562 0.03873595 0.018645767 0.011703843 0.04867187 -0.010231057 0.029818391
0.038568135 0.050386626 -0.042074665 -0.053532995 -0.019252637 -0.03663877 0.05899788 0.048041224

3.bn1.weight f4 [32]
00000000: fa8a 873f 195d 803f f4d8 813f 07b0 803f
00000010: 3999 7a3f f254 7d3f 75db 833f 5e26 7f3f
00000020: 8d54 7f3f cedc 803f bcb2 813f 6544 833f
00000030: 32c8 783f 2a0b 763f c2e3 813f ace2 813f
00000040: 5987 803f 0aea 7d3f a1ff 7b3f 1e5c 803f
00000050: 236a 7d3f 8002 803f ccc0 7d3f e156 7f3f
00000060: 7f34 7e3f 6f30 7c3f 0cc7 793f 83b4 833f
00000070: e0e8 793f a6ab 813f 3645 813f 4cac 7a3f
1.0589287 1.0028411 1.0144334 1.0053719 0.9789005 0.9895774 1.0301348 0.9966792
0.9973839 1.0067384 1.013267 1.0255247 0.97180474 0.96110785 1.0147631 1.01473
1.0041305 0.9918524 0.98436934 1.0028112 0.98990077 1.0000763 0.9912231 0.9974194
0.9929885 0.98511404 0.97569346 1.0289463 0.97620964 1.0130508 1.0099247 0.97919154

3.bn1.bias f4 [32]
00000000: a753 9a3c 4dfe 6bbc 49bb 85bb 61f3 35bc
00000010: 4d3e 12bd 9dc1 82bc 7d7d a93c 5052 0fbc
00000020: 4094 a6bc b6b1 21bc 24c8 d03b 737b 0fbd
00000030: 3ae7 79bb 461d c1bc 5928 61bc ee39 c2bb
00000040: cc9b 26bc 4d6a f9ba e841 143c a3de bc39
00000050: e430 27bc ab04 d3bc 630e 43bc 1da3 eb3b
00000060: c0f1 03bd a510 9f3c 3ed5 09bd 5c54 16bb
00000070: d5ef 36bd f731 263c 58fd ccb8 2256 06bd
0.018838717 -0.014403892 -0.004081164 -0.011105389 -0.035703946 -0.015961463 0.02068972 -0.008747652
-0.020334363 -0.00986903 0.006371515 -0.03502984 -0.0038132207 -0.023573529 -0.01374253 -0.005927316
-0.010168981 -0.0019028872 0.009048916 0.00036024032 -0.0102045275 -0.025759062 -0.0119052855 0.0071910755
-0.032212973 0.019417116 -0.03365063 -0.0022938466 -0.044662315 0.0101437485 -9.774667e-05 -0.032796986
