model.pt (torch, 164423 bytes, 10 tensors)

1.weight f4 [32, 1, 7]
0	0x3ea1fd12	0.3163839
1	0x3c9bf672	0.019038413
2	0x3e39e79f	0.18154763
3	0x3ea9cb8f	0.33163115
4	0x3cc7bbdd	0.024381572
5	0x3e1b67d6	0.15176329
6	0xbe65b45a	-0.2243208
7	0x3e020e98	0.1270088
8	0xbe40027c	-0.18750948
9	0xbd4a734f	-0.049426373
10	0xbe9838b7	-0.2973077
11	0x3ebf7f8a	0.37401992
12	0xbdda627c	-0.10663316
13	0xbdc90f7e	-0.09817408
14	0x3d8c7935	0.06859056
15	0xbe79bcd4	-0.24388438
16	0xbd5f02a4	-0.054445878
17	0x3e9e0e9e	0.30870527
18	0xbda3bbb6	-0.079947874
19	0xbe90871e	-0.28228086
20	0xbe342547	-0.17592345
21	0x3c160371	0.009156094
22	0x3eac3f73	0.33642158
23	0x3c9b6346	0.018968236
24	0xbeb059cb	-0.34443507
25	0xbe39a80a	-0.18130508
26	0x3d2941e7	0.041322615
27	0xbe9a7e18	-0.30174327
28	0xbe7697d0	-0.2408135
29	0x3ebcdef7	0.3688886
30	0x3e8b7c6b	0.2724336
31	0x3eb9623c	0.3620776
32	0xbbe7e0dc	-0.007076366
33	0x3e9745a0	0.29545307
34	0x3d72ed87	0.059308555
35	0x3e7b488f	0.24539398
36	0x3cbf7cce	0.023374941
37	0xbcf3ad0d	-0.029745603
38	0xbeb4dc99	-0.35324553
39	0xbe8288d1	-0.25495008
40	0x3e5bd7ab	0.2146899
41	0x3ea991aa	0.33118945
42	0x3e7da10d	0.24768467
43	0xbd4e4a12	-0.050363608
44	0xbe3517ac	-0.17684811
45	0x3e0661a5	0.13123186
46	0xbe573621	-0.21016742
47	0x3e2ed425	0.17073114
48	0xbe6f69f0	-0.23380256
49	0x3ea50cc3	0.322363
50	0x3d495979	0.049157593
51	0xbe4f0a7f	-0.20218848
52	0x3ded5aca	0.11589582
53	0xbdd68f7b	-0.104765855
54	0xbbe0e6e4	-0.006863462
55	0x3e1615c8	0.14656746
56	0x3e97fad6	0.2968356
57	0x3eac389a	0.33636934
58	0x3d795144	0.060868517
59	0x3ea840c5	0.32861915
60	0x3dc92d21	0.09823061
61	0x3eac36fc	0.336357
62	0xbea85c9c	-0.32883155
63	0x3ebcaeaf	0.36852023
64	0x3cdd9509	0.027048605
65	0x3e912716	0.28350133
66	0x3dbc73d0	0.09201777
67	0x3e7d7efc	0.24755472
68	0x3d8dd5f8	0.06925577
69	0xbebfb695	-0.37443987
70	0x3ea35c61	0.31906417
71	0xbe35bbd5	-0.17747433
72	0x3e0402e8	0.12891734
73	0x3ea1231a	0.31472093
74	0xbe5c1d9f	-0.21495675
75	0x3e56ddff	0.20983122
76	0x3eab5c62	0.3346892
77	0x3e3010d6	0.17193922
78	0xbe818fe5	-0.25305095
79	0xbe4bbaa6	-0.1989542
80	0x3d7f7a0e	0.06237226
81	0xbdbd7aa5	-0.09251908
82	0xbe71135d	-0.23542543
83	0xbe995814	-0.2995001
84	0xbe4357d7	-0.19076477
85	0xbe8387b3	-0.25689468
86	0xbe595abf	-0.21226023
87	0x3d899f27	0.06719809
88	0x3e808914	0.25104582
89	0x3d072a70	0.032999456
90	0xbde78d51	-0.11306251
91	0x3e252f25	0.16131265
92	0x3e79e522	0.24403813
93	0x3cddb735	0.027064899
94	0x3e53930e	0.20661566
95	0xbe84d454	-0.25943244
96	0x3e3ec5a6	0.18630084
97	0x3e286a9e	0.16446921
98	0xbe480f63	-0.1953712
99	0xbd905d13	-0.070490025
100	0xb6f72fc2	-7.3667334e-06
101	0x3ead9a95	0.33907
102	0xbdc0c534	-0.094126135
103	0x3d9e79a5	0.077380456
104	0xbe25925b	-0.16169111
105	0xbe042c60	-0.12907553
106	0x3e2feaa2	0.17179349
107	0xbe8b9b4b	-0.27266917
108	0x3e8fe09e	0.28101057
109	0x3e44f571	0.19234253
110	0x3e168ce7	0.14702187
111	0xbe935cfd	-0.28781882
112	0x3d403611	0.04692656
113	0xbebdab2e	-0.37044662
114	0x3e93fc7c	0.28903568
115	0x3eaee083	0.34155664
116	0xbe08af2e	-0.13348076
117	0x3d748b3e	0.059703104
118	0x3e06b577	0.13155161
119	0xbe1d9ddb	-0.15392248
120	0xbea57c21	-0.32321265
121	0x3df98c11	0.12184919
122	0x3d400462	0.04687918
123	0xbe023f82	-0.12719539
124	0xbd6d626d	-0.057955194
125	0x3e3daf48	0.18523896
126	0x3e6d7622	0.23189595
127	0xbd214bad	-0.03937881
128	0x3e4e1a53	0.2012723
129	0xbe8f8acf	-0.2803559
130	0xbe48b7c1	-0.19601347
131	0x3bedad60	0.007253334
132	0xbc6832fa	-0.01417231
133	0xbebd498f	-0.36970183
134	0x3eaef8b0	0.34174109
135	0xbe46fc2f	-0.19432138
136	0x3e6a4ef6	0.22881684
137	0x3e74d248	0.23908341
138	0x3e540fd3	0.20709161
139	0x3eaf1919	0.34198835
140	0x3ce9c7c4	0.028537638
141	0x3e9b461b	0.30326924
142	0xbd017d2d	-0.031613518
143	0xbea0e6de	-0.31426138
144	0xbdbffe2f	-0.093746535
145	0xbca4cb27	-0.020116402
146	0xbd3e81a5	-0.046510357
147	0xbe3d9a00	-0.18515778
148	0xbe8c9609	-0.27458218
149	0x3e15b165	0.14618452
150	0x3c90a217	0.017655415
151	0xbe8d91c2	-0.27650267
152	0xbe007a8b	-0.12546746
153	0x3e653429	0.22383179
154	0x3e8e2030	0.27758932
155	0x3e03bf57	0.12865959
156	0xbeb9c34a	-0.36281806
157	0x3e98a9fd	0.2981719
158	0x3eb2c0a6	0.34912604
159	0xbe00da8d	-0.1258337
160	0x3ebf8de1	0.37412933
161	0xbe9334bc	-0.2875117
162	0x3d19373b	0.037406188
163	0xbeb97768	-0.36223912
164	0x3eb9226b	0.3615907
165	0x3e0def1d	0.13860746
166	0xbe11a758	-0.14223993
167	0x3e20c288	0.15699208
168	0xbeba0559	-0.36332205
169	0x3e417ebb	0.18896
170	0xbda49744	-0.08036664
171	0xbb1cd7d2	-0.002393235
172	0xbec143bd	-0.37746993
173	0xbebe2378	-0.37136436
174	0xbeab9904	-0.3351518
175	0xbe9d5bdd	-0.3073415
176	0x3ea4b3f5	0.32168546
177	0xbda5dcda	-0.08098765
178	0xbe34e393	-0.17664938
179	0x3e05882e	0.1304023
180	0x3e97f6ba	0.29680425
181	0xbdef593b	-0.11686941
182	0x3e1deded	0.15422793
183	0xbde3233b	-0.11090704
184	0xbe79a66f	-0.24379896
185	0xbe17e221	-0.14832355
186	0x3eb33698	0.3500259
187	0xbe575034	-0.21026689
188	0x3e2816d6	0.16414961
189	0xbe38faa3	-0.1806436
190	0xbd0b2aee	-0.033976488
191	0xbe1e1c3a	-0.15440455
192	0x3de5caf0	0.11220348
193	0x3e06c3a2	0.13160565
194	0xbe1bd1ec	-0.15216798
195	0xbe6be724	-0.23037392
196	0xbe69a2c0	-0.2281599
197	0xbea9471c	-0.33062065
198	0xbdfd398d	-0.123644926
199	0x3ea7c0df	0.32764336
200	0x3d6c43a2	0.057681687
201	0xbe2f0b64	-0.17094189
202	0x3e2770a7	0.16351567
203	0x3dbd1471	0.092324145
204	0x3e74f1b9	0.23920335
205	0xbca2b2c5	-0.019860635
206	0x3e476101	0.19470598
207	0xbe1c9dae	-0.15294525
208	0x3ea45434	0.32095492
209	0xbd998099	-0.07495231
210	0x3db2db89	0.08733279
211	0x3c4ddf2d	0.012565416
212	0xbe280a0a	-0.1641008
213	0xbe8d21d0	-0.2756486
214	0x3cd7e5be	0.026354667
215	0xbd42af7b	-0.047530632
216	0xbe529184	-0.20563322
217	0x3dd9159f	0.10599827
218	0x3e931f8c	0.28735006
219	0xbe9e1bd8	-0.30880618
220	0xbd45c529	-0.04828373
221	0x3d235910	0.03987986
222	0xbeb5cc5a	-0.3550747
223	0xbd937f1f	-0.07201981

1.bias f4 [32]
0	0xbde8ad77	-0.11361211
1	0xbe36dfea	-0.17858854
2	0x3e39bd9f	0.18138741
3	0xbe7d2b4c	-0.24723548
4	0xbd89e7e5	-0.067336835
5	0x3c40efd4	0.0117759295
6	0xbd49f953	-0.04931004
7	0xbe880df2	-0.2657314
8	0xbe339341	-0.17536642
9	0xbe6a8b8d	-0.22904797
10	0x3d3beba6	0.04587903
11	0x3d92aa01	0.07161332
12	0xbd4a22b8	-0.049349517
13	0x3ebbbca9	0.36667374
14	0x3e0426af	0.12905382
15	0x3ea8dddf	0.32981774
16	0xbe972b3a	-0.29525167
17	0x3dc928b9	0.0982222
18	0x3de0c0b6	0.10974257
19	0xbeaa3f34	-0.33251345
20	0x3e604ef8	0.21905124
21	0xbc3aec5b	-0.011408891
22	0xbd686b59	-0.056743
23	0x3d929192	0.071566716
24	0xbe93d660	-0.28874493
25	0xbce57ef5	-0.02801464
26	0x3e34fd6c	0.17674798
27	0xbdea4a9e	-0.11440013
28	0xbdfc78c7	-0.12327724
29	0xbda0aa2d	-0.078449585
30	0xbea4f307	-0.32216665
31	0xbe8b54aa	-0.2721303

3.weight f4 [32, 32, 5]
0	0x3d9d440b	0.07678994
1	0x3d340baa	0.043956436
2	0x3d05a50e	0.03262811
3	0x3d9f5c6d	0.07781301
4	0x3cf70f39	0.030158626
5	0xbd5cbdfe	-0.05389213
6	0x3ce035fe	0.027369495
7	0xbd4f79a1	-0.050653104
8	0xbd8d08ed	-0.06886468
9	0xbb08b274	-0.002085832
10	0xbd818b60	-0.06325412
11	0x3d709837	0.058738913
12	0x3d78c5bf	0.06073546
13	0xbd78a131	-0.0607006
14	0x3d90107b	0.070343934
15	0x3d9fd4a2	0.07804228
16	0x3d82b1d5	0.06381575
17	0x3c0047ef	0.00782965
18	0xbcd4573c	-0.025920503
19	0x3d47e8b2	0.0488059
20	0x3c8c1491	0.01709965
21	0xbcf17a9d	-0.029477412
22	0xbd1b9a01	-0.037988666
23	0x3d94ceb0	0.07265985
24	0x3d3950d3	0.045243096
25	0xbd68a235	-0.056795318
26	0xbd3d30a2	-0.046188958
27	0x3d9045a2	0.070445314
28	0x3d92fbb3	0.07176914
29	0xbd316b1f	-0.04331505
30	0xbcdea59b	-0.027178576
31	0x3c0676e9	0.008207061
32	0xbc8640fb	-0.016388407
33	0xbcdad143	-0.026711112
34	0x3d8fe764	0.07026556
35	0x3d88a8b6	0.06672804
36	0x3d7d7e55	0.061888058
37	0x3d6e7b66	0.05822315
38	0x3d94f464	0.07273176
39	0x3d69a127	0.057038452
40	0x3c980b42	0.018560056
41	0xbd44f694	-0.048086718
42	0x3d62eca8	0.055401474
43	0xbcccb404	-0.024988182
44	0xbd629353	-0.05531628
45	0x3d6238fa	0.05523012
46	0x3d07d926	0.033166073
47	0xbd289476	-0.04115721
48	0xbcfb4623	-0.030673092
49	0x3d757c9b	0.059933286
50	0xbd8c4985	-0.0684996
51	0xb9ad183c	-0.00033015187
52	0xbd8e2901	-0.069414146
53	0xbd2d2466	-0.04227104
54	0xbd83bdbf	-0.064326756
55	0x3d521113	0.051285814
56	0xbd956d25	-0.07296208
57	0xbda0e6d9	-0.07856531
58	0x3d826dc1	0.0636859
59	0xbce62ace	-0.028096583
60	0xbbce70f6	-0.006300087
61	0x3d8defc1	0.06930495
62	0x3d6a6729	0.057227287
63	0xbd711fa4	-0.058868065
64	0xbd9f6a44	-0.077839404
65	0x3d9bca92	0.076069966
66	0xbd02fc33	-0.031978797
67	0x3aff354a	0.0019470837
68	0xbcae469e	-0.021273907
69	0x3d1ccbe1	0.03828037
70	0xbd909f78	-0.07061666
71	0x3b96c811	0.0046014865
72	0x3d0dbdea	0.034604944
73	0xbc7270fb	-0.014797444
74	0xbd18ca1a	-0.037302114
75	0x3d08501d	0.033279527
76	0xbd3fa549	-0.046788488
77	0xbd042682	-0.032263286
78	0x3d4b851d	0.049687494
79	0x3c85f2c0	0.016351104
80	0x3d93df7d	0.072203614
81	0xbc5783a5	-0.013153945
82	0x3d789464	0.06068839
83	0xbca0c82b	-0.019626698
84	0xbd6490f3	-0.055802297
85	0xbd153520	-0.036427617
86	0x3d8b31e0	0.06796622
87	0x3d8f9062	0.07009961
88	0x3d043317	0.032275286
89	0x3ce87815	0.028377572
90	0xbd21e41f	-0.039524194
91	0x3d76f7dc	0.06029497
92	0xbc836a90	-0.016042024
93	0x3bdd3454	0.0067506228
94	0xbd15808a	-0.036499538
95	0xbd55b333	-0.05217285
96	0xbb9dcbad	-0.00481554
97	0x3d8cb790	0.06870949
98	0xbc5e1ac1	-0.013556183
99	0xbc46552c	-0.0121052675
100	0xbc73d5f8	-0.014882557
101	0x3d0b9e31	0.03408641
102	0x3ceb1b19	0.028699445
103	0xbcfce2c1	-0.030869843
104	0x3d5264fa	0.05136583
105	0x3c8dc5c7	0.017306222
106	0xbc9e660d	-0.019335771
107	0x3d35ebec	0.044414446
108	0x3c80631f	0.015672265
109	0xbd34fa5e	-0.04418408
110	0x3d857633	0.06516685
111	0x3d89ce51	0.06728805
112	0xbd28374c	-0.04106836
113	0xbc2ac722	-0.0104234535
114	0xbcef68ee	-0.029224839
115	0xb9178c17	-0.0001445267
116	0x3d983df3	0.07433691
117	0x3d8f7e61	0.07006527
118	0xbd908982	-0.070574775
119	0xbcb3535d	-0.021890337
120	0x3d5a20dd	0.053253997
121	0xbd260f0b	-0.04054169
122	0xbb70be2d	-0.0036734447
123	0x3d7ecc2f	0.062206443
124	0x3d524ab7	0.051340785
125	0x3d5bdf7a	0.05367992
126	0xbd96736f	-0.07346236
127	0xbc8885b1	-0.016665312
128	0x3ce9d776	0.028545123
129	0x3ab01505	0.0013433999
130	0xbd2112e3	-0.039324652
131	0x3d8c944c	0.06864223
132	0x3d323b4d	0.043513585
133	0x3cd4bcf5	0.025969008
134	0xbcc5fe85	-0.024169216
135	0xbd828191	-0.06372369
136	0xbd0ab41d	-0.033863176
137	0x3c4b7d9a	0.012420082
138	0x3d6770ac	0.056503937
139	0xbd699810	-0.057029784
140	0xbd8f0731	-0.069837935
141	0xbd2434d8	-0.04008946
142	0xba115c61	-0.00055450766
143	0xbc902c4b	-0.017599246
144	0xbcd891dc	-0.026436739
145	0x3d6267c7	0.05527475
146	0xbda21e73	-0.07915964
147	0xb9aa9e18	-0.00032542716
148	0xbd8a28f2	-0.06746091
149	0xbda2cc96	-0.07949178
150	0xbcea7c09	-0.028623598
151	0x3d906e21	0.070522554
152	0xbc89e2ce	-0.016831782
153	0xbc094b92	-0.008379834
154	0x3d548c44	0.05189158
155	0x3d77775e	0.06041657
156	0xbc609992	-0.013708489
157	0xbcf8ce3a	-0.030371774
158	0x3c8c59ef	0.017132727
159	0x3d7ec443	0.06219889
160	0xbd59b5f8	-0.053152055
161	0xbc8968d4	-0.016773619
162	0xbd610ce6	-0.05494394
163	0xbd274ad3	-0.040842842
164	0x3d3d9b4d	0.046290684
165	0x3c695693	0.014241832
166	0x3cb2ae08	0.0218115
167	0x3cef99b3	0.029248094
168	0x3c8af1b3	0.016960954
169	0xbd68aa8e	-0.05680328
170	0x3d8bc47d	0.068245865
171	0x3c017b0d	0.007902873
172	0xbcad3439	-0.021143066
173	0xbd85e186	-0.06537156
174	0x3c12819c	0.008942034
175	0x3c30b245	0.01078469
176	0xbc2fec66	-0.010737514
177	0x3d2019d0	0.039087117
178	0x3d2b5ec5	0.041838426
179	0x3cdf361c	0.027247481
180	0x3d5736f6	0.05254265
181	0xbc6edb6b	-0.0145786805
182	0x3c8a8fe8	0.016914323
183	0xbd397091	-0.045273367
184	0x3d9a6c9d	0.075402476
185	0xbc5cd344	-0.013478104
186	0xbd769263	-0.0601982
187	0x3d2976d1	0.041373078
188	0xbd2c1efa	-0.04202173
189	0xbd551b51	-0.052028004
190	0xbd94f60c	-0.07273492
191	0x3d5062ce	0.050875477
192	0x3d639488	0.055561572
193	0x3ce23fb8	0.027618274
194	0x3b860da2	0.0040909806
195	0xbce78658	-0.028262302
196	0xbd67e61b	-0.05661593
197	0xbd13f4cd	-0.036122132
198	0x3d093591	0.03349835
199	0xbc74ade9	-0.014934042
200	0xbd3ac6c8	-0.04559973
201	0xbce45eb8	-0.027877197
202	0x3ae029c9	0.0017102297
203	0x3d9a9af6	0.07549088
204	0xbc35c18a	-0.011093507
205	0xbd79ec7d	-0.06101655
206	0x3cb0c9a8	0.021580532
207	0xbd8a8078	-0.06762785
208	0x3cbd415b	0.023102453
209	0x3c4d9d8e	0.012549771
210	0xbd8bcec2	-0.06826545
211	0xbd63d027	-0.05561843
212	0xbceabb4f	-0.028653769
213	0x3cc31e53	0.02381817
214	0xbd764393	-0.060123038
215	0x3da1b959	0.078966804
216	0x3d096b74	0.03354974
217	0xbd508550	-0.050908387
218	0x3bedf4ef	0.0072618644
219	0xbd5e7eac	-0.054320022
220	0x3bcc73a2	0.0062393704
221	0xbd173078	-0.036911458
222	0xbd751573	-0.05983491
223	0xbd5f421c	-0.054506406
224	0xbd57535a	-0.052569725
225	0xbd0ace7f	-0.033888336
226	0x3d48c99d	0.0490204
227	0x3bdaff48	0.006683264
228	0xbcca2f01	-0.024680616
229	0x3d8b1322	0.06790759
230	0x3d822520	0.06354737
231	0x3d6ae99a	0.057351686
232	0xbd689d9c	-0.056790933
233	0xbd40d716	-0.047080122
234	0xbc37290e	-0.011179222
235	0x3d0b0da5	0.03394856
236	0xbd58dbcc	-0.05294399
237	0xbc84d66a	-0.016215522
238	0x3d729316	0.059222303
239	0x3c591e6b	0.013251881
240	0xbd88f368	-0.06687051
241	0x3c1c4116	0.009537002
242	0xbc842fcd	-0.016136074
243	0x3d21beec	0.039488718
244	0xbc18ed26	-0.009333884
245	0xbbba7824	-0.0056905914
246	0xbd046af5	-0.032328565
247	0x3d5ff55e	0.05467736
248	0x3cdcbe8d	0.02694633
249	0xbcae4faf	-0.02127823
250	0xbb67c80b	-0.0035367038
251	0x3be6b911	0.0070411046
252	0xbcf13df8	-0.029448494
253	0x3c89d046	0.016822945
254	0x3d644907	0.055733707
255	0x3d28bf9b	0.041198354

3.bias f4 [32]
0	0xbcb768bc	-0.022388808
1	0x3be80cb7	0.007081594
2	0x3c6bff25	0.014404093
3	0xba8ae927	-0.0010598049
4	0x3ce5f8c2	0.028072719
5	0xbd44bf05	-0.048033733
6	0x3d9bffcd	0.076171495
7	0x3d74b95b	0.05974708
8	0x3d8ee043	0.06976368
9	0x3d5640b0	0.052307785
10	0x3d600259	0.05468974
11	0xbd6efe49	-0.058347974
12	0xbd6bffce	-0.057617
13	0xbd70aa50	-0.058756173
14	0xbd0b345e	-0.033985488
15	0x3b229379	0.0024807139
16	0x3d0d6822	0.034523137
17	0xbd1038c6	-0.035210393
18	0xbd3c1a42	-0.04592348
19	0xbda15dd5	-0.07879225
20	0xbcffd54e	-0.031229641
21	0x3d4e1552	0.0503133
22	0xbd7541ef	-0.059877332
23	0xbac895c1	-0.0015303419
24	0x3d952a95	0.072835125
25	0x3d41639c	0.047214136
26	0xbd723b26	-0.05913844
27	0xbd966650	-0.07343733
28	0x3ca1b42a	0.01973923
29	0x3b95775e	0.004561349
30	0x3cbf4a50	0.023350865
31	0x3d665ce2	0.056240924

5.weight f4 [32, 32, 3]
0	0x3cb44928	0.02200754
1	0x3d1c53f3	0.038165998
2	0x3d3e208c	0.046417758
3	0x3d75d6ee	0.060019426
4	0x3d8bc3d9	0.06824464
5	0x3cae9428	0.02131088
6	0x3cbf633c	0.023362748
7	0x3d8632ec	0.06552681
8	0x3dc1d3ef	0.09464251
9	0xbd1336c2	-0.035940893
10	0xbda69937	-0.08134692
11	0xbd9a6c84	-0.07540229
12	0xbcfc8d46	-0.030829083
13	0x3c1cb307	0.009564168
14	0xbd87177f	-0.065962784
15	0x3d8e7404	0.06955722
16	0xbcef30cc	-0.029198073
17	0xbdd021ba	-0.10162683
18	0x3d2608c7	0.040535714
19	0x3db4c502	0.08826639
20	0x3d995f46	0.07488875
21	0xbd4e4460	-0.050358176
22	0xbc52e519	-0.012872004
23	0xbc4121cd	-0.011787844
24	0x3daf979d	0.0857384
25	0xbc3cce49	-0.011523792
26	0xbd48dc7f	-0.049038406
27	0x3c50f135	0.012752821
28	0xbdc376a2	-0.09544112
29	0x3d74018e	0.059571795
30	0x3da8126c	0.08206639
31	0x3d0b68ab	0.034035366
32	0x3da4051f	0.08008789
33	0x3d8453e0	0.064613104
34	0xbdb995ca	-0.09061773
35	0x3c943376	0.018090945
36	0xba92b711	-0.0011193474
37	0xbd82921f	-0.06375527
38	0xbc8c3829	-0.017116623
39	0xbd0eff31	-0.03491134
40	0x3cd67078	0.026176676
41	0xbcc00c32	-0.023443315
42	0xbdaa6d1b	-0.083215915
43	0x3d4b7e14	0.049680784
44	0x3d62a47f	0.055332657
45	0xbdc71b03	-0.09721949
46	0x3d8c3f41	0.06848002
47	0xbc855f90	-0.01628092
48	0x3dc98e4d	0.09841595
49	0x3db09baa	0.086234406
50	0x3d1c26c2	0.0381229
51	0xbc968033	-0.018371677
52	0x3d688353	0.056765866
53	0x3d1ed01d	0.03877269
54	0x3d28eb8a	0.041240253
55	0xbd5b9f9d	-0.053619016
56	0xbd822c28	-0.063560784
57	0x3daf3711	0.08555425
58	0xbd808000	-0.06274414
59	0x3c5413cc	0.012944173
60	0xbdbd7a6e	-0.09251867
61	0x3d3786bf	0.04480624
62	0x3d895958	0.06706494
63	0xbd717916	-0.058953367
64	0x3d826e37	0.06368678
65	0x3ce00a08	0.027348533
66	0x3d0ac3e9	0.03387824
67	0xbd215e0b	-0.039396327
68	0x3d3941ac	0.045228645
69	0xbd23cfab	-0.03999297
70	0x3c16a821	0.0091953585
71	0xbcbf1375	-0.023324708
72	0xbad68b7c	-0.0016368474
73	0x3dc778da	0.097398475
74	0xbdcc58cd	-0.09977875
75	0x3d6989dd	0.057016242
76	0xbd78a058	-0.06069979
77	0x3c2d94f1	0.010594592
78	0xbd52e077	-0.051483598
79	0xbd61ffe1	-0.055175666
80	0x3cd58a4f	0.026066927
81	0x3d3d2b91	0.046184126
82	0x3ccee85d	0.025257284
83	0xbd0cd4a5	-0.03438248
84	0xbd71c0e0	-0.05902183
85	0x3d64fa93	0.05590303
86	0xbc214238	-0.009842448
87	0xbc1cde8a	-0.009574542
88	0xbcbf28d7	-0.023334904
89	0x3d865dcc	0.06560859
90	0xbd9cc78f	-0.0765525
91	0xbc7beaa5	-0.015375768
92	0x3d62c80b	0.055366557
93	0xbd909196	-0.07059018
94	0x3d5c7bca	0.053828992
95	0x3dce98fd	0.10087774
96	0xbd598006	-0.05310061
97	0x3cbacaa5	0.022801707
98	0x3cfc5301	0.030801298
99	0xbda7ec67	-0.08199387
100	0x3cf3b9f3	0.029751753
101	0xbda78f09	-0.08181579
102	0xbd7388b6	-0.05945655
103	0x3dcb6dab	0.09933027
104	0xbd878dc8	-0.066188395
105	0x3d21f5ab	0.039540928
106	0x3d4a84af	0.049442943
107	0x3d2b90fc	0.041886315
108	0x3c696b1f	0.014246731
109	0x3d498e3f	0.049207922
110	0xbda5a772	-0.08088578
111	0x3a9e3375	0.0012069779
112	0x3d8a0a05	0.06740192
113	0x3d421690	0.0473848
114	0x3db9dcdb	0.09075328
115	0xbc8d7c60	-0.01727122
116	0x3c872ba4	0.016500302
117	0x3bd39e32	0.0064580673
118	0x3da4007b	0.08007904
119	0xbdce74d4	-0.10080877
120	0x3b9e5ee8	0.004833091
121	0x3d8a42c2	0.06751014
122	0xbdcecce8	-0.100976765
123	0xbccc2314	-0.02491907
124	0x3bcf513a	0.0063268216
125	0xbd0e91c6	-0.03480699
126	0xbc9b31cd	-0.018944645
127	0x3d160ddb	0.036634307
128	0xbda9ae3a	-0.08285184
129	0x3ce31cd0	0.0277237
130	0x3d3f1444	0.046650186
131	0xbda2f889	-0.079575606
132	0x3ceab37d	0.02865004
133	0xbce4f0b3	-0.027946806
134	0x3da6a769	0.081374
135	0x3d4661e2	0.048433192
136	0x3c385463	0.011250588
137	0x3da32862	0.07966687
138	0xbd401b98	-0.046901315
139	0x3dc6aac7	0.09700542
140	0xbc7f633d	-0.015587625
141	0x3d675e0f	0.056486186
142	0xbd499e7e	-0.049223416
143	0x3db3c3f1	0.08777607
144	0xbd8bf363	-0.06833532
145	0x3d58f8e3	0.052971732
146	0xbca5d921	-0.020245137
147	0xbdc6227c	-0.09674546
148	0x3d2ad531	0.04170722
149	0xbd880e25	-0.06643323
150	0xbd3c6981	-0.045999054
151	0xbc8b133b	-0.016976943
152	0x3dbbe931	0.09175337
153	0xbc0949da	-0.008379424
154	0xbd6f1f79	-0.058379624
155	0xbd526ac6	-0.05137136
156	0xbdc523fb	-0.09626003
157	0xbd6070c7	-0.054795053
158	0x3d0c6009	0.034271274
159	0x3dcd9d39	0.100397535
160	0x3d874afe	0.066061005
161	0xbda8e0dc	-0.082460135
162	0x3d274533	0.040837478
163	0x3dcfc7c1	0.10145522
164	0x3dc0f7fa	0.09422298
165	0xbb225257	-0.0024768317
166	0x3c43f01f	0.011959105
167	0xbda23864	-0.07920912
168	0xbd8f8eb8	-0.07009643
169	0x3d80f522	0.062967554
170	0xbc2ffede	-0.010741917
171	0x3c9e8232	0.019349191
172	0xbd8f0a29	-0.0698436
173	0x3d8a4cf6	0.067529604
174	0xbd17738b	-0.036975425
175	0xbd924b23	-0.071432374
176	0xbdc1540b	-0.09439858
177	0x3d91dce2	0.07122208
178	0x3c2099d0	0.009802297
179	0x3caea4ec	0.021318875
180	0x3d88dc4f	0.066826455
181	0x3beed2e7	0.007288325
182	0x3cb95fe8	0.02262874
183	0xbdbd22ea	-0.09235175
184	0xbd0e9798	-0.03481254
185	0x3bbc1477	0.0057397443
186	0xbba0d73a	-0.0049084695
187	0x3dd03b3d	0.10167549
188	0x3dc51d34	0.09624711
189	0x3d3911ec	0.045183107
190	0x3dcbc6a3	0.09949996
191	0xbdc7f5e5	-0.097636975
192	0x3ccb0450	0.02478233
193	0xbda8c260	-0.08240199
194	0x3ca9b466	0.020715903
195	0xbd55476f	-0.052070078
196	0xbd5c57cc	-0.053794667
197	0xbd816d64	-0.06319693
198	0xbdb00e17	-0.085964374
199	0xbc4683df	-0.012116401
200	0xbd03fb76	-0.032222234
201	0xbdae1ae3	-0.08501222
202	0xbdc6413b	-0.096804105
203	0xbd85e109	-0.06537063
204	0xbd2920d3	-0.04129107
205	0x3d620aad	0.055185962
206	0xbcaf5dec	-0.02140709
207	0xbcc8fd4d	-0.024534846
208	0xbdc0f7e8	-0.09422284
209	0xbd215f8d	-0.039397765
210	0x3ce75d08	0.028242603
211	0x3d76736a	0.06016866
212	0x3d528616	0.051397406
213	0xbd20e09b	-0.0392767
214	0x3bcc0bc2	0.0062269876
215	0x3c508a89	0.012728342
216	0xbd9c07b9	-0.076186605
217	0x3d2bd771	0.041953508
218	0xbd8dffdf	-0.06933569
219	0xbdbd4146	-0.092409655
220	0x3d83b4b5	0.064309515
221	0x3d6087a0	0.054816842
222	0xbd865292	-0.06558718
223	0xbdd471d7	-0.10373276
224	0xbd996620	-0.07490182
225	0xbd89e112	-0.06732382
226	0xbd897c8d	-0.06713209
227	0x3daf54c1	0.085610874
228	0xbc83a475	-0.01606963
229	0xbd9372af	-0.071996085
230	0xbd0b4515	-0.03400143
231	0x3db16e54	0.086636215
232	0x3c87bd9c	0.016569905
233	0x3d907c2a	0.070549324
234	0x3c385da4	0.011252794
235	0xbbab8a1f	-0.005234971
236	0xbcc46529	-0.023974018
237	0x3db6ed82	0.0893202
238	0x3d0aa896	0.033852182
239	0xbd7fdcab	-0.062466305
240	0xbd9e1b72	-0.077200785
241	0x3c86d72c	0.016460024
242	0x3d1991b2	0.03749246
243	0x3cc57096	0.024101537
244	0x3cff22c7	0.031144513
245	0x3d2f16d5	0.042746384
246	0xbbbef98e	-0.005828089
247	0x3d9d6e02	0.07686998
248	0xbd09accc	-0.033612058
249	0xbd144c0e	-0.036205344
250	0xbd9f3862	-0.07774426
251	0xbcdd4784	-0.02701164
252	0x3cb0bf2d	0.021575535
253	0xbc609629	-0.013707676
254	0x3cb193c9	0.021676915
255	0xbdc16fb9	-0.094451375

5.bias f4 [32]
0	0xbbdb0f3e	-0.0066851666
1	0xbcc648a2	-0.024204556
2	0xbbc08353	-0.00587503
3	0x3d9f0c4e	0.07766019
4	0xbca6febc	-0.020385139
5	0x3dc8973d	0.097944714
6	0x3dc87ec3	0.09789803
7	0x3d029ef5	0.031889874
8	0xbd5517ab	-0.052024525
9	0x3d195022	0.037429936
10	0x3d8443f7	0.06458276
11	0x3d3c1c43	0.04592539
12	0x3d35eac4	0.044413343
13	0xbdbdbab9	-0.0926413
14	0x3da58119	0.08081264
15	0x3d98c861	0.07460094
16	0xbc9a7629	-0.018855171
17	0x3dc4e982	0.096148506
18	0x3d863133	0.06552353
19	0xbc8cfc2b	-0.017210087
20	0xbd152ace	-0.036417775
21	0xbcd6f3e2	-0.02623934
22	0xbd93ca61	-0.07216335
23	0xbd45c225	-0.048280854
24	0xbb9eebac	-0.0048498716
25	0xbba579c0	-0.005049914
26	0x3db1e6a9	0.08686573
27	0x3a7656ea	0.00093971065
28	0xbd97e984	-0.074175864
29	0x3d0d7348	0.03453377
30	0x3cce994b	0.02521958
31	0x3d9af43f	0.075661175

7.weight f4 [32, 32, 3]
0	0x3d457349	0.048205648
1	0x3c76bdd1	0.015059904
2	0x3cfe8ee4	0.031073995
3	0xbb48fa57	-0.0030666792
4	0x3db135c1	0.08652831
5	0x3d990195	0.07471005
6	0x3cf70449	0.03015341
7	0x3d9e7fe0	0.07739234
8	0x3ce74f67	0.028236104
9	0x3d415751	0.047202412
10	0x3d9f3fc0	0.07775831
11	0x3bbbfccb	0.0057369224
12	0xbbc4e7a1	-0.0060090576
13	0xbdbb0098	-0.091309726
14	0x3d97ae48	0.074062884
15	0xbd54eb58	-0.051982254
16	0xbd9f3358	-0.07773465
17	0xbce12229	-0.02748211
18	0x3d9aed76	0.07564823
19	0xbd25ce61	-0.04048002
20	0xbd7fcb5b	-0.062449794
21	0xba6a4028	-0.00089359516
22	0x3d351b06	0.044215225
23	0x3d2b2fbd	0.041793574
24	0x3dbcdc30	0.09221685
25	0x3dc73167	0.097262196
26	0xbd89851b	-0.06714841
27	0x3d00c694	0.03143938
28	0xbdaab7a9	-0.08335812
29	0x3d7adcab	0.0612456
30	0xbdc1ed69	-0.094691105
31	0x3d2d629d	0.042330373
32	0x3d934a8c	0.07191953
33	0x3d672e0c	0.056440398
34	0xbd3df477	-0.046375718
35	0x3dc5a0df	0.09649824
36	0x3bca4bf3	0.0061736046
37	0x3d8b94d4	0.06815496
38	0x3d015260	0.0315727
39	0xbc7c6af8	-0.015406363
40	0x3dae39a3	0.08507087
41	0x3d3c4191	0.045960966
42	0x3d2a2d4e	0.041547112
43	0xbda2d5c8	-0.07950932
44	0xbd5b3ca5	-0.053524632
45	0xbb961860	-0.0045805424
46	0x3dcb44c8	0.09925228
47	0xbdbcd9b2	-0.092212096
48	0xbd831406	-0.064003035
49	0xbcd7e30b	-0.02635338
50	0x3dce1293	0.100621365
51	0x3dc13e66	0.0943573
52	0x3d97796b	0.073962055
53	0xbd3b93d0	-0.04579526
54	0xbd1b0bbd	-0.03785299
55	0x3d7f4cd3	0.062329125
56	0xbc3138f0	-0.010816798
57	0xbdb1c479	-0.08680052
58	0x3d9302bb	0.07178255
59	0xbd378ea4	-0.044813767
60	0xbc7e30d7	-0.015514574
61	0xbc142e13	-0.009044188
62	0x3cdf98d4	0.027294554
63	0x3dc7e2cc	0.09760055
64	0xbd38fd77	-0.045163598
65	0xbcaf22d7	-0.021378918
66	0xbd79414d	-0.06085329
67	0xbc857f66	-0.0162961
68	0x3cbcb0de	0.023033556
69	0xbd0e5837	-0.034752097
70	0x3d0c7dd5	0.03429969
71	0x3d589dc9	0.05288485
72	0xbd19260e	-0.037389807
73	0x3dbc38a6	0.09190492
74	0xbd0f4606	-0.03497889
75	0x3db099bd	0.08623073
76	0xbc940600	-0.018069267
77	0xbdc98ac6	-0.09840922
78	0x3dac8d48	0.08425385
79	0x3be295cf	0.006914831
80	0x3d923616	0.07139222
81	0x3d52e5fc	0.05148886
82	0x3ce8354e	0.02834573
83	0x3d351979	0.044213746
84	0xbc08bbf0	-0.008345589
85	0x3d79aeef	0.060957845
86	0x3c76974d	0.015050721
87	0x3dac1b3f	0.08403634
88	0x3d774854	0.06037171
89	0x3d378eef	0.044814046
90	0xbcdb5512	-0.026773963
91	0x3d2bd519	0.041951273
92	0xbd2aa87d	-0.04166459
93	0x3cec1a84	0.028821237
94	0xbdb28e52	-0.08718552
95	0x3d8636e7	0.065534405
96	0xbda38d48	-0.07985932
97	0xbb25bece	-0.002529073
98	0x3cfadbb1	0.030622335
99	0x3dbcd433	0.09220161
100	0x3dcd4569	0.100230046
101	0xbd6b569d	-0.057455648
102	0xbc9ddc3c	-0.019270055
103	0xbd67fb0e	-0.05663591
104	0x3d978820	0.07399011
105	0x3dae6c51	0.085167535
106	0x3d8111df	0.06302237
107	0x3d5c53fd	0.053791035
108	0x3d944fbf	0.07241773
109	0x3bc7d8e5	0.006098854
110	0x3c71ee47	0.014766282
111	0xbccbaa44	-0.024861462
112	0x3d55ba86	0.052179836
113	0xbb8801f1	-0.004150622
114	0xbbe02f99	-0.0068416116
115	0xbdca778d	-0.09886084
116	0xbd2b4e77	-0.041822877
117	0xbcddbc4a	-0.027067322
118	0x3d87969e	0.06620525
119	0xbd4f3e64	-0.05059661
120	0xbcee922e	-0.029122438
121	0x3db1a6cd	0.08674393
122	0x3db3f5b1	0.08787096
123	0xbc84e41c	-0.016222052
124	0xbd257a8d	-0.040400077
125	0xbd5f5490	-0.054524004
126	0xbd96706c	-0.073456615
127	0xbda9fcc0	-0.08300161
128	0xbd31886e	-0.043343
129	0xbd9fb5cb	-0.07798346
130	0x3d00750f	0.031361636
131	0xbcbc015f	-0.022949873
132	0xbd27da3e	-0.040979616
133	0xbd44b70c	-0.04802613
134	0xbd542c0a	-0.05179981
135	0xbccef813	-0.025264775
136	0x3d62260a	0.055212058
137	0xbc1795d3	-0.0092520295
138	0x3d1151e1	0.035478476
139	0x3cbb9934	0.022900201
140	0xbc896eb6	-0.016776424
141	0x3dbc8a3e	0.09206055
142	0xbd9f8043	-0.07788136
143	0x3c85c925	0.016331265
144	0xbbaae76c	-0.005215576
145	0xbd234730	-0.03986281
146	0x3d06a0ec	0.03286831
147	0xbd197b58	-0.037471145
148	0x3d9eb164	0.07748678
149	0xbb415da0	-0.0029505268
150	0xbd9da1c3	-0.07696869
151	0xbd407bdc	-0.04699312
152	0xbca024c0	-0.019548774
153	0xbc05fe89	-0.008178362
154	0x3b090b32	0.0020911214
155	0xbc5af66f	-0.013364418
156	0xbd0cc9d5	-0.03437217
157	0x3d0aff58	0.03393492
158	0x3ca97f63	0.020690626
159	0x3bce3479	0.0062928763
160	0xbcc2ccd5	-0.023779312
161	0xbd40446c	-0.046940252
162	0x3d74e75c	0.059790954
163	0x3dc6e613	0.09711852
164	0xbbdbf895	-0.006712983
165	0x3d031191	0.031999175
166	0x3da36d70	0.07979858
167	0xbd90617e	-0.07049845
168	0xbd312267	-0.0432457
169	0x3bab9942	0.0052367756
170	0x3c3ff049	0.011715003
171	0xbd16ae5e	-0.036787383
172	0x3cde8441	0.027162673
173	0xbdbd7cc0	-0.0925231
174	0x3d5970ef	0.053086217
175	0x3ceaa5e8	0.028643563
176	0xb9a952d0	-0.00032295892
177	0x3d9ae5fc	0.07563397
178	0xbaf3a429	-0.0018588352
179	0xbd7f73a0	-0.062366128
180	0x3dbad600	0.091228485
181	0xbd7d3643	-0.061819326
182	0x3dceca0e	0.100971326
183	0xbc5b62fd	-0.0133903
184	0x3d3a12b1	0.04542798
185	0xbd847ffc	-0.064697236
186	0xbc85b6e6	-0.016322564
187	0x3c9efbbb	0.019407144
188	0x3dad29fa	0.08455272
189	0x3d289227	0.041155007
190	0xbda293bc	-0.07938334
191	0xbdb5b47f	-0.088723175
192	0x3d885203	0.066562675
193	0xbca72981	-0.020405533
194	0xbd0891ac	-0.03334205
195	0x3b8b8fda	0.004259092
196	0xbd98690d	-0.07441912
197	0x3d0832e5	0.03325166
198	0xbd97c6e3	-0.074109815
199	0x3bdf46d8	0.006813865
200	0xbd363a7f	-0.04448938
201	0xbd38fc37	-0.045162406
202	0xbd643934	-0.055718616
203	0xbdbdcb4f	-0.09267294
204	0xbdc8fd48	-0.098139346
205	0xbb1ccfb3	-0.002392751
206	0x3dc2b2a9	0.09506733
207	0x3dce6c05	0.10079197
208	0x3d5f1d84	0.054471508
209	0x3b90be40	0.004417211
210	0x3cf66d82	0.030081514
211	0x3d6e33f3	0.05815501
212	0x3cae75fb	0.021296492
213	0xbd1ba666	-0.038000487
214	0xbc6c41bb	-0.014419968
215	0xbd74ab99	-0.05973396
216	0x3c1b40d1	0.009475903
217	0xbce56e18	-0.028006598
218	0xbcb3f0e7	-0.021965457
219	0xbcbe3450	-0.023218304
220	0x3d8d1858	0.06889409
221	0xbdb97deb	-0.0905722
222	0x3ce4e03b	0.027938953
223	0xbdce606f	-0.10076987
224	0x3d5aa7e2	0.05338276
225	0xbd09304b	-0.03349332
226	0xbd855568	-0.065104306
227	0x3d5fbb7a	0.05462215
228	0xbc321386	-0.010868913
229	0xbd0b4ed3	-0.03401072
230	0xbd0dd504	-0.034626976
231	0x3b232711	0.0024895112
232	0x3daac6f4	0.083387285
233	0x3d22ea06	0.039773963
234	0xbdbee8c6	-0.09321742
235	0x3dc63ecd	0.09679947
236	0xbda410a6	-0.08010988
237	0x3d6464b2	0.055760093
238	0x3d1a4e0e	0.037672095
239	0xbc510af9	-0.012758964
240	0xbcbc2ab9	-0.02296959
241	0xbdb57581	-0.08860303
242	0xbc6ed908	-0.0145781115
243	0xbcdaba72	-0.026700232
244	0xbced171d	-0.028941685
245	0x3cb1aec5	0.021689782
246	0x3ce6a18a	0.0281532
247	0xbb0c1dfd	-0.002138018
248	0x3dc6ef3e	0.097136006
249	0xbda5c4c8	-0.08094174
250	0xbdc4d802	-0.09611513
251	0xbc692ae7	-0.01423142
252	0x3c14810d	0.009063971
253	0xbb95670c	-0.0045594033
254	0xbda97f51	-0.08276237
255	0x3dcf7e45	0.10131506

7.bias f4 [32]
0	0x3d8cc165	0.068728246
1	0x3d829c6c	0.06377491
2	0xbda9c999	-0.08290405
3	0xbc9c03d5	-0.019044796
4	0x3d5a9bfe	0.053371422
5	0xbc85805d	-0.01629656
6	0x3d8ce99e	0.068804964
7	0x3d1eae65	0.038740534
8	0x3db30e98	0.08743018
9	0x3d418ec7	0.047255304
10	0x3dc96cdf	0.09835219
11	0x3cb40c61	0.021978559
12	0x3d01fa6d	0.031732965
13	0xbd93852b	-0.07203134
14	0xbd8597ae	-0.06523071
15	0x3be1ae01	0.006887198
16	0xbda2c1db	-0.07947131
17	0x3d917cb8	0.07103866
18	0xbdcccd9f	-0.100001566
19	0x3dc7453f	0.097300045
20	0xbda286e0	-0.079358816
21	0x3d808d14	0.062769085
22	0x3d75a3ac	0.059970543
23	0x3dbef8f8	0.09324831
24	0xbdaec68c	-0.085339636
25	0x3d86cc2c	0.065819114
26	0x3dcb0c81	0.09914494
27	0xbc4d9383	-0.012547377
28	0x3e09f6e1	0.13473083
29	0xbd038881	-0.032112602
30	0xbd569ece	-0.05239754
31	0x3d505196	0.050859056

10.weight f4 [30, 960]
0	0x3c8e7ddd	0.017394
1	0xbc997536	-0.018732648
2	0xbc739ea1	-0.014869363
3	0x3cbeb294	0.023278512
4	0xbc0b5f1c	-0.008506563
5	0x3cd71ed4	0.026259817
6	0xbccd2e23	-0.025046414
7	0xbcf0993b	-0.029369941
8	0xbc9c6643	-0.019091731
9	0x3cbd31e1	0.023095073
10	0xbc21e41c	-0.009881046
11	0xbcd2c680	-0.025729418
12	0x3c82e646	0.015978944
13	0x3c3490c7	0.011020846
14	0x3cfa028a	0.030518789
15	0xbca82473	-0.020525193
16	0xbb37941f	-0.002801187
17	0xbb9b1208	-0.004732374
18	0xbcdae1d3	-0.02671901
19	0x3c946785	0.018115768
20	0x3ce1befc	0.027556889
21	0x3d0250f0	0.03181547
22	0x3c73b43c	0.014874514
23	0x3caab127	0.020836426
24	0x3bc65120	0.0060521513
25	0xbce2dce5	-0.027693221
26	0x3ce82d94	0.028342046
27	0xbcea828d	-0.028626705
28	0xbc40bb79	-0.011763447
29	0x3d007a3a	0.031366564
30	0xbc911d7c	-0.017714255
31	0x3abcbd3e	0.001439966
32	0xbc0eaa3a	-0.008707577
33	0xba1f9b28	-0.0006088489
34	0x3c47685b	0.012170876
35	0x3a2b7114	0.0006539982
36	0x3cf42a2a	0.029805262
37	0xbc864f46	-0.016395222
38	0xbc6cc78d	-0.0144518735
39	0xbb0b9e88	-0.0021304209
40	0x3d03716d	0.032090593
41	0xbc03c20d	-0.008041871
42	0xbb946138	-0.004528191
43	0xbaf897b7	-0.0018966113
44	0x3caed341	0.021340968
45	0x3cd8f588	0.026484266
46	0x3be88da6	0.007096964
47	0xbce1a6b5	-0.027545312
48	0x3b5c73a7	0.003363827
49	0xbcfba7d7	-0.03071968
50	0xbcf2f08f	-0.029655723
51	0xbba19449	-0.004931007
52	0x3aed60f4	0.0018110559
53	0xbc33fc35	-0.010985424
54	0xbcd3447f	-0.025789497
55	0xbcc7ba20	-0.024380744
56	0x3c5b2d44	0.013377491
57	0xbcbb8f1d	-0.02289539
58	0x3b9ad24a	0.0047247754
59	0x3d042fe2	0.032272227
60	0x3ce4a1dd	0.027909214
61	0x3c9a4105	0.018829832
62	0xbc8b0a4e	-0.016972687
63	0x3cf729e1	0.030171337
64	0xbbc4dce8	-0.0060077794
65	0x3caf0937	0.021366699
66	0xbc588659	-0.013215625
67	0xbb5e41de	-0.0033913772
68	0x3c9ed748	0.019389763
69	0x3ce025d9	0.027361797
70	0x3d02c50b	0.031926196
71	0xbb26d6ae	-0.002545755
72	0xbcc20daf	-0.023688165
73	0xbcf82d21	-0.030294957
74	0x3cffecf3	0.031240916
75	0x3cc42cad	0.023947084
76	0x3c3d0959	0.011537873
77	0xbbd8c233	-0.006614947
78	0xbc53595e	-0.012899725
79	0x3a27e0b0	0.00064040255
80	0xbc5e9e31	-0.01358752
81	0x3c02b794	0.007978339
82	0x3c75a357	0.014992557
83	0xbcbfdb35	-0.023419956
84	0x3cb290a7	0.021797491
85	0xbc7480cd	-0.014923287
86	0xbc37874e	-0.011201693
87	0x3ba15076	0.004922922
88	0xbc860f75	-0.016364792
89	0x3c23dfbb	0.010002072
90	0xbcd9b3aa	-0.026574928
91	0xbbe6e6fd	-0.007046579
92	0x3b539e72	0.0032290486
93	0xb88099a8	-6.132136e-05
94	0x3cacc06a	0.021087844
95	0x3cfbe522	0.030748907
96	0x3c815c8c	0.0157912
97	0x3c4f2fa1	0.012645633
98	0xbceb09bc	-0.028691165
99	0xbacec796	-0.0015776034
100	0x3c2b2fc7	0.010448403
101	0x3caba6ec	0.020953618
102	0x3cae5473	0.021280503
103	0xbcc0b128	-0.023521975
104	0x3c3d8502	0.011567356
105	0x3c794554	0.015214283
106	0x3c88e438	0.016710386
107	0xbc8d658e	-0.01726034
108	0xbcd9c823	-0.02658469
109	0x3cea274c	0.028583191
110	0xbcf0e0b8	-0.02940403
111	0x3a7db41f	0.0009678024
112	0x3ba7671c	0.005108727
113	0x3c7894fc	0.015172239
114	0xbc73464b	-0.014848302
115	0x3caaf5fe	0.020869251
116	0x3cb2530b	0.021768114
117	0xbbaf2b88	-0.0053457655
118	0xbcf0211b	-0.02931266
119	0xbc9402f9	-0.018067824
120	0x3cc3ecde	0.023916658
121	0x3cb6ac18	0.022298858
122	0xbb4e5c7a	-0.0031488226
123	0xbad962d3	-0.0016585238
124	0x3ceb11f7	0.02869509
125	0x3ae7c002	0.0017681124
126	0xbc2df620	-0.010617763
127	0xbc9f0786	-0.019412767
128	0x3c83a138	0.016068086
129	0xbba168eb	-0.0049258373
130	0xbc337bfb	-0.010954852
131	0xbcfd4937	-0.0309187
132	0xbc56d1ff	-0.01311159
133	0xbcb40058	-0.02197282
134	0xbcf235e3	-0.02956671
135	0xbce3d16f	-0.027809827
136	0xbcbabf7a	-0.022796381
137	0xbc392a57	-0.0113015985
138	0xbd0bf1ac	-0.034166023
139	0x3c4c4715	0.012468119
140	0x3bd97430	0.006636165
141	0xbcf165b9	-0.02946745
142	0x3c8d0b9c	0.01721745
143	0x3cf5ae71	0.029990407
144	0xbc95f060	-0.018303096
145	0xbd09844a	-0.033573426
146	0xbd0b1da5	-0.033963818
147	0xbd03580e	-0.032066397
148	0x3c022309	0.007942923
149	0xbcd8158f	-0.026377467
150	0x3c9ada8f	0.018903045
151	0x3cc27110	0.023735553
152	0xbce7d0f8	-0.028297886
153	0x3cb7062d	0.022341812
154	0x3c411bf0	0.011786446
155	0x3c5cfa26	0.013487374
156	0xbc93bc2b	-0.018034061
157	0x3b1d3693	0.0023988828
158	0xbc43e652	-0.011956768
159	0x3cc61913	0.024181878
160	0xbc9ec791	-0.01938227
161	0x3c8666e8	0.016406491
162	0x3c0a16dd	0.008428303
163	0x3c54eda8	0.012996115
164	0xbb1c05ea	-0.0023807236
165	0xbbd46de9	-0.006482829
166	0xbca52369	-0.020158486
167	0xbc4bcf35	-0.012439539
168	0x3c7a85bc	0.015290674
169	0x3cc59adc	0.024121694
170	0xbce99fee	-0.028518643
171	0xbc4536f6	-0.0120370295
172	0xbcd5d6da	-0.026103426
173	0x3cc3bc80	0.023893595
174	0xbc3354c3	-0.010945502
175	0xbce84045	-0.028350959
176	0xbca732f0	-0.020410031
177	0xba92b50c	-0.0011192872
178	0x3ce0b1c1	0.02742851
179	0xbcebdaae	-0.028790798
180	0xbc8c9f8d	-0.017165923
181	0x3c4f70a4	0.012661133
182	0x3cfbf9d1	0.03075877
183	0x3a29526e	0.00064591214
184	0x3b6e9cfb	0.0036409486
185	0x3ce55878	0.027996287
186	0xbc522622	-0.012826474
187	0x3c81f9bc	0.015866153
188	0x3b865404	0.004099371
189	0x3cbfceca	0.023414034
190	0x3c467549	0.012112924
191	0xbce018ca	-0.02735557
192	0xbcd19484	-0.025583513
193	0x3cd73667	0.026271058
194	0xbc11e8b9	-0.008905583
195	0xbcd706cc	-0.026248358
196	0xbd006915	-0.031350214
197	0xbbed1bed	-0.007235995
198	0x3b8b9c26	0.0042605577
199	0xbcfdf20e	-0.03099921
200	0xbca7b925	-0.020474026
201	0x3cd8f0fb	0.026482096
202	0x3c16f8dc	0.009214606
203	0xbc89ed4f	-0.01683679
204	0xbcdfe4af	-0.027330725
205	0xbcc8a048	-0.02449049
206	0xba98f2a7	-0.0011668996
207	0x3c0ba6e5	0.0085236775
208	0x3c343af0	0.01100038
209	0x3c904270	0.017609805
210	0xbcf026c9	-0.02931537
211	0x3ca7a2c3	0.020463353
212	0xbcffcba6	-0.031225037
213	0xbc61ae42	-0.013774456
214	0xbcddd87a	-0.027080763
215	0x3c957d14	0.018248118
216	0xbce07156	-0.027397793
217	0xbcbdf239	-0.02318679
218	0x3cdf38c2	0.027248744
219	0xbcdeb5c5	-0.027186284
220	0xbbeb05b9	-0.007172313
221	0x3c7712bc	0.01508015
222	0xbcfb4063	-0.03067035
223	0xbc9d4c79	-0.019201504
224	0xbb83f78b	-0.004027312
225	0x3cbd9a3d	0.023144836
226	0x3cb5aab3	0.022176122
227	0x3b4cb9bc	0.0031238636
228	0x3c52eaea	0.012873391
229	0x3cd2b470	0.025720805
230	0x3c88747c	0.016657107
231	0x3bfb0a5f	0.0076611484
232	0xbcf4e368	-0.029893592
233	0xbcab321b	-0.020897916
234	0x3c6fd290	0.014637604
235	0xbca6539e	-0.020303544
236	0xbc33e6df	-0.010980337
237	0xbc9194e1	-0.017771186
238	0x3c0b9dcf	0.008521511
239	0xbceb8400	-0.028749466
240	0x3c99d733	0.018779373
241	0xbbeeceae	-0.0072878217
242	0x3c87a230	0.01655683
243	0x3ce42b1f	0.027852593
244	0x3c0622c4	0.008187
245	0xbc0e8b64	-0.0087002255
246	0x3bac7f53	0.0052642017
247	0xbcbe496a	-0.023228366
248	0xbb52a4e6	-0.0032141744
249	0xbcb45563	-0.022013372
250	0xbcd11029	-0.025520401
251	0x3cd81a88	0.026379839
252	0x3c55d929	0.013052263
253	0x3c2a8c97	0.010409496
254	0xbc83e3d1	-0.016099842
255	0xbcf7d5e6	-0.030253362

10.bias f4 [30]
0	0xbb964f40	-0.004587084
1	0xbd733294	-0.059374407
2	0xbcf302ca	-0.029664416
3	0x3bbe8e92	0.0058153355
4	0xbc4ebb85	-0.01261795
5	0xbc82c8fd	-0.01596498
6	0xbd391798	-0.045188516
7	0xbca350e8	-0.01993604
8	0xbcb11c8d	-0.02162006
9	0xbd1b0a34	-0.037851527
10	0xbd1b840d	-0.03796773
11	0x3c21a8d3	0.009866911
12	0xbce87ac3	-0.02837885
13	0x3c553478	0.013012998
14	0xbd2a60c7	-0.0415962
15	0xbcfaa979	-0.030598389
16	0xbd16efc5	-0.036849756
17	0xbc1d3a65	-0.009596442
18	0xbd188a76	-0.03724142
19	0xbbde7dc4	-0.006789895
20	0xbcb9a100	-0.022659779
21	0xbcf4a4da	-0.029863764
22	0xbd4cb215	-0.04997452
23	0xbd16d06a	-0.036819853
24	0x3acbd5d4	0.0015551397
25	0xbcae865e	-0.021304306
26	0xbccbc4fe	-0.024874207
27	0xbd188b44	-0.03724219
28	0x3c0407d8	0.008058511
29	0xbd28d961	-0.041222934
