model.pt (torch, 348727 bytes, 50 tensors)

1.conv1.weight f4 [32, 1, 15]
000000 10 1e 45 be 0e 0a 5f 3e 30 e5 f0 3d b4 6d b4 bd
       -0.19249749 0.2178118 0.11762464 -0.08809987
000010 1a 59 a0 be 1b 32 65 be b7 c6 7d be 4d b6 96 be
       -0.3131798 -0.22382395 -0.24782835 -0.2943596
000020 0e 34 90 be b8 8e 80 b8 15 3d bc 3d 6b ec e0 3d
       -0.28164715 -6.130099e-05 0.09191338 0.10982593
000030 5a 60 79 3e 85 a7 c0 bc 8f cf 61 3d 06 9c 44 be
       0.24353161 -0.02351738 0.055129584 -0.19200143
000040 38 f6 52 bd d1 b7 7c 3e a1 99 2a 3e c0 d7 48 3d
       -0.051504344 0.24679495 0.16660167 0.04903388
000050 56 e8 12 be c4 07 7b 3e c9 c4 2f be 2b e9 82 be
       -0.14346442 0.24514681 -0.17164911 -0.25568518
000060 7c b8 b4 bd 5d 1e ec bd 24 c9 bb be 53 72 39 3c
       -0.0882425 -0.11529229 -0.36676896 0.011318761
000070 48 95 a3 3d 3e 66 97 3d e7 81 c7 be c9 7b bf be
       0.079874575 0.07392548 -0.38966295 -0.37399128
000080 02 bd b5 bd e1 99 21 3d dc 93 3a 3e 98 96 14 3e
       -0.08873941 0.03945339 0.18220466 0.14510572
000090 e9 cd 94 bc 54 c6 e0 bd 19 12 99 3e 08 92 aa bd
       -0.018164592 -0.10975328 0.2989662 -0.083286345
0000a0 e0 9c 5f 3e f1 d4 2a 3e 91 13 a1 3d 93 c3 a2 3c
       0.21837187 0.16682793 0.0786506 0.019868648
0000b0 35 c5 d6 bd 77 74 77 bd cd 6a d5 bd f6 0e 9e be
       -0.10486833 -0.060413804 -0.10420761 -0.3087079
0000c0 7f 6c f8 3c 84 84 ce bd e6 1d 13 be 7f 15 7a be
       0.030325172 -0.10083869 -0.14366874 -0.24422263
0000d0 f1 6c 6a 3c c6 71 29 3d d4 df 82 3d 87 ca 61 3c
       0.0143082 0.04136827 0.06390348 0.013781196
0000e0 d0 71 9d 3e 51 96 82 3e bb c8 5e 3e 5e 0f 02 bd
       0.30750895 0.25505307 0.2175626 -0.031752937
0000f0 36 59 84 3e aa c8 4f bd e2 bf 20 bc db 50 9c bd
       0.25849313 -0.050728478 -0.009811373 -0.076326095
000100 06 26 66 bd ae 0a a4 be 7f 86 81 be 57 8d 5c be
       -0.056188606 -0.32039398 -0.25297925 -0.21538292
000110 74 18 1f bb 5f 12 14 3e bd f6 22 3c 85 ed 37 3e
       -0.002427605 0.14460133 0.009946522 0.179617
000120 fa 0f 7a 3e 96 fb 12 bb ad 84 0a 3d 6f ee d0 3c
       0.24420157 -0.002242779 0.033817936 0.025504319
000130 a5 0c 0b 3d 59 9e 52 be 69 e0 d3 3c 31 52 48 3d
       0.033947606 -0.20568217 0.025863843 0.04890651
000140 43 37 74 3d ae e7 24 3d 07 e0 bb bd 57 7b 92 bb
       0.059623014 0.04026001 -0.09173589 -0.0044702697
000150 8f 9e c1 bd 07 76 b4 bd 5f ec 75 be 5a e4 bb bd
       -0.09454071 -0.088115744 -0.2401595 -0.09174414
000160 f0 e0 38 bc 66 04 59 be d0 e8 b3 bd c1 b7 79 bd
       -0.011284098 -0.21193084 -0.0878464 -0.060966257
000170 09 4b 08 3e 4a 90 42 3e 70 b1 85 3e b8 7b 16 3e
       0.13309874 0.19000354 0.26111937 0.14695632
000180 a0 76 a3 3d 48 44 7b bd d5 df 30 3e e0 48 81 3e
       0.0798161 -0.061344415 0.17272885 0.25250912
000190 73 57 03 3e cd 30 06 be e0 94 88 be 5f 5f 3f be
       0.12826328 -0.13104554 -0.26676083 -0.18688725
0001a0 59 87 00 bf 7e 7a a1 3d 4b f7 a1 3d 5c 15 ed 3d
       -0.50206524 0.07884692 0.079084955 0.115763396
0001b0 e0 9a 83 3e fc 8a a2 bd 6d 02 2c 3e e3 31 ce 3d
       0.25704098 -0.079366654 0.167978 0.10068109
0001c0 95 2b ca bd 20 c7 93 3d 57 53 ad 3d 18 73 93 be
       -0.09871594 0.072157145 0.084631614 -0.28798747
0001d0 e3 d3 50 3e 79 15 93 be 9b 8d e6 3a 6d fc d1 3c
       0.20393328 -0.2872732 0.0017589809 0.025633061
0001e0 7d 15 0f 3e ac 2c 46 3d 26 01 0f bc f0 26 4b be
       0.13973041 0.048382446 -0.008728301 -0.19839072
0001f0 c5 27 8b bd 7f 83 8f be 10 cc 27 bd d0 01 e1 be
       -0.06794695 -0.2803001 -0.040966094 -0.43946695
000200 d2 79 82 3e 48 ec 53 3d d7 d9 72 bd 05 b0 ed bc
       0.25483567 0.051739007 -0.05928978 -0.029014597
000210 62 ed 62 bb 9a ab df bc bb a8 37 bd 38 d9 a4 bd
       -0.0034626354 -0.027303506 -0.04483865 -0.08049244
000220 9d 31 87 bd b6 a0 5d be 42 60 0e 3e 1c c0 ba 3c
       -0.0660126 -0.21643338 0.13903907 0.022796683
000230 7a c7 88 bd 88 a1 11 3e e4 aa 48 be f9 1d dd bd
       -0.06678672 0.14221776 -0.1959644 -0.107967325
000240 dd fb 91 3e 64 e4 32 3e 39 d8 c6 be a7 34 53 bd
       0.2851247 0.17469937 -0.3883684 -0.051563885
000250 16 ed 66 3e 86 06 e9 bc ac 57 5f 3e 90 bf a0 3d
       0.22551379 -0.028445493 0.21810788 0.07849038
000260 4f d9 7c 3e 11 ed 60 3d 2b d2 46 3d c4 0a 20 3e
       0.24692272 0.054913584 0.048540276 0.15629107
000270 b7 44 12 be 3f 00 4c be a0 a8 ef 3d 99 1f b2 be
       -0.14284025 -0.19921969 0.117020845 -0.34789732
000280 3b 59 9a bd e2 38 c7 bd 00 f8 d0 3d d4 5c b0 3b
       -0.075365506 -0.097276464 0.10203552 0.0053821597
000290 73 5c 9b 3e a6 30 2c 3d ce 2b 4c 3e f1 39 46 be
       0.3034397 0.042038582 0.19938585 -0.1935804
0002a0 62 eb 6c 3e eb 76 4f 3e 3c 3b bf bc e5 28 92 be
       0.23136666 0.20260207 -0.023343675 -0.28546825
0002b0 20 7e 13 be a8 fe fe 3d 77 fc 27 bd 0f 7f 1f bd
       -0.14403582 0.124509156 -0.041012254 -0.038939532
0002c0 2e dd 47 3a 67 ed 82 3e a7 8b 12 bc c9 07 69 be
       0.0007624206 0.2557175 -0.0089444285 -0.22756876
0002d0 ff 1e 7b 3d dd a8 b7 3d d4 44 bd 3d 30 70 4e bd
       0.061308857 0.08967755 0.092416435 -0.05039996
0002e0 06 6c 28 be 0f af 91 be 50 d5 50 be 59 07 82 bd
       -0.16447458 -0.28453872 -0.20393872 -0.06349058
0002f0 94 5d 64 be 56 5a 11 3e e0 d4 9b 3e c2 f7 89 3d
       -0.22301322 0.14194617 0.30435848 0.06736709
000300 15 19 7d 3d 3a 5d 3c be 22 69 50 3e 3a 2a 4a 3e
       0.0617915 -0.18394938 0.20352605 0.1974267
000310 e7 22 0e 3d b3 14 c2 bd 4f ab 06 3e 84 11 78 3e
       0.034701254 -0.09476604 0.13151287 0.24225432
000320 d6 a9 53 3e ce 58 87 3e ac 75 8d bc d4 e0 09 bd
       0.20670256 0.2643494 -0.017268024 -0.03366168
000330 3a d4 db bd 52 a4 5a be 5b 46 77 3d 41 bd eb bd
       -0.107338384 -0.21351746 0.06036983 -0.11510707
000340 8d b4 99 bd ae 07 c6 be 18 88 be bd 56 f8 48 3d
       -0.075051405 -0.38677734 -0.093033016 0.049064957
000350 0c a9 25 3e fa ef 7a 3e 5b 76 6a 3b 56 5b e9 3c
       0.16177768 0.24505606 0.0035776112 0.028485935
000360 7b f7 bd 3d f7 cb 11 3e 96 c8 03 3e 10 7d 57 be
       0.09275719 0.14237963 0.12869486 -0.21043801
000370 d1 cc 05 be 63 43 99 be 6c 6d be be 23 f4 28 be
       -0.13066413 -0.29934224 -0.37192857 -0.16499381
000380 0c 23 32 3e ef 1f 27 be 7c 4d 19 bd 6a 34 02 be
       0.17396182 -0.16320775 -0.03742741 -0.12715307
000390 42 03 47 be 0b 40 76 be c0 b2 27 3d d3 b4 55 be
       -0.19434837 -0.24047868 0.040941954 -0.2086976
0003a0 2d 21 6c be e0 27 3d 3e 4c 28 2e be 0e 22 5a be
       -0.2305953 0.18472242 -0.1700756 -0.21302053
0003b0 79 30 6b be 1a 32 af bb d5 9e eb 3d 1c 94 c2 3d
       -0.2296771 -0.0053465487 0.11504904 0.09500906
0003c0 bd a6 a8 bd be 99 93 be 46 98 d5 bd 85 16 a4 bd
       -0.08234928 -0.28828233 -0.104294345 -0.08012108
0003d0 ec 81 a1 bd d7 64 94 be 52 c9 34 be 0e 7d 8e 3c
       -0.07886109 -0.28983185 -0.17654923 0.017393615
0003e0 15 3f 31 3e 9e 95 9f 3e 34 d0 88 3e 95 fc 8a 3e
       0.1730922 0.31168836 0.26721346 0.2714583
0003f0 0e b9 07 bd c9 a2 05 3d 08 27 60 bd 00 75 a2 bd
       -0.033135466 0.032625947 -0.054724723 -0.07932472

1.conv1.bias f4 [32]
000000 83 9d 68 3e 37 e5 46 3c 22 24 01 3e 18 10 49 be
       0.22716336 0.01213961 0.1261144 -0.19635046
000010 18 6e a6 bd f6 26 3c be bb 33 57 3e 91 23 b9 bc
       -0.081264675 -0.18374237 0.21015827 -0.022599967
000020 bd 59 c4 3d 9d 33 06 3e ef c6 65 bd 9a a2 6b be
       0.09587429 0.13105626 -0.05609792 -0.23011246
000030 3a b7 86 bd 6a 46 38 be 14 c1 bb 3d 37 42 50 3e
       -0.065779164 -0.17995611 0.09167686 0.20337759
000040 95 e7 06 bd 06 24 11 bd 50 27 24 3e fb 40 0b 3e
       -0.032935698 -0.035434745 0.16030622 0.13599007
000050 db ea 7d be 3e a8 40 bd 7a 6e 82 3e 6c 3e a4 bd
       -0.24796622 -0.04703545 0.25474912 -0.080197185
000060 bc a0 17 3d 81 26 06 3e 1b dc 69 be 37 35 39 be
       0.037018523 0.13100626 -0.2283787 -0.18086706
000070 d6 47 c2 3d 53 6f df bd c7 92 01 be fa cd ff 3d
       0.09486358 -0.10909905 -0.12653647 0.12490459

1.bn1.weight f4 [32]
000000 61 e3 88 3f 4a 8c 89 3f 34 80 68 3f f4 19 6c 3f
       1.069439 1.0745938 0.9082062 0.922271
000010 a3 8a 6a 3f 52 96 78 3f 0c 05 9b 3f 32 ce 6a 3f
       0.9161779 0.9710437 1.2110915 0.9172088
000020 e1 fe 80 3f dc 78 70 3f b3 c6 6f 3f 34 9b 74 3f
       1.0077783 0.93934417 0.93662566 0.9554932
000030 f3 db 7d 3f 36 76 8c 3f e7 52 90 3f 9d 14 7b 3f
       0.9916374 1.0973575 1.12753 0.9807833
000040 a5 1f 80 3f 0e 6c 62 3f 74 03 5d 3f 6d c1 82 3f
       1.0009657 0.8844613 0.86333394 1.0215279
000050 aa 6f 81 3f 7d 56 6a 3f b0 60 82 3f d6 d0 85 3f
       1.0112202 0.9153822 1.0185757 1.0454357
000060 b6 f6 8a 3f 99 16 8d 3f c8 16 86 3f 1a e2 44 3f
       1.085654 1.1022521 1.0475702 0.76907504
000070 72 cb 85 3f 20 0d 80 3f 8a 92 83 3f 92 f3 86 3f
       1.0452712 1.0004005 1.0279095 1.0543082

1.bn1.bias f4 [32]
000000 6e f3 16 3c 7f f3 b6 bd 6c 61 a3 3d 4f 0b 03 3e
       0.009213312 -0.08933162 0.07977566 0.12797283
000010 f8 2a 4c bc e0 55 a0 bd 23 eb a0 bd 16 d8 e5 bc
       -0.012461416 -0.07828879 -0.07857349 -0.02805714
000020 60 61 e3 bd 3d 7c 4d 3b 65 ae 61 3d 85 e8 49 bd
       -0.11102557 0.003135457 0.055097956 -0.049294014
000030 57 f8 07 bd ea 7f aa ba 3e b1 c6 bd 9b dd 11 bd
       -0.03319582 -0.0013008092 -0.09701775 -0.03561173
000040 f1 4f 5a 3d 20 cd 17 bd 50 53 08 3e 8c 9e e8 3d
       0.053298894 -0.037060857 0.13313031 0.113583654
000050 87 d7 89 bb b1 61 08 bd 13 0b e2 3c b9 e7 81 bd
       -0.004206601 -0.03329629 0.027593171 -0.06343026
000060 bd 03 23 bc c4 41 ea bb e0 d1 72 bd a7 0d 40 3d
       -0.009949622 -0.007148953 -0.059282184 0.04688802
000070 05 d0 4a bd b7 56 cb bc f2 26 14 bd e8 ca f5 bd
       -0.04951479 -0.024821622 -0.036169954 -0.12001592

1.bn1.running_mean f4 [32]
000000 df e6 02 3f 86 07 32 3e 2e 7f c9 3d ae 13 30 be
       0.5113353 0.17385682 0.09838711 -0.17195007
000010 b7 13 56 bc c0 bf 37 3d bb 51 12 3e 9e 48 19 be
       -0.013066224 0.0448606 0.1428899 -0.14969108
000020 82 a8 a5 3e 23 6c 43 3e 42 a0 1f be 22 d1 7d be
       0.32355124 0.1908422 -0.15588477 -0.24786809
000030 2c 17 c6 3b da eb 69 be 12 74 1a 3e ad c6 1f 3f
       0.006045243 -0.22843876 0.1508334 0.6241253
000040 39 fb 4c bc 0c 11 c0 3d d6 7a fc bb d1 91 f2 3e
       -0.012511068 0.093782514 -0.007705073 0.47376874
000050 9d e6 86 be 76 c3 0e 3c e2 61 01 3f 19 69 56 bc
       -0.2634782 0.008713594 0.5053998 -0.013086581
000060 b5 f6 3f 3e 1e 73 98 3d 83 9c 86 bd a5 0f 9c be
       0.18746455 0.07443832 -0.06572821 -0.30480686
000070 88 aa ca 3d ae 85 12 bc 04 da 60 3e d4 24 ff 3e
       0.098958075 -0.0089430045 0.21958166 0.49832785

1.bn1.running_var f4 [32]
000000 84 f4 99 3c fe 52 18 3c 80 62 7f 3c 64 ca c8 3c
       0.018793352 0.009297131 0.015587449 0.02451057
000010 72 f7 1e 3c 05 c6 60 3c 69 e0 e8 3c 69 1b 0b 3c
       0.00970255 0.013719087 0.02842732 0.008490422
000020 8e 1c 05 3c 21 ce 29 3b 03 19 13 3c 62 50 45 3b
       0.008124484 0.0025910216 0.008978131 0.0030107726
000030 ef 18 e2 3b 11 97 c5 3c a8 60 a4 3c f7 08 d5 3c
       0.006899945 0.024119886 0.02006562 0.026005251
000040 77 6b c4 3c 64 4d a4 3b 12 12 27 3c a3 fc c0 3c
       0.023977024 0.0050141085 0.010197179 0.023557967
000050 6f f4 9c 3b f8 65 b6 3b 97 ab 39 3c 34 9c 65 3c
       0.004789881 0.005566355 0.011332414 0.0140142925
000060 fc 91 5f 3c 5b 81 2c 3c 25 91 f4 3b db 4f 9c 3c
       0.013645645 0.010528888 0.0074635916 0.019081047
000070 c1 6c d2 3a 1e d0 af 3b cc 09 c0 3c 09 d5 ac 3c
       0.001605414 0.0053653857 0.023442172 0.021097677

1.conv2.weight f4 [32, 32, 13]
000000 65 cc 15 3d e5 e1 2d bb 93 48 d3 3c ba d7 ce 3a
       0.03657188 -0.0026532349 0.025791442 0.0015780844
000010 11 2b 59 3d dd 26 06 3d 51 35 c0 ba aa 04 76 bc
       0.053019587 0.032751907 -0.0014664327 -0.01501576
000020 92 64 b0 3b 4e f6 dd bc 54 80 1e bd c8 d3 97 bd
       0.0053830827 -0.027094986 -0.038696602 -0.07413441
000030 cb 45 ba bb 6b 13 97 bc 4f 8b db bc f0 62 02 bd
       -0.0056845895 -0.018441876 -0.026799826 -0.031832635
000040 42 36 93 3c e5 83 fe 3c ed 91 68 bd ab 74 1f bd
       0.017970208 0.031068752 -0.05677979 -0.038929623
000050 1a fe 88 bc 8d 8e 84 bd 01 81 06 bd 35 9f 3b bc
       -0.016722728 -0.06472502 -0.03283787 -0.011451532
000060 53 83 eb 3c 03 10 a2 3c 71 bb b5 bd 80 0b ab bb
       0.028749144 0.019783026 -0.08873642 -0.0052198768
000070 5c d5 d6 39 b5 27 1a bd ec 06 29 bc d1 22 9e 3c
       0.00040976226 -0.037635524 -0.010316592 0.019303711
000080 a2 3c 12 3c 05 c4 22 3d 27 8f 37 3d 19 a3 32 3d
       0.008925589 0.03973772 0.044814255 0.043612573
000090 3c 85 14 3d 4f 43 65 3d 4d d9 3b 3c 3f c6 6b bc
       0.036259875 0.055972394 0.011465383 -0.014390527
0000a0 c1 d7 a4 3c cc eb 6a 3d c8 57 d4 3b 88 8f 17 3c
       0.02012241 0.05735378 0.006480191 0.009250529
0000b0 75 1a 9e 3c 55 ef 19 3d 94 26 5e bb ef 51 6f 3d
       0.019299725 0.03758176 -0.0033897506 0.058427747
0000c0 26 79 13 3d cf 4a 16 3d 0f f0 16 bd 8a f0 1a 3d
       0.036004208 0.036692437 -0.03685003 0.037827052
0000d0 ea 42 e9 bc aa a4 f9 3c aa 0f 65 3c 0b 02 70 3c
       -0.02847429 0.030474026 0.013980785 0.014648925
0000e0 17 41 34 bc b6 f8 aa bc ac 7a 5c bc c3 7a 6a bd
       -0.011001847 -0.020870548 -0.013456982 -0.05724598
0000f0 57 9c 37 bc 27 d3 88 bc 69 4e 1d 3d fd 3c a9 3c
       -0.011206708 -0.016702248 0.038404856 0.020658964
000100 f3 da d8 bc 2a 43 8f 3d e5 9d 9c 3d 41 a8 6f 3d
       -0.02647159 0.069952324 0.076473035 0.05851007
000110 0b 81 3f 3d e5 33 9b bc db 0c 01 bc 38 0d 70 bd
       0.046753924 -0.018945644 -0.0078766 -0.058606356
000120 3f 45 7a 3c 7a ea f9 3c 03 5f 49 bd 68 fb 00 3c
       0.015275299 0.030507315 -0.049162876 0.00787244
000130 14 bc 32 bd 03 09 25 bd f5 76 a9 bd 23 8d b7 bd
       -0.043636397 -0.040291797 -0.082746424 -0.089624666
000140 e4 33 81 bd 2b fb 30 bd 5d 01 16 bd 40 41 3c bd
       -0.063087255 -0.043208282 -0.036622394 -0.045960665
000150 64 26 fe 3b e0 36 54 3b 58 a6 62 bc 22 2e 30 bd
       0.0077560414 0.003238134 -0.013833605 -0.043012746
000160 e5 d3 8f bd 6f ac 86 3a ac 99 84 bc 6e f9 a1 bc
       -0.070228375 0.0010274778 -0.016186558 -0.019772258
000170 fe 8d 98 bd 9b 10 15 bd f7 d7 ff 3b 77 24 a7 3b
       -0.07448958 -0.03639279 0.0078077274 0.0051007825
000180 88 d0 29 3c 3f ae bb 3c ac 5c 2d 3d 43 99 62 3d
       0.010364659 0.022910235 0.042324707 0.055321943
000190 37 a4 00 bd 06 2e 5e 3d a0 9c 26 3d ea d5 0f 3c
       -0.031406607 0.05424311 0.040676713 0.008779028
0001a0 bb d8 e2 3b 82 77 3e 3d 4a 60 65 3d 9f 26 4b 3d
       0.006922809 0.04650069 0.05600003 0.04959738
0001b0 6c 14 e2 3a be 88 e5 bc 3f c9 46 bd 1a e8 f2 bc
       0.0017248518 -0.028019305 -0.048531767 -0.02965169
0001c0 13 7f 57 bd 44 63 0a bd 4d 77 4e bd 46 bc a4 3c
       -0.05261142 -0.033786073 -0.050406743 0.020109307
0001d0 e4 32 84 bc 8a c5 fd 3c be 5e 82 3b 22 a0 59 bd
       -0.016137548 0.030977983 0.0039785793 -0.05313123
0001e0 de 01 e1 3c 4c 21 c7 bc f2 78 8b 3d 9d 30 a0 3c
       0.02746671 -0.02430787 0.06810178 0.01955443
0001f0 da 9d f5 3c 12 96 5b bd f6 ad 8e bc 9f ef 2a bd
       0.029982496 -0.053609915 -0.017416935 -0.041732427
000200 fc d4 e2 bc bd 3a 5a bc 82 55 b7 bc 21 ac 76 bd
       -0.02768945 -0.013319668 -0.02237964 -0.06022275
000210 6d 5f 39 bd 96 b0 c5 bb 37 68 90 bd aa 15 6d bd
       -0.04525702 -0.0060330136 -0.070511274 -0.05788199
000220 3e 8f 22 bd 6c db 46 3d 2d a5 a8 3c ea 1c 85 bc
       -0.039687388 0.0485491 0.020586574 -0.016249139
000230 45 96 a6 3c f6 5a b1 3d d7 e2 8e 3d 54 d4 7b bd
       0.020335326 0.086599275 0.0697686 -0.06148179
000240 8f c0 b4 bc 90 8c 1b 3b 57 b8 bd bd 62 d9 b2 bd
       -0.022064475 0.0023734905 -0.09263676 -0.08732869
000250 ab 1c 4b bd 9b b1 9b bd 79 93 93 bc 2d 61 03 bd
       -0.049587887 -0.07602235 -0.018014656 -0.032075096
000260 dd e4 62 bc ee ac cf 3c ff ed 53 3d 45 3a 03 bd
       -0.013848511 0.025351014 0.051740643 -0.032037992
000270 bf be 0d 3c 87 ad 23 bd bc 33 29 bb 11 1d ba bc
       0.008651434 -0.03996041 -0.002581819 -0.022718938
000280 cd 59 4d bc 1e 94 b1 3c fe 95 18 bd aa 54 1d 3c
       -0.012533617 0.021677073 -0.03725242 0.009602705
000290 86 68 c7 3c 65 58 19 3d 52 43 5b 3a 95 89 c6 bb
       0.024341833 0.037437815 0.00083642185 -0.0060588815
0002a0 11 72 a6 bc eb 49 a7 bd 82 94 bf bd e0 3d cb bd
       -0.020318063 -0.081683956 -0.093544975 -0.09923911
0002b0 03 a7 d1 bd f1 5b 91 bd f9 35 51 bd c4 2d fc bc
       -0.10236933 -0.070976146 -0.051076863 -0.030783542
0002c0 40 90 84 3c e2 0b b4 3c c7 9e 9a bd 04 fc 38 bc
       0.016182065 0.021978322 -0.075498156 -0.011290554
0002d0 7d 9f 4e 3c c1 07 56 3c f2 65 78 bd 0f 49 79 bd
       0.012611267 0.013063372 -0.060644098 -0.06086069
0002e0 2c e4 cf bd 3d 7e 59 bd 07 ee 3c bc 80 0d 92 bd
       -0.10150942 -0.053098906 -0.0115313595 -0.07131481
0002f0 91 55 26 3c 96 e9 51 3c f6 5a f3 bc c6 1e 3e bd
       0.010152237 0.012812039 -0.02970646 -0.046416067
000300 ea 58 68 3c 35 1f 8a bd 86 08 74 bd 58 5a 43 3d
       0.014181355 -0.067442335 -0.05957844 0.04769358
000310 8f 7a cc 3c 1c 43 f7 3c 22 76 47 3d a7 70 0f 3c
       0.024960784 0.030183367 0.048696645 0.008754886
000320 f2 97 0e 3d e9 47 1c 3d e1 b6 65 3d 90 c4 6a bb
       0.034812875 0.038154516 0.05608261 -0.0035822727
000330 a3 bb a8 3c ef 7c 5f bd ac f3 89 bc c4 4c 13 ba
       0.020597285 -0.054562505 -0.016839825 -0.0005619044
000340 3c 8a d5 3b 5f 19 42 3c dd 79 00 bd 7e a5 0e 3d
       0.006516723 0.011846869 -0.031366218 0.034825794
000350 19 40 80 3d 47 60 41 bc 3d 55 47 3d 4f 8c 21 3b
       0.06262226 -0.011802739 0.048665274 0.002465028
000360 51 11 7e bc 17 05 f7 bc 5d b5 31 3d e4 c8 cc 3c
       -0.015507058 -0.030153794 0.043385852 0.024998136
000370 81 73 ef bc 85 a6 5e 3d 08 8c 00 3b ad 03 68 bc
       -0.029229881 0.054358024 0.0019614715 -0.014161033
000380 bd ee 7b 3b 53 5c 2a bd ff fa 85 3c ab fb 13 bc
       0.003844186 -0.041591953 0.016355036 -0.00903217
000390 8f fd f1 bc 17 9c 7c bc 81 4b cc bc 2c d7 c9 bb
       -0.029539851 -0.015418074 -0.024938347 -0.0061596837
0003a0 73 c7 f2 bc 16 a4 2d 3c 0d 6d 16 bd 2d cc 37 bc
       -0.02963612 0.010598203 -0.036725093 -0.011218113
0003b0 dc 1c 9b bb 70 c1 f9 3c d8 06 82 39 11 39 d7 3b
       -0.004733665 0.030487746 0.0002480063 0.006568082
0003c0 99 c2 bc 3c d7 c3 bf 3c bf 5a 89 3c c6 54 22 bc
       0.02304201 0.023408813 0.016766904 -0.009907907
0003d0 b0 b3 4a bd d5 e8 d7 3c 38 44 00 3d 09 fc 93 3b
       -0.04948777 0.02635614 0.03131506 0.004516129
0003e0 23 d1 c3 3b 22 7b df 3c b7 91 94 3d cf 95 1b 3d
       0.005975859 0.027280394 0.072543554 0.037984665
0003f0 2e 36 97 3d c4 cc 65 3d 66 c8 46 3d ba c8 fe 3b
       0.07383381 0.056103483 0.04853096 0.0077753933

1.conv2.bias f4 [32]
000000 4b 0f 0e 3d b1 36 23 bd fd c6 3f bd 24 5f 89 bc
       0.034682553 -0.03984708 -0.04682063 -0.016769
000010 d7 8b 48 bd bd 1c 86 bc f2 d4 3f 3d ed 9c 3c 3d
       -0.048961487 -0.016371125 0.04683394 0.046048094
000020 b2 c4 54 bc ee 02 ee bb 38 45 7a 3b c6 da 20 3b
       -0.012986349 -0.007263533 0.003818823 0.0024544462
000030 67 85 0a bd f8 00 ee 3a f9 22 12 bc 6e 3f 06 3d
       -0.03381863 0.0018158248 -0.008919471 0.032775335
000040 a8 e6 41 bd a9 ca c0 bc 0c 2c 0e 3d 82 6f 0f ba
       -0.04733911 -0.023534136 0.034709975 -0.0005471633
000050 5d c8 d6 bb df 2c 0c 3d 16 df 8a bc 78 11 29 bb
       -0.006554647 0.03422248 -0.016952079 -0.0025797766
000060 3f 17 43 bd 0c 9e e7 3c 33 10 1a bd 57 8c 13 bd
       -0.04762959 0.028273605 -0.037613105 -0.03602251
000070 a4 3d 09 bc 29 f9 01 bd b8 0f cb bc 88 da bd 3b
       -0.008376513 -0.03173176 -0.024787769 0.005793873

1.bn2.weight f4 [32]
000000 04 ab 62 3f 60 a0 78 3f 62 c4 60 3f df 36 89 3f
       0.885422 0.9711971 0.87799656 1.071987
000010 dc 72 6e 3f 44 84 70 3f 5d c2 77 3f 07 42 75 3f
       0.9314401 0.9395182 0.9678095 0.95803875
000020 73 8d 6f 3f f6 c2 70 3f a6 a4 71 3f a9 18 75 3f
       0.9357521 0.94047487 0.9439186 0.95740753
000030 68 24 81 3f f2 6a 76 3f e0 c5 74 3f 9e 96 6c 3f
       1.0089235 0.96256936 0.95614433 0.92417324
000040 61 38 64 3f 51 97 8a 3f 74 28 7f 3f 42 15 81 3f
       0.8914853 1.0827428 0.996711 1.0084612
000050 86 4d 6b 3f 4a f5 76 3f d6 c0 73 3f 33 39 70 3f
       0.91915166 0.9646803 0.9521612 0.9383728
000060 8f 03 82 3f ea d7 7c 3f 6f ab 6d 3f fa 27 84 3f
       1.0157336 0.9876696 0.9283971 1.03247
000070 25 9a 63 3f 08 40 81 3f 9d 41 80 3f 5c 10 70 3f
       0.8890708 1.0097666 1.0020024 0.9377496

1.bn2.bias f4 [32]
000000 00 ad 0d bd 83 38 08 bd 58 bc 9b bd 04 b7 20 3c
       -0.034588814 -0.03325702 -0.07604283 0.009809259
000010 08 bf 2f 39 3f e4 88 bd b7 b5 26 bd 3f f2 c0 bc
       0.00016760465 -0.066841595 -0.04070064 -0.023553012
000020 7c e7 78 bd f0 de 4a bd d8 66 07 be c3 86 19 bd
       -0.060767636 -0.049529016 -0.13222826 -0.037482034
000030 c2 58 91 bd cc 51 db bc 58 bd a7 bd 6b 79 7e bd
       -0.07097007 -0.026772402 -0.08190411 -0.062127512
000040 6f 62 95 bc 79 6d ac bd 21 c8 5c bd ed f0 6c 3d
       -0.018235413 -0.08419318 -0.053901795 0.057846952
000050 44 01 16 bd e7 cb 61 be a2 9c 97 bd 8e e7 5b bd
       -0.0366223 -0.22050439 -0.07402922 -0.053687625
000060 0f bc 0a 3c cc 3f 8c bc d1 4f 91 bd 53 dc a8 bb
       0.008467688 -0.017120264 -0.07095302 -0.005153218
000070 67 ba 93 bd 59 a2 70 bd 1e a7 87 3c f1 ac 83 bd
       -0.07213288 -0.058748577 0.01655918 -0.0642947

1.bn2.running_mean f4 [32]
000000 ea fc d9 be 5c 56 c5 be cf 65 11 3f 26 e2 95 3f
       -0.4257577 -0.3854245 0.5679597 1.170964
000010 62 6a a5 be 2d 6d 14 3f 74 17 30 bf f9 54 8f be
       -0.32307726 0.5797909 -0.68785787 -0.27994516
000020 c0 8d 8e 3f 80 48 03 bd de 13 d8 3b 90 41 6b 3d
       1.1137009 -0.032051563 0.006594165 0.057435572
000030 80 4e 85 bf 88 cc 9c 3e 58 0c 1e be 70 1d 40 bf
       -1.0414581 0.30624795 -0.15434396 -0.7504492
000040 1e c7 81 bf 6f 4b 79 bf e8 d6 9c be df b2 88 bf
       -1.0138891 -0.9738073 -0.3063271 -1.0679587
000050 ba 81 93 bf 57 ba 63 bf b7 f9 25 bd a7 b4 30 bf
       -1.1523964 -0.8895621 -0.04052135 -0.69025654
000060 2d cc 4e 3e f9 03 21 bf c0 19 86 bf dd 3e 03 bf
       0.20195074 -0.62896687 -1.0476608 -0.51267797
000070 66 8f f8 3e b1 d2 f3 be 6e f5 56 bf 0c a0 10 be
       0.48546904 -0.47621682 -0.83968246 -0.14123553

1.bn2.running_var f4 [32]
000000 e7 b0 f3 3f c8 b4 ae 3f 03 48 d2 3f 12 f9 3a 3f
       1.9038361 1.364892 1.6428226 0.730363
000010 0b c7 c9 3f 27 ee 0c 3f 58 78 50 3f 20 87 86 3f
       1.5763868 0.5505089 0.8143363 1.0509987
000020 2a 6b 6d 3f 83 a0 81 3f fd a8 fc 3f 9f d2 84 3f
       0.92741644 1.0127109 1.9739071 1.0376776
000030 ea 02 bb 3f c8 f4 1e 3f 73 f3 d8 3e fd 54 17 3f
       1.4610264 0.62092257 0.42373237 0.59114057
000040 35 fb 67 3f cd 14 76 3f a5 fb dc 3e f5 49 ce 3f
       0.90617687 0.9612549 0.4316074 1.611632
000050 0c 8c 7c 3f 28 39 0c 40 a9 a2 42 3f 7f 8d 6a 3f
       0.98651195 2.1909885 0.7602945 0.91622156
000060 1b 6d 8d 3f 7b e7 6d 3f 7a d0 9e 3f aa 42 0a 3f
       1.1048921 0.92931336 1.2407372 0.5400797
000070 3e 5a 9d 3f cd 15 12 3f 14 b5 51 3f da 47 9e 3f
       1.2293165 0.57064515 0.8191693 1.2365677

2.conv1.weight f4 [32, 32, 11]
000000 3d 7c 89 3d 74 da 4a 3c 9f 50 96 3d d3 c7 0c 3c
       0.0671315 0.012381185 0.07339596 0.008592564
000010 96 1e 17 3c 1a a3 4b 3d c2 8b ec 3c 20 71 5b 3c
       0.009223601 0.049716093 0.028875235 0.01339367
000020 6a 8e 41 bb c2 6a ca 3c dc 50 9d ba 2c 5c 12 3c
       -0.0029534348 0.02470911 -0.0012002247 0.008933108
000030 8e 40 61 bc 08 bd 75 3d 1a 6c d0 bc 6f 40 99 bc
       -0.013748301 0.059994727 -0.025442172 -0.018707482
000040 5d 8f 4c 3d 3a eb 77 bc 42 d5 8d bc d6 74 57 bc
       0.04994141 -0.015131766 -0.017313603 -0.013150414
000050 73 c8 4e bc a0 ff f1 3b 7d 59 56 3d d9 09 a3 bc
       -0.012621033 0.007385209 0.052331436 -0.019902157
000060 d3 74 fa bb 95 16 94 bd 01 1a 56 3c cb 54 80 3c
       -0.007643321 -0.0723087 0.013067723 0.015665432
000070 e8 30 27 3d b8 d0 fc 3c a6 f7 90 3d 28 71 a1 3c
       0.040818125 0.030861244 0.07078485 0.019707277
000080 c7 1f b4 3d ca f4 a2 3b 4e a0 c4 3d c1 47 a5 3d
       0.087951235 0.004973029 0.09600888 0.080703266
000090 3c 29 a1 bc 05 21 2a bd 98 68 93 3d 18 ef 91 bb
       -0.019672982 -0.041535396 0.07197684 -0.004453551
0000a0 69 2c 03 bb 09 ad 2a 3d a1 e5 0f bd d9 db ac 3b
       -0.0020015484 0.041668925 -0.0351311 0.0052752313
0000b0 a5 b7 85 3d 3c e0 4b bd d3 dd b9 bb 42 44 b3 bd
       0.06529168 -0.049774393 -0.0056721955 -0.087532535
0000c0 97 d5 9f bd 27 1a 43 bd 11 27 c3 3b a1 d3 59 bc
       -0.07804411 -0.047632363 0.005955585 -0.013295085
0000d0 54 ce e8 3c 91 22 9b bc 1e bd 54 3d 22 2e c2 bc
       0.028418697 -0.018937381 0.05193817 -0.023703638
0000e0 0e 55 43 bc 19 80 43 bd 70 28 4d bd 13 f5 46 bc
       -0.011922134 -0.047729585 -0.050087392 -0.012143391
0000f0 f9 e9 ef bc ee 7a 9d bc 1d 19 fa bc 1a 27 32 3d
       -0.029286372 -0.019223657 -0.030529553 0.04349432
000100 44 60 da bc ee 89 27 3d 23 8f bb 3c 56 1d 26 bc
       -0.026657231 0.040903024 0.022895401 -0.01013883
000110 d9 61 52 3d ee e2 8b bc 6f 93 ff b8 3b 41 e1 3c
       0.051362846 -0.017075982 -0.00012186809 0.027496925
000120 a7 4f a8 bc 56 f4 a5 3c 24 46 82 3d 8a 32 e4 3c
       -0.020545794 0.02025811 0.063610345 0.02785613
000130 37 73 38 ba 1c cd b3 bc 11 7f 31 3d 51 5a dd 3c
       -0.00070362113 -0.02194839 0.04333407 0.027020605
000140 fc 9b aa bc a4 1a b2 3c 1d 26 b1 bc 39 c0 00 bd
       -0.020826332 0.021741219 -0.02162462 -0.031433318
000150 37 49 c5 bb d5 c0 28 bc 6e 9c a9 3d 18 d2 86 3d
       -0.006020691 -0.010299881 0.0828179 0.06583041
000160 09 21 06 bd b1 2b 49 3c f2 b6 c2 bb 78 04 6a bb
       -0.03274635 0.012278483 -0.005942219 -0.003570823
000170 8d 74 2a 3d f7 e9 77 bd 5a f6 2f 3d d7 56 8b bc
       0.041615058 -0.06052586 0.04295955 -0.017009182
000180 34 04 0d 3d b2 b4 2c bd c5 83 40 bb 01 e3 5f 3c
       0.034427837 -0.042164512 -0.0029375416 0.013664962
000190 4c 41 17 bd ec bd c3 bc 96 9e 05 bc 23 55 09 3d
       -0.036927506 -0.023894273 -0.008155486 0.03352846
0001a0 55 97 4e bc a3 b0 a2 bb 05 93 d2 bc 9c 9a 02 bc
       -0.012609323 -0.0049649044 -0.02570487 -0.007971432
0001b0 c9 67 04 bc 32 9e b4 3c bf 7d 9c 3d df a2 48 3c
       -0.008081385 0.02204809 0.07641172 0.012245863
0001c0 01 66 b0 3d d9 15 2b 3d 2f 57 db 3c 36 ed 34 3b
       0.08613206 0.041768882 0.02677497 0.002760721
0001d0 70 70 41 3d 1d 04 05 3c 0d 7e 88 3c 86 1a 23 bd
       0.04722637 0.008118656 0.016661668 -0.039820217
0001e0 04 00 6f 3d d4 2a 18 3d ac 87 01 bd 0f 0e 7c bc
       0.058349624 0.03715022 -0.031623527 -0.015384211
0001f0 e7 09 36 bd 40 9e 0d ba bc 06 29 3d d1 cf d7 bc
       -0.044443037 -0.0005402304 0.041266188 -0.026344212
000200 ee 76 34 3c 8c b8 3b 3d ad fa 46 3d c3 af 7c bc
       0.011014683 0.045830294 0.048578907 -0.015422764
000210 a7 02 85 bd 70 e5 26 bb 34 af 93 bb 3c 71 94 3c
       -0.064946465 -0.0025466345 -0.00450697 0.0181204
000220 c1 47 4c 3d 90 43 41 3c 70 6b 5b 3d da 55 63 3d
       0.049873117 0.011795893 0.053569257 0.055501796
000230 a0 47 7b bc f0 b3 68 3d c5 84 03 3d 17 ea fd bc
       -0.015336901 0.056812227 0.03210904 -0.030995412
000240 74 d9 e5 bc 85 a4 ab 3b a1 7c 07 bd 5a 38 89 bd
       -0.028057791 0.005238118 -0.03307784 -0.06700201
000250 4b c0 c0 bc 9d 84 88 bd 2b 39 85 3c da 1b 6b 3d
       -0.023529192 -0.06665919 0.016262611 0.05739961
000260 38 81 03 bd ca a6 54 3d 29 e5 7a bc 06 43 cd bc
       -0.032105654 0.051916875 -0.015313425 -0.025056373
000270 90 f2 0b bd 8d 7d 02 3d 6d c0 6d bd b5 08 0c bb
       -0.034166873 0.031858016 -0.05804484 -0.0021367494
000280 4d b6 51 bc 02 72 38 bd 15 32 ef bc 56 8a 10 bd
       -0.012799812 -0.0450306 -0.029198686 -0.035288177
000290 01 f9 bb bc f5 a1 df 3c cf e7 3e 3d 0c b8 a6 3c
       -0.022945883 0.027298907 0.04660779 0.020351432
0002a0 f0 21 3f 3c 6c df b7 3c 69 e8 e7 3c 19 de 35 bc
       0.011665806 0.022445403 0.028309064 -0.0111003155
0002b0 58 6e c5 bc 42 31 e7 bc 7c 0d a6 3d 15 ee 7f 3d
       -0.024100468 -0.02822173 0.08108041 0.062482912
0002c0 5f 0e 71 3d 74 50 6d 3d ed b0 9a 3d 60 ce bd 3d
       0.058851596 0.057938054 0.07553277 0.092678785
0002d0 a0 b4 f9 ba b1 cc 5a 3d 1a 7c a7 bc b8 11 0f 3d
       -0.0019051023 0.053417865 -0.020444918 0.034929007
0002e0 5a cb e4 bc c8 f7 76 bc 34 70 5d bd 5e af 0c ba
       -0.027928997 -0.015073724 -0.054062083 -0.0005366708
0002f0 d2 a9 44 3c a0 71 51 3d 70 91 da 3c bc 92 44 3d
       0.012003379 0.051133752 0.026680678 0.0479915
000300 2c ab 4f 3d 96 f1 cd 3b d7 08 32 3c 31 28 66 bc
       0.05070035 0.006284903 0.010866365 -0.014047668
000310 2a bc 49 bc 15 24 5e 3c 3b 83 2a 3d ee 2b 29 3d
       -0.012312928 0.013558407 0.041629057 0.04130166
000320 c5 d6 bd bc d3 49 88 3c a6 1e dc bb 00 eb eb ba
       -0.0231737 0.016636765 -0.0067175208 -0.0017999113
000330 05 fa b5 3b 82 36 2a bc ee cf 05 bd 16 a0 f7 3a
       0.0055534863 -0.010388972 -0.032669 0.0018892314
000340 82 d0 d7 3c 29 8b 33 3d 24 8b 6c 3c 0e b1 b1 3d
       0.026344541 0.043833885 0.014437471 0.086763486
000350 73 94 82 3d 65 f8 e2 3d 76 df bc 3b 99 9b ea 3c
       0.06375971 0.11082534 0.0057639433 0.028638648
000360 7e 40 42 3d 2b 63 00 bd 00 4c 8d bd 7a a9 a0 bd
       0.047424786 -0.031344574 -0.068992615 -0.07844825
000370 e0 d5 2b bd ab c3 74 3d 74 cd da 3c 43 e0 97 3c
       -0.041952014 0.059756916 0.026709296 0.018539554
000380 e7 32 3b 3d d5 09 2b 3d 0b b6 d8 3b 15 72 65 bd
       0.04570284 0.041757423 0.006613498 -0.056017
000390 0e 2f be 3c b1 8e 3f bd ac d2 33 bb 3a 3d 1b 3d
       0.023215797 -0.04676694 -0.0027438803 0.037900187
0003a0 2a 4b 4a bb bd 70 79 3d a0 04 b0 bc ed 65 e4 3c
       -0.0030867555 0.06089853 -0.02148658 0.027880633
0003b0 f2 03 3c 3d f7 1c 42 3d 1b 8d 86 3d 65 f3 92 3d
       0.0459022 0.047390904 0.065698825 0.0717533
0003c0 41 38 10 3d c8 4c ae ba 7b 1f 60 ba bd 95 1e bd
       0.035209898 -0.0013298029 -0.0008549613 -0.03871702
0003d0 9e 5a 05 bc a1 73 d7 3c c4 cb 88 bd 0f 96 fb bb
       -0.008139281 0.026300253 -0.0667949 -0.0076778005
0003e0 42 ab 4b 3c 60 9f f2 bc cd 92 a0 bc 9d f3 08 3c
       0.012430968 -0.029617012 -0.01960125 0.008358863
0003f0 0e 37 9d bc 79 41 27 bd a6 07 7c 3c 4a 7e 86 bc
       -0.019191291 -0.040833924 0.015382683 -0.016417641

2.conv1.bias f4 [32]
000000 66 fb 5e bc 4d 19 76 bb 12 c3 12 3a c0 03 fe bc
       -0.013609743 -0.0037551702 0.0005598526 -0.031007648
000010 f5 23 14 bc 9e 66 16 bd 31 fb 38 3d e8 88 00 bb
       -0.009041776 -0.036718957 0.04516143 -0.0019612852
000020 3f 91 b5 3c b6 5a 29 3c a1 82 31 bd e1 e8 11 bd
       0.022163985 0.010336569 -0.043337468 -0.03562248
000030 22 82 bf bc d3 9f 17 3d 9d 63 44 3d 16 d7 b9 bc
       -0.023377482 0.037017655 0.04794656 -0.022685569
000040 be de 1c 3d 81 d8 12 bd dd bb 94 3c 47 5a 75 bc
       0.03829836 -0.035851005 0.018155986 -0.014975137
000050 bc cf 2a bd 00 94 9e 3c c1 9a 4f bd 2f d6 18 3d
       -0.041702017 0.019357681 -0.050684694 0.037313636
000060 bd be 06 bd e1 ba 52 bd 42 ac 24 3d 10 d1 b7 bc
       -0.032896746 -0.051447753 0.04020334 -0.022438556
000070 b9 33 42 3d cd 46 b6 bc 4c 44 9d 3b 03 41 8b bc
       0.047412608 -0.022250557 0.0047994014 -0.016998773

2.bn1.weight f4 [32]
000000 e1 77 7a 3f 0a 85 81 3f ed 6c 80 3f 03 61 7f 3f
       0.9783917 1.0118725 1.0033242 0.99757403
000010 09 a0 80 3f 4a 98 84 3f f2 a1 76 3f 79 02 85 3f
       1.0048839 1.0358975 0.9634086 1.039138
000020 48 4c 74 3f 8e 75 82 3f b1 cb 80 3f 13 0f 7b 3f
       0.95428896 1.0192125 1.0062162 0.98069876
000030 fb 18 77 3f 3a 42 84 3f 9e d6 7d 3f 52 38 7f 3f
       0.9652249 1.0332711 0.99155605 0.9969531
000040 dd 2e 7c 3f f9 3c 77 3f 95 10 82 3f d0 a1 7c 3f
       0.9850901 0.9657741 1.016131 0.98684406
000050 0a 38 84 3f d5 f0 7b 3f e9 46 79 3f 67 ae 7c 3f
       1.0329602 0.98414356 0.97373825 0.98703617
000060 47 fc 80 3f d8 67 86 3f 0f 4a 7e 3f 31 e1 7f 3f
       1.0076989 1.0500441 0.99331754 0.9995299
000070 2c 25 88 3f 8d 58 7b 3f 5f f6 7e 3f 49 7d 7b 3f
       1.0636344 0.9818199 0.9959468 0.98238045

2.bn1.bias f4 [32]
000000 77 c6 ac 3c a7 89 cd bc ac 43 5c bc 8d 9d 52 bc
       0.02109073 -0.025090052 -0.013443869 -0.012854946
000010 2d 8e 84 bc a9 5e 8e bd df cb 4f 3c cd 52 73 bc
       -0.016181076 -0.06951649 0.012682884 -0.014851284
000020 35 00 36 bc 0a ef 9a 3c 05 df 09 3c e0 a3 bd bc
       -0.011108448 0.01891281 0.008414988 -0.02314943
000030 46 6d cc 3b 3f 90 88 bd 32 41 8b 3c b0 8c 32 bd
       0.0062386123 -0.06668138 0.016998861 -0.0435912
000040 85 ac 0f bd f6 ef ef bc f9 20 0f bc 47 65 ce bc
       -0.035076637 -0.029289227 -0.008735889 -0.025194777
000050 c5 c4 82 bd 39 09 36 bd 4b 1a 82 bd 35 82 76 3b
       -0.06385187 -0.04444239 -0.06352671 0.003761423
000060 4b 42 e2 ba cb d3 0d be 62 9d 06 bc c7 f4 41 3a
       -0.0017262188 -0.13850324 -0.008216234 0.00073988404
000070 d1 18 8e bd 3b 6a 35 bc 24 db bc bc f6 5f 11 bc
       -0.06938327 -0.011072691 -0.023053713 -0.0088729765

2.bn1.running_mean f4 [32]
000000 2c 44 65 3e 38 e9 1f be bf ff 45 be a4 6d a4 be
       0.22389287 -0.1561631 -0.1933584 -0.321149
000010 8d 9c 51 bd 5e 54 9e be 5d 10 7d 3c 1f 41 3b be
       -0.05117469 -0.30923742 0.015445796 -0.1828656
000020 58 41 68 3e 0c 39 eb bc b7 15 28 be d0 5b e7 be
       0.22681177 -0.028713726 -0.16414534 -0.45187235
000030 32 d6 d7 3e bc 11 6b bc 92 b5 3f 3d fe 7a 81 bd
       0.42155606 -0.01434749 0.04680402 -0.06322287
000040 98 dc 66 be 4e 6c 87 be 3f 3e a1 be 72 eb 60 3e
       -0.22545087 -0.26449817 -0.31492803 0.21964815
000050 d2 d0 99 be 01 14 d8 3c a5 ae c7 be fd 6f ca bd
       -0.3004213 0.026376726 -0.3900043 -0.09884641
000060 be 1f b0 be 00 6e a8 3d c0 94 cb be 3f 81 e5 3a
       -0.34399217 0.08224106 -0.39761925 0.0017509832
000070 95 93 1f be 1d 59 b8 be 8f ef eb bd f6 56 82 be
       -0.15583642 -0.36005488 -0.115203016 -0.2545697

2.bn1.running_var f4 [32]
000000 79 fc 26 3e 94 94 85 3d 82 e8 84 3d 42 c7 e5 3d
       0.16307248 0.0652248 0.0648966 0.11219646
000010 66 97 45 3d e3 27 04 3e 5b 00 0c 3e 6c 3b 81 3d
       0.048240088 0.1290584 0.1367201 0.06310162
000020 5e 97 ae 3d 19 a5 d3 3d 97 1a 91 3d 10 f6 13 3e
       0.08524965 0.10334224 0.0708515 0.14449334
000030 61 f2 c9 3d 96 48 68 3e c7 04 03 3e 7b 93 49 3d
       0.09860683 0.2268394 0.12794791 0.049212914
000040 d7 96 ca 3d 29 f5 7d 3d b8 d8 13 3e 64 09 9a 3d
       0.09892052 0.06200138 0.1443814 0.07521322
000050 f4 5a 70 3d 66 d3 a1 3d f4 62 b4 3d 4d be d0 3d
       0.05868049 0.07901649 0.08807936 0.10192547
000060 ca 04 86 3d eb bf 9f 3d 88 fb a2 3d 4e 25 b5 3d
       0.06543882 0.07800277 0.07958132 0.08845006
000070 ba 91 25 3e c9 bd a9 3d 9d 31 b9 3d 26 7f 81 3d
       0.16168872 0.08288152 0.09042666 0.0632308

2.conv2.weight f4 [32, 32, 9]
000000 15 64 83 bd 5c 09 ff bc e3 a0 1d 3c f0 92 71 3d
       -0.064155735 -0.031132393 0.009620878 0.05897802
000010 53 1f 00 bc 11 1b 0b 3d c3 9d 6a 3d 86 ae ee 3c
       -0.007819968 0.03396136 0.05727936 0.029135954
000020 a1 a0 53 3b fa 9f 56 3d 04 c8 9b 3c 38 db c3 bc
       0.0032291787 0.05239866 0.019016273 -0.023908243
000030 c7 16 ff bc 06 e6 59 bd ad 28 85 bd cd 30 85 3c
       -0.03113879 -0.053197883 -0.06501899 0.016258622
000040 fa 83 ed bc f0 68 c5 bc c6 2b 4a 3d ad 13 47 bd
       -0.028993595 -0.02409789 0.04935815 -0.04860275
000050 8b 22 70 bc dd c7 62 3c e9 80 ab 3c 68 36 89 3d
       -0.014656673 0.013841596 0.020935493 0.0669983
000060 3a 1c 81 3d 8b 76 29 bd 02 8e 9f bc 1c 41 0b be
       0.06304212 -0.041372817 -0.019476894 -0.13599056
000070 29 af 4f 3b d9 d3 a5 bc a7 d6 5f 3d 6c 5f 2f 3b
       0.0031690097 -0.020242618 0.054648068 0.0026759757
000080 68 82 9c 3d 06 e4 29 3c e5 b3 9c bb f4 6a 15 3d
       0.076420605 0.010369306 -0.0047821873 0.03647895
000090 88 88 46 3c 9a ba 28 bd c9 f7 db 3d 7e 61 7f 3d
       0.0121175125 -0.041193582 0.10740621 0.062348835
0000a0 0e 58 43 3d f4 e7 0f bd c0 c4 17 3d f9 fe 91 3c
       0.047691397 -0.035133317 0.03705287 0.017821776
0000b0 92 12 60 3c 47 14 39 3c 2e 3b 31 bd 59 af fe 3b
       0.0136763025 0.011296338 -0.04326933 0.007772368
0000c0 0b fa fa bc fa 5c 65 3c a0 34 2a bd 58 a7 6b 3d
       -0.030636808 0.013999218 -0.041554093 0.05753264
0000d0 eb 47 7d 3c 5b 0f 98 bc d6 be b5 bd ba 7b d1 bd
       0.015459041 -0.01856201 -0.0887429 -0.10228677
0000e0 6b 46 8c bc 37 5e ba bd 50 ba 74 bd d6 bd 0a bd
       -0.017123422 -0.09100001 -0.059747994 -0.033872448
0000f0 97 fc 0e 3d 4b c0 84 bd b3 53 22 bd 89 ef c5 bd
       0.034908857 -0.064819895 -0.039630603 -0.09664828
000100 69 dd c8 bc 40 66 8a bd 62 eb 60 bd 51 e9 09 bc
       -0.02451964 -0.06757784 -0.05491198 -0.008417443
000110 6c 31 52 3d 58 63 7e 3b 45 aa 6e bd b6 ed 5a 3c
       0.051316664 0.0038816538 -0.05826785 0.013362339
000120 51 c0 8f bd 62 8f 9e bd 33 82 37 3b 65 c0 d6 3b
       -0.07019103 -0.07742192 0.0028001189 0.006553697
000130 3f a7 71 3d ba 68 f0 bc 78 ea 0e 3c a1 ad 97 3c
       0.05899739 -0.029346813 0.008722894 0.01851541
000140 72 9d 47 bd d1 c8 1e 3d d4 89 8c 3d d3 e5 4e bd
       -0.048734136 0.038765732 0.06862226 -0.050512146
000150 d8 4b 11 bd aa 2c 48 bd ba 15 53 3c 06 d0 3c bb
       -0.03547272 -0.04887072 0.012883598 -0.0028810515
000160 7c f6 15 3d 2a 9a 4f 3c 45 3e 19 bd 9c 8d d1 3c
       0.03661202 0.012671033 -0.0374129 0.02558022
000170 32 74 ed bb a7 8d 02 bd a6 9c a1 bd 37 78 7e 3c
       -0.0072465176 -0.03187337 -0.078912064 0.015531591
000180 69 81 6e 3d 81 7b 22 bd 51 d2 74 bd d7 9a b0 3b
       0.058228884 -0.039668564 -0.059770886 0.005389552
000190 9c 30 36 bc a0 58 ac 3c 3d ed 0d bc ab 31 b3 3b
       -0.011119988 0.021038353 -0.008662519 0.0054685674
0001a0 51 34 72 3d 9a 08 d2 ba c8 f0 cd 3c 0d 07 2a bd
       0.059131924 -0.0016024292 0.025139228 -0.04151063
0001b0 d3 b9 2f 3d 39 bc 8a bd 08 03 a9 bc f6 1f b6 3c
       0.042901825 -0.06774182 -0.020631328 0.022232037
0001c0 6d 6e bb 3b 11 35 69 bd f8 fa 86 3d 40 f5 3c ba
       0.005719951 -0.056935374 0.06590837 -0.0007208176
0001d0 af c3 19 3d 72 ab 4d 3d 2a 82 df bb d2 06 7f bb
       0.037540134 0.05021233 -0.0068209367 -0.0038913977
0001e0 60 e8 83 bc f1 91 df bb f5 c9 8f bc b1 d5 20 3d
       -0.016102016 -0.0068228175 -0.017552355 0.039266292
0001f0 0f d2 79 bb a6 5d 4c bc 60 a3 2b 3d 19 35 53 bd
       -0.003811959 -0.012473499 0.041903853 -0.05156431
000200 99 cc 62 bd 73 f6 67 bb c0 b3 7d bd a4 9d 2a bd
       -0.0553709 -0.0035394698 -0.061939 -0.041654244
000210 5f 63 10 bd 4a 83 91 bd e9 a5 ab bc 5f 8d 4b 3d
       -0.035251018 -0.071051195 -0.020953136 0.04969537
000220 47 af fc 3b f7 b5 14 3d ea 2c bc 3c 1d a8 88 bc
       0.0077113244 0.036306348 0.022970635 -0.016681725
000230 f1 cf 3a 3d a3 ad 83 3d 29 75 b0 3c 49 fd 87 3b
       0.045608465 0.06429603 0.021540241 0.004150067
000240 ca 6d 1e bd fa df 06 bd 69 17 39 bd 4b 8a f5 bb
       -0.03867892 -0.032928444 -0.04518834 -0.0074932924
000250 ac 41 e6 bc 15 59 c6 3b 30 f9 14 bd 80 8d 88 3d
       -0.028107487 0.0060531 -0.036370456 0.06667614
000260 97 d8 09 3d d0 95 3e bd 0e 2b f2 bc 21 bb 33 bc
       0.03365382 -0.04652959 -0.029561546 -0.010969908
000270 f2 3d 38 3d db b1 84 3d 5d 0b ce bc 5d cf 87 3c
       0.04498095 0.06479236 -0.025151903 0.01657837
000280 45 63 b2 3c af 7e b6 b9 e8 bb 35 bd 8c d0 68 3d
       0.021775851 -0.00034808132 -0.044368654 0.05683951
000290 f9 a0 8f bc c3 77 90 3b 22 a8 0c 3a e4 a8 75 bd
       -0.017532812 0.004408808 0.000536563 -0.05997552
0002a0 09 2e 7f bb b3 60 4d 3d 96 77 d6 bc 64 ca 00 bb
       -0.0038937351 0.050141048 -0.02618007 -0.0019651884
0002b0 c4 02 12 3c ac ef 53 bd 91 54 2e bd 94 75 26 bc
       0.008911792 -0.05174224 -0.042561118 -0.010159869
0002c0 57 c1 0f bd ec ae 63 bd 06 6a 64 bd 06 66 5b 3d
       -0.035096493 -0.05558674 -0.055765174 0.053564094
0002d0 a8 67 29 bc 81 92 3d bd dc fe e1 3c 66 8f 54 bc
       -0.010339655 -0.046282295 0.027587347 -0.012973642
0002e0 55 ef 28 3d 46 13 31 bd 01 d3 f5 bb 15 18 69 3d
       0.04124387 -0.04323127 -0.0075019603 0.056907732
0002f0 56 56 f1 3c ff 09 91 3d b3 66 4a 3d a5 5f d6 ba
       0.029460113 0.07081985 0.049414348 -0.0016355409
000300 ae 3f ad bd 97 fa 9c bd a2 21 fb 3b 96 2c d8 3c
       -0.084594116 -0.07664984 0.0076639215 0.026388448
000310 08 49 92 3c 2d 18 eb 3b 9a 7a 33 3d f0 1f 36 bd
       0.01785709 0.007174513 0.043818094 -0.04446405
000320 a4 d5 ae bd a1 7f 28 bd b1 57 0e 3c c9 a5 12 3d
       -0.085368425 -0.04113734 0.008687899 0.035802636
000330 e4 d7 04 3d c1 06 70 bd 82 ab 44 3d 74 ff ce 3b
       0.03243245 -0.05860019 0.048015125 0.0063170735
000340 ff 57 a3 bc 04 6c 7c bd db 9d 08 3d 14 41 34 3d
       -0.01993942 -0.06162645 0.033353668 0.044007376
000350 42 aa 18 bd ba 61 06 bd 41 6b f5 bc a5 10 df 3b
       -0.037271746 -0.032808043 -0.02995837 0.006807404
000360 a8 4b ad bd f1 e4 da 3c f9 cc f7 bc e5 0d 47 3c
       -0.08461696 0.026720496 -0.030249106 0.012149309
000370 56 37 2c bd 42 a2 02 3c b0 34 43 3d 78 bc 11 bc
       -0.04204496 0.007973256 0.04765767 -0.008895032
000380 2e d8 8c 3c 7b b0 be 3d be 68 a4 3d 44 7d 26 3d
       0.017192926 0.09311005 0.080277905 0.040646806
000390 26 63 66 bd 25 5b ab bd 34 76 84 bc fb c4 a5 bc
       -0.0562469 -0.08366994 -0.016169645 -0.02023553
0003a0 78 b7 98 3c d1 fe f8 3c 17 9a 27 3d 10 97 29 bd
       0.018642172 0.030394943 0.040918436 -0.04140383
0003b0 b5 49 bb 3c ae 5e 45 3d 6d 4c a8 bc 1e 3f c1 bc
       0.022862295 0.048185997 -0.020544255 -0.023589667
0003c0 68 ad 04 3d 4e ef ee bc 97 b0 de 3c c4 eb 70 3d
       0.032391936 -0.029166844 0.027183814 0.058818594
0003d0 8c f8 93 bc 18 9b 57 3d db 18 cd 3c d8 7a b0 bc
       -0.018062852 0.052638143 0.025036266 -0.021542951
0003e0 b3 38 18 bd 52 3e 24 bd 01 a5 5c 3d 07 91 3b bc
       -0.037163448 -0.040098496 0.053868297 -0.011448151
0003f0 1e 73 94 3d 48 7b 8d 3d b1 f6 57 bd 35 82 e1 3c
       0.07248519 0.0690828 -0.052725498 0.027527908

2.conv2.bias f4 [32]
000000 a0 b9 27 3d 3a 2e 34 3c 25 be e8 bc d9 32 90 3c
       0.04094851 0.010997349 -0.02841098 0.017602371
000010 7e fe 9c 3c 74 42 07 3d e9 ed 4f bd 60 b2 1c bd
       0.01916432 0.03302236 -0.050764 -0.03825605
000020 a5 36 5a 3d 59 d2 bb bc c3 e6 2b bc f5 9a 5d bd
       0.05327477 -0.02292745 -0.01049203 -0.054102857
000030 91 7a d9 bc 43 ba c8 bc ea df 29 3d 98 8b 98 3c
       -0.026547702 -0.024502879 0.041473307 0.018621251
000040 46 46 cc 3c 5c 66 5b 3d e1 21 ba 3c 13 7f 27 bc
       0.024935853 0.053564414 0.022721233 -0.010223168
000050 ac ad f5 bc 65 0b 46 bd 7b 9a d4 3c 17 c8 58 bd
       -0.02999004 -0.04835071 0.025952568 -0.052925196
000060 4d f2 d7 3c f2 01 6c bd 35 5c 45 bd d7 13 3b bd
       0.026360655 -0.057619043 -0.04818364 -0.045673218
000070 ec e1 69 bd af 98 ce 3c 08 84 5b 3d 14 63 6d 3d
       -0.05710022 0.02521929 0.05359271 0.057955816

2.bn2.weight f4 [32]
000000 06 74 62 3f 81 7c 6a 3f a7 ec 66 3f 86 b4 6a 3f
       0.8845829 0.9159623 0.9020485 0.91681707
000010 83 7d 67 3f 80 6e 71 3f 89 da 68 3f 46 ae 73 3f
       0.9042589 0.94309235 0.9095846 0.95187795
000020 58 dd 6a 3f 85 c4 74 3f ff 69 71 3f 0c c6 62 3f
       0.91743994 0.95612365 0.9430236 0.88583446
000030 12 dd 6d 3f d8 f3 6b 3f ba 66 76 3f f8 7f 6c 3f
       0.9291545 0.9216895 0.962505 0.92382765
000040 8b ba 6e 3f fc ce 73 3f 56 e3 65 3f 8e 79 63 3f
       0.9325339 0.9523771 0.8980001 0.8885735
000050 04 a1 58 3f 21 51 70 3f 9b 87 62 3f 52 91 6a 3f
       0.8462069 0.9387379 0.8848817 0.9162799
000060 c2 7d 6b 3f 5b 86 5f 3f 74 9b 6c 3f db 63 6f 3f
       0.91988766 0.87314385 0.924247 0.9351174
000070 4e b6 6a 3f 20 20 79 3f 23 a4 66 3f 23 47 6c 3f
       0.91684425 0.97314644 0.900942 0.92296046

2.bn2.bias f4 [32]
000000 1c 59 c0 bd 3b 6f d2 bd b9 42 2d bd 7c ef 8d bd
       -0.09391996 -0.10275122 -0.04229996 -0.06930444
000010 a6 72 b2 bd b4 31 d0 bd 58 75 b2 bd a9 04 ee bd
       -0.08713274 -0.1016573 -0.08713788 -0.116219826
000020 bf ad ff bd e0 21 2e bd d7 9f e8 bd b3 e5 e8 bd
       -0.12484311 -0.042512774 -0.11358612 -0.11371937
000030 4d 39 9d bd bf 89 b2 bd 14 e3 a4 bd a0 31 b9 bd
       -0.07676945 -0.08717679 -0.08051124 -0.09042668
000040 09 56 c3 bd 6a f5 0e be 88 80 e2 bd 50 dd f7 bd
       -0.09537894 -0.13960806 -0.11059672 -0.12102759
000050 fa 75 24 be ea 7f 04 be dc 2a 9c bd ff f7 d8 bd
       -0.1606063 -0.1293942 -0.07625362 -0.105941765
000060 3a 72 a3 bd 23 e9 f5 bd 0c c8 d5 bd 65 3f be bd
       -0.07980771 -0.12007358 -0.104385465 -0.09289435
000070 ce d9 b8 bd 12 11 db bd 28 0c 61 bd 7b 23 05 be
       -0.09025918 -0.10696615 -0.054943234 -0.13001816

2.bn2.running_mean f4 [32]
000000 f4 b0 a4 be 31 dc 1b bf 48 85 b6 bd 14 54 b2 3d
       -0.32166255 -0.6088286 -0.0891214 0.08707443
000010 74 d0 8c 3e 69 a8 50 be c7 ee 5a 3e 04 da 39 bf
       0.27502787 -0.20376743 0.21380149 -0.7259829
000020 47 99 44 bf 29 ed 3b bf 2f 03 8c bf 7f c2 40 bf
       -0.7679638 -0.7340875 -1.0938472 -0.7529678
000030 7b 90 10 bf ff ee 19 bf a4 f5 0c bb 02 07 b4 be
       -0.5647046 -0.60130304 -0.0021508718 -0.35161597
000040 e5 83 7d bf 1d 10 6e be 03 f8 3e bd 27 cb e9 be
       -0.9902938 -0.23248334 -0.04662324 -0.45662805
000050 2c 01 4d bf 8c 1d 33 bf 22 14 c5 be 2f 63 12 be
       -0.80079913 -0.6996696 -0.38491923 -0.14295648
000060 c7 95 01 be 3f 1b 8b 3e fd b5 36 bf c3 da 8e 3d
       -0.12654792 0.27169225 -0.7137144 0.06975319
000070 f2 4c 0c bf 8c b9 08 3f b7 9b 76 3f 53 9e 9d 3d
       -0.5480491 0.5340812 0.9633135 0.076962136

2.bn2.running_var f4 [32]
000000 7c 5d 1b 3f b2 ab 89 3f 64 f5 0b 3f bb f4 70 3f
       0.6068952 1.0755522 0.5467131 0.9412343
000010 9d 71 1f 3f 54 7b 9b 3e 74 df e2 3e e7 e6 40 3f
       0.62282735 0.3036753 0.44311106 0.7535233
000020 89 d4 50 3f 99 6b 34 3f fe 86 63 3f 06 fe 33 3f
       0.815743 0.7047668 0.88877857 0.70309484
000030 51 d2 f6 3e 58 4c 36 3f 4c d4 96 3e 0f 36 11 3f
       0.48207334 0.7121024 0.29458845 0.5672311
000040 e9 1e 20 3f da 1e 3b 3e d7 4a ff 3e 54 73 25 3f
       0.62547165 0.18273488 0.49861786 0.646291
000050 02 f2 08 3f ea 30 0b 3f 5c 4d 05 3f f1 1e 59 3f
       0.53494275 0.5437151 0.52071166 0.8481284
000060 6e dd 19 3f 44 4e 3f 3f 8f ec 3c 3f d6 f7 23 3f
       0.601035 0.747288 0.7379846 0.6405004
000070 8e b2 4a 3f d6 fe 11 3f 9e 46 39 3f 98 74 19 3f
       0.791787 0.57029474 0.7237338 0.5994353
