model.pt (torch, 348727 bytes, 50 tensors)

1.conv1.weight f4 [32, 1, 15]
000000 f5 5a fe 3d 18 da 97 3e 53 6a bd 3d 63 87 25 be
       0.124196924 0.2965858 0.09248795 -0.16164927
000010 75 52 a1 3e ad 8d 6e be 44 16 02 3e 11 26 9d 3d
       0.31508222 -0.23296233 0.12703806 0.07673276
000020 c1 fb b0 bd 6e 4f 2c 3e ad 09 54 bd 34 3a 05 3d
       -0.08641768 0.16827175 -0.05176704 0.03252621
000030 d3 5d 6e be 09 15 a7 be dd 53 b1 be 19 76 14 3e
       -0.23277979 -0.32633236 -0.34634295 0.14498176
000040 9c 4e 14 be 91 a5 e2 3d 7d b1 80 3e e5 11 43 3e
       -0.14483112 0.110667355 0.25135413 0.19049795
000050 ff 02 62 be 6b 8a 50 be 81 d5 6a be be c2 88 be
       -0.22071455 -0.20365302 -0.22933008 -0.26711076
000060 4a b9 98 3d 45 d3 99 be 44 4b 6f be a8 cf 18 be
       0.07457216 -0.30043998 -0.23368555 -0.14922965
000070 87 17 b1 bc 94 74 22 3c 5a a2 01 bd cb 6f c1 3c
       -0.021617664 0.00991549 -0.03164897 0.023612877
000080 eb 8d 9e be 7e 24 d4 be 7b f3 b2 be c0 91 06 3e
       -0.3096765 -0.4143409 -0.34951386 0.13141537
000090 83 66 96 3e 47 74 06 3d 34 a8 a8 bc 0b 6b 9d 3d
       0.29375085 0.032825734 -0.020588018 0.076864325
0000a0 68 74 0c 3d 91 b0 3b be 4b 3f 59 3e 90 57 c9 be
       0.0342907 -0.18329073 0.2121555 -0.39324617
0000b0 68 e0 c3 3e e8 40 0a 3e d5 76 f1 bd d5 3a 1b 3d
       0.38257146 0.13501322 -0.117902435 0.037897903
0000c0 f8 68 37 3e 44 1e f3 3d 59 2d cb 3d 97 95 46 3e
       0.17911136 0.11871007 0.09920759 0.19393001
0000d0 e6 48 81 be 12 14 dd 3c c3 8f a1 3d b4 87 42 be
       -0.2525093 0.02698711 0.078887485 -0.18997079
0000e0 51 05 25 be 34 a6 b8 bd cb e5 a0 be 35 3e 14 bd
       -0.1611531 -0.09016076 -0.31425318 -0.036192138
0000f0 0a 55 2b be 1b 4c 40 be 07 86 9e be cc 93 4c be
       -0.16731659 -0.18779032 -0.3096163 -0.19978255
000100 27 61 8f be 7c 34 24 3d 99 c7 01 bc 5f 58 8b 3e
       -0.2800381 0.040089116 -0.007921123 0.2721586
000110 0a 85 9f 3d ef 60 3e 3d 7b 93 b1 3d 4b f1 8c 3c
       0.07789047 0.04647916 0.08670708 0.017204901
000120 e7 fe 3b 3d e1 50 8c be c9 a0 30 be 5e fe 4e 3e
       0.04589739 -0.27405456 -0.17248835 0.20214221
000130 3f 3b a8 bc 59 b6 02 be c5 0d 82 bc 3e 1f ed be
       -0.020536063 -0.12764873 -0.015875706 -0.46312898
000140 f2 c7 e8 be 7d f7 9d be 54 d5 b7 3e 1d e6 a6 3e
       -0.45465046 -0.3085288 0.35904944 0.32597438
000150 85 a9 2c 3e 97 51 13 be 5f 9d 91 be 1f 71 96 3d
       0.16861542 -0.14386593 -0.28440377 0.07345795
000160 87 35 6c be 98 da c1 3e b4 e7 8d 3e 6e 10 6d 3e
       -0.23067294 0.37862086 0.27715838 0.23150799
000170 24 7f 33 3e 6f 41 ce 3c 9e c9 15 3e 1e 90 2b 3e
       0.17528969 0.025177686 0.14627692 0.16754195
000180 d6 f5 f7 be 7c 26 f1 be a8 a7 95 3e a7 66 13 be
       -0.48429745 -0.47099674 0.29229474 -0.14394628
000190 6d a7 c8 bc 85 b6 75 3d c2 40 83 3e 7e ae 03 be
       -0.024493897 0.059988517 0.25635344 -0.12859532
0001a0 b7 5e 2d 3e 1d 9c 47 be fc 46 1e be 42 d5 67 3e
       0.16930662 -0.19493146 -0.15456766 0.22639945
0001b0 57 d1 26 3e 57 2e e4 bd 00 cf 90 3e 96 73 57 3e
       0.16290794 -0.11141651 0.28282928 0.21040186
0001c0 fa 95 0c be 8a 70 92 3e 66 d4 84 be 68 3b 26 3c
       -0.13729087 0.28601485 -0.25943297 0.0101459995
0001d0 bd 71 8c be 5f 16 23 be c3 c7 ff bc 7e 6a 47 3e
       -0.27430525 -0.15926503 -0.031223183 0.19474217
0001e0 ff d9 80 3e 70 ca f4 3b 45 50 59 bd 39 b2 16 bb
       0.25166318 0.0074704215 -0.053055067 -0.0022994413
0001f0 23 31 7a 3e d1 1a 3b be 92 ce f9 3c 73 cd 6e be
       0.24432807 -0.18271948 0.030494008 -0.2332056
000200 bc 4c 95 be cb ea ae 3d 97 0a 58 be e0 cd 0a 3d
       -0.29160106 0.08540877 -0.2109779 0.033887744
000210 9d e0 af be 48 10 68 3e 95 01 73 bd 3d 28 4a be
       -0.34351054 0.22662461 -0.05932768 -0.19741912
000220 d7 04 19 3e 6f 7a 59 3e 7e 09 2c 3e 9a b1 a3 bb
       0.14943253 0.21238111 0.16800496 -0.004995537
000230 48 b0 a2 bc 35 80 8a 3e cc f0 ff be 17 64 17 be
       -0.019859448 0.2705094 -0.499884 -0.14784275
000240 73 32 17 3d 97 6c 1c 3b 74 3c 83 3d 88 01 19 bf
       0.036913346 0.0023868436 0.06408015 -0.5976796
000250 b8 e1 7c 3e f5 35 7a bc 60 8d 47 3e 5a fa 39 3e
       0.2469548 -0.015271653 0.19487524 0.18161908
000260 dd 04 3f 3e 16 bc 1f be 3f 8a 6e 3e 77 8c 5d 3e
       0.18654199 -0.15599093 0.23294924 0.21635614
000270 97 db 2f 3d 15 c9 68 be 92 89 21 3e 85 30 63 bd
       0.042934027 -0.22732957 0.15775135 -0.055466194
000280 1b b7 f1 bd ab 8a 2c 3d 14 4e 44 3d 2e 58 46 be
       -0.11802503 0.04212443 0.047926024 -0.19369575
000290 cd 28 7b be 27 46 01 be e7 1f b9 be 82 85 99 be
       -0.24527283 -0.12624417 -0.36157152 -0.2998467
0002a0 78 a9 55 be 35 bf 81 be 62 6c 26 3e 66 6a 6d be
       -0.20865428 -0.25341192 0.16252282 -0.23185119
0002b0 83 5c 7a 3e 0a 95 9f 3d a2 c9 6a 3e 88 66 f1 3c
       0.24449353 0.07792099 0.2292848 0.029467836
0002c0 7b e3 73 be 2a b4 02 3e b2 53 2e bd 5e 23 2e bc
       -0.23817246 0.1276404 -0.042560287 -0.010628549
0002d0 7b e2 6b 3e 8a d2 79 3e 2c b4 ca bd 92 6e 22 3e
       0.23035614 0.2439672 -0.09897646 0.15862492
0002e0 5d 8e 47 3e 2c 74 9b bc f7 c4 51 be 87 ad 09 3e
       0.19487901 -0.018976294 -0.20485292 0.13445102
0002f0 7f 18 1c 3e 7a ab d8 3d 42 9f f9 3d 64 ef 05 3e
       0.1524372 0.105795816 0.12188579 0.13079602
000300 e3 22 c6 bc 5d e0 c6 3b 42 a4 ce be 63 96 bc bc
       -0.024186557 0.0060692267 -0.40359694 -0.023020929
000310 2f b6 86 3e 82 09 24 3e ed 72 11 bc 60 15 a5 bd
       0.2631087 0.16019252 -0.008877498 -0.080607176
000320 c1 5a 89 be 4a 37 8c bd 6d b2 44 3e 79 ac cf bd
       -0.26827052 -0.06846483 0.19208689 -0.101403184
000330 41 e6 b9 3d f5 bc 91 be cf 02 ac be 31 2c bf bd
       0.090771206 -0.28464475 -0.33595893 -0.09334601
000340 e9 89 49 be 16 ca 72 3e eb e3 ab bd dc 60 6f be
       -0.19681515 0.23709902 -0.08393081 -0.23376793
000350 fc bd e3 be 2e 87 b4 be 18 a7 c3 bd 7e 3d 36 3e
       -0.44480884 -0.35259384 -0.09553355 0.17796895
000360 a5 b1 90 3d 31 f0 e6 3e 14 9e 3d 3e aa 2e 52 3d
       0.07065133 0.45105127 0.18517333 0.051314034
000370 7a 8f 95 be 7e bf 15 3e 95 58 fc 3d 68 89 2e 3e
       -0.29211026 0.1462383 0.12321583 0.17044604
000380 56 1f 97 3c 95 ad b3 3e fa cc 1c be 3b 48 46 3d
       0.01844756 0.3509337 -0.15312567 0.048408728
000390 f4 1d 96 3e 32 64 33 bc f5 99 b3 be 31 2c b9 be
       0.29319727 -0.010949181 -0.35078397 -0.36166528
0003a0 5e 53 7f 3e 79 70 ff 3c f6 fe 67 be 45 d4 8d be
       0.24934146 0.03118156 -0.22655854 -0.2770101
0003b0 31 cc d0 3e 83 27 0b 3e 0c f0 17 bd c6 7b 49 3d
       0.40780786 0.13589291 -0.03709416 0.049190305
0003c0 c1 af 8f be 88 a7 16 be f7 9b 2c 3e d8 4b cd 3d
       -0.28063777 -0.14712346 0.16856371 0.10024232
0003d0 46 41 4d 3e a5 d4 71 bd 8a a6 89 be 1a a2 3a be
       0.20044431 -0.059040684 -0.26884872 -0.182259
0003e0 00 10 3b be 21 be 93 3e 1d f6 41 3e 12 91 e4 3d
       -0.18267822 0.28855994 0.18941541 0.111604825
0003f0 02 3c ea bd 67 a7 ce 3d 9b 8f 2f 3d 76 9b 95 bd
       -0.11437227 0.10090523 0.042861562 -0.073050424

1.conv1.bias f4 [32]
000000 c8 49 01 be 7d f5 5b be 62 84 4e be 42 87 13 be
       -0.12625802 -0.21480365 -0.20167688 -0.14407066
000010 f2 69 38 3e 8e 82 2e 3d 5c 64 1e be 2e b7 60 be
       0.18009165 0.042604975 -0.15467972 -0.21944878
000020 81 52 74 bd 42 d3 41 3e e5 2a d4 bd 7d 36 c7 3d
       -0.059648994 0.18928245 -0.10359744 0.0972719
000030 65 7e 42 be a1 6b 35 3c 5f 32 60 bd 1e d7 80 be
       -0.18993528 0.011073024 -0.054735538 -0.2516412
000040 c7 f2 f6 3c 7d a2 3c be a7 ae 3c 3d 99 ae 85 3d
       0.030145062 -0.1842136 0.046065 0.065274425
000050 3e 9a 19 be bd 75 db bd 90 8c 42 3b 4b 2b 19 be
       -0.15000245 -0.10715816 0.0029685833 -0.14957921
000060 da 72 61 3e 1d 37 d4 3d 95 99 41 3b 70 da ae 3b
       0.22016469 0.103620745 0.0029541005 0.0053360984
000070 26 41 69 be b9 6e 0d 3e fd 5f 6d 3e 46 f8 73 3d
       -0.22778758 0.13811769 0.23181148 0.059562944

1.bn1.weight f4 [32]
000000 41 a8 86 3f 69 b2 91 3f 2e 96 8a 3f 9b bb 88 3f
       1.0520097 1.1382571 1.0827081 1.0682253
000010 d5 b7 7b 3f 9e fa 93 3f 8f c8 60 3f 0a 39 6d 3f
       0.9832738 1.1560857 0.8780603 0.9266516
000020 3e 56 80 3f 13 10 88 3f 44 ff 73 3f a7 a7 88 3f
       1.0026319 1.0629905 0.9531138 1.0676163
000030 5f 49 2a 3f fb f9 88 3f 94 48 7b 3f 76 1b 76 3f
       0.66518205 1.0701288 0.9815762 0.9613565
000040 d6 2c 4c 3f a9 5a 84 3f 9e 1c 80 3f 12 55 8a 3f
       0.79755914 1.0340167 1.0008733 1.0807211
000050 cc 19 89 3f 97 80 84 3f fe 9b 37 3f 9d 53 68 3f
       1.0710998 1.0351743 0.717224 0.90752584
000060 8a 86 8b 3f d3 02 73 3f bb 3c 92 3f 48 2f 7b 3f
       1.0900433 0.94926184 1.1424783 0.9811902
000070 66 82 95 3f e0 96 8b 3f e6 a4 91 3f 7a 65 e6 3e
       1.168042 1.0905418 1.1378448 0.44999295

1.bn1.bias f4 [32]
000000 14 78 ae bd 03 63 c1 bd 5d 72 58 bc d3 38 c4 bd
       -0.08518997 -0.09442713 -0.01321086 -0.09581151
000010 c3 e2 aa 3c 7c 4f 3b bc c6 3c 92 bd 1a 06 cc 3d
       0.020860082 -0.011432525 -0.07140498 0.09962101
000020 5b 48 3e be 4f 24 45 be c9 84 7b bc e1 7f 33 bd
       -0.18582289 -0.19252132 -0.015351483 -0.043823127
000030 4a e2 39 3d 7d 53 7a 3c 14 d0 48 3d b6 14 d0 3d
       0.04538182 0.015278694 0.049026564 0.101602
000040 c7 0f d7 3d e5 48 9f bd 9d a2 c4 3d 4c a5 8c bc
       0.10501056 -0.077775754 0.096013285 -0.017168663
000050 25 21 2f 3d f6 4b 08 3d cf e0 a9 3d 8d 2c 99 bd
       0.04275622 0.033275567 0.08294832 -0.074792005
000060 ef 0f 83 bd 2f 61 56 3d a3 2a 6a bd 06 c9 53 bd
       -0.063995235 0.052338775 -0.057169568 -0.051705383
000070 7c dc 8a bd 06 df 8b bd 4a fd ac bd 2f fe 61 3d
       -0.06780335 -0.06829648 -0.084467486 0.05517405

1.bn1.running_mean f4 [32]
000000 41 0f d2 bd b5 7e 9d bc 84 11 e5 bd c2 1b c8 bd
       -0.10256816 -0.019225458 -0.111849815 -0.097709194
000010 76 c0 ae 3e 05 ca 17 3e 76 a8 67 be d6 28 73 be
       0.3413121 0.14823158 -0.22622856 -0.23746046
000020 d4 20 3b 3d 01 88 83 3e d0 a5 26 be 4d 7a 7c 3e
       0.045685604 0.256897 -0.1627419 0.24656029
000030 5b 54 a9 be 4b 60 e5 3d 4c 47 5c bd 27 36 86 be
       -0.3307217 0.11200007 -0.05377893 -0.2621319
000040 13 99 25 3d ef 1a 9c bd fd 6b b5 3d 45 3f 03 3d
       0.040429186 -0.07622325 0.08858488 0.03204276
000050 90 a4 22 be ae b0 27 3d 6b eb bb bd 1b d0 06 be
       -0.15883088 0.04093998 -0.09175762 -0.13165323
000060 1f 75 87 3e a0 f5 4f 3d 3e e7 1d 3e 67 0f d8 3d
       0.26456544 0.050771356 0.15420243 0.10549813
000070 2a 33 e3 3d f0 70 6b 3e 18 dc dc 3e b1 7c 12 be
       0.11093743 0.22992301 0.43136668 -0.14305378

1.bn1.running_var f4 [32]
000000 47 49 97 3c 70 3a c0 3c 4b b7 db 3b f7 52 34 3c
       0.018467559 0.023465365 0.0067052 0.0110061085
000010 59 77 23 3c 67 d7 11 3c 71 7a cf 3b d8 b7 86 3b
       0.009977185 0.008901454 0.006331735 0.0041112714
000020 fc 73 17 3c a6 30 db 3b 2a 56 15 3c c3 05 30 3c
       0.009243961 0.006689149 0.009114781 0.010743561
000030 97 fa 2c 3c 0a 88 34 3c 67 49 50 3c 36 d5 5e 3b
       0.010557792 0.011018762 0.012712813 0.0034001595
000040 73 4b 8a 3b f1 fd 33 3c fe d5 86 3b 23 0e 6c 3c
       0.00422042 0.010985837 0.0041148653 0.014407667
000050 b4 28 85 3c b7 b8 b4 3c 2b 57 c4 3b 65 d8 e4 3b
       0.01625476 0.022060735 0.0059918365 0.006983804
000060 92 1d 64 3b 2f 52 10 3c 66 22 72 3c e6 cb 12 3c
       0.0034807664 0.008808657 0.014778709 0.008959746
000070 f7 a9 1e 3d 5b 7f 54 3c 9e 96 99 3c bf 91 38 3c
       0.03873631 0.012969817 0.018748578 0.011265217

1.conv2.weight f4 [32, 32, 13]
000000 92 e5 b3 bb 3f 1a 64 3d d6 39 86 3d d5 d1 bc 3c
       -0.0054900134 0.055689093 0.06554 0.023049274
000010 7c 37 8f bc 48 68 52 3c 96 a2 3a bd 92 cc 43 bd
       -0.017482512 0.012842245 -0.04556521 -0.047802515
000020 75 24 36 3d 69 5c 00 3d 70 56 7b bd 10 bb 73 bd
       0.044468362 0.03133813 -0.06136173 -0.05950457
000030 af 7e 4e bd cf 99 5a 3d 17 f9 75 3b eb a2 52 3d
       -0.050413784 0.05336934 0.0037532502 0.051424902
000040 3b 7b 94 3d a8 db cb bc 5b 06 03 3d df 6d f0 3b
       0.07250067 -0.024885014 0.031988483 0.0073373164
000050 76 a2 15 bd 8d 06 30 bd 36 0f 71 bd ff 7b 4d 3c
       -0.036531888 -0.042974997 -0.058852397 0.01254177
000060 d1 2e 99 bc f4 cd 35 bd 33 c1 ef bc f4 26 30 3c
       -0.018699082 -0.044385865 -0.02926693 0.010751475
000070 b1 85 74 bc 43 d9 8d 3d 01 3c f9 3c 16 b2 38 ba
       -0.014924453 0.06926205 0.03042412 -0.000704558
000080 71 1d 15 bd da c1 22 bd aa 2b 35 3a c4 55 2b bd
       -0.03640503 -0.039735653 0.00069111085 -0.04182984
000090 50 f4 0a 3c 2e 98 2b 3d e3 ab 68 3c 8c c5 4f bd
       0.0084811 0.041893177 0.014201137 -0.050725505
0000a0 f9 e6 56 bc c3 62 77 3d a5 66 82 3c 8d aa d8 bc
       -0.013116592 0.06039692 0.015918085 -0.026448512
0000b0 23 f7 e0 bc 53 21 91 bd 56 df 74 b9 12 7b e9 ba
       -0.027461594 -0.07086434 -0.00023352852 -0.0017813167
0000c0 54 c3 a2 3c 76 8e f5 3b 16 60 ab bd 48 40 ac 3b
       0.01986853 0.0074937893 -0.08367936 0.0052566864
0000d0 32 ea 75 3c 86 7b 82 3c a1 e2 8e 3c 0f 4e 40 bd
       0.01500945 0.015928041 0.01744205 -0.046949442
0000e0 13 df 71 bd 76 74 d7 ba 60 a4 c7 bc fb c2 31 bc
       -0.05905063 -0.0016437906 -0.024370372 -0.01084971
0000f0 ac c6 f1 3c c8 35 0b 3c 7d e9 92 3d a0 79 d7 3d
       0.02951368 0.008496709 0.071734406 0.10521245
000100 53 62 4b 3d 22 83 bb bb e8 65 8c 3d 06 db 45 3d
       0.049654316 -0.0057224194 0.068553746 0.04830458
000110 90 a9 e4 3d fc db 56 3d 82 a9 dc 3b 7a 00 ca bd
       0.11165154 0.052455887 0.006734074 -0.09863372
000120 55 fa 61 3a ef da 86 bc 02 a9 b5 bc c7 ca 89 3d
       0.0008620371 -0.016461818 -0.022175316 0.0672813
000130 05 82 6c 3d b3 56 02 bc 4b 51 c6 bb 4a b7 22 3d
       0.057741184 -0.007955241 -0.0060521713 0.03972558
000140 f8 9c e3 3c 7e 8f 1a 3d a1 87 77 3d 76 41 81 3d
       0.02778481 0.0377345 0.06043208 0.06311314
000150 ec ec b5 bd 7d e1 13 bd ec 88 81 bd ea 61 07 be
       -0.0888308 -0.036103714 -0.06324944 -0.13220945
000160 b1 4c 36 3b d1 d4 c9 bd 67 a6 2c bb c1 23 ed bc
       0.0027816708 -0.09855045 -0.00263443 -0.028947713
000170 32 03 e9 bb 6e ab 28 bd 55 15 2a 3d ca 6e 06 3d
       -0.0071109766 -0.041179113 0.04152425 0.0328205
000180 8a e3 eb 3c 4c 2a f8 bc b4 63 f2 3b 64 a0 09 bd
       0.028795023 -0.030293606 0.0073971394 -0.033600226
000190 d4 00 74 bd 14 51 5e 3d 60 25 19 3c 18 cd f1 3c
       -0.059571102 0.05427654 0.00934729 0.029516742
0001a0 b3 09 8a 3c f4 67 16 bd c7 f9 53 3d dc a7 fe bc
       0.016850328 -0.03672023 0.051751878 -0.031085901
0001b0 e5 bf bc 3c ad fe df bb f2 1b 89 3c 60 cf 67 bc
       0.023040721 -0.0068357796 0.016736958 -0.014148563
0001c0 01 d9 b8 bd 13 d9 91 3c 3b a1 c8 bd 01 f9 7a 3c
       -0.09025765 0.017803704 -0.09796377 0.015318156
0001d0 06 df 50 3c c8 92 2d bd 8a 1e 1d 3d c4 2a c2 3c
       0.012748485 -0.04237631 0.038359202 0.023702033
0001e0 d0 e9 ed bc 01 73 3f bc a4 3c 96 bc d5 8d a6 bd
       -0.029042155 -0.011685134 -0.018339463 -0.08132521
0001f0 8d 9c e6 3c 28 c6 d6 bd 8a 88 06 3d 9d c9 13 bc
       0.028150821 -0.10487014 0.032845058 -0.009020236
000200 1c 9c 95 3c 50 99 32 bd 59 83 02 3d a6 7b 82 bc
       0.018262915 -0.04360324 0.031863544 -0.0159281
000210 de 45 c6 bb 1f 23 03 3d 83 7a 47 bc 4e f7 07 bd
       -0.0060508093 0.032015916 -0.012175205 -0.033194833
000220 37 55 85 bc 84 df 7b b9 f1 ea 41 bc 2d 31 51 3b
       -0.016275985 -0.00024020491 -0.0118358 0.003192018
000230 5c 38 32 bc e7 2a a3 3b 52 bd 8d bd e6 ad 1c bc
       -0.010877695 0.0049794796 -0.069208756 -0.009562945
000240 19 4e 4f 3c d1 02 3e 3a 28 0a 0c bd e0 c3 ea bc
       0.012652897 0.00072483445 -0.034189373 -0.028657854
000250 2d c5 2c 3d d4 24 0c bd 58 c0 ae bc 3a 0b d0 bb
       0.04218023 -0.03421481 -0.021331951 -0.0063489946
000260 34 ac 5b bc 31 5b 13 3d 1e 8a 97 3c 6d 6b ae 3c
       -0.013407756 0.03597564 0.018498477 0.021291459
000270 36 fe 09 3d 30 45 1a 3d 64 3b 61 3d 59 65 15 3d
       0.0336897 0.03766364 0.05498828 0.036473606
000280 7b be 1c bd 0d 4f 6e 3c 48 2d 39 bd 1d fa a7 3c
       -0.038267594 0.014545214 -0.0452092 0.020505005
000290 8d bc 26 bd db 01 ee 3c 84 52 29 bd ec 91 82 bd
       -0.04070716 0.02905362 -0.04133846 -0.06375489
0002a0 81 c6 14 bd 10 bb c6 3c 24 33 88 bc 02 cd cd bc
       -0.03632212 0.02425912 -0.016625948 -0.02512217
0002b0 c2 a6 2d 3d e4 20 2f 3d dd ce bf 3b 86 47 05 3d
       0.04239536 0.042755976 0.0058535174 0.032538913
0002c0 45 9e 9c bd 7e e0 98 bd 26 13 52 bd 2c 81 61 bb
       -0.07647375 -0.074646935 -0.051287793 -0.0034409268
0002d0 08 78 94 bc 00 33 3b bd 29 56 9f bc 64 1b 22 bd
       -0.018123642 -0.045702934 -0.019450264 -0.039576903
0002e0 6f fa 49 bd c0 b7 94 3c fd c8 3c 3d e5 69 92 bc
       -0.049311098 0.018154025 0.046090115 -0.01787276
0002f0 49 03 f5 3c 23 62 9a 3b 60 9c a6 bd 7e aa 6d bd
       0.029908793 0.004711406 -0.08135295 -0.058023922
000300 79 61 92 bc b5 30 c9 3d 76 8c e2 3d 73 7c 26 3d
       -0.017868744 0.09823743 0.11061947 0.040646028
000310 23 1b 67 3d 67 4d 33 3d af 9c 32 bd ba f8 96 3d
       0.056422364 0.04377499 -0.043606456 0.073716596
000320 bd 93 cb 3b be 67 e1 bc b8 8e 1a bd 88 07 2b bc
       0.00621268 -0.027515288 -0.037733763 -0.010438807
000330 b4 d7 9c bc d0 3d e5 bd af 32 0e bc 04 53 34 bc
       -0.019145824 -0.111934304 -0.008679076 -0.011006121
000340 6f 31 51 3c 75 31 a4 bc c0 d7 55 3d 33 9f 97 bc
       0.012768134 -0.020043114 0.05220771 -0.01850853
000350 24 cc 88 bd c3 ba 24 bd cb 09 13 bd 91 4a 8b 3d
       -0.06679562 -0.040217172 -0.03589801 0.06801332
000360 df 0c 03 3d 9b 29 11 3d 9d bb 11 3c cf 1a 7d bd
       0.031994697 0.03544007 0.008894828 -0.061793145
000370 a2 c7 8f bd 6d 51 bc 39 28 c0 a4 3c 50 d8 95 bb
       -0.07020499 0.0003591882 0.020111158 -0.0045729056
000380 ec dd a6 bb 94 66 3f 3d 4c 83 56 bd 47 95 b0 bd
       -0.005092373 0.046728685 -0.05237131 -0.086222224
000390 19 07 04 3d ae c3 03 3d 09 9e 64 3d 44 b0 bb 3c
       0.03223333 0.032169037 0.055814777 0.022911198
0003a0 23 e2 6e bc 8f 45 39 3c 2c a2 6c 3d 26 7b 71 bc
       -0.014580282 0.011308088 0.057771847 -0.0147388335
0003b0 2b 66 b7 bc 13 a4 04 3d 05 3d 4b 3c c5 42 96 3d
       -0.022387585 0.032383036 0.012404685 0.07336954
0003c0 50 75 6b 3c fc 00 99 bd d2 68 02 ba af 2d 78 bd
       0.014371231 -0.07470891 -0.0004974726 -0.060590442
0003d0 78 1d 89 3c be 16 62 bd 56 52 8b 3d ba 39 c5 bb
       0.016737685 -0.05519747 0.06802814 -0.0060188444
0003e0 ba d9 27 bd 9d 21 2d 3c c1 e9 2b 3d bb 18 46 3c
       -0.040979125 0.010567096 0.041970972 0.012090857
0003f0 83 d5 15 3c 2d 9f 75 bd 2b 4a 94 bd ff c2 bd 3c
       0.009145143 -0.059966255 -0.07240709 0.02316427

1.conv2.bias f4 [32]
000000 5b 10 8f 3c e3 a3 5d bb 74 b8 88 bc 22 8b e4 bc
       0.017463854 -0.0033819608 -0.016689517 -0.027898375
000010 4f e4 91 3c 18 33 68 bc 21 3e 74 bc 62 22 93 3c
       0.017809061 -0.014172338 -0.014907391 0.017960731
000020 e4 a7 62 3c a1 29 8a 3c 18 6d a6 bb 09 97 bf bc
       0.013833974 0.016865553 -0.005078923 -0.023387449
000030 ec 29 1a bc cf 1e 09 bd d2 d5 d7 bc e9 ec 01 bd
       -0.009409409 -0.033476647 -0.026347075 -0.031720076
000040 74 96 20 3d a1 1f 11 bd 2b 05 92 bc 13 7e d6 bc
       0.039205983 -0.035430554 -0.01782473 -0.026183164
000050 56 41 b6 bc 1f 5d e5 3c 71 b6 ae 3c e9 76 db 3b
       -0.022247951 0.027998505 0.02132723 0.006697525
000060 90 eb 08 bd 7a f0 56 bc 07 7a 2d 3d 5f fc 2e 3d
       -0.033427775 -0.0131188575 0.042352702 0.04272115
000070 f6 d2 f1 3c b9 f9 9d 3c 3f 3a 38 bd 8d be 84 3c
       0.02951954 0.019284116 -0.044977423 0.016204143

1.bn2.weight f4 [32]
000000 57 59 7a 3f df c2 69 3f 5a fc 7c 3f 07 91 70 3f
       0.9779257 0.91312975 0.9882256 0.93971294
000010 96 39 7b 3f 52 70 69 3f b7 84 75 3f 5f b5 60 3f
       0.98134744 0.9118701 0.9590563 0.8777675
000020 ef d5 69 3f 7c 99 5c 3f 6b 30 51 3f ef 19 77 3f
       0.9134206 0.861717 0.81714505 0.96523947
000030 b2 bd 69 3f 4c 5e 6f 3f f7 a3 57 3f 4b 51 83 3f
       0.9130508 0.9350326 0.84234565 1.0259184
000040 fa ad 7b 3f f6 cd 84 3f 42 e7 73 3f e6 03 95 3f
       0.9831234 1.0375354 0.95274746 1.1641815
000050 e9 04 64 3f 8b ec 18 3f 35 6f 5b 3f f2 55 7b 3f
       0.8906999 0.59735936 0.85716563 0.9817802
000060 f9 d5 81 3f 22 fb 6f 3f 6f 77 6b 3f b9 f5 6d 3f
       1.0143424 0.93742573 0.91979116 0.9295307
000070 ac c1 69 3f e6 71 76 3f 21 23 6e 3f 73 39 6d 3f
       0.91311145 0.96267545 0.9302235 0.92665786

1.bn2.bias f4 [32]
000000 2c 94 65 3a 2e 81 9a bd 74 a2 12 3c e8 bd 68 bd
       0.0008757736 -0.0754417 0.008949865 -0.056821734
000010 39 d1 98 bd 0a 50 fc bb 6c 94 9d bd ab af 23 be
       -0.07461781 -0.007699971 -0.07694325 -0.15984981
000020 c2 77 12 be ef 1e 1e 3d c2 e9 a4 bd 45 da db bd
       -0.14303496 0.03860372 -0.08052398 -0.10734991
000030 32 38 6d bd 20 74 16 bd 14 8e 4d bc 31 54 bf 3d
       -0.05791492 -0.03673184 -0.012546081 0.0934223
000040 4a 8c d6 3c d2 19 8f bd 4c c0 b1 bd c5 38 61 bd
       0.026189942 -0.06987347 -0.08679256 -0.05498578
000050 e2 32 ff bc af 81 df bb 93 f5 85 bd e0 18 16 be
       -0.031152193 -0.0068208794 -0.0654098 -0.14657927
000060 fa c3 d2 bd 19 0b 9c bd 1d 58 e7 3c 0d c1 2d be
       -0.10291286 -0.07619304 0.028240258 -0.16968174
000070 3f 40 aa bd 7c 44 6b 3d 83 fd 29 bc 61 3b a9 3c
       -0.08313035 0.05743836 -0.010375383 0.020658197

1.bn2.running_mean f4 [32]
000000 e5 96 80 be a4 a3 a7 3f 33 23 a0 be 38 54 3e be
       -0.25115123 1.3096814 -0.31276855 -0.18586814
000010 fa 06 07 3e a5 ab 6a be 6b ec 1d bf 25 eb ce 3f
       0.13186255 -0.2291704 -0.6168887 1.616551
000020 0c fe f7 be e6 87 b7 be ef 6b ea be 9e 90 36 3f
       -0.4843601 -0.3584587 -0.45785472 0.7131442
000030 99 11 99 be 5b cc ce bf 49 1d 2e bf 04 ee b9 bf
       -0.29896238 -1.6156114 -0.68013436 -1.4525762
000040 26 db e5 be a7 1e 70 bf fb 7d 0d bf 21 c6 94 be
       -0.4489376 -0.9379677 -0.55270356 -0.2905741
000050 39 77 0e bf c0 25 81 3e dc f1 92 3e 2f 11 95 3e
       -0.5565067 0.25224113 0.2870015 0.29114673
000060 f6 98 ce bf ea 79 83 3f 99 15 e2 be d1 4f 84 be
       -1.614043 1.027158 -0.44157103 -0.25842145
000070 f5 93 5a bd 77 51 cb 3d e6 bc 8c 3e 4c 31 da bc
       -0.05336376 0.099276476 0.27487868 -0.026634835

1.bn2.running_var f4 [32]
000000 00 c5 84 3f be 35 38 3f e8 a4 f2 3e 0d 06 c6 3e
       1.037262 0.71957004 0.47391438 0.3867649
000010 38 bb 93 3f 3c 5a 39 3f 6e ea d6 3f 96 69 0f 40
       1.154151 0.7240331 1.6790292 2.2408195
000020 b1 27 fa 3e 43 6a a2 3f b4 db 03 3f 89 46 a4 3e
       0.48858407 1.2688679 0.51507115 0.32085064
000030 f0 14 06 40 d1 b9 e1 3f c4 5e a2 3f 01 74 94 3f
       2.095028 1.7634832 1.268517 1.1597902
000040 43 a8 3f 3f be e8 18 40 d8 87 f8 3e 23 9d 6b 3f
       0.7486612 2.3892055 0.4854114 0.92036647
000050 38 01 1f 3f 41 32 51 3f c7 a8 eb 3e 6f 91 df 3e
       0.62111235 0.81717306 0.46027204 0.43665645
000060 fa 0c 35 40 51 69 aa 3f c5 f7 e9 3e 1a f3 bc 3e
       2.828917 1.331339 0.45696846 0.36904222
000070 ed 5c 71 3f c8 68 e5 3e 8c 94 30 3f ea d7 e5 3e
       0.9428242 0.44806504 0.68976665 0.44891292

2.conv1.weight f4 [32, 32, 11]
000000 1d 6a 59 3d f0 44 53 3d 39 4f 17 bd a3 0a 97 3b
       0.053079713 0.051579416 -0.036940787 0.0046094223
000010 f8 ad ef bc fc 8f 76 3d 62 19 c9 bc 0b 04 04 bd
       -0.02925776 0.060195908 -0.024548236 -0.03223042
000020 98 a4 ea bc 7d 7d 86 3b 33 6c af bd 01 8b f2 3c
       -0.028642938 0.004104315 -0.08565559 0.029607298
000030 6a 06 fa bc 39 f7 07 bd 9b f3 74 3c 58 3f 11 3c
       -0.030520637 -0.033194754 0.014950658 0.0088652
000040 7a d6 34 3d bf 69 03 bd c8 f7 76 3b 8f 29 16 3d
       0.044149853 -0.03208327 0.003768431 0.036660727
000050 9f 52 13 bd 8b 5b 3a 3c 16 34 fe bc 8a be ba bc
       -0.035967465 0.011374365 -0.031030696 -0.022795934
000060 ae 62 a6 3c d2 da 3e bd 43 f8 82 bd 1f 01 8d 3b
       0.020310726 -0.046595402 -0.063950084 0.004303112
000070 97 b6 a6 bc 82 0d 85 3c 70 94 56 bd d2 fd a3 3b
       -0.020350737 0.016241793 -0.052387655 0.005004623
000080 de 96 ef bc 50 98 fb bc 31 a6 e7 bc 3c 70 39 3d
       -0.029246744 -0.030712277 -0.028277488 0.04527305
000090 af df 46 ba 2a c7 08 3b b0 8c 81 3c 0e 60 d4 ba
       -0.0007586432 0.0020870664 0.015814155 -0.0016202943
0000a0 8c 71 47 bb 7a 3d 31 3d ef 29 81 3b a3 ef 73 3c
       -0.003043267 0.04327152 0.0039417665 0.014888677
0000b0 d1 8f b9 bc 5a 58 46 bd 6d 3b 06 bd e5 d2 25 bd
       -0.022651585 -0.048424102 -0.032771517 -0.040484328
0000c0 c9 f7 13 3c ee 29 42 bd 5e 9c 1f 3c 73 94 41 3d
       0.009031245 -0.04740327 0.009741871 0.047260713
0000d0 ea 11 4b bd 56 98 03 3d 7e 8a 18 bd 90 b2 d3 3c
       -0.04957763 0.0321277 -0.03724145 0.025841981
0000e0 f1 07 91 bd 0d 7b 59 3d 2a 5a 30 3c 5b 39 3c bc
       -0.07081593 0.053095866 0.010763684 -0.011488284
0000f0 0f 30 b5 bd 82 22 e3 bd 95 1b d5 3c d2 f4 4d bd
       -0.08847057 -0.11090566 0.026014129 -0.050282307
000100 9d cd de 3d 6a 16 02 3c 90 a1 16 bd a8 43 0b bd
       0.10879061 0.007939914 -0.03677517 -0.03400007
000110 f0 83 a7 bc cb 13 d5 bc 26 d0 a5 bc 8f a7 2c bd
       -0.020448655 -0.026010415 -0.020240854 -0.042151984
000120 31 01 d1 3d bc a1 a2 3b 2f 21 b7 3c e0 4c 7b 3d
       0.10205305 0.004963128 0.02235469 0.06135261
000130 12 10 33 3d f3 4c e1 bc 0e 20 28 bd ac 5c 81 3c
       0.043716498 -0.027502513 -0.041046195 0.01579126
000140 37 9f 86 3c cc 3d b8 bc 97 bc 4b 3d 04 2f 83 3d
       0.016433341 -0.022490405 0.0497404 0.06405452
000150 62 9a d0 3c ba 10 a9 bd 80 79 ce bd fa af 94 bd
       0.02546424 -0.082551435 -0.10081768 -0.07260127
000160 37 9d 4d 3d 90 43 62 bd a4 4e 0c bd ce ee a2 bc
       0.05019876 -0.055240214 -0.034254685 -0.019889262
000170 ee 6f 33 3d 04 f6 37 3d d0 2a 0e bd 2a ce ce ba
       0.043807916 0.044912353 -0.034708798 -0.0015777994
000180 ee 49 a2 bc 27 54 00 bd f0 8e f6 bc 70 ea ab 3d
       -0.019810643 -0.031330254 -0.030097455 0.08394325
000190 d9 17 7a 3d 4f 90 b0 bb 65 e6 d0 bc 11 3b c2 bb
       0.0610579 -0.0053882967 -0.025500486 -0.0059274514
0001a0 bc 64 73 bc b1 3e 1b bc 71 11 78 3c 67 2f 9e bd
       -0.01485556 -0.009475396 0.015140877 -0.07723885
0001b0 8a 14 d6 bd e9 92 1d bd 39 dc dc bc 4d 2b 4a bd
       -0.10453136 -0.038470183 -0.02696048 -0.0493577
0001c0 7c 93 76 3c b1 7b fe bc dc 46 54 3c d6 a7 12 3d
       0.015049811 -0.03106484 0.012956347 0.035804592
0001d0 f5 e7 4a bd 9d a4 a5 bc 3c 6b 81 bd 81 63 e4 3c
       -0.049537618 -0.020220095 -0.063192815 0.027879478
0001e0 9f e5 9d 3b b0 1d 19 bd 15 89 63 3c 44 a3 66 bd
       0.0048186327 -0.037381828 0.013887663 -0.056308046
0001f0 d6 cf 4e bc 41 72 fa 3c 51 be 9e 3c 40 b4 49 3d
       -0.012622794 0.030572059 0.01937786 0.049244165
000200 1e 53 18 3d 53 f5 39 3c 0d 5f c4 bb c3 96 31 bb
       0.03718864 0.011349994 -0.0059927762 -0.0027097918
000210 e3 9b 70 3b b4 73 01 bd a4 64 91 bd f8 97 72 bd
       0.003671401 -0.031604484 -0.07099274 -0.05922696
000220 42 7f 9c 3a 8f 0f 4b 3d 8f 99 7d 3d 76 a4 9d bc
       0.0011939781 0.049575385 0.061914023 -0.01924346
000230 d1 00 84 bc d1 51 0b bd e5 9b d3 3d 08 28 db bc
       -0.01611367 -0.034013573 0.10332469 -0.026752487
000240 81 d4 21 3c 12 06 81 bc 8d 76 b7 3d 4e d3 86 3d
       0.009877325 -0.015749965 0.08958159 0.06583272
000250 44 2e 9a 3d ae 28 a3 bc 01 86 35 bd 13 8b f8 bb
       0.07528356 -0.019916859 -0.04431725 -0.0075849383
000260 89 c0 e6 3c 03 ac 8d 3d 53 ae 82 3d 03 7f 0b 3d
       0.02816798 0.06917574 0.06380906 0.034056675
000270 77 8f da bc 6e 0c 6a bd 74 fb 46 bd 7d 84 88 3d
       -0.026679737 -0.05714076 -0.048579648 0.06665895
000280 bb f5 63 bd 9a e0 bb bc 14 f3 04 bd fe f1 6e 3d
       -0.05565427 -0.022934247 -0.03245838 0.05833625
000290 bd 22 c2 3b ad 5d af bd e9 de 87 3c b2 b7 63 bd
       0.0059245513 -0.08562789 0.016585784 -0.055595107
0002a0 45 72 df bc c5 9d 74 bd ea 7b a7 bd 56 e4 1b 3d
       -0.027276168 -0.059720773 -0.081779316 0.038059555
0002b0 1e 99 9d bb 99 3b 0c 3d 98 a0 21 3d 8a d9 89 3d
       -0.0048095128 0.034236524 0.039459795 0.067309454
0002c0 b3 56 3c bd 30 c0 e3 3b 2d e2 01 bc fe 60 28 bc
       -0.04598112 0.006950401 -0.00792746 -0.010277031
0002d0 cd 12 09 bd 67 56 c0 bc 45 44 17 bd b9 36 bd 3c
       -0.033465195 -0.0234787 -0.03693034 0.023097383
0002e0 e0 bd 19 3d 6c 8a 82 bd d9 31 cc bd 57 23 52 bd
       0.037534595 -0.06374058 -0.09970445 -0.051303234
0002f0 72 ec 45 3d b2 be 82 bd 9b b5 95 3c 1f 49 ec bd
       0.048321195 -0.063840285 0.018275073 -0.11537384
000300 2f 00 29 3c 85 14 0d 3c c3 ee 32 3d 5f 10 a0 3d
       0.010314985 0.008610849 0.043684732 0.078156225
000310 49 b8 8b 3d ee d3 62 3c 7d ad 85 3d df 03 71 3d
       0.06822259 0.013844473 0.06527231 0.058841582
000320 03 f3 6b bc ca 90 f7 3c 22 a5 44 bd 43 e1 7c ba
       -0.0144012 0.030220408 -0.048009045 -0.0009646604
000330 f5 c6 93 3d c7 55 32 bc b8 86 92 3d f1 06 9b bc
       0.072156824 -0.010884709 0.07154602 -0.018924208
000340 aa 39 91 bc 57 4a c5 bc 35 ef 99 bd 79 5d e4 bd
       -0.017727692 -0.0240833 -0.07516328 -0.11150641
000350 da 29 22 39 e4 6b 2f 3d 51 d0 a6 bc d5 4d 61 3d
       0.00015465115 0.042827502 -0.020363005 0.055005867
000360 a4 fe 9f bc e1 5c 4c bd bb ea 90 bd f8 e7 ec bd
       -0.019530602 -0.049893264 -0.07076021 -0.11567682
000370 a6 ce 71 bc 96 4f 32 bd 91 8b c3 3c 72 be 41 bd
       -0.0147587415 -0.04353293 0.023870261 -0.047300763
000380 e5 2f 7c bd bd f9 8e 3b 47 6f e0 3c f8 6f 8f 3d
       -0.061569113 0.004363267 0.027396811 0.07003778
000390 77 45 7c 3c 90 d6 d7 bc fa 21 8b bd ca 15 96 bc
       0.015397421 -0.026347429 -0.0679359 -0.018320937
0003a0 5e fe 3d bd 3a 92 a9 bc 46 2d 0d 3d 2e 38 77 bd
       -0.04638516 -0.02069961 0.034467004 -0.06035631
0003b0 c2 69 63 bc 58 9c 99 3d 53 bc cb 3c dc 14 93 3d
       -0.013880195 0.07500523 0.024870073 0.07181713
0003c0 b3 fa 26 3a 4e bb 3c 3d 17 23 e3 3c 00 04 5e 3d
       0.00063697546 0.046077065 0.027726693 0.054203033
0003d0 c2 16 33 3d 91 55 0e 3d 1a 5a 1e bc 20 bb 2d 3d
       0.043722875 0.03474957 -0.009665037 0.042414784
0003e0 b1 fd 87 3d 7b 29 f7 bb c6 cc 4b 3d d4 66 d3 bc
       0.06640185 -0.0075427867 0.049755834 -0.025805868
0003f0 78 6a 6b 3d 2b 75 75 3c 46 c4 82 bd 3e 0b 62 bd
       0.057474583 0.014981548 -0.063850924 -0.055186503

2.conv1.bias f4 [32]
000000 48 7a ef 3c 4d b4 be 3b 65 00 a9 3c 6d dc 2c 3d
       0.029233113 0.0058198334 0.020630071 0.042202402
000010 66 f4 4c 3d e6 1b 04 bd 07 58 42 3d 92 7e 75 bb
       0.050037764 -0.03225317 0.04744723 -0.0037459475
000020 43 c9 f1 ba 08 5c 3b 3d 6a ae 43 bc 53 25 f6 bc
       -0.0018446821 0.045742065 -0.011943439 -0.030047094
000030 dd 64 d9 3c dc 3b 7a bc eb 65 38 bd 74 d4 d2 bc
       0.026537353 -0.015273061 -0.04501907 -0.025736071
000040 d4 40 22 3d e1 b5 02 bc 09 45 13 3d 5b 2d 34 3b
       0.039612606 -0.007977934 0.03595451 0.0027492854
000050 5b fe 4c bd 3f e8 35 3d d6 ca 91 bc 0a dc aa 3a
       -0.05004726 0.04441094 -0.017796915 0.0013035547
000060 be 10 3e bd e5 39 21 3d c3 89 09 bb 52 97 07 3b
       -0.046402685 0.039361853 -0.0020986653 0.002068956
000070 ae be 2b bd 03 e6 ee 3c 7e a2 48 bd 99 29 17 bd
       -0.041929893 0.029162413 -0.04898309 -0.036904905

2.bn1.weight f4 [32]
000000 21 09 7e 3f 13 1c 70 3f f1 d4 80 3f 4b a9 7a 3f
       0.9923268 0.9379284 1.0064985 0.9791457
000010 b2 a0 8c 3f 6a 34 83 3f d3 0f 83 3f d7 30 74 3f
       1.098654 1.025037 1.0239204 0.95387024
000020 2e 69 7d 3f de c2 80 3f 4c 7c 7e 3f bf 40 7e 3f
       0.98988616 1.0059469 0.9940841 0.99317545
000030 4a 58 73 3f 10 cf 80 3f 7b 0b 7b 3f 01 e0 7e 3f
       0.95056593 1.006319 0.9806439 0.9956055
000040 15 95 84 3f 1a 65 83 3f 1e 00 82 3f 03 c5 74 3f
       1.0357996 1.0265229 1.0156286 0.95613116
000050 12 34 86 3f 3b 3c 88 3f 4e 8f 79 3f 2c f2 6c 3f
       1.0484641 1.0643381 0.9748429 0.92557025
000060 4b 79 6d 3f 77 b8 70 3f 48 f8 82 3f 84 7b 7c 3f
       0.92763203 0.9403147 1.023202 0.9862597
000070 cf 47 83 3f 08 86 81 3f 02 b4 89 3f d8 dc 81 3f
       1.0256289 1.0119028 1.0758059 1.0145521

2.bn1.bias f4 [32]
000000 be db 0f 3c e8 df 91 3b fe 6c fa 3c c9 a6 08 bd
       0.008780418 0.0044517405 0.03056955 -0.033362184
000010 a7 38 7d bc 5b 4e d5 bd 27 e6 a5 3b ba 12 80 bd
       -0.0154554015 -0.10415336 0.0050628367 -0.06253572
000020 09 5c 18 bd ec ec 83 bc a2 57 12 bd e8 65 1a 3b
       -0.037197147 -0.016104184 -0.035728104 0.0023559276
000030 33 b1 1f bd 98 2d 30 bc a5 79 d1 3c 43 b2 44 3d
       -0.03898735 -0.010753058 0.0255707 0.048021566
000040 0c 97 48 bd d5 24 2a 3d 9f 89 18 bc e4 20 a9 3c
       -0.048972175 0.041539032 -0.009310155 0.020645566
000050 8d 19 3b bd 55 4f 96 bc 9c 24 66 bd 0d 7b 1e bb
       -0.045678664 -0.018348375 -0.056187257 -0.002418223
000060 80 78 06 bc b0 d2 e3 3b ca 60 11 bd 03 97 8b 3d
       -0.00820744 0.006952606 -0.035492696 0.068159126
000070 91 ba 0a 3d 0e 01 5b bd bf 10 5f be 5d 74 9a bc
       0.03386933 -0.053467803 -0.21783732 -0.018854314

2.bn1.running_mean f4 [32]
000000 43 f9 72 be 3a 10 c1 3e 6e 8e b2 be 2b c3 07 bc
       -0.23727898 0.37707692 -0.3487429 -0.008286278
000010 dd 11 40 bd 00 90 36 be fa 67 62 be 2f d8 00 be
       -0.046892036 -0.17828369 -0.22109976 -0.12582467
000020 32 2f 97 be 34 f0 62 3d 74 b6 ac be a4 a8 90 be
       -0.29528195 0.055404857 -0.3373295 -0.28253663
000030 05 f9 da ba 12 85 26 bd de 1f 4c be 74 2b 14 be
       -0.0016706294 -0.04065425 -0.19934031 -0.14469701
000040 4a 39 0c 3d f4 b8 81 be 1c 88 a5 be 70 a2 6b 3b
       0.034234323 -0.2533642 -0.32330406 0.0035954975
000050 7b fe 7d be ef 2a 16 bf f6 b1 92 be 9f 5f 62 3c
       -0.24804108 -0.5865926 -0.28651398 0.013816743
000060 77 89 38 3e 3a d6 2c 3f a1 e7 95 bd 1f ee da 3c
       0.18021189 0.67514384 -0.0731957 0.026724873
000070 ff f2 a0 bd d5 e4 1d bf d4 d1 a2 be 7a 4b 02 bf
       -0.07858848 -0.61677295 -0.3180071 -0.5089642

2.bn1.running_var f4 [32]
000000 3b a1 88 3e 9e 1a 2d 3e 34 0c 06 3e fa 71 48 3e
       0.2668551 0.16904685 0.13090593 0.19574729
000010 c7 f3 4c 3e 1c 90 8d 3d 0d 1a cb 3d 61 cf 63 3e
       0.20014869 0.06912252 0.09917078 0.22247078
000020 cc 50 fa 3d 7c 42 c7 3d d3 d9 c3 3d b1 d2 ee 3d
       0.12222442 0.09729478 0.09563031 0.1166128
000030 73 fd aa 3d d8 34 f2 3d 26 80 61 3e e4 bd 7e 3e
       0.08349123 0.118264854 0.22021541 0.24877125
000040 8d 7f 8e 3e 8c c0 60 3e 49 d1 a1 3e 6e 91 1e 3e
       0.2783169 0.21948451 0.31604984 0.15485165
000050 09 95 cd 3e 39 f3 d6 3e 89 41 dc 3d 68 eb 04 3e
       0.40152767 0.4198244 0.10754687 0.12980425
000060 fd 2f e0 3d 4b 5a 51 3e 34 55 94 3d 46 01 dc 3e
       0.10946653 0.204446 0.07242814 0.42969722
000070 f1 55 26 3e ca 81 81 3e 56 1d 6f 3e 3f 65 64 3e
       0.16243722 0.25294334 0.23351035 0.22304247

2.conv2.weight f4 [32, 32, 9]
000000 30 2e 58 bd 39 1a 6c bd a6 59 60 bd 17 1a 92 bd
       -0.052778423 -0.057642195 -0.054772995 -0.071338825
000010 83 01 ae 3c 3e a3 1e 3c 8a 0a ea 3c 3b 90 9d bc
       0.021240955 0.009682475 0.028569479 -0.019233814
000020 79 83 72 bc 54 58 13 bd 87 f3 45 bd a3 8f 98 bd
       -0.014801853 -0.03597291 -0.04832795 -0.074492715
000030 ed e6 05 bd 07 2e 3e bd c5 93 10 bd cb e7 b3 ba
       -0.03269093 -0.046430614 -0.035297174 -0.0013725696
000040 c1 fc 99 bd 13 f7 05 bb f3 bc 80 bd 09 88 b1 bc
       -0.07518912 -0.0020441457 -0.06286039 -0.021671312
000050 77 c3 30 bd d0 98 17 bd b6 64 0b 3c d8 7a 73 3d
       -0.04315516 -0.037010968 0.008507898 0.059443325
000060 7a 09 85 3a 2b e3 8c bc c3 53 08 3d 06 01 8c bd
       0.0010149919 -0.017198166 0.033283006 -0.06836133
000070 c0 db 59 bd 0b 91 31 bd f1 c1 bc bc 59 19 0a bd
       -0.053188086 -0.043351214 -0.023041697 -0.03371558
000080 d6 29 18 bd dc 9a 6a bd 30 33 0f bd 3a 5c 1e bd
       -0.037149273 -0.05727659 -0.034960926 -0.038662173
000090 b1 97 36 bd 04 ee 77 3d e7 54 2d bd 4e eb 02 bd
       -0.044578258 0.060529724 -0.042317297 -0.031962685
0000a0 fd 1f 73 bd dd 58 46 bd 5e 74 1b 3d 21 41 63 bd
       -0.05935668 -0.04842459 0.037952773 -0.055482034
0000b0 19 03 7a bc 4b c5 6d bc 70 91 06 bd b6 24 5d b9
       -0.015259528 -0.01451237 -0.032853544 -0.00021089878
0000c0 f1 5c 45 bd f7 9e 4e 3d 8f b0 3b 3d e6 13 07 bc
       -0.04818434 0.05044457 0.045822676 -0.00824449
0000d0 12 76 c9 bc 0b 1c 9b 3c d1 03 97 3c c0 5f 89 3c
       -0.024592433 0.01893427 0.018434437 0.01676929
0000e0 63 32 a4 3b d3 27 3f bd ce cf 6e 3d a1 3d 4d bc
       0.0050108894 -0.04666884 0.058303647 -0.0125269005
0000f0 6d 3e 85 bc 7a fd 19 3d 6b 01 d4 bc a3 ab 17 bd
       -0.016265118 0.03759525 -0.025879582 -0.03702892
000100 b3 e3 a1 bd 28 af 1c 3c 6b 8c 0a bd a8 90 ac 3c
       -0.07904758 0.009563245 -0.03382532 0.021065071
000110 7d 10 58 bd e3 4f d9 bb fa 0c 41 bb ca fc 96 3c
       -0.0527501 -0.0066318377 -0.0029457198 0.018431086
000120 50 33 17 bd b0 85 68 bc 2e da ac bc bf 91 e7 3c
       -0.03691417 -0.01419203 -0.02110013 0.02826774
000130 90 2a 70 bd 8a 18 57 3d 5a da 2e bd fb 72 1e bc
       -0.05863434 0.052513637 -0.042688705 -0.009670968
000140 f7 60 a2 bc 72 a1 98 3c 7a 48 44 bc 3b 2a a5 3b
       -0.019821627 0.01863167 -0.01198017 0.0050404347
000150 3e 4f d6 3c bc 2b db bb c3 c7 17 bc f8 fe bf bc
       0.026160832 -0.006688563 -0.0092639355 -0.023437008
000160 1c bc 0b 3d 12 a2 85 bb bf d7 6c 3c 71 ad 12 bd
       0.034114942 -0.004078158 0.014455735 -0.035809938
000170 48 82 c0 39 e8 30 43 3d 4b 4c 54 3d bf 82 b0 bc
       0.0003671816 0.047654063 0.05183057 -0.02154672
000180 80 f4 fd 3c a6 ab 5e 3c a6 2e 16 3d 33 0e dc 3c
       0.031000376 0.013590729 0.03666558 0.02686224
000190 8d 9b ea bc 4d e2 e0 3c d7 2f f0 3c 83 87 5c 3b
       -0.028638626 0.027451659 0.029319687 0.0033650107
0001a0 cd 13 9f 3c e3 45 84 3a 0c c3 ee bb 36 85 1f 3c
       0.019418621 0.0010091629 -0.007286435 0.00973635
0001b0 99 ed 40 3c 29 d2 76 bc 69 92 97 bd 2e 78 cd bc
       0.011775398 -0.0150647545 -0.074009724 -0.02508172
0001c0 3d 7b 1b bc 6d 92 29 bc dd 2c 1b 3c e7 3b bd 3c
       -0.0094898315 -0.010349852 0.009471145 0.023099853
0001d0 88 e6 87 3d 84 4d 9b bc 52 df 91 bd 91 43 ad 3b
       0.06635767 -0.01895786 -0.07122673 0.0052875956
0001e0 31 f8 ab 3c 11 f0 72 bd 37 29 92 bb f8 da b2 3c
       0.02099237 -0.059310976 -0.0044604796 0.021832928
0001f0 68 33 6c bc 86 f6 0f bd 75 91 6c bd 7f 10 86 3d
       -0.014416553 -0.035147212 -0.057755906 0.06546115
000200 39 dd 13 bc 0d 58 25 3d 5c 96 83 3d df 7d 0b bd
       -0.009024912 0.040367175 0.06425163 -0.034055587
000210 94 ab 94 bc d9 5a cc bc 38 26 69 bd c8 17 82 bd
       -0.018148221 -0.024945663 -0.056921214 -0.06352192
000220 01 79 7f bd 9e a6 71 bd 8a e6 3b 3d f3 6c 9c 3c
       -0.062371258 -0.05899679 0.045874156 0.01909492
000230 5a e5 96 ba fc a6 8d bd 72 b8 c8 bc 11 3a 6e bb
       -0.0011512444 -0.06916615 -0.024502013 -0.0036350528
000240 27 b3 34 bd 53 89 0a bd da c8 15 bd 27 7a 8b 3c
       -0.044116165 -0.03382237 -0.0365685 0.01702602
000250 36 93 01 bd e3 69 e0 bb 41 40 b0 bd 12 3b 17 bd
       -0.031634532 -0.00684856 -0.086060055 -0.03692157
000260 03 4a b4 3b 44 12 55 3d d9 c1 d2 3c 7b 77 07 3a
       0.005501987 0.052019373 0.0257272 0.0005167645
000270 3f 81 f0 bb 07 3f 34 bd d1 b2 03 bc 2a 23 31 3c
       -0.007339626 -0.04400542 -0.008038239 0.010811606
000280 e2 08 80 3c b0 3a 27 bd 64 c4 11 bd 87 96 78 bd
       0.015629236 -0.040827453 -0.035587683 -0.06069043
000290 5d f2 c5 3b fd ba c3 3c a7 df 96 3c ec 25 e6 3c
       0.006040855 0.023892874 0.018417193 0.028094254
0002a0 07 4a f5 bc 7b a6 21 3d 64 18 1e bb 82 82 5d 3d
       -0.029942526 0.03946541 -0.0024123425 0.05407954
0002b0 b1 6d f6 3c 46 e6 94 bd f5 1e 50 3d 67 4f 81 3d
       0.030081602 -0.07270484 0.050810773 0.06313973
0002c0 bb 57 4e 3d c3 d8 13 bd 59 d0 cc 3c 2e 3a 41 3d
       0.050376635 -0.036095392 0.025001692 0.047174625
0002d0 83 b0 3d 3d dc 56 d5 3c c3 61 49 bd 58 bf 8f 3d
       0.046310913 0.026042394 -0.0491655 0.07018918
0002e0 06 28 94 3d 14 b2 45 3c ac 59 01 bd a9 d9 95 bc
       0.07234196 0.012066383 -0.03157966 -0.018292265
0002f0 89 49 2b 3d 6e 9b 25 3d a1 86 57 bd 41 00 f6 3c
       0.041818175 0.040431432 -0.052618627 0.030029418
000300 d2 4d a3 bd e1 bd d3 bc 3f 77 90 bc e0 e4 3b 3c
       -0.079738274 -0.025847377 -0.017634986 0.011468142
000310 86 83 db bc f9 30 86 3c ce d5 fa ba b0 74 34 bd
       -0.026796114 0.016380774 -0.0019137205 -0.044056594
000320 63 8e fb 3c 90 f3 e8 3c fa 0b 9a bc 28 e4 0c bd
       0.030707544 0.028436452 -0.018804539 -0.034397274
000330 e5 f1 b6 bc b5 b9 2d bc bf 8d 30 bd bc 70 3a bd
       -0.022332141 -0.010603358 -0.04310393 -0.045517668
000340 10 71 6e bd f4 97 92 bc 78 10 a7 bc 0d 61 26 ba
       -0.058213294 -0.017894723 -0.020393595 -0.0006346859
000350 be f0 69 bd 0c 4e 37 bd e8 90 c8 3c 65 1d ec bc
       -0.057114355 -0.044752166 0.02448316 -0.02882261
000360 f3 04 63 3c 54 78 86 3b 93 04 f5 ba f6 1b 7b 3d
       0.01385616 0.0041036997 -0.001869338 0.061305963
000370 8a aa ce 3c 65 bc f6 bc 23 bc fa bc db 38 43 3c
       0.025227804 -0.03011913 -0.030607289 0.011915411
000380 c6 3a 88 bc 61 8b ce bc 89 11 6d bc d4 e5 87 bd
       -0.016629588 -0.025212945 -0.014469513 -0.06635633
000390 c9 9c a1 bd 27 b7 a7 bd e5 26 79 bd b4 c3 8c bd
       -0.078912325 -0.081892304 -0.06082811 -0.06873265
0003a0 59 0d 68 3c cd cb 74 3d 08 af 2d bc b3 ab 3a 3d
       0.014163339 0.059764672 -0.010600813 0.0455739
0003b0 5f 26 86 3d ae 20 28 3c 57 2d 6e 3d 0f 70 6c bc
       0.065502875 0.010261698 0.05814871 -0.014431014
0003c0 61 6e 99 3d 79 11 20 3d 38 ed 83 3c 57 16 a5 bc
       0.07491756 0.039079163 0.016104326 -0.020152254
0003d0 88 8c 09 bd cd 23 21 3d af ae 10 3d 15 9e 58 bd
       -0.033581287 0.039340783 0.03532284 -0.052885134
0003e0 3a ef b1 3c f4 bf 00 bd 8b b1 b2 bc 5f b9 f4 3c
       0.021720517 -0.03143306 -0.021813175 0.029873548
0003f0 21 6a 20 bc b6 94 c3 bc c8 92 a3 3d 5e 2e 1b 3d
       -0.009790928 -0.023874622 0.07986981 0.037886016

2.conv2.bias f4 [32]
000000 ee c3 27 3d 9c 70 6d bc ae 69 61 3d dc 72 20 bc
       0.040958337 -0.01449218 0.055032425 -0.00979301
000010 14 12 93 3c 5a 74 7b bc 5a 67 8c b9 89 d1 b9 bc
       0.017952956 -0.015347565 -0.00026779884 -0.022682922
000020 7d c9 95 bc 94 d6 38 3d c9 e3 0c 3d b1 a5 00 bd
       -0.018284554 0.045126513 0.03439692 -0.031408016
000030 67 55 06 3c 0b 43 49 bd a1 e8 42 3d 8e 95 21 3d
       0.008199072 -0.049136203 0.047585133 0.039449267
000040 98 45 28 bd a1 27 51 3d 34 da 3d bd ba 85 c1 bc
       -0.041081995 0.051063184 -0.046350673 -0.023623336
000050 2e 33 1a 3d 54 3e 99 3c 0a dd 81 bc 3a b6 ca 3c
       0.037646465 0.018706478 -0.01585247 0.024745096
000060 d6 53 36 ba ed 88 37 3d 03 50 aa bc 9d fa d8 bc
       -0.00069552416 0.044808317 -0.020790106 -0.02648669
000070 1f ba ef 3c 8b 5e b4 3b 88 b7 5f 3d b3 7b 65 bd
       0.029263554 0.0055044345 0.05461839 -0.056026172

2.bn2.weight f4 [32]
000000 7d 54 57 3f fb 5b 5f 3f 84 2b 60 3f d0 1a 57 3f
       0.84113294 0.87249726 0.875664 0.8402529
000010 7b f3 66 3f 46 e0 6b 3f 9d 08 5a 3f 57 fa 59 3f
       0.9021527 0.9213909 0.8516939 0.85147613
000020 cd e5 61 3f 65 1a 66 3f c1 e9 74 3f e6 dd 60 3f
       0.88241273 0.89884025 0.9566918 0.8783859
000030 1a ec 44 3f 96 e7 70 3f b1 64 58 3f a6 ce 70 3f
       0.7692276 0.9410337 0.8452864 0.9406532
000040 95 a4 64 3f 86 2b 74 3f 59 38 69 3f 95 91 63 3f
       0.8931363 0.9537891 0.91101605 0.88894016
000050 1c 21 78 3f bd 9c 51 3f 5c 70 70 3f 79 95 61 3f
       0.9692552 0.8187979 0.93921447 0.881187
000060 0a c6 61 3f ee 7e 61 3f d6 6a 68 3f 58 bb 6a 3f
       0.8819281 0.88084304 0.9078802 0.91692114
000070 3e 4e 5b 3f d7 e4 6a 3f 06 9a 6f 3f 1f ec 6e 3f
       0.85666263 0.9175543 0.93594396 0.9332904

2.bn2.bias f4 [32]
000000 ac f8 25 be 9e 57 f3 bd 65 7e 23 3d 84 fa 14 be
       -0.16208142 -0.11881946 0.03991546 -0.14548689
000010 be 70 42 be e4 62 8d bd 9e 18 44 be 56 0a ad bd
       -0.1898832 -0.069036275 -0.19150016 -0.08449237
000020 aa bc 9d bd 4b 49 b5 bd 74 6f ca bd 8e 53 26 be
       -0.077020004 -0.0885187 -0.09884539 -0.16242811
000030 3a 4d a5 bd 09 7d cb bd 74 ba 08 be f0 dc ba bd
       -0.080713704 -0.09935958 -0.13352376 -0.09124172
000040 5d 55 18 be c0 98 19 be 4a 8a 09 be 46 e9 0d be
       -0.14876314 -0.14999676 -0.1343166 -0.13858518
000050 19 e9 d9 bd d3 26 f3 bd 90 3a 14 be a3 ad 2c be
       -0.10640163 -0.118726395 -0.14475465 -0.16863112
000060 de 03 1a be 44 cd 11 be 18 0f 1d be 25 a9 3d be
       -0.15040538 -0.14238459 -0.15337789 -0.18521555
000070 1a be 02 be 9f 36 1e be 1e 37 21 be 48 4c 04 be
       -0.1276783 -0.15450524 -0.15743682 -0.12919724

2.bn2.running_mean f4 [32]
000000 e3 34 37 bf 4b e0 54 bf 01 75 92 bf 17 b8 69 bf
       -0.71565074 -0.83154744 -1.1441957 -0.91296524
000010 bd 42 4f be 67 37 9e be db 31 c9 be 06 29 33 bf
       -0.20240302 -0.30901644 -0.3929585 -0.6998447
000020 14 e4 72 be 22 36 63 bf 63 f1 0e bf f3 c5 88 bf
       -0.23719817 -0.88754475 -0.55837077 -1.0685409
000030 de 5f 11 bf 6f 62 46 bf d2 11 87 3c b9 6f 3a bf
       -0.56786907 -0.7749395 0.01648799 -0.72826725
000040 b8 5b c1 be fa 49 ec 3c e1 06 c4 be d7 a4 c8 be
       -0.37765288 0.028843869 -0.38286498 -0.39188263
000050 ef 77 5a bf 2c d6 0f bf 44 12 ad be 50 b9 80 bf
       -0.85339254 -0.56186175 -0.33802998 -1.0056553
000060 6f 45 83 bf 09 9a 95 bf 04 02 60 bf 4b 53 69 bf
       -1.0255564 -1.1687633 -0.87503076 -0.9114272
000070 36 6e 78 be 39 00 ec be 7e 28 7e bf 84 73 dd be
       -0.24260792 -0.4609392 -0.99280536 -0.43252194

2.bn2.running_var f4 [32]
000000 af ef 31 3f a7 db 29 3f 99 a8 6a 3f 7b 79 d8 3f
       0.69506353 0.6635079 0.9166351 1.6912073
000010 f9 cd bc 3f cd 7c c3 3f 6d e2 8f 3e 87 26 82 3f
       1.4750358 1.5272461 0.28102437 1.0168008
000020 9a 4c 4a 3f 9c 92 34 3f 5d 56 89 3f d4 ce 84 3f
       0.79023135 0.7053621 1.0729481 1.0375619
000030 cd 15 6f 3f 2a 6a 1f 3f 02 48 a3 3f 30 41 a4 3f
       0.9339264 0.6227137 1.275635 1.2832394
000040 e3 69 cf 3e 67 50 d5 3f 5e 77 45 3f 30 0e f2 3f
       0.40510473 1.6665162 0.77135265 1.891058
000050 50 38 bf 3f 0c cc 25 3f 70 c4 07 3f 0d 9c 1f 3f
       1.493906 0.64764476 0.53034115 0.6234749
000060 18 5c 96 3f 1d 74 91 3f 51 48 1a 3f 16 99 dc 3e
       1.1746855 1.136356 0.60266596 0.43085545
000070 1b e7 13 3f ad 4e 37 3f f4 24 86 3f 0a 55 23 3f
       0.57774514 0.71604425 1.0480027 0.63801634
