model.pt (torch, 332143 bytes, 18 tensors)

1.weight f4 [32, 1, 15]
0	0xbed7be23	-0.4213725
1	0xbda7b576	-0.08188908
2	0xbf005f2b	-0.50145215
3	0xbea8459c	-0.32865608
4	0xbe9aa56b	-0.3020433
5	0x3e9cd2f4	0.30629694
6	0x3e8dc17a	0.27686673
7	0x3e4f5c9d	0.20250173
8	0x3cfc4a6f	0.030797211
9	0xbf2ccd8f	-0.6750116
10	0xbef37d63	-0.475566
11	0xbbd21fa2	-0.0064124623
12	0xbe823826	-0.25433463
13	0xbe7300b6	-0.2373074
14	0x3dcb84b1	0.09937418
15	0xbe86e38a	-0.26345474
16	0xbdcbea86	-0.09956841
17	0xbe62d054	-0.22149783
18	0x3d974fc0	0.07388258
19	0x3e693e40	0.22777653
20	0x3dde3acc	0.10851058
21	0x3e50432e	0.20338127
22	0xbdf73b79	-0.120718904
23	0xbe1950b9	-0.149722
24	0x3e24ade5	0.1608196
25	0xbe4de735	-0.2010773
26	0xbd801806	-0.06254582
27	0x3d0ec355	0.034854252
28	0x3e4407b3	0.19143562
29	0x3e52dfb4	0.20593148
30	0xbf3b5f07	-0.73191875
31	0xbeff2e66	-0.49840087
32	0xbf2655f3	-0.649749
33	0xbe9a2c2d	-0.30111828
34	0xbeb679f0	-0.35639906
35	0xbf146ac6	-0.57975423
36	0xbf1d5ee2	-0.61472905
37	0xbf1a9c64	-0.60394883
38	0xbf2a41d8	-0.6650672
39	0x3dc5ec98	0.09664267
40	0x3e7470fd	0.23871227
41	0x3c7684a8	0.015046276
42	0x3d588d66	0.052869223
43	0x3e692cb5	0.2277096
44	0x3e0bb551	0.13643385
45	0xbecc0d95	-0.39854112
46	0x3de5a698	0.11213416
47	0xbe1fbc2b	-0.15599124
48	0xbee20c53	-0.44150028
49	0xbf151549	-0.58235604
50	0xbe7cb314	-0.24677688
51	0xbefcd6b8	-0.49382567
52	0x3ea02d40	0.31284523
53	0x3ea6dccd	0.32590333
54	0x3ee78a06	0.4522249
55	0x3f3cd197	0.7375731
56	0x3ebc6f6c	0.36803758
57	0x3e2d857f	0.16945456
58	0xbf078cd7	-0.5294928
59	0xbecf8023	-0.40527448
60	0xbe32c1fb	-0.1745681
61	0xbe9f958c	-0.31168783
62	0x3d519d61	0.05117548
63	0xbebd0f16	-0.36925572
64	0xbd3ca6e5	-0.0460576
65	0xbeba2d20	-0.36362553
66	0x3df94a77	0.12172406
67	0x3effdde3	0.49973974
68	0x3ea76fdb	0.32702526
69	0x3eb643bd	0.35598555
70	0xbe81ad15	-0.25327364
71	0xbec551b0	-0.38538885
72	0x3e83e031	0.25756982
73	0x3c52e45b	0.012871827
74	0x3e01e5f2	0.12685373
75	0x3f16561d	0.5872515
76	0x3f31f1b1	0.69509417
77	0x3e858782	0.26079947
78	0x3ebcb38f	0.36855742
79	0x3ee2eb5c	0.4432019
80	0x3ea8691a	0.32892686
81	0x3c52e7cd	0.012872648
82	0x3d86f75d	0.065901496
83	0xbb8c75e5	-0.004286515
84	0x3e4bc5ad	0.19899626
85	0x3e99033f	0.2988529
86	0x3e7e02d9	0.24805774
87	0xbe551974	-0.20810491
88	0xbecfec8a	-0.40610152
89	0xbf367cd2	-0.7128421
90	0x3e9d4b4c	0.3072151
91	0x3eb55faa	0.35424548
92	0xbd021fbb	-0.03176854
93	0xbd9c589b	-0.07634088
94	0x3e748f78	0.23882854
95	0xbda986d5	-0.0827767
96	0xbd8f3de6	-0.06994228
97	0xbe9f8128	-0.31153226
98	0xbdcbbe74	-0.099484354
99	0x3e4e60c7	0.20154105
100	0xbeaa6b8d	-0.3328518
101	0x3eb6bada	0.3568943
102	0x3ec29853	0.3800684
103	0xbe065510	-0.13118386
104	0x3ddfed9c	0.10933992
105	0xbe143234	-0.14472276
106	0xbe87b526	-0.26505393
107	0x3e411f3e	0.18859574
108	0x3e017bda	0.12644902
109	0xbe8815d6	-0.2657916
110	0x3e163d90	0.14671922
111	0x3e1efd3f	0.15526293
112	0x3e1243b5	0.1428364
113	0x3cbfe3ea	0.023424108
114	0x3e983a3c	0.2973193
115	0x3d96d3c9	0.073646136
116	0x3d45bcc5	0.048275728
117	0xbe4d8226	-0.20069179
118	0xbdcc32d8	-0.09970635
119	0x3e47fe9e	0.19530722
120	0xbecf0ac3	-0.40437898
121	0xbf2f89b8	-0.6856952
122	0xbf00ebe2	-0.5035993
123	0xbec81b23	-0.39083204
124	0x3e1b0f37	0.15142523
125	0x3eaed1b2	0.3414436
126	0x3f00f43f	0.5037269
127	0xbe7fa4f1	-0.24965264
128	0xbf37f3f2	-0.71856606
129	0xbf5666db	-0.83750695
130	0xbea74e93	-0.32677135
131	0xbde903e5	-0.11377696
132	0x3ef773e6	0.4833061
133	0x3f1a8d72	0.6037208
134	0x3c5069b4	0.012720514
135	0x3e486234	0.19568712
136	0x3e7533cc	0.2394554
137	0x3e7ac83b	0.24490444
138	0x3e4045f8	0.18776691
139	0x3e36a075	0.17834647
140	0x3e5c31d9	0.2150339
141	0xbe22a826	-0.15884456
142	0xbced2b50	-0.028951317
143	0x3d40ca42	0.047067888
144	0x3e0f0051	0.13964964
145	0x3e2aa375	0.16663916
146	0x3e3d3813	0.18478422
147	0xbe8e97a7	-0.27850077
148	0xbe393719	-0.18087424
149	0xbe6f5455	-0.23372014
150	0xbe93d935	-0.28876653
151	0xbe2aee22	-0.16692403
152	0xbe9151dc	-0.28382766
153	0xbc82d9c8	-0.015972987
154	0xbdc32c82	-0.095299736
155	0x3e3fd615	0.1873401
156	0xbe1c3fe8	-0.15258753
157	0xbaae54fd	-0.0013300475
158	0x3da4d81d	0.08049033
159	0x3e597948	0.21237671
160	0x3ed1493f	0.40876195
161	0x3ec28edd	0.3799962
162	0x3df5bb85	0.11998657
163	0x3e68977d	0.22714038
164	0xbef5f0e4	-0.48035347
165	0xbded4b73	-0.115866564
166	0xbe3793c2	-0.17927459
167	0x3d52802d	0.05139177
168	0x3dc8b175	0.09799472
169	0x3d207a4b	0.039179128
170	0x3d853d68	0.06505853
171	0xbd969aed	-0.073537685
172	0x3e43038b	0.1904432
173	0xbe0b79e9	-0.13620724
174	0xbdef1cdc	-0.11675426
175	0x3bb0bd37	0.00539365
176	0x3e4e87df	0.20169018
177	0xbe066647	-0.13124953
178	0x3e5489bd	0.20755668
179	0xbe32492f	-0.1741073
180	0x3e71fa3b	0.23630612
181	0x3e5ad165	0.2136894
182	0xbc7262be	-0.01479405
183	0xbe4df810	-0.2011416
184	0xbdb824f4	-0.08991423
185	0xbe7609fd	-0.24027248
186	0xbe22e156	-0.15906271
187	0xbe672c93	-0.22575597
188	0xbe580fff	-0.21099852
189	0xbdb1f592	-0.08689417
190	0x3e025f3f	0.12731646
191	0x3d8b6331	0.06806029
192	0xbe2f350b	-0.17110078
193	0x3e15f736	0.14645085
194	0x3e60eed1	0.21966101
195	0x3e2a72d1	0.16645361
196	0xbe774186	-0.24146089
197	0x3e087063	0.13324122
198	0x3e68ef47	0.22747527
199	0x3e90ec6b	0.28305373
200	0x3e53f049	0.2069713
201	0x3e97d816	0.29657048
202	0x3e68d19d	0.22736211
203	0xbded610f	-0.11590778
204	0x3e6de89d	0.23233266
205	0x3e76da45	0.241067
206	0x3e3c5fd0	0.18395925
207	0xbd2e14d2	-0.042500325
208	0x3e889637	0.26677105
209	0xbd7f993f	-0.062402006
210	0xbeffc8cb	-0.4995788
211	0xbf082277	-0.5317759
212	0xbf2d2aec	-0.6764362
213	0xbe9f74a7	-0.31143686
214	0xbecac240	-0.39601326
215	0xbebf7946	-0.37397212
216	0xbf1ab228	-0.60428095
217	0xbf32c3ba	-0.69829905
218	0xbce76d0e	-0.028250244
219	0x3eac11a8	0.3360722
220	0x3e41899a	0.18900147
221	0xbed81716	-0.42205113
222	0xbf14ffce	-0.58202827
223	0xbebcfa73	-0.36909828
224	0x3eaa6e3a	0.3328722
225	0xbeeff55a	-0.46866876
226	0xbe93d903	-0.28876504
227	0xbe8f5b77	-0.2799947
228	0xbdb10c77	-0.086449556
229	0xbd9b40b4	-0.075807005
230	0xbe7aecb7	-0.24504362
231	0xbeee68d4	-0.46564353
232	0xbeb84ba9	-0.35995224
233	0xbd5dac70	-0.054119527
234	0x3f2ef8e9	0.68348557
235	0x3f294c08	0.6613164
236	0x3d99273c	0.074781865
237	0xbe9f1929	-0.31073883
238	0xbeb149e6	-0.34626693
239	0x3d2d1f70	0.04226631
240	0x3f4ce9eb	0.8004443
241	0x3f71ce8c	0.9445579
242	0x3f6ec216	0.932649
243	0x3ed24ecb	0.4107574
244	0x3f14c21f	0.58108705
245	0x3f123fef	0.57128805
246	0x3e8c3277	0.27382252
247	0x3e8dea3c	0.2771777
248	0x3d1268b7	0.035744395
249	0xbe432a69	-0.19059147
250	0xbf12c89b	-0.5733735
251	0xbf5bb3b2	-0.8582107
252	0xbfaecdfd	-1.3656613
253	0xbe965010	-0.29357958
254	0xbe6b03b7	-0.22950636
255	0xbeb54401	-0.35403445

1.bias f4 [32]
0	0xbe61177f	-0.2198162
1	0xbe6c4546	-0.230733
2	0xbf5553e3	-0.83331126
3	0xbd59ae3a	-0.05314467
4	0xbcb9f38e	-0.022699144
5	0x3ed2d037	0.4117448
6	0x3e1a0c6d	0.15043803
7	0xbd14cba5	-0.036327023
8	0xbe811206	-0.25209063
9	0xbe916fd2	-0.28405625
10	0x3d86ba25	0.06578473
11	0xbd26d26a	-0.04072801
12	0xbe81270d	-0.25225106
13	0xbe38ef9b	-0.18060152
14	0xbf1e7d40	-0.61909866
15	0xbe1f3100	-0.15546036
16	0x3eaed513	0.34146938
17	0x3cd8c23c	0.026459806
18	0x3e4a858f	0.19777511
19	0xbe9636fe	-0.2933883
20	0xbe5d0560	-0.21584082
21	0xbe22018a	-0.158209
22	0xbdc8c966	-0.09804039
23	0xbe9038d4	-0.28168356
24	0xbe558218	-0.20850408
25	0xbecef06b	-0.404178
26	0xbf9aca8f	-1.2093066
27	0xbe53bf4f	-0.20678447
28	0xbde8824a	-0.11352976
29	0xbc5f03ac	-0.013611715
30	0xbe5c8f4a	-0.21539035
31	0x3da06c40	0.07833147

3.weight f4 [32, 32, 13]
0	0x3c385cfc	0.011252638
1	0xbcb3d4ba	-0.021952022
2	0xbd46d6ac	-0.04854457
3	0x3d58964f	0.05287772
4	0x3d7e3c97	0.0620695
5	0x3d9ba096	0.07598989
6	0x3881d625	6.191087e-05
7	0xbd8437d6	-0.06455962
8	0xbd8e90a2	-0.0696118
9	0xbdd01b00	-0.101614
10	0xbd0c71a2	-0.034288056
11	0xbcc11fd6	-0.02357475
12	0xbbb188fb	-0.0054179407
13	0x3ce46e3c	0.027884595
14	0x3a400b5e	0.00073259126
15	0x3c4fc5d2	0.012681441
16	0x3c2bc227	0.010483301
17	0xbb9a908b	-0.004716938
18	0xbc915f79	-0.01774572
19	0x3a9617f4	0.001145123
20	0xbc8e53dc	-0.017373972
21	0xbd08ae43	-0.033369314
22	0xbc90c784	-0.017673261
23	0xbb94479a	-0.004525137
24	0x3d250771	0.0402903
25	0xbd281913	-0.041039538
26	0xbcf402d4	-0.029786505
27	0xbd1ed043	-0.038772833
28	0xbd9c89bf	-0.076434605
29	0xbdad10a2	-0.08450438
30	0xbdc8297f	-0.0977354
31	0xbcaa34eb	-0.020777186
32	0xbbead731	-0.007166766
33	0x3a743742	0.00093160954
34	0xbc26c3f8	-0.0101785585
35	0x3d88c9f1	0.06679142
36	0x3d9d9ca9	0.07695896
37	0x3d69cf21	0.0570823
38	0x3e015d98	0.1263336
39	0x3e399d9a	0.18126526
40	0x3e074d3a	0.13213053
41	0x3c36bfaa	0.011154095
42	0xbe1e94c6	-0.1548644
43	0xbda32095	-0.07965199
44	0xbe06495c	-0.13113922
45	0xbc65dc2e	-0.014029546
46	0xbe2f13f0	-0.1709745
47	0xbdc8f476	-0.09812252
48	0xbc677ea3	-0.014129314
49	0x3cad8af4	0.021184422
50	0x3e1f96e6	0.15584907
51	0x3e178c88	0.14799702
52	0x3bf2bc63	0.0074077114
53	0xbcb208d4	-0.021732725
54	0x3da9814d	0.08276615
55	0x3e1ea5af	0.15492891
56	0x3d822693	0.06355014
57	0xbd744b11	-0.0596419
58	0xbddede05	-0.108821906
59	0xbe32bba1	-0.17454387
60	0xbe0ef7df	-0.13961743
61	0xbd77da44	-0.06051089
62	0x3bbc716f	0.005750827
63	0x3d130989	0.035897765
64	0x3db5ce57	0.08877247
65	0x3ddf5b3d	0.10906074
66	0x3e018aa9	0.12650551
67	0x3d46db60	0.048549056
68	0x3bf966cd	0.0076111318
69	0xbd6e5221	-0.058183793
70	0xbd2b4894	-0.041817263
71	0xbdae7bf0	-0.08519733
72	0x3d10bfbc	0.035339102
73	0xbc46e17b	-0.01213872
74	0x3c55e716	0.013055583
75	0xbd47e4ed	-0.048802305
76	0xbde6df33	-0.112730406
77	0xbdd30b6f	-0.10304915
78	0xbd02ae7f	-0.031904694
79	0xbdd783a1	-0.10523153
80	0xbd988b8c	-0.074484915
81	0x3d0836a5	0.033255238
82	0xbd1bc0cd	-0.038025666
83	0xbc1ad70f	-0.009450688
84	0x3d7c45ab	0.061589878
85	0x3d783536	0.06059762
86	0x3d0e650a	0.034764327
87	0xbd1b6b3b	-0.03794406
88	0x3d206af7	0.03916451
89	0xbd80da2d	-0.06291614
90	0xbda1d3e3	-0.07901742
91	0xbc99700d	-0.018730188
92	0xbbaadef3	-0.005214566
93	0xbd583753	-0.052787136
94	0x3c450846	0.012025898
95	0xbd59a812	-0.0531388
96	0xbd75b3c9	-0.05998591
97	0xbd6af57f	-0.05736303
98	0xbc25db19	-0.010123038
99	0x3d3606c4	0.044440046
100	0x3c82d87a	0.015972365
101	0x3d1ed4ad	0.038777042
102	0xbd2cb1d6	-0.042161785
103	0xbd6930df	-0.056931373
104	0xbdb21006	-0.086944625
105	0xbe16bd0a	-0.1472055
106	0xbda95526	-0.08268194
107	0xbd3adbed	-0.045619894
108	0x3e42e82a	0.19033876
109	0x3e5fef03	0.2186852
110	0x3e2d9756	0.16952261
111	0xbd7881f9	-0.060670827
112	0xbe2852dd	-0.1643786
113	0xbe048628	-0.12941802
114	0xbd9474dd	-0.072488524
115	0x3b830c86	0.0039992956
116	0x3cc68b19	0.024236249
117	0xbbd11b56	-0.0063814325
118	0x3d53610b	0.05160622
119	0xbc83b0e0	-0.016075552
120	0xbd362071	-0.044464532
121	0xbce53b6f	-0.027982442
122	0xbc046702	-0.0080812
123	0xbd4490c2	-0.047989614
124	0x3c8bb420	0.017053664
125	0x3c679b98	0.014136218
126	0x3c047d13	0.008086461
127	0xbcb841c4	-0.022492297
128	0xbb021b65	-0.0019852754
129	0x3d000119	0.031251047
130	0x3e1761f9	0.14783467
131	0x3d8c60f2	0.06854428
132	0xbd82c7eb	-0.063857876
133	0xbd5bfc83	-0.05370761
134	0xbddfd888	-0.10929972
135	0xbd86f39f	-0.06589436
136	0x3dd0045d	0.10157082
137	0xbd59bbc3	-0.05315758
138	0xbd679c82	-0.05654574
139	0xbdca842e	-0.098884925
140	0xbdb1c9a4	-0.08681038
141	0xbd24a3af	-0.040195163
142	0xbb40b598	-0.0029405113
143	0x3ccc36b9	0.024928438
144	0xbd48983b	-0.048973303
145	0x3c5f2c73	0.013621437
146	0x3bd88b2d	0.006608388
147	0xbc16d0a8	-0.009205021
148	0x3c992c53	0.018697893
149	0x3d23fd69	0.040036593
150	0xbd290ec3	-0.041273843
151	0x3d21bab0	0.03948468
152	0x3c9511da	0.018196989
153	0xbcea1958	-0.028576538
154	0x3caf9f38	0.021438226
155	0xbce8841c	-0.028383307
156	0xbb8d8715	-0.0043190815
157	0xbcb8720f	-0.022515325
158	0x3bf4128d	0.0074485005
159	0xbcc2ddb2	-0.023787353
160	0xbd233271	-0.039843027
161	0x3d486683	0.048925888
162	0xbcf08c90	-0.0293639
163	0xbcacfc6c	-0.021116458
164	0xbba61aa3	-0.0050690933
165	0xbb798d6b	-0.0038078676
166	0xbd24ac38	-0.040203303
167	0xbcbfc2cc	-0.023408316
168	0x3bdd1fe5	0.006748187
169	0xbc87e559	-0.016588854
170	0xbc6d6a40	-0.014490664
171	0xbd1a42e4	-0.037661448
172	0xbd97b939	-0.07408375
173	0xbb332865	-0.002733731
174	0xbd73def8	-0.05953881
175	0xbd8598a3	-0.06523254
176	0xbcf38e55	-0.029730955
177	0x3c66915a	0.01407274
178	0x3cbf7619	0.023371743
179	0xbd299909	-0.04140571
180	0x3b525fff	0.0032100675
181	0xb9b60654	-0.0003471846
182	0x3d973fe2	0.073852316
183	0x3e251a85	0.16123398
184	0x3e32aada	0.17447987
185	0x3c93ada8	0.018027142
186	0xbd954797	-0.07289045
187	0xbe022eef	-0.12713216
188	0xbd63d683	-0.055624496
189	0xbd8fb28e	-0.070164785
190	0xbdb8b02d	-0.09017978
191	0x3d20967e	0.03920602
192	0xba616605	-0.0008598271
193	0xbd65a86d	-0.056068826
194	0xbcaaf390	-0.020868093
195	0x3e0d5b50	0.13804364
196	0x3e4da16a	0.20081106
197	0x3e17ce4d	0.14824791
198	0xbdcba388	-0.099433005
199	0xbe56945f	-0.20955037
200	0xbd4ea3f5	-0.05044933
201	0x3aa1f500	0.0012356341
202	0xbd86766d	-0.06565557
203	0xbd2e5a7c	-0.04256676
204	0xbcc13609	-0.023585336
205	0x3c202dd8	0.009776555
206	0x3d3b3add	0.045710433
207	0x3dc7fc87	0.09764963
208	0xbe2a210f	-0.16614173
209	0xbd1f1372	-0.038836904
210	0x3e0913ed	0.13386507
211	0x3e282cae	0.16423294
212	0x3e0fe9dd	0.14054056
213	0x3da690ec	0.081331104
214	0xbd0e3614	-0.03471954
215	0xbd7b7856	-0.06139406
216	0xbdc24282	-0.094853416
217	0xbe0f98bb	-0.14023106
218	0xbdf4b9e9	-0.11949522
219	0xbda2e7a8	-0.07954341
220	0xbd99ea27	-0.07515364
221	0x3e2ad4ed	0.16682787
222	0xbc5e21c5	-0.013557856
223	0xbd3f5ec5	-0.04672124
224	0xbdb47455	-0.08811251
225	0xbcaab425	-0.020837853
226	0x3d5dcd0d	0.05415063
227	0x3d65b779	0.056083176
228	0xbc9ade5a	-0.018904854
229	0xbd844b2a	-0.06459649
230	0xbde849c7	-0.11342197
231	0xbd58e1e4	-0.0529498
232	0xbd90f7f9	-0.07078547
233	0xbd05872b	-0.03259961
234	0x3d98a41a	0.07453175
235	0x3d485f79	0.048919175
236	0x3d0c27f8	0.034217805
237	0x3bef1c60	0.0072970837
238	0xbc9b6f47	-0.01897396
239	0xbd1f72dd	-0.0389279
240	0xbdc09582	-0.09403516
241	0xbeaa5208	-0.3326571
242	0xbe91bd1b	-0.2846459
243	0xbe05afcb	-0.13055341
244	0xbd1fa7d5	-0.038978416
245	0x3e28101e	0.16412398
246	0x3e487af4	0.19578153
247	0x3d7a2f29	0.06108013
248	0x3cd414ae	0.025888767
249	0x3c6aef27	0.014339245
250	0x3c0ddf90	0.0086592585
251	0xbd6d62e9	-0.057955656
252	0x3b724b1d	0.003697104
253	0x3c20fb42	0.0098255295
254	0x3c82b6cc	0.015956305
255	0xbce46c8a	-0.027883787

3.bias f4 [32]
0	0x3e21f16d	0.15814753
1	0x3e2b0a24	0.16703087
2	0x3e0c3acc	0.13694304
3	0xbd2e7e9a	-0.042601205
4	0xbf00cfd8	-0.50317144
5	0x3ce890f3	0.02838943
6	0x3ba2a35b	0.004963321
7	0x3e5cbee8	0.215572
8	0xbe92ff1b	-0.28710255
9	0xb9fa106f	-0.0004769596
10	0xbc98590a	-0.018597145
11	0x3e5d33f9	0.21601857
12	0x3dbccc55	0.09218661
13	0xbf333e8b	-0.7001731
14	0xbdcf5889	-0.101243086
15	0x3dc4b610	0.09605038
16	0xbc39d37e	-0.011341928
17	0x3e0fd09b	0.1404442
18	0xbe5f117e	-0.21784016
19	0xbe7942e3	-0.24341922
20	0x3e09a85a	0.13443127
21	0x3eb5f75d	0.35540286
22	0xbd436655	-0.047705013
23	0x3e859a05	0.2609407
24	0x3db82e5d	0.08993218
25	0x3e700ca7	0.23442326
26	0xbee5db7f	-0.44894025
27	0xbe8ec0e1	-0.2788153
28	0xbd614e6b	-0.055006426
29	0xbac3a971	-0.0014927817
30	0xbe5faf76	-0.21844277
31	0xbe60cb32	-0.21952513

5.weight f4 [32, 32, 11]
0	0xbcd55bf8	-0.02604483
1	0x3bc6526b	0.0060523055
2	0x3cb74333	0.02237091
3	0x3d18832e	0.037234478
4	0x3b8ad2bb	0.004236547
5	0xbc9a310a	-0.018822212
6	0xbe036177	-0.12830149
7	0xbdea920a	-0.11453636
8	0xbe0001e1	-0.12500717
9	0xbdb3ffec	-0.087890476
10	0x3c8c5826	0.017131876
11	0x3d3ef8a7	0.046623852
12	0x3d3962d0	0.04526025
13	0xbb2ed0ca	-0.002667474
14	0xbc195517	-0.009358666
15	0x3d1f99ae	0.03896492
16	0x3cd62904	0.026142605
17	0xba956b62	-0.00113998
18	0xbcf23744	-0.029567368
19	0xbd4100ca	-0.047119893
20	0x3d62211c	0.055207357
21	0xbca01c55	-0.01954476
22	0xbb0d524d	-0.0021563948
23	0x3b63c909	0.0034757277
24	0xbcce8a0d	-0.025212312
25	0xbd910552	-0.07081093
26	0xbdb5c322	-0.08875109
27	0xbacf8c2a	-0.0015834619
28	0x3d914e46	0.070950076
29	0xbb90e869	-0.0044222367
30	0x3d95dae8	0.07317144
31	0x3df0aee6	0.11752109
32	0x3d95703b	0.07296797
33	0xbc7c8322	-0.015412124
34	0xbc559518	-0.013036035
35	0xba9845de	-0.0011617502
36	0xbd0a3e89	-0.033751044
37	0xbd112b7b	-0.035441857
38	0xbc5b6be1	-0.01339242
39	0x3cc36a77	0.023854477
40	0xbc543d88	-0.012954123
41	0xbd2f17e0	-0.04274738
42	0x3d4c4424	0.04986967
43	0xbbe17ac6	-0.006881091
44	0xbd4d48a5	-0.050118107
45	0xbc913b0a	-0.017728347
46	0x3c9b3c2c	0.01894959
47	0x3cceaa6a	0.025227744
48	0xbd698e67	-0.05702057
49	0xbd9163f2	-0.07099141
50	0x3b98bd7d	0.0046612606
51	0xbd8b759a	-0.0680954
52	0xbc9e427c	-0.019318812
53	0xbd5cd873	-0.05391736
54	0xbd8b4dc4	-0.06801942
55	0x3ce040a7	0.027374579
56	0x3d195662	0.037435897
57	0x3d12ef14	0.035872534
58	0xbd42aa60	-0.047525764
59	0x3d6a343b	0.057178717
60	0xbc7c97c8	-0.015417047
61	0x3cec6b91	0.028859885
62	0x38970dfe	7.202847e-05
63	0x3ceabe2d	0.028655136
64	0x3d68125f	0.056658145
65	0x3b9e3e75	0.004829223
66	0xbd89d47d	-0.06729982
67	0xbda53c45	-0.08068136
68	0xbd056416	-0.032566153
69	0xbda0bfa0	-0.078490496
70	0xbd68f3fc	-0.056873307
71	0xbdfb8c7c	-0.12282655
72	0xbd833c2a	-0.0640796
73	0x3d172858	0.03690371
74	0x3cfd25bc	0.030901782
75	0xbce7366c	-0.028224193
76	0xbda197cf	-0.07890283
77	0x3c5aa81f	0.013345747
78	0xbc8cda4f	-0.017193941
79	0xbd397aa8	-0.04528299
80	0xba0461b3	-0.00050499587
81	0x3d307b0d	0.0430861
82	0x3d527d5c	0.051389083
83	0xbcbc6874	-0.022999026
84	0x3cf2973d	0.029613132
85	0xbc8caa1e	-0.017170962
86	0x3d175688	0.036947757
87	0x3ccd830d	0.025086904
88	0x3c63f918	0.013914369
89	0x3db6a900	0.08918953
90	0xbc3ddc87	-0.011588222
91	0x3bff07e3	0.0077829226
92	0xbd7dae35	-0.061933715
93	0xbd8b362d	-0.067974426
94	0xbd7557f5	-0.059898335
95	0x3d912b78	0.07088369
96	0x3c1ad727	0.00945071
97	0x3c0c541f	0.008564978
98	0x3ce1b2ca	0.027551074
99	0xbd0b16b8	-0.033957213
100	0x3d06b720	0.032889485
101	0xbc344207	-0.01100207
102	0x3c9e931c	0.019357257
103	0x3d147ad8	0.036249965
104	0xbc9255f4	-0.017863251
105	0x3d9709ac	0.07374892
106	0x3d82d419	0.06388111
107	0x3d7a1c3d	0.061062086
108	0xbb292393	-0.0025808557
109	0x3dada9aa	0.084796265
110	0x3b9aea6f	0.0047276537
111	0xbd58f502	-0.052968033
112	0xbd10be44	-0.0353377
113	0xba0a28e7	-0.0005270377
114	0xbcccb0e5	-0.024986694
115	0x3d07fa82	0.033197887
116	0xbc6aeb50	-0.014338329
117	0x3d14ced9	0.036330078
118	0xbd3f9d9a	-0.04678116
119	0x3b923711	0.004462131
120	0xbcc5f9af	-0.02416691
121	0x3bf94bb9	0.007607904
122	0x3c6fe972	0.01464306
123	0x3d84fb2f	0.06493222
124	0x3c46198b	0.012091051
125	0x3d1964a4	0.037449494
126	0x3d9592f8	0.07303423
127	0x3bde74a5	0.0067888075
128	0x3d02008e	0.03173881
129	0xbae44b58	-0.0017417474
130	0xbd96b00e	-0.073577985
131	0xbdb47565	-0.08811454
132	0xbb2c2c83	-0.0026271648
133	0xbd7070cf	-0.058701333
134	0xbd19ec77	-0.037579026
135	0x3c251475	0.010075678
136	0xbd292338	-0.041293353
137	0xbd74c57f	-0.05975866
138	0xbd844277	-0.0645799
139	0x3ce0cea4	0.027442284
140	0x3d2323a6	0.03982892
141	0x3d8947fd	0.06703184
142	0x3da4c0b9	0.080445714
143	0xbd037d0e	-0.032101683
144	0xbd84b5e6	-0.06480007
145	0xbd89f03e	-0.06735276
146	0x3b5bbaab	0.003352801
147	0x3ca979db	0.020687988
148	0xbd4a3b1f	-0.04937279
149	0xbbad38b8	-0.0052863024
150	0xbd5470b9	-0.051865313
151	0xbdc8185e	-0.09770273
152	0xbdc95ebc	-0.09832522
153	0xbc48019c	-0.012207415
154	0xbdfbb485	-0.12290291
155	0xbd95ae6e	-0.073086604
156	0xbdac22cc	-0.084050745
157	0xbd7fa1ec	-0.06241028
158	0x3c1c7c80	0.0095511675
159	0x3d2f14ae	0.04274433
160	0x3d1169a8	0.035501152
161	0x3c67bd71	0.014144287
162	0xbe06a54a	-0.1314899
163	0xbc604465	-0.0136881815
164	0xbd0a33e7	-0.033740904
165	0xbd9d5143	-0.07681515
166	0xbd951b21	-0.07280565
167	0xbd99939a	-0.07498856
168	0x3ca5871b	0.020206025
169	0x3d4f224f	0.05056983
170	0x3d6ad82a	0.057335056
171	0x3d0d2361	0.034457568
172	0x3d31b6b4	0.04338713
173	0x3d960e02	0.073268905
174	0xbd026adb	-0.031840187
175	0xbcbcc51e	-0.023043212
176	0xbc27b7a6	-0.010236656
177	0xbc6daf92	-0.014507191
178	0xbc8a9a1d	-0.01691919
179	0x3d2090ff	0.03920078
180	0xbca55b38	-0.020185098
181	0xbb27df51	-0.0025615285
182	0xbd41b1e7	-0.0472888
183	0xbcf5d510	-0.030008823
184	0x3ccb077e	0.024783846
185	0xbd55cb40	-0.052195787
186	0x3ca226f1	0.01979396
187	0x3d0515cd	0.032491494
188	0xbcb2da18	-0.02183251
189	0x3d03b0f7	0.03215119
190	0x3bdd5c3f	0.0067553814
191	0x3c071588	0.00824488
192	0xbd989f15	-0.074522175
193	0xbd1785cb	-0.03699283
194	0x3c022c29	0.007945099
195	0xbd5fa4fc	-0.0546007
196	0xbc90d57d	-0.017679924
197	0xbd14d149	-0.036332402
198	0xbcf6a386	-0.03010727
199	0x3ce50f0d	0.027961278
200	0xbd0cc93c	-0.0343716
201	0xbc0c03b1	-0.008545802
202	0xbd705d60	-0.0586828
203	0xbdac41a0	-0.084109545
204	0xbd4dc0b5	-0.050232608
205	0xbd90b6b3	-0.07066097
206	0x3d59c730	0.053168476
207	0xbc32c2d5	-0.010910709
208	0x3d8de8fe	0.06929205
209	0x3ccd6d15	0.025076428
210	0xbd3b4b19	-0.045725916
211	0x3d1f24de	0.03885352
212	0x3c95ab0f	0.018270044
213	0x3cf12d6a	0.0294406
214	0x3c23d467	0.009999371
215	0xbc1d5e67	-0.009605027
216	0x3d5e60d1	0.05429155
217	0x3d9104a4	0.07080963
218	0x3d17f0a7	0.03709474
219	0x3d68ab7a	0.056804158
220	0xbda4ae71	-0.080410846
221	0xbcf34bfc	-0.029699318
222	0xbd67f547	-0.0566304
223	0xbd1f4c3b	-0.03889106
224	0xbc3aa4de	-0.011391846
225	0x3a03f13b	0.00050331996
226	0x3c6cb439	0.014447265
227	0x3d04e7cf	0.032447632
228	0x3cc420e6	0.023941468
229	0x3d37c773	0.044867944
230	0xbc58570d	-0.013204348
231	0xbb801c11	-0.003909596
232	0xbdcb6219	-0.0993082
233	0xbd772a91	-0.06034333
234	0xbdd098bf	-0.10185384
235	0xbca65171	-0.020302506
236	0x3aa6e8a7	0.0012734131
237	0xbd807380	-0.0627203
238	0xbd9598ba	-0.07304521
239	0xbde44405	-0.11145786
240	0xbd0aa2ee	-0.033846788
241	0x3d3740c3	0.044739496
242	0x3cf2f7ab	0.029659113
243	0x3c38f14d	0.011287999
244	0xbce358ce	-0.027752306
245	0xbd5a51e4	-0.053300753
246	0xbd013184	-0.031541362
247	0xbc643389	-0.013928303
248	0xbc2fec4b	-0.010737489
249	0x3cf63e1f	0.030058919
250	0x3cb2f866	0.021846961
251	0xbc88c5a6	-0.016695809
252	0xbb4f8832	-0.0031666872
253	0x3c7f6a16	0.015589258
254	0x3e1e2116	0.15442309
255	0x3e3b8b2a	0.18314806

5.bias f4 [32]
0	0x3cc7a63a	0.024371255
1	0x3c5a6977	0.013330809
2	0xbac5bef7	-0.0015086819
3	0xbe7d38ae	-0.24728653
4	0x3dc94abe	0.09828709
5	0xbd8863a2	-0.066596285
6	0x3cbbec63	0.022939866
7	0xbcfabbd8	-0.030607149
8	0x3d92ac75	0.071618
9	0xbe7998e1	-0.24374725
10	0xbddec38c	-0.10877141
11	0xbcb7a6e9	-0.022418456
12	0xbea411b6	-0.32044762
13	0xbe1e244d	-0.15443535
14	0x3e5b9f8b	0.2144758
15	0x3e366379	0.17811383
16	0x3c87e73e	0.016589757
17	0xbd33ab77	-0.043864693
18	0xbe8619eb	-0.2619165
19	0x3d2129e3	0.039346587
20	0xbea344ce	-0.3188843
21	0xbd933b8a	-0.071890905
22	0x3c50db65	0.01274762
23	0xbda97698	-0.08274573
24	0x3e273ff8	0.16332996
25	0xbcd8c613	-0.026461637
26	0x3e1386d4	0.14406902
27	0xbd01491d	-0.031563867
28	0x3dd434cd	0.103616334
29	0xbd98e1cc	-0.07464942
30	0xbc05597b	-0.00813901
31	0xbd8ca793	-0.068679

7.weight f4 [32, 32, 9]
0	0xbd3d8e79	-0.04627845
1	0x3889a9a4	6.564267e-05
2	0xbd74dc9a	-0.059780695
3	0xbbb8e63c	-0.0056426805
4	0x3c472e55	0.0121570425
5	0xbc94859e	-0.01813012
6	0xba3c2536	-0.0007177176
7	0xbd4c9761	-0.049949054
8	0x3c9e00f6	0.019287568
9	0xbdd74957	-0.10512035
10	0xbce542e5	-0.027986
11	0xbd530e55	-0.05152734
12	0xbd0ba461	-0.03409231
13	0xbda9e1ed	-0.08295045
14	0xbda0e0f5	-0.07855407
15	0xbca9d30f	-0.020730523
16	0x3c9eec2a	0.019399721
17	0x3ca832e2	0.020532075
18	0x3d96f6b0	0.07371271
19	0x3be652ba	0.0070289047
20	0x3d54ad3b	0.051923018
21	0xbd691287	-0.056902435
22	0x3d070cf6	0.032971345
23	0xbd65e6eb	-0.056128424
24	0xb9b55e5f	-0.00034593322
25	0x3d1e04f8	0.038578957
26	0xbd897e8c	-0.0671359
27	0xbd8703ce	-0.065925226
28	0xbce6d71a	-0.02817874
29	0xbd5c1068	-0.053726584
30	0xbd7cc6fa	-0.061713196
31	0xbd438d3b	-0.04774211
32	0xbdb6698c	-0.0890685
33	0xbdde2da5	-0.1084855
34	0xbe137f0c	-0.14403933
35	0xbd656b07	-0.056010272
36	0xbd371189	-0.044694457
37	0xbcb6e63c	-0.022326581
38	0xbd9cbfdc	-0.07653782
39	0x3d2d7b0e	0.042353682
40	0xbac68d0a	-0.0015148234
41	0xbda6446a	-0.08118518
42	0xbde01f36	-0.10943453
43	0xbe1efcf3	-0.1552618
44	0xbe1d085a	-0.15335217
45	0x3bbbb47e	0.0057283035
46	0xbce9c705	-0.028537283
47	0xbb86606e	-0.004100851
48	0x3c989186	0.018624078
49	0xbd8fc9c8	-0.070209086
50	0x3c859455	0.016306082
51	0x3cf2663f	0.02958977
52	0x3cbcaf37	0.023032768
53	0x3db9cb79	0.090720125
54	0x3d9d9daf	0.076960914
55	0x3df1c4ad	0.11805091
56	0x3d9a2870	0.07527244
57	0x3dd61f39	0.10455174
58	0xbb2d80ca	-0.002647447
59	0x3b5f132a	0.0034038522
60	0xbc82b9be	-0.01595771
61	0xbdc92146	-0.098207995
62	0xbe3e750d	-0.18599339
63	0xbaca4a22	-0.001543347
64	0xb9df0971	-0.0004254091
65	0xbba4e0e6	-0.005031693
66	0x3d8ffdc8	0.07030827
67	0x3ca275c1	0.01983154
68	0xbcbd3988	-0.023098722
69	0xbd420a86	-0.047373317
70	0xbd2564e3	-0.040379416
71	0xbcba8cf8	-0.022772297
72	0xbce4159f	-0.027842341
73	0xbd324b03	-0.043528568
74	0xbdfd8454	-0.12378755
75	0xbcd3cba8	-0.025853947
76	0xbccb2ead	-0.02480253
77	0x3d012aea	0.031535067
78	0x3c9b8a88	0.018986955
79	0xbd0f6e22	-0.03501714
80	0x3a82aa0f	0.0009968894
81	0xbce9b9da	-0.028531004
82	0xbd6a6c99	-0.057232473
83	0xbd5c0fe7	-0.053726103
84	0xbd98ac5a	-0.074547485
85	0xba2441b9	-0.0006265897
86	0xbdb4eb7a	-0.08833976
87	0xbd302675	-0.043005425
88	0x3c7415ce	0.014897777
89	0x3d03ad9a	0.03214798
90	0xbcc5cf5a	-0.024146724
91	0xbd190ea8	-0.037367493
92	0x3ba787b7	0.005112614
93	0x3c8d3b54	0.017240204
94	0x3cdcd6e0	0.02695793
95	0xbd422879	-0.04740188
96	0xbce51c75	-0.027967671
97	0xbd37a519	-0.044835184
98	0xbd9effb3	-0.077636145
99	0xbd51a6e6	-0.051184557
100	0xbb93f51e	-0.004515304
101	0x3c411a18	0.011786006
102	0xbd0c66a3	-0.03427757
103	0x3d30f92e	0.043206386
104	0xbd5a127f	-0.053240295
105	0x3c649e60	0.013953775
106	0x3c9517fa	0.01819991
107	0x3ca107b2	0.01965699
108	0x3da18699	0.078870006
109	0x3d73bffd	0.059509266
110	0xbd05625b	-0.032564502
111	0xbd318fb7	-0.043349948
112	0xbdee99be	-0.11650418
113	0xbd050fac	-0.03248565
114	0xbd55f378	-0.052234143
115	0x3c3b6879	0.011438482
116	0x3d709598	0.058736414
117	0x3d8e9375	0.06961719
118	0xbb9ff7e2	-0.004881845
119	0xb9c3c71d	-0.0003734165
120	0xbd1b098b	-0.037850898
121	0x3d1412f5	0.03615089
122	0x3cce4d31	0.025183292
123	0xbcfa7a0e	-0.030575778
124	0x3da6350f	0.08115589
125	0xbb5995d6	-0.0033200881
126	0xbd71ed9f	-0.059064504
127	0x3d5830c8	0.052780896
128	0x3d46a635	0.04849835
129	0x3d1435bc	0.036184058
130	0x3c6f61de	0.014610736
131	0xbc8d2088	-0.017227426
132	0x3baeda7c	0.005336104
133	0x3ded8b20	0.115988016
134	0x3d9acdb7	0.07558768
135	0x3d2f9b5e	0.04287278
136	0x3adf1bff	0.0017021893
137	0x3da0a3f7	0.07843774
138	0xbd12874d	-0.035773564
139	0xbc760d13	-0.015017766
140	0x3af51076	0.0018696922
141	0x3ce6262c	0.028094374
142	0xbdbe7116	-0.09298913
143	0xbdd240d2	-0.1026627
144	0xbd5308ba	-0.051521994
145	0x3b60c111	0.0034294764
146	0xbc044e52	-0.008075314
147	0xbc968209	-0.018372552
148	0xbd313075	-0.043259103
149	0xbd151eb5	-0.036406238
150	0xbd45494f	-0.048165616
151	0xbda8c055	-0.082398094
152	0xbb358017	-0.0027694756
153	0xbcb10951	-0.021610888
154	0x3d455493	0.04817636
155	0x3d9d36a0	0.076764345
156	0x3dbe0aa7	0.092793755
157	0x3d32ab80	0.043620586
158	0x3d96f4a1	0.07370878
159	0x3da8a1a9	0.08233959
160	0xba1b4f41	-0.00059245905
161	0xbd6df3e9	-0.05809394
162	0xbcfc4de0	-0.030798852
163	0xbd9fd753	-0.07804742
164	0xbdd1c415	-0.10242478
165	0xbe27d0ed	-0.16388293
166	0xbe16d58f	-0.14729904
167	0xbd45b51f	-0.048268434
168	0xbdaa4626	-0.08314161
169	0xbbbf269e	-0.005833461
170	0x3ccb98af	0.024853079
171	0x3cc67d62	0.024229709
172	0xbcf2b4be	-0.0296272
173	0xbd316273	-0.04330678
174	0x3d43161a	0.0476285
175	0xbd2db2f7	-0.042407002
176	0x3dc061a9	0.09393627
177	0x3daa6d2f	0.08321606
178	0x3d34ab88	0.044108897
179	0x3e12ccb0	0.14335895
180	0xbe01c482	-0.12672618
181	0xbe069c50	-0.13145566
182	0xbddf7bd6	-0.10912292
183	0xbdbe948a	-0.09305675
184	0xbd9344ab	-0.07190832
185	0x3c75c962	0.015001627
186	0xbd733fa2	-0.059386857
187	0xbca4d280	-0.020119905
188	0xbc68cfae	-0.014209671
189	0x3cfa759d	0.03057366
190	0xbd19ad0d	-0.03751855
191	0x3d0c3071	0.034225885
192	0x3bd38c57	0.006455939
193	0xbd505b24	-0.05086817
194	0x3c8146ff	0.015780924
195	0xbc1cb253	-0.009564
196	0xbd413f47	-0.047179487
197	0x3c7888b7	0.015169314
198	0xbd7499cb	-0.05971698
199	0xbd5915d8	-0.052999347
200	0x3d8ff659	0.07029409
201	0x3d98f3ae	0.07468353
202	0x3c58f8b9	0.013242894
203	0x3dbabb2a	0.0911773
204	0x3db3ab2b	0.08772882
205	0x3d83369e	0.06406902
206	0x3bbf3a2d	0.0058357925
207	0x3d7dba87	0.061945464
208	0x3dc53588	0.09629351
209	0x3da699c4	0.08134797
210	0x3e04dde0	0.12975264
211	0x3e2ac36c	0.1667611
212	0x3c9cd19c	0.019142918
213	0xbd31c321	-0.04339898
214	0xbd374c04	-0.04475023
215	0xbd89f464	-0.06736067
216	0xbd09291b	-0.033486467
217	0xbd0f6d12	-0.035016127
218	0xbd2155eb	-0.03938858
219	0xbdb3d6dd	-0.08781216
220	0x3a55caee	0.0008155544
221	0xbae4d137	-0.001745737
222	0xbd003d71	-0.031308595
223	0xbdccd0a4	-0.100007325
224	0x3bb03aa8	0.005378086
225	0xbd7a3655	-0.06108697
226	0xbda98a84	-0.08278373
227	0xbd57cd7b	-0.052686196
228	0xbdc4558b	-0.095866285
229	0xbca69e67	-0.020339204
230	0x3c510efc	0.01275992
231	0xbbb3d5fc	-0.0054881554
232	0xbc75041e	-0.014954595
233	0x3b4a9950	0.0030914135
234	0x3c046c7d	0.008082506
235	0xbe10c5a6	-0.14137897
236	0xbda8fc28	-0.0825122
237	0xba392bbb	-0.0007063706
238	0xbd7f3c55	-0.062313396
239	0xbbb59a0b	-0.005542045
240	0xbc7c0074	-0.015380967
241	0x3dc4c62c	0.09608111
242	0x3d816a34	0.06319085
243	0xbd634861	-0.055488948
244	0xbb3e5489	-0.0029042086
245	0x3cb9283f	0.022602199
246	0x3be25bad	0.0069079013
247	0x3d6f7c3f	0.0584681
248	0xbca97053	-0.020683443
249	0xbcb07d2f	-0.021544067
250	0x3d3176b3	0.04332609
251	0xbcf0a18d	-0.029373908
252	0x3bd57e7f	0.0065153237
253	0xbcd555ab	-0.026041826
254	0xbdac7ab7	-0.084218435
255	0xbdc07b74	-0.09398547

7.bias f4 [32]
0	0x3dbf74a1	0.09348417
1	0x3de2fcb4	0.110833555
2	0xbd78e669	-0.06076661
3	0xbe0e4476	-0.13893303
4	0x3d057d36	0.032590114
5	0x3c21f248	0.0098844245
6	0x3e14d91a	0.14535943
7	0xbd5ea8fd	-0.05436038
8	0xbdac71b9	-0.084201284
9	0x3db480e4	0.088136464
10	0xbd19e572	-0.03757233
11	0x3e0b13b1	0.1358173
12	0xbcc6d558	-0.024271652
13	0xbe3bf0de	-0.18353602
14	0xbe2959a3	-0.165381
15	0xbe0fe319	-0.14051475
16	0xbd690853	-0.056892704
17	0xbd40f8fa	-0.047112443
18	0x3d4415ad	0.047872234
19	0xbcca679b	-0.024707606
20	0xbd5952d0	-0.05305749
21	0x3cdc83ed	0.026918376
22	0xbce3b4a2	-0.027796093
23	0x3de97d32	0.11400832
24	0xbdf3bd99	-0.11901397
25	0x3b758468	0.0037462953
26	0xbcc0cf2f	-0.023536293
27	0x3bd423de	0.0064740023
28	0xbbfec8d3	-0.007775405
29	0xbe74e44f	-0.23915218
30	0x3dadd018	0.08486956
31	0xbe53927a	-0.20661345

9.weight f4 [32, 32, 7]
0	0x3ce0301f	0.027366696
1	0xbd829e08	-0.06377798
2	0xbc414be5	-0.01179788
3	0xbdb2cea4	-0.0873082
4	0x3bf22a19	0.0073902723
5	0x3c327372	0.010891782
6	0x3d6c6077	0.057709184
7	0xbb8b9964	-0.004260229
8	0xbb2a4153	-0.0025978878
9	0x3c6984fc	0.014252897
10	0xbd5ccd8a	-0.053906955
11	0xbcfe9e07	-0.031081213
12	0xbda6ca79	-0.08144087
13	0xbb811c70	-0.0039401576
14	0x3be31587	0.0069300565
15	0x3c6ed540	0.01457721
16	0x3c57a3d5	0.013161619
17	0xbd73fb0f	-0.0595656
18	0x3b82ed44	0.0039955694
19	0xbc7495f1	-0.014928327
20	0x3d0a83de	0.033817165
21	0xbc672ab2	-0.0141093
22	0x3cf7e0e6	0.030258607
23	0x3d4b3b9f	0.049617406
24	0xbd020677	-0.031744447
25	0x3db24a79	0.08705611
26	0xbca8f856	-0.020626228
27	0xbc7a35b8	-0.015271597
28	0xbcd67227	-0.026177479
29	0xbdbe4cc0	-0.09291983
30	0xbd37fcfd	-0.044919003
31	0xbd9b2b44	-0.07576612
32	0x3d1f22d0	0.03885156
33	0x3d805d45	0.0626779
34	0x3d440cef	0.047863897
35	0x3d2f28ea	0.042763628
36	0xbcfa764d	-0.030573988
37	0xbd91e04f	-0.071228616
38	0x3bd05b9d	0.0063585774
39	0xbc4375ca	-0.011929939
40	0x3d4ee6fd	0.050513256
41	0xbd110a76	-0.035410367
42	0x3d12a3d7	0.03580078
43	0x3cefafa1	0.029258551
44	0xbd86f4ec	-0.06589684
45	0xbdea5e28	-0.1144374
46	0xbe122ddd	-0.14275308
47	0xbdda131c	-0.10648176
48	0xbd468dc2	-0.048475035
49	0xbc4ee6a1	-0.012628228
50	0xbd5546af	-0.052069362
51	0xbd6540ee	-0.055970125
52	0xbd17c0e6	-0.037049197
53	0xbc8828ca	-0.016621012
54	0xbd1e79de	-0.03869044
55	0xbd701d66	-0.058621787
56	0xbb17515b	-0.0023089263
57	0xbcc6a1f4	-0.024247147
58	0xbb6b2e69	-0.0035885817
59	0x3c663c59	0.014052474
60	0xbd587c12	-0.052852698
61	0x3cc6b684	0.024256952
62	0x3d5ea6a1	0.05435813
63	0x3d3a26eb	0.04544727
64	0x3cd01a01	0.025403025
65	0xbd082f80	-0.033248425
66	0x3ca460fa	0.020065773
67	0xbd6170b8	-0.055039138
68	0xbb17e58c	-0.0023177592
69	0xbda9347e	-0.08261965
70	0xbcd980e1	-0.026550712
71	0x3d0f6bde	0.03501498
72	0xbd5559e2	-0.052087672
73	0xbb85f5db	-0.004088146
74	0x3db5690b	0.08857926
75	0x3de9fb04	0.114248306
76	0x3d633377	0.055469003
77	0xbc936910	-0.017994434
78	0x3d523e69	0.05132905
79	0xbd99337d	-0.07480524
80	0xbc71bbc1	-0.014754237
81	0xbe27fdef	-0.16405462
82	0xbe144142	-0.14478019
83	0xbd8075f1	-0.062724955
84	0xbc0a6897	-0.008447788
85	0x3c4223d5	0.011849363
86	0xbd478383	-0.048709404
87	0xbdb3409f	-0.0875256
88	0xbd35abf9	-0.04435346
89	0xbddc9cf3	-0.10772123
90	0xbdadb9ce	-0.08482705
91	0xbd5993ac	-0.053119346
92	0x3b89c558	0.0042044334
93	0x3d348e04	0.04408075
94	0x3d7a61ce	0.06112843
95	0xbb79ad5d	-0.0038097717
96	0x3d019e6b	0.03164522
97	0x3d41bf05	0.04730131
98	0x3cdc778a	0.02691247
99	0xbcb9a58c	-0.022661947
100	0x3d6122f7	0.054964986
101	0xbd0777d4	-0.03307326
102	0x3d45514e	0.04817324
103	0xbc5aece2	-0.013362141
104	0xbd5dda21	-0.054163102
105	0x3d15b22e	0.03654688
106	0x3db18480	0.086678505
107	0x3ca24fcd	0.019813443
108	0xbc3d1e5e	-0.011542885
109	0x3ca64623	0.020297116
110	0x3d6535de	0.055959575
111	0x3d066857	0.03281435
112	0x3ca7d043	0.02048505
113	0x3d103db1	0.035215084
114	0x3badb67c	0.005301295
115	0x3d39e80e	0.04538732
116	0xbca87494	-0.020563401
117	0xbc9931e1	-0.018700542
118	0x3d7dd12c	0.06196706
119	0x3d543027	0.051803734
120	0x3d2e3624	0.0425321
121	0xbca234e4	-0.01980061
122	0xbc31ba1e	-0.010847596
123	0x3ca68d6d	0.020331109
124	0xbdaf7dd5	-0.085689224
125	0x3c57b7b7	0.01316636
126	0xbc8db3a8	-0.01729758
127	0xb8bc19d6	-8.969351e-05
128	0x3cf3d2e1	0.02976364
129	0x3b8eb6ee	0.004355303
130	0xbd26918f	-0.04066616
131	0xbdbc2ff2	-0.09188832
132	0xbd892231	-0.066959746
133	0xbdae2a3f	-0.085041516
134	0x3d4c9da4	0.049955025
135	0x3c812cc0	0.015768409
136	0x3c5980d6	0.013275346
137	0x3d8e049b	0.06934472
138	0x3d59a29a	0.053133585
139	0x3d0bd55f	0.034139033
140	0xbd1c1c13	-0.03811271
141	0x3d8b2ff9	0.067962594
142	0x3d0d48cb	0.03449325
143	0x3c957c35	0.018247703
144	0x3d30871e	0.043097608
145	0x3cb73d34	0.022368051
146	0x3d8c3a5d	0.068470694
147	0xbbc1e0a7	-0.005916673
148	0xbd5d6987	-0.054055717
149	0x3d857637	0.06516688
150	0x3da3a46e	0.07990347
151	0xbcf8a5ed	-0.030352557
152	0xbcf87fe2	-0.030334417
153	0x3c946967	0.018116666
154	0xbd3e3a40	-0.04644227
155	0x3ce23817	0.027614636
156	0xbd633b7d	-0.055476654
157	0x3d1042dc	0.035220012
158	0x3d493273	0.049120378
159	0xbd522993	-0.05130918
160	0x3c59977b	0.013280745
161	0x3d326f98	0.043563455
162	0xbd2116fe	-0.039328568
163	0xbc705d28	-0.014670648
164	0x3bd1a3d1	0.0063977023
165	0x3d26a960	0.040688872
166	0x3bf5e1da	0.0075037302
167	0x3d260102	0.040528305
168	0x3ca5ac75	0.020223835
169	0x3d89c2c6	0.06726603
170	0xbc9f6e47	-0.019461764
171	0xbce21d2d	-0.027601803
172	0x3cdbf28b	0.026849052
173	0x3c014a68	0.007891275
174	0x3d868da2	0.06569983
175	0x3d43589a	0.04769192
176	0xbd29f374	-0.04149194
177	0xbd30c79f	-0.043159124
178	0xbd20943d	-0.03920387
179	0x3d2d0bd0	0.042247593
180	0x3bb44a4a	0.00550202
181	0xbbf2efd6	-0.0074138446
182	0x3cf756dd	0.030192787
183	0xbd2a844d	-0.041630078
184	0x3c9dcf98	0.019264027
185	0xbbff28e3	-0.0077868565
186	0x3da5dc09	0.08098609
187	0xbb56c240	-0.003276959
188	0xb99ff7c5	-0.00030511446
189	0xbd3b44e0	-0.04571998
190	0x3d1d340d	0.038379718
191	0x3d48c428	0.049015194
192	0x3c050e87	0.008121139
193	0x3d48f520	0.049061894
194	0x3c54906b	0.012973885
195	0xbbd7043a	-0.006561783
196	0xbd3c2f91	-0.0459438
197	0x3d5ba424	0.053623334
198	0xbcb781a9	-0.022400694
199	0xbcb8278e	-0.022479799
200	0x3cdafe00	0.026732445
201	0x3d3edf11	0.04659945
202	0x3d340ba9	0.043956432
203	0x3bffdf8e	0.007808632
204	0xbd03fa0e	-0.032220893
205	0x3ce00789	0.027347343
206	0x3d962e36	0.07333033
207	0x3da062f5	0.078313746
208	0xbc0a905b	-0.008457269
209	0x3c8a06d3	0.016848957
210	0xbdd37464	-0.10324934
211	0xbd7e6423	-0.062107217
212	0xbd3fc814	-0.04682167
213	0x3cea4422	0.028596941
214	0xbd02a722	-0.03189767
215	0x3cb8855b	0.022524526
216	0x3dac5f49	0.08416612
217	0x3d374f5a	0.04475341
218	0x3d43c325	0.047793526
219	0x3cdd6054	0.027023472
220	0xbd3f69f0	-0.04673189
221	0x3cadf0e0	0.021233022
222	0x3c7d24f3	0.015450704
223	0x3d8099f3	0.062793635
224	0x3d54367d	0.051809777
225	0x3c040eac	0.008060139
226	0x3a535ff2	0.0008063308
227	0xbced221e	-0.028946932
228	0xbcfefb33	-0.03112564
229	0xbd8f16da	-0.069867805
230	0xbd923498	-0.07138938
231	0xbd1b8760	-0.0379709
232	0xbd2b95b3	-0.04189081
233	0xbd8103e4	-0.0629957
234	0xbbfcf741	-0.0077199047
235	0x3c6f44bb	0.014603789
236	0xbd3bd5cf	-0.0458582
237	0xbd80ebf3	-0.06295004
238	0xbcabf99e	-0.02099305
239	0xbd4f4c42	-0.050609834
240	0xbc627bb4	-0.013823438
241	0xbd19a892	-0.037514277
242	0xbd09b790	-0.033622324
243	0x3d14c3d6	0.036319576
244	0xbd859d3f	-0.06524133
245	0x3dc36e3f	0.09542512
246	0x3d359a63	0.044336688
247	0x3bd51800	0.006503105
248	0xbd129806	-0.035789512
249	0x3bbce3ae	0.005764446
250	0xbb866361	-0.0041012024
251	0x3d1380b9	0.03601143
252	0xbabc04ae	-0.0014344656
253	0x3c2e5720	0.010640889
254	0x3c16e5dc	0.009210076
255	0xbc3d6d91	-0.011561767

9.bias f4 [32]
0	0x3d708c72	0.05872769
1	0xbd330dfe	-0.043714516
2	0x3ce80703	0.028323656
3	0x3d31df7a	0.043426014
4	0x3c4725db	0.012155022
5	0x3dca2737	0.09870761
6	0x3d8c2131	0.06842268
7	0xbd6e6446	-0.058201097
8	0xbd7350e6	-0.059403323
9	0x3d363e8f	0.044493254
10	0x3d90eb28	0.070761025
11	0x3dc32170	0.09527862
12	0x3aaa1084	0.0012974893
13	0x3cfe9aba	0.031079639
14	0x3e0b82e0	0.13624144
15	0x3d8bb4f3	0.06821623
16	0x3d2e4239	0.042543624
17	0x3bd0c4ff	0.00637114
18	0xbcc5538d	-0.024087692
19	0xbc7a6033	-0.015281725
20	0x3bbba70c	0.0057267006
21	0xbb02d14c	-0.0019961176
22	0x3b5fb850	0.0034136958
23	0x3c1dfd9e	0.009642987
24	0x3c8382ae	0.016053524
25	0x3d21244e	0.039341263
26	0xbc8dfffb	-0.017333975
27	0xbc6056b7	-0.013692549
28	0x3e20eec2	0.15716079
29	0x3d6f66f3	0.05844779
30	0x3a704eba	0.00091670046
31	0x3d3730d1	0.04472429

11.weight f4 [32, 32, 5]
0	0x3c94b9f4	0.018155076
1	0x3d6352ff	0.055499073
2	0xbc8bab2e	-0.017049398
3	0x3d6f7292	0.058458872
4	0x3cdf380c	0.027248405
5	0x3d459dd3	0.048246216
6	0x3d7f7fa9	0.062377606
7	0x3d9f770a	0.07786377
8	0xbd2ab3d5	-0.041675407
9	0x3c814741	0.015781047
10	0xbc9be6c0	-0.019030929
11	0x3c327414	0.010891933
12	0xbd5dde5a	-0.05416713
13	0x3b1064e2	0.0022032787
14	0xbd67cb0c	-0.056590125
15	0xbd76708c	-0.060165927
16	0x3d6df492	0.05809457
17	0x3d73268d	0.059362937
18	0x3d087578	0.033315152
19	0x3a2023bd	0.0006108841
20	0x3d82da81	0.063893326
21	0x3ab9ed74	0.0014185146
22	0x3d2f8402	0.0428505
23	0x3c4986a4	0.012300167
24	0xbd9ce16c	-0.07660183
25	0x3d9a59f0	0.075366855
26	0xbd7ad94f	-0.061242398
27	0x3d1bbc62	0.038021453
28	0xbd85910b	-0.065218054
29	0xbd1288a2	-0.035774834
30	0x3cd3f408	0.0258732
31	0xbd8cf2d0	-0.0688225
32	0x3a465a29	0.00075665355
33	0x3d0f3855	0.03496583
34	0x3c888fd7	0.01667015
35	0x3d8f168a	0.06986721
36	0x3d778937	0.060433593
37	0x3cf7811a	0.030212928
38	0xbc7c8916	-0.015413543
39	0x3cd06fb4	0.02544389
40	0xbcef0e8c	-0.029181741
41	0xbc336c95	-0.010951181
42	0x3d2380d2	0.039917774
43	0x3d71010a	0.05883888
44	0xbd967ab0	-0.073476195
45	0x3d826509	0.06366927
46	0xbd4b7729	-0.049674187
47	0xbd10a696	-0.03531512
48	0xbc6f31ba	-0.014599258
49	0x3d4688ce	0.04847031
50	0x3cef3704	0.029201038
51	0xbd8eceb0	-0.06973016
52	0xbc3a3fe0	-0.011367768
53	0xbd66ea3b	-0.056375723
54	0xbd75c17a	-0.059998967
55	0x3d3929c4	0.045205846
56	0xbd291834	-0.041282848
57	0x3c5341fd	0.012894151
58	0xbd8483c2	-0.06470443
59	0xbd8a4034	-0.06750527
60	0x3d78dc25	0.06075682
61	0xbd865523	-0.06559207
62	0x3d3c3839	0.045952056
63	0xbd40e191	-0.047090117
64	0x3d9053f1	0.070472606
65	0xbd218815	-0.03943642
66	0x3d694874	0.056953862
67	0xbc7f09a2	-0.0155662615
68	0xbd31a677	-0.043371644
69	0xbd18eaff	-0.037333485
70	0x3d1ec9ed	0.03876679
71	0x3cf0b7cc	0.029384516
72	0x3cc623d8	0.024187014
73	0xbc857902	-0.016293053
74	0x3c8935fb	0.016749373
75	0xbbc8c737	-0.006127264
76	0x3d7ea595	0.06216963
77	0xbd52a81a	-0.051429845
78	0xbc38ce00	-0.011279583
79	0xbd7f8a2b	-0.062387627
80	0x3bf511eb	0.0074789426
81	0x3d8d405e	0.06897043
82	0x3d9826cf	0.07429277
83	0x3c08b954	0.008344967
84	0xbccb8b54	-0.02484671
85	0xbb84791c	-0.0040427577
86	0x3d1915ef	0.037374433
87	0xbd15278c	-0.036414668
88	0xbcaf1b08	-0.021375194
89	0x3d1a532d	0.03767698
90	0xbd2ba53f	-0.041905638
91	0xbd6c4056	-0.057678543
92	0x3cc9aa77	0.024617417
93	0xbc63f07d	-0.013912317
94	0x3d14a2d5	0.0362881
95	0x3d03961b	0.032125574
96	0xbd25f889	-0.040520225
97	0xbd5b0aa2	-0.053476937
98	0xbc713c86	-0.014723903
99	0xbd37358c	-0.0447288
100	0xbcffef8f	-0.03124216
101	0x3b806aa4	0.0039189626
102	0x3d5507ad	0.052009273
103	0x397807e4	0.00023654063
104	0xbc60425d	-0.013687697
105	0x3d1d75b0	0.038442314
106	0xbb7b5601	-0.0038350823
107	0x3c99b588	0.018763319
108	0x3bbf13b4	0.005831206
109	0x3d943df6	0.072383806
110	0xbd813315	-0.06308571
111	0x3d173cfb	0.03692339
112	0x3d625a80	0.05526209
113	0xbd845fbf	-0.064635746
114	0x3d869e6b	0.065731846
115	0x3c72e761	0.014825673
116	0xbcad6944	-0.021168359
117	0xbba36902	-0.004986883
118	0xbcd337cc	-0.025783442
119	0xbd220238	-0.039552897
120	0x3d4fd38f	0.050738867
121	0x3d435730	0.04769057
122	0xbcd4714b	-0.025932929
123	0xbd05d8cf	-0.032677468
124	0x3d5409c5	0.05176713
125	0xbbf45194	-0.007456014
126	0x3cb95542	0.022623662
127	0x3b47ab95	0.003046726
128	0xbcd0c99b	-0.025486758
129	0x3d6cddfb	0.057828885
130	0x3d86abcc	0.065757364
131	0x3c72cc80	0.014819264
132	0x3ce0856c	0.02740737
133	0x3cd57aa7	0.026059462
134	0xbd5ddc52	-0.054165192
135	0xbd8d2310	-0.06891453
136	0xbd61aa97	-0.055094328
137	0xbc958090	-0.01824978
138	0xbd9e3c67	-0.077263646
139	0x3b93839b	0.0045017726
140	0x3c0df47c	0.008664247
141	0xbc32e823	-0.0109196035
142	0xbc994a52	-0.018712196
143	0xbcae8a9b	-0.021306327
144	0x3d26895e	0.040658347
145	0xbd8ceba3	-0.06880882
146	0x3d79b47c	0.06096314
147	0x3d9ead97	0.077479534
148	0xbd802859	-0.06257696
149	0xbd47c949	-0.048775945
150	0x3cc6466a	0.024203498
151	0xbcb6fad8	-0.022336408
152	0xbd4ac218	-0.04950151
153	0x3d7ef553	0.06224568
154	0xbce403e1	-0.02783388
155	0x3d93cc27	0.07216673
156	0x3c962aaa	0.01833089
157	0xbd86894f	-0.06569158
158	0xbd9d3cb7	-0.07677596
159	0x3d67ea54	0.056619957
160	0xbcf60d56	-0.030035656
161	0xbdda5dcb	-0.10662421
162	0xbdf05791	-0.11735452
163	0xbe18b42f	-0.14912485
164	0xbdd2139b	-0.10257646
165	0xbc6b4dac	-0.01436178
166	0x3cc229e8	0.023701623
167	0x3d648596	0.05579146
168	0x3d6c6573	0.057713937
169	0x3c7224f1	0.014779315
170	0xbd3e345d	-0.046436656
171	0xbd9f8ecb	-0.077909075
172	0xbe0a03f5	-0.13478072
173	0xbda2c48a	-0.07947643
174	0xbd0d2314	-0.03445728
175	0x3c82d71f	0.015971718
176	0xbd3cbcc0	-0.046078444
177	0xbceb65a2	-0.028734986
178	0xbd2e4c5b	-0.042553287
179	0xbd057416	-0.03258141
180	0xbdb84cf1	-0.089990504
181	0xbd96ce9d	-0.07363627
182	0xbdcdbe9d	-0.10046122
183	0xbe0121ea	-0.12610593
184	0xbe07a974	-0.13248235
185	0x3a5eba51	0.0008496391
186	0x3ddeeab8	0.10884613
187	0x3ddc14c1	0.10746146
188	0x3de3995c	0.11113235
189	0x3df0c018	0.11755389
190	0xbd55b373	-0.05217309
191	0xbdd47416	-0.10373704
192	0xbd818bed	-0.06325517
193	0xbd4ce670	-0.05002445
194	0xbd913c57	-0.07091587
195	0xbc36d243	-0.011158529
196	0x3ce86b63	0.028371518
197	0x3ce857b7	0.028362138
198	0x3d23c8c4	0.039986387
199	0x3da2fd1c	0.07958433
200	0xbc8ca8d0	-0.01717034
201	0xbc50979f	-0.012731462
202	0xbe09cd05	-0.13457115
203	0xbd1deeac	-0.038557693
204	0xbe164c23	-0.14677481
205	0x3dbf5805	0.0934296
206	0xbcd97b3a	-0.026548017
207	0x3d5443d3	0.051822495
208	0xbcc2f887	-0.023800148
209	0xbdb98f5b	-0.09060546
210	0xbd099d8d	-0.033597518
211	0xbce45c0c	-0.027875923
212	0x3d80ef7e	0.062956795
213	0x3c693014	0.014232654
214	0xbd85fa8c	-0.06541929
215	0xbd3bdee0	-0.045866847
216	0xbc00015c	-0.007812824
217	0xbd81d704	-0.06339839
218	0xbd86ac64	-0.0657585
219	0xbd2d5f1a	-0.042327024
220	0xbcaedc5d	-0.021345312
221	0x3db02c8c	0.08602247
222	0x3d14f827	0.03636947
223	0x3cb142f6	0.021638375
224	0xbd7035fe	-0.05864524
225	0xbe0f9b3c	-0.14024061
226	0xbdab74da	-0.08371897
227	0xbde4bea7	-0.111691765
228	0xbd150409	-0.0363808
229	0xbe17c4c6	-0.14821157
230	0xbc314f11	-0.010822074
231	0xbdd15bfc	-0.10222623
232	0xbd213775	-0.03935953
233	0xbd9589eb	-0.073016964
234	0xbd87e362	-0.06635167
235	0x3dac0516	0.083994076
236	0x3d9fb50f	0.07798206
237	0x3dc512bb	0.09622713
238	0x3e127166	0.1430107
239	0x3d2eeff5	0.04270931
240	0x3db9cb0f	0.090719335
241	0xbb15783b	-0.0022807259
242	0xbcf51bbd	-0.029920453
243	0x3d339ecc	0.043852612
244	0xb9802138	-0.00024438812
245	0xbd037f8a	-0.032104053
246	0xbd749a90	-0.059717715
247	0xbda10e9a	-0.07864113
248	0x3bcc002d	0.006225607
249	0xbe06c2f5	-0.13160308
250	0xbcf97292	-0.03045014
251	0x3a4e4ae3	0.00078694354
252	0xbe09f09b	-0.1347069
253	0xbcc175f9	-0.023615824
254	0xbda69f30	-0.08135831
255	0x3d17c4a6	0.037052773

11.bias f4 [32]
0	0x389882e9	7.272309e-05
1	0x3d996bfe	0.07491301
2	0x3d91360b	0.07090386
3	0xbdb59c2b	-0.08867677
4	0xbdc3c199	-0.0955841
5	0x3d4faf65	0.05070438
6	0xbd8d5b2d	-0.06902156
7	0x3ce50052	0.027954254
8	0x3e20c3b3	0.15699653
9	0x3ccd7f67	0.025085164
10	0xbd74401f	-0.059631463
11	0x3e9c8ae1	0.30574706
12	0x3d9da1f3	0.07696905
13	0x3d2338d6	0.039849125
14	0xbd82d685	-0.063885726
15	0x3d8f2c0f	0.069908254
16	0xbce4835e	-0.027894672
17	0xbbe1b5b9	-0.006888118
18	0xbc9e2dc0	-0.019308925
19	0x3da0bdbd	0.0784869
20	0x3ca32a70	0.019917697
21	0x3c39593d	0.01131278
22	0xbd67dc67	-0.056606676
23	0x3c4016a2	0.011724146
24	0x3d67d39a	0.056598283
25	0xba650e96	-0.000873783
26	0x3d1a6677	0.037695374
27	0xbe439a39	-0.191018
28	0xbd66705b	-0.056259494
29	0x3e21bed4	0.15795451
30	0xbd1717d4	-0.03688796
31	0xbd4b4a9a	-0.049631692
