model.pt (torch, 332335 bytes, 18 tensors)

1.weight f4 [32, 1, 15]
00000000: f243 773e 1681 72be 0f6f 15be edf7 7cbe
00000010: 9202 3dbe c6be 5b3e 77db 723e 2dfb 4b3e
00000020: 6196 27be 8615 97be 251b 93be 2dae 1d3c
00000030: 073e 69be 164a 13be f303 553b 9651 343e
00000040: 4739 063e 27d7 453e bc81 b63d d51e b53d
00000050: caf3 753e 31d6 d4bd 3bcf d73c 3ff0 ce3a
00000060: cb87 d13d f79b 2a3d 38c4 a33d 611f 7e3e
00000070: 94b1 ecbd a56e 81be d225 84bd a698 5f3d
00000080: da6c e43d faab f4bd 8e98 19be 2008 393e
00000090: 5f02 373e 1026 ac3d f064 193e d41b b5bd
000000a0: 3a00 84be fa17 18be 327d 5ebc 7f08 30be
000000b0: bf65 5b3e d054 00bd 37e0 213e 6675 ea3d
000000c0: b0b6 26bd 1677 f0bd 9e18 3cbe 1825 04bd
000000d0: 23e5 b3bd 5ec8 7f3e 497e 13bd dd87 783e
000000e0: 594a f7bd 2ee4 14be 6369 69be 9f4a d43d
000000f0: d236 74be b897 a1be f74f 6ebe 5503 a2be
00000100: 1ced c8bc 11dc 203c d826 c63d 189b d23d
00000110: 7981 7b3e ff84 8b3e dc6a 243e d583 15be
00000120: 15db 613e f428 7abe c77f d83d fb07 fc3d
00000130: 1510 4a3c 5d3f d5bc bdd5 8c3a d9e9 683d
00000140: 56e2 df3d 8a7f 90bc a247 acbd 8baa c03d
00000150: 1adc 9dbc 7415 9bbd c2e7 5c3d ce23 683c
00000160: 3f14 5b3d 00b0 993e a3fa 8e3c 5fcf 5abe
00000170: f38e 2f3e c548 2f3e 5dd8 423c b51e 0b3e
00000180: 272c c9bd b7e0 9abd 64eb 843c cea1 36bd
00000190: eb8e 85be 7b03 bd3d b99a ccbd 5581 f73d
000001a0: 3edf 653e 93a8 b0bd 1c00 303e b564 353d
000001b0: 0917 893e e927 a3bd 1e05 07bd 6106 0bbe
000001c0: 5834 ce3c fd6d 13be 1fc7 433e 31a0 2bbe
000001d0: 8a4d 29bd 4589 093d dedb 8c3d 7b44 993d
000001e0: f689 7b3e 04b2 583e 1a7d a03e 863e 1e3e
000001f0: 5009 2cbd d171 04be 79a8 72be 2af6 1abe
00000200: 2f6f 483e 44e8 58bc 0ef8 24be ed20 64be
00000210: e2a7 9abe bf59 84be e52e 0abe 5152 5e3e
00000220: f1bb d33c 01cf de3e e265 72bd eb70 ae3d
00000230: 6d9f 4a3e 9b88 3fbe 5822 b03c 1c6b 483c
00000240: 2c8d 2fbe 662b 52be 3d38 633d 3d72 3abe
00000250: d030 a6be 67ce adbd 24c2 3abe a720 0abe
00000260: adcc 8bbe e914 34be dfe7 a23d 097a 46be
00000270: 8c47 72bd 2f1b 323e ae7c 14be 5452 343e
00000280: 7425 9abe f40f 94bd 599e 87be 513c 383b
00000290: 88ef 273d df53 59bd ad50 4f3e 0dcd 3dbd
000002a0: 7ba8 993d 6cbf c3bc 72c4 c3bd 6d11 0fbe
000002b0: aaab 8b3d bcc6 2abe d32d 843d 7bd0 de3d
000002c0: 6530 c3bc 4992 5bbe d682 43be c8a7 6d3e
000002d0: f02c b53c ebe5 493e 0c98 d73d aeb0 3a3e
000002e0: 96e9 76be 55f8 73be 67f3 c0bc 54c6 293e
000002f0: 7073 403e f1aa 603d b5c4 29bb 9062 353d
00000300: 56e3 b03d fd3c 3abd 1825 8dbc 87d4 393e
00000310: cbfb 3c3e cda5 4dbe 5b47 11be aa6f 1cbe
00000320: 9aec eb3d 58d4 0e3e 089f 3bbe 2341 1f3e
00000330: 7335 a83d c090 323e 905f d73d 292b 293e
00000340: 2ad1 84be f5df dbbd f13c c6bc 914d dd3d
00000350: e534 943e dbee 9b3e 6b0c 0c3e d7d1 3fbe
00000360: 9d1b 783d c04b 5abe 5395 1b3d c9eb 36be
00000370: be9f 193e 42ae 4dbe 9c95 13bb 960a 93be
00000380: 6599 5fbe 070c 84be 7f3c 4a3e 8ddb 16be
00000390: 64a6 45be 031f f73d db53 72be 0339 3bbe
000003a0: 77f4 c1bd d45d 443e 8ed2 8d3b 5ca7 1cbe
000003b0: a220 843e 5a42 fcbd 4a7a bdbc 1f87 503c
000003c0: 2503 f43d 5a59 d1bd 4640 723e 416f 783e
000003d0: f384 01be 4cee f33b a5fd 69be 3fd1 e3bc
000003e0: d51e 5ebe db9a 65be 8e73 4f3c 5d28 c53d
000003f0: 1abb 5cbe 012f 08bd 84d9 20be 789b 8e3e
0.24147013 -0.23682055 -0.14593147 -0.24703951 -0.18458012 0.21459493 0.23716532 0.19920035
-0.16365959 -0.2950861 -0.28731647 0.009624046 -0.22777568 -0.1438373 0.0032503575 0.17609248
0.13107787 0.19320355 0.089114636 0.08843771 0.2401878 -0.10392416 0.026343932 0.0015788152
0.102309786 0.041652646 0.0799641 0.24816658 -0.11557308 -0.25279728 -0.06452526 0.054588936
0.11153574 -0.119468644 -0.14999601 0.18069506 0.17871998 0.08405697 0.14979911 -0.088431984
-0.25781423 -0.14852896 -0.013579654 -0.17190741 0.21425532 -0.031330884 0.15808187 0.11448173
-0.040701568 -0.11741464 -0.18368766 -0.032261938 -0.08783939 0.24978778 -0.036009107 0.24270578
-0.120747276 -0.14540169 -0.22794108 0.10365795 -0.23849037 -0.31561065 -0.23272692 -0.31643167
-0.024527125 0.009818093 0.096753776 0.10283488 0.24561109 0.27249905 0.16056389 -0.14601071
0.2205623 -0.24429685 0.105712466 0.1230621 0.012332936 -0.02603119 0.0010744851 0.05686364
0.10931842 -0.01763894 -0.084121004 0.094075285 -0.019269992 -0.07572451 0.05393196 0.014168693
0.053486105 0.3001709 0.017453497 -0.21368168 0.17144375 0.17117603 0.011892405 0.13585933
-0.098228745 -0.07562392 0.016225524 -0.044587903 -0.260856 0.092291795 -0.099904485 0.12085215
0.22448441 -0.08625903 0.17187542 0.044285495 0.26775387 -0.07966597 -0.032963865 -0.13576652
0.025171444 -0.14397426 0.19118927 -0.16760327 -0.041333713 0.033578176 0.06877874 0.07483765
0.24564347 0.21161658 0.31345445 0.15453538 -0.04200107 -0.12934043 -0.2369708 -0.15132967
0.19573663 -0.01323897 -0.1611025 -0.22278185 -0.3020621 -0.2584972 -0.13494451 0.21711089
0.025846453 0.43517306 -0.059179194 0.08517631 0.19787379 -0.18704455 0.021500751 0.012232568
-0.17143697 -0.20524368 0.055473555 -0.18207641 -0.32459116 -0.08486634 -0.18238121 -0.13489018
-0.27304593 -0.17586102 0.07954382 -0.1938249 -0.059150264 0.17393182 -0.14500687 0.1760953
-0.301067 -0.07229605 -0.26487997 0.0028112123 0.04099992 -0.0530585 0.20245619 -0.04633813
0.07502838 -0.023894988 -0.09558953 -0.13971491 0.06819852 -0.16677374 0.06454053 0.10879608
-0.023826787 -0.21442522 -0.19092879 0.23208535 0.022116154 0.19716613 0.105270475 0.1823146
-0.24112543 -0.238252 -0.023553563 0.16579562 0.18794036 0.054850522 -0.00259046 0.04428345
0.08637111 -0.04546832 -0.017229602 0.18147479 0.18455426 -0.20082779 -0.14187376 -0.15276971
0.115197375 0.1394819 -0.18322384 0.15552191 0.0821332 0.1743803 0.10516274 0.1652037
-0.2594083 -0.10736076 -0.024198981 0.1080581 0.28946605 0.3045567 0.13676612 -0.18732391
0.06057321 -0.21317959 0.037984204 -0.17863382 0.15002343 -0.20086005 -0.0022519594 -0.28719014
-0.21835859 -0.25790426 0.1974964 -0.1473219 -0.19301754 0.12066462 -0.23664801 -0.18283467
-0.09470456 0.19176418 0.0043280786 -0.15298218 0.25806147 -0.12317343 -0.023129601 0.012727528
0.11914662 -0.102221206 0.23657331 0.2426119 -0.12648372 0.0074441787 -0.22850664 -0.027809737
-0.21691449 -0.22422354 0.012661828 0.09626839 -0.21555749 -0.03324795 -0.15707976 0.27852988

1.bias f4 [32]
00000000: e76e 40be ff9a 60be c696 9f3c 5ee1 af3d
00000010: ace6 c0be 2471 adbe cf95 f03a 6931 993d
00000020: f0b4 a43d 10d9 f23d a833 44bc ec24 36be
00000030: 3680 96be b1b6 d43d f15d a53d 2b45 eebd
00000040: 4e2a cdbd f5de b53c 930f e73c 10c6 8d3d
00000050: 105d de3d fc6e 6fbe 5dd4 fc3d c88c e3bd
00000060: bde6 b2bc ff06 0fbe 91a8 aebe 11d8 db3d
00000070: b549 1a3e 038c dcbe 18f0 6fbd 34e2 bb3c
-0.18792306 -0.21934126 0.019481074 0.08587907 -0.3767599 -0.33875382 0.0018355193 0.07480127
0.080423236 0.11857808 -0.011975206 -0.17787522 -0.29394692 0.10386408 0.080745585 -0.116342865
-0.100178346 0.02220104 0.028205669 0.06922543 0.10857594 -0.23382181 0.123451926 -0.11110836
-0.02183854 -0.13967513 -0.3411298 0.10734571 0.1506718 -0.4307557 -0.05857858 0.02293501

3.weight f4 [32, 32, 13]
00000000: e5b8 00bd 6e82 28bd b199 e73c 26f4 03bd
00000010: bd89 a23c 5adc 29bd c26b 0b3c b5d0 8bbc
00000020: f303 263d 6087 2a3d a87a c7bc 8f51 04bd
00000030: 184e 33bd 3edd 563c ffec 2dbd 37ac 47bd
00000040: 1c77 503c 7d42 debc 5e52 a73b 2a5e 06bd
00000050: 7aa8 3bbc a34a 57bd bf61 0ebd c00d e9bc
00000060: 621f e0bc af18 33bd af67 ebbb 7699 a03c
00000070: 00c3 883c aa70 233c 7334 153d 6f9a 2dbb
00000080: 559d 09ba 2e4d ba3c 8253 823c 6a73 7f3c
00000090: 9c89 10bd f61f 2cbd fd29 863b 6db0 80bc
000000a0: b126 13bd a875 edbc fb18 35bc e9c5 eabc
000000b0: 3f6e 383d 37c4 38bc ff3b 02bd 974e 563d
000000c0: 430d 393c 31c5 0d3d 30df e23c 9d28 d7bc
000000d0: 78ab fdbc 4f19 223d 2ca9 a0bb 418f f33c
000000e0: 242e 53bc 9c35 1e3c a4ae 1fbd 6cc6 3abd
000000f0: 851c 0b3d b3ff 3fbd 194d 13bd abcb 81bc
00000100: fc03 2f3d ebe3 febc 4217 00bd 5192 afbc
00000110: 7fc5 8bbb c697 ac3b 399c 98bb 66c6 b43c
00000120: 6f08 c83c 2c93 f23c 0f09 1e3a ca14 47bc
00000130: b7c9 febc db40 da3c 42fd d13b f943 633c
00000140: a646 903c 134a 2fbd e496 b5bc 65cd a43c
00000150: e263 283d fc8d 133d 3edb b1bb e611 3f3c
00000160: cbf9 523b 0362 28bd 22e7 36bc 5dc2 86bc
00000170: ecb4 53bd 8120 6bbc 382c 09ba 5f50 133c
00000180: d3ae 0a3d 2ce1 e93c aeb1 4b3d 41ee 463d
00000190: e9ec 2d3d 561a 1d3d fec2 143c 79b0 223d
000001a0: 7f06 37bd e556 82bd 9470 e03b 84d1 07bd
000001b0: 8a32 0d3a 62a2 39bd 3226 073d 1ffb 143d
000001c0: d100 0a3d bd53 0a3d b85a 01bd b6f7 16bd
000001d0: ac44 a93c df32 a7bd dd93 273c 3c95 82bd
000001e0: 0086 523c 9962 51bd 5f34 e13c 8dd9 52bd
000001f0: ee59 643c d393 183c b66f 513d bb2c ed3c
00000200: a448 463d bb27 593d 0afd 623d 1a8d 323d
00000210: 6b7e 933c 2896 873d 7775 cdba fc98 4f39
00000220: b416 e33b 259c 0ebd e22b a23b 1e6c 433b
00000230: 37bf 6f3c ece8 12bd f772 6c3c 548e edbc
00000240: a738 4bbc 4cb5 603c 05b6 0fbd 00fc 8d3b
00000250: 133f 3a3d 0370 103c ad8b 163d ad1a 91bc
00000260: 85f8 7c3b 9c5d 583c deb5 0bbd 74eb 22bc
00000270: bab5 0abc 4f72 a83c cf36 fc3c a999 bdbc
00000280: 0740 b83c bb21 46bc 7b46 1d3d 727f 8abb
00000290: 21ec cdbb ae2b d6bb 8d75 c43c ce97 79bc
000002a0: 2bc6 4fbd 8032 6a3d 007f b63c efe8 3d3c
000002b0: bacf 7d3d 59ca ad3c c82b 043d 1774 a3bc
000002c0: eebe 953b 33cb 42bd cd4e ff3b c035 10bc
000002d0: bd7f 2c3d 41c4 973c eb31 9e3b f0a3 29bc
000002e0: 2fa8 e3bb 1e98 49bd 61af 73bd bc53 263d
000002f0: 1ac5 03bd 3b3e 9d3c c970 963b a520 6cbb
00000300: 399c c3bb a1eb da3c 8b8e bcbb 6e2b e3bc
00000310: 863f 08bd 2117 2ebd 1c50 c23c 8dbe 183d
00000320: b33f c2bc 3c9b e43c 42ad 443b d96b 31bd
00000330: 9647 e03c dff9 2d3d 9e50 fdbb 04b2 03bd
00000340: 611e 6c3c 4900 223d d00c 953c 18e4 24bd
00000350: 5048 c9bc a654 20bd fc1c 60bc ed2a 113b
00000360: 4f71 423d f60f 1d3d 4893 09bc 7516 7d3c
00000370: d2aa 2bbd 1227 d93c 2ea2 e7bc 15f0 263d
00000380: 3468 b8bc ddc5 193d 85c8 29bd 6ff4 7bbc
00000390: b6a0 68bd 1c8a 94bc 584b 293d aa4c 183c
000003a0: bb87 bb3b 5e95 6e3b a1d2 d1bc 49c7 fd3c
000003b0: 1417 c0bc 4ace 6b3c 587f ad39 313d aaba
000003c0: bfb2 47bc be06 8d3c bc34 803c 673a 0fbd
000003d0: 4eb8 1b3c b2b8 5abb 8e5b 413d e8f5 0bbd
000003e0: ece4 1c3d f49d ff3c c9f6 46bc a513 5ebc
000003f0: 462b eb3a 4994 39bd 6ccc 093c 7693 a13c
-0.03142633 -0.041140012 0.028271528 -0.03221526 0.01984107 -0.04146991 0.008509578 -0.017067293
0.04053111 0.04163301 -0.02435048 -0.032304343 -0.043775648 0.013114272 -0.042462345 -0.04874822
0.01272371 -0.027131313 0.0051062545 -0.032804646 -0.011453742 -0.052561413 -0.034761187 -0.02844894
-0.027358714 -0.043724712 -0.007183991 0.019604426 0.016694546 0.009975592 0.036426973 -0.0026489755
-0.00052495796 0.02274188 0.01590896 0.015591482 -0.035287485 -0.042022668 0.004094361 -0.015709126
-0.03592557 -0.028986767 -0.011053319 -0.028658824 0.045027014 -0.01127725 -0.031795498 0.052321043
0.011294666 0.034611885 0.027694315 -0.026264483 -0.030965552 0.039574917 -0.0049029794 0.029731395
-0.012889419 0.009656336 -0.03898491 -0.045599386 0.033962745 -0.046874713 -0.035962198 -0.015844187
0.04272841 -0.03111454 -0.03127218 -0.021432074 -0.0042654867 0.0052671162 -0.004657295 0.02206726
0.024418084 0.029611193 0.00060285715 -0.012150953 -0.031102045 0.026642254 0.0064083645 0.013871186
0.017611813 -0.042795252 -0.022166677 0.020117471 0.04111088 0.03602408 -0.005427747 0.011661982
0.0032192345 -0.041109096 -0.011163505 -0.016450102 -0.051686212 -0.014351011 -0.00052327244 0.00899133
0.03385813 0.028549753 0.049729995 0.04856706 0.042462263 0.038355194 0.009079693 0.03971908
-0.04468393 -0.0636423 0.006849358 -0.033158794 0.0005386254 -0.045320876 0.03299541 0.0363723
0.033692185 0.033771265 -0.031580657 -0.03685733 0.020662628 -0.08164 0.010228124 -0.063761204
0.012849331 -0.05111942 0.027490793 -0.051477004 0.0139374565 0.009312588 0.051131926 0.028951993
0.04840912 0.053016406 0.055417098 0.043591596 0.018004617 0.06620437 -0.0015675266 0.0001979805
0.0069301967 -0.03481688 0.004949079 0.0029819082 0.0146329915 -0.035866663 0.014431707 -0.028998531
-0.012403644 0.0137151 -0.035085697 0.0043330193 0.04547031 0.008815768 0.0367543 -0.017712915
0.0038600278 0.013205912 -0.03410899 -0.009943832 -0.008466179 0.02056232 0.030787854 -0.02314456
0.022491468 -0.012093003 0.038397294 -0.0042266184 -0.0062842523 -0.0065359687 0.023981834 -0.015233947
-0.050726097 0.057177067 0.022277355 0.01159118 0.06196568 0.021214651 0.032268316 -0.019952817
0.0045698797 -0.047557067 0.007791376 -0.0088018775 0.04211401 0.018526198 0.004827728 -0.010354027
-0.0069475393 -0.049217336 -0.059493426 0.0406072 -0.032170393 0.019194713 0.0045910818 -0.00360302
-0.005969551 0.026723685 -0.005754297 -0.02773067 -0.033263706 -0.042502526 0.02371984 0.0372911
-0.023712015 0.027906053 0.0030010496 -0.043315742 0.027377885 0.042474624 -0.0077305576 -0.03215219
0.01441154 0.039551053 0.018194586 -0.04025659 -0.024570614 -0.039143227 -0.013678785 0.002215083
0.04747134 0.0383453 -0.008396931 0.015447249 -0.041910954 0.026507888 -0.028275575 0.040756304
-0.022510625 0.037542213 -0.041450996 -0.015378102 -0.05679389 -0.018132262 0.04133162 0.009295622
0.0057229674 0.0036404948 -0.025613131 0.030978816 -0.023448505 0.014392445 0.0003309201 -0.0012988207
-0.0121886125 0.017215129 0.015650146 -0.034967806 0.009504391 -0.0033374247 0.047206454 -0.03417006
0.038304254 0.031203248 -0.012143799 -0.013554488 0.0017941974 -0.04530743 0.008410554 0.019723635

3.bias f4 [32]
00000000: 8fc9 073d 0bd4 cbbc 49f1 cabb e03d 143d
00000010: 39da 26bd 7901 e0bc 3964 e4bc 88b6 13bd
00000020: 9720 193d 85f5 973c 9b21 b4bc 7ab4 6c3b
00000030: 7d88 a0bc dd47 4fbd c9e8 573c 49e5 053c
00000040: 9dfd 383d 5227 5f3d 500d 813d d197 b1bd
00000050: 6192 fa3c df85 cebd de6b 363c 8dee 16bd
00000060: a952 8abd aa37 19b9 7a8e 59bd f754 02bd
00000070: 8bd8 d2bc ef9b f8bc 6c1d 5bbd c581 b2bb
0.033151206 -0.024881383 -0.006193314 0.03619182 -0.040735457 -0.027344452 -0.027879821 -0.036062747
0.037384596 0.01854969 -0.02198868 0.0036118315 -0.019596333 -0.050605644 0.013178059 0.008172342
0.04516374 0.05448086 0.06301367 -0.08671535 0.030587377 -0.10084128 0.011134116 -0.036848594
-0.067540474 -0.00014611954 -0.053114392 -0.03181931 -0.025738021 -0.030347792 -0.053494856 -0.0054475986

5.weight f4 [32, 32, 11]
00000000: 08b4 63ba 97b2 853c cb5f 11bd 03cc 403d
00000010: 7b01 243d 6355 103c 58cf 9c3c 7fc5 c23c
00000020: 8541 d23c ef4f db3c 0a5f 763d c0b1 4dbd
00000030: 9835 d7bd 3bff 96bc 8f97 c23b 23ad 7bbd
00000040: f063 13bc 965c eabc 2858 303d cf27 953d
00000050: 19bb 053d 85ad 5b3d a307 203c c73c 003d
00000060: b5b6 b1bc bd31 c4bc a1e3 19bc ad20 ebbc
00000070: fdf8 ca3c f9a1 55bb 385a 2c3d baa5 ce3c
00000080: 37db 303d 4e18 18bd 5122 123c 4f9a 383d
00000090: e8f4 27bd 2e5b 3f3d 155d 9fbc d0ac 0a3d
000000a0: 907c 13bd d313 3b3d 1d5c 0dbd 7cfc 043d
000000b0: 7261 2f3d 6e7c 14bd 2d9d 2ebd 7526 cdbc
000000c0: 8ba6 263d 14b3 b1bc fdf1 5d3d ca82 633d
000000d0: d745 7c3c fc75 873d 73fe 5a3d 0b8a e5bb
000000e0: 6cfd ca3c 7f55 0b3d 0c44 c6bc 66bf 283d
000000f0: ba1a 643d 13a6 8ebc 70df cf3c be91 693d
00000100: 6d2c fc3c 599c 713d 75fa 853d 376c 433a
00000110: 8ff4 873d 44cf 2a3d d137 6f3c 7371 9d3b
00000120: dd58 873c 7ef5 153d 97e0 273b d2ad c6bc
00000130: 2b79 f4bb d591 a23b f89d 3a3d 9f5c 313d
00000140: 0598 eabc 5dfd 323d adc8 e13c 0645 e23c
00000150: 6e2e 37bd 545d 59bc 8191 c93c bc85 093d
00000160: 9c7e 393c 3267 d9bc bafd 31bc 6efd 933c
00000170: ddf1 88bc 0599 523d 6891 0c3d b7a7 15bd
00000180: 7398 d43a c8b4 bcbb 288b 27bd 1eac f83c
00000190: a0b1 af3d 0fee 66bb 4868 bd3d 987b a83c
000001a0: 9ac9 a83d 3410 453d c6a7 6c3d c53b fb3c
000001b0: e88a 153d 510e afbc 0504 393d e0c2 0a3d
000001c0: 1357 d7bb b861 113d 19d0 1fbd 73fa f73b
000001d0: db91 49bc 8254 f5bc ac72 5c3d 86c5 933d
000001e0: af3d 3e3d 2dcd 6d3d 8a25 173d e192 f23c
000001f0: 3ac7 03bd fd6d 183d 11b6 c5bc c724 afbc
00000200: ab01 0bbd 1dbe 5b3d 516c b83b d494 ce3c
00000210: 3b12 333d 4d70 dfbb 66f1 ed3c e64b c6bc
00000220: 5a55 2bbc a0ac 9eb9 863f 783d 74f7 0a3d
00000230: 31ec 06bc ceb2 163d d107 08bd ea05 5d3d
00000240: c993 fbbc c864 353d afc8 2a3d 94e5 763c
00000250: 2c0c b03c 7568 d23c 54ee 973c cd81 ddbc
00000260: 153a f03c 0568 d23c 21ff edbc 9af0 52bd
00000270: ed08 cbbb d5d3 953c afb7 143d d59f 0a3d
00000280: 9dde 64bd 8727 123d ba10 09bd 582c 2dbc
00000290: 60c4 ffbc 2f6c a93c b19b 91bc 0249 aa3c
000002a0: 1fa2 953b 299c 1b3d c018 503d 4f39 0abb
000002b0: bddb 0d3d ffca 303d c8b3 04bd 103d f53c
000002c0: ef64 bfb7 9f99 463c bb3a cfbc b4f8 183d
000002d0: 2399 603d b661 c4bc 5637 41bc f2cb 923b
000002e0: b60b 853d db95 8bb9 32f4 a53c 0cae 093d
000002f0: 9598 e33c af19 28bd 9be2 793c d6d9 3fbd
00000300: 0821 263d 7621 36bb 9542 9cbc 9795 bebc
00000310: ff01 503b 496c 18bd 4e22 3abd 3e01 1ebd
00000320: ea03 923b 0ed5 053d ad6a e1bc 6c3e 123c
00000330: 7fae ae3c 7c4a 84bd 15da 20bb d62e 83bd
00000340: 376c 09bb 60ea f5bc f488 173d b8f7 283d
00000350: 260f c43b 45ab 883d 906a a13c 1631 d13b
00000360: 9b4c 393d af23 a73a 1132 633d 52b7 943c
00000370: b75e aabd 424a 3abd 782a 32bd ed7f 90bd
00000380: 3973 29bd 9525 7c3a 3883 a6b8 4a17 123d
00000390: 11b7 903c 7593 283d ea8f 903d f57e c0bd
000003a0: 1891 77bd 73c4 bbbd 32cb 92bd 6fac b53c
000003b0: 787a 573b ba8d 78bc ee68 c53b 2219 883c
000003c0: 5268 a63d 5331 683d 9598 9fbc f530 2a3d
000003d0: 136b 35bd ef6f 4ebd 4831 08bd f1ab 1b3d
000003e0: 351e a83b 0c78 f73c 9634 a8bc 4f91 533d
000003f0: 5cfa 463d 0a79 273d c47c 4fbd 4360 9e3b
-0.00086861895 0.01632051 -0.035491746 0.04706956 0.040040474 0.00880942 0.019141838 0.023775814
0.025666008 0.026771514 0.06014923 -0.050218344 -0.10508269 -0.01843225 0.0059384773 -0.061444413
-0.008995995 -0.028608602 0.043052822 0.072829835 0.032649133 0.053632278 0.009767446 0.03130796
-0.021693567 -0.023949498 -0.00939265 -0.028702104 0.02477693 -0.0032597764 0.042078227 0.025225509
0.04317781 -0.037132554 0.0089193145 0.045069035 -0.041005045 0.046717815 -0.019453565 0.033856213
-0.036007464 0.045673203 -0.034511674 0.03246735 0.04281754 -0.036251478 -0.042630363 -0.025042752
0.04068617 -0.021691836 0.054185856 0.055544652 0.0153975105 0.066143006 0.053465318 -0.0070049814
0.024779044 0.034017082 -0.02420237 0.041198157 0.05568955 -0.017413175 0.025375098 0.057023756
0.030782903 0.058986995 0.065419115 0.0007454785 0.06638443 0.04170157 0.01460071 0.004804784
0.016521866 0.036611073 0.0025616044 -0.024252806 -0.0074607334 0.004961232 0.045560807 0.04330122
-0.028636942 0.043698657 0.02756151 0.027620804 -0.044722013 -0.01326688 0.024605514 0.033574805
0.01132169 -0.026538465 -0.010863716 0.01806518 -0.016716892 0.051415462 0.034318358 -0.0365369
0.001621975 -0.0057588555 -0.040904194 0.03035551 0.08578801 -0.0035237109 0.09248406 0.020566747
0.082415774 0.048111156 0.05777719 0.030668149 0.036509424 -0.021369131 0.04516985 0.033877254
-0.0065716594 0.035493582 -0.039016817 0.0075676977 -0.012302841 -0.029947523 0.053820297 0.07215409
0.046445545 0.058057 0.036901034 0.029611053 -0.03217242 0.037214268 -0.024134668 -0.021379841
-0.033937138 0.053648103 0.0056281467 0.025217451 0.043718558 -0.006818807 0.029045772 -0.024206113
-0.010457361 -0.00030264724 0.060607456 0.033927396 -0.008235023 0.036791615 -0.03321058 0.05396072
-0.030710118 0.044285566 0.041695293 0.015069384 0.021490179 0.025684575 0.01854626 -0.027039433
0.02932457 0.025684366 -0.029052319 -0.051498987 -0.0061961324 0.018289486 0.036307987 0.033843834
-0.055876363 0.035682227 -0.033463217 -0.010569654 -0.031221569 0.020681469 -0.017774435 0.020786766
0.0045664455 0.037990723 0.050804853 -0.0021091287 0.034633387 0.043162342 -0.032398015 0.029936343
-2.2815975e-05 0.012121587 -0.02529656 0.037346557 0.054833543 -0.023972373 -0.011792978 0.0044798786
0.06496374 -0.00026623797 0.020258043 0.03361325 0.027782718 -0.04104012 0.015251781 -0.046838604
0.040558845 -0.002779094 -0.019074718 -0.02326469 0.003173947 -0.037212644 -0.04544287 -0.038575403
0.004456033 0.032673888 -0.027516687 0.008926015 0.02132344 -0.06459519 -0.002454405 -0.064054176
-0.0020969042 -0.030018985 0.036995843 0.041251868 0.005983251 0.06673292 0.019704133 0.0063840253
0.045239072 0.0012751723 0.05546767 0.01815382 -0.08318847 -0.045480974 -0.043497533 -0.0705565
-0.04136965 0.0009618637 -7.939938e-05 0.03566674 0.017665418 0.04115625 0.070586994 -0.09399215
-0.060441107 -0.09168329 -0.07167663 0.02217695 0.0032879394 -0.015170509 0.0060244715 0.016613547
0.08125366 0.056687664 -0.019481936 0.041550595 -0.044291567 -0.050399717 -0.033250123 0.038005773
0.005130554 0.03020861 -0.020532887 0.05165225 0.048578605 0.040886916 -0.050656095 0.0048332526

5.bias f4 [32]
00000000: b58d 903d 20a7 aabc 00ca 2dbd 12d9 3f3c
00000010: 0b9f 90bc 9c20 973c 513e f23b 2f66 e93c
00000020: 05ef c8ba 864e 6a3c 1ba5 823d dd39 863d
00000030: 7080 2a3d 6325 12bc 72e9 13bd 28ab 6cbd
00000040: 7426 28bd 733d 7cbc 038a 00bc 4b09 d1bc
00000050: a394 d83c a753 8c3c 4ac5 a7bc 1826 bc3c
00000060: 12d2 38bd a621 93bc 80cc 323a 8e7e c33c
00000070: 8099 41bd 23be db3d 7c09 b3bb af62 d43c
0.070582785 -0.020831645 -0.04242897 0.011709468 -0.017653963 0.018448167 0.0073926826 0.028491108
-0.0015330022 0.014300948 0.063791476 0.06554005 0.041626394 -0.0089200465 -0.036111303 -0.057780415
-0.041052297 -0.01539551 -0.007845405 -0.025517127 0.026438063 0.017129732 -0.020479817 0.022967383
-0.045122214 -0.01796038 0.0006820634 0.023864057 -0.04726553 0.10729625 -0.005463777 0.025925962

7.weight f4 [32, 32, 9]
00000000: ff1d bcbc 3de6 183d 1794 3d3d 91b6 a0bc
00000010: eeaa 0fbd 01aa a3bc 66a9 5d3d 4808 aabc
00000020: ef6c 64bc 2075 5abb 4b05 303d aeac d3bb
00000030: 6a0a de3b 4c48 cabc 6093 edbb afae 6b3c
00000040: 0453 43bc 7c87 c9bc 88e3 81bc 6c2c a83c
00000050: 4fff 5abd a0db 3b3d f70e 54ba 2911 cd3c
00000060: 5783 fc3c 0768 dabb 6030 5bbd 4707 ea3c
00000070: a439 17bd 47be 02bd 915e 70bc 3ca2 87bb
00000080: 14d0 cabc 6569 7bbd 67de 04bd 683d ffbb
00000090: 8459 c53c 340f a4bc 6547 3b3d ab1d bd3b
000000a0: 30e6 44bc 8c57 2c3d e83b b4bc ed59 bebc
000000b0: ab46 513d f807 613d 0ca6 053d 447a 5b3c
000000c0: 22ed 733d 7133 693d 7f8b 193c 7c90 70bc
000000d0: 0c53 54bd db78 aa3c e1a6 173d 6d94 693d
000000e0: 38a1 0dbc c212 3f3d c155 4cbd c0e4 0fbd
000000f0: 40f4 5ebd f864 823c 73c4 3c3c 85a8 0e3c
00000100: 8b94 e5ba 25c7 f5bc 0da6 28bc 68ed 16bc
00000110: 3837 0abd 6bdd 53bd 1d19 5dbd a0e0 8fbc
00000120: af9a 55bd 5610 55bd 2b26 46bd f3a1 73bc
00000130: e499 aabb 750a a5bc 9a47 3dbb 9cf7 0bbd
00000140: 0906 a73c 1ec1 99bb 4323 fabc ee6b e9bc
00000150: 2346 1fbd 2e60 21bd cef7 c9bc 62d0 bd3c
00000160: 85a8 09bd 75f9 74bd 5fb2 673d 496b 673c
00000170: ae77 343d c759 02bd 6ad6 aab7 8d47 253d
00000180: b9df 63bd b7c2 f439 6386 103c 7fd7 db3b
00000190: bf69 6cbc 4b0a 4d3b a0fe 203c 6a34 263d
000001a0: c585 2e3d 2231 60bc 6a1b 813c a110 6ebd
000001b0: 8427 f2bc b672 2b3d c7dc b6bb 5c32 d2bb
000001c0: 1e78 59bd 7fe9 9c3c 0788 6d3b 1c8b 14bc
000001d0: 41a5 bab9 bf59 01bd 50ef e2bb 2ce5 603d
000001e0: c526 08bd 28f6 0cbd cd7b ee3c 0bcc 483b
000001f0: 1a60 6ebd 2941 5dbc 03d9 4ebd 2aa3 433d
00000200: 3985 c1bc 18fc 013d 16f5 b73c 5e05 8e3c
00000210: a2a7 c7bc a93f bc3c 2043 12bc ad37 52bd
00000220: b2c3 05bd d547 3fbd dea1 86bb 88e5 ad3a
00000230: 8401 b83b b6c0 59bd 3f09 71bd 99d6 f33b
00000240: 2009 833c b0ed 9ebb 16f5 13bc 7dff 46bd
00000250: ebe2 55bd c14e 85bb c455 dfbc ef86 38bd
00000260: 15a9 4cbd c430 2cbd 2ba8 a639 19e3 48bc
00000270: 0dfc 5b3d 0284 73bc 7da6 03bd 9150 4a3d
00000280: cad5 433d 6dd4 21bd e4ac 773d fcb9 673d
00000290: 7edf 2fbd 9ec4 4ebd 50a6 0f3d 8a24 39bd
000002a0: d305 2cbc 1a1d e2bc c2ea c4bb b7ca b3bc
000002b0: 8cd5 853c 81b4 833b 9ea0 aa3c 5157 d73c
000002c0: 8ecb 7ebb 6970 65bd a826 36bd 76d0 69bb
000002d0: 9782 3ebd 5d83 713d f9bc 5abd f5a7 21bc
000002e0: 1b1b 5abd e943 31bd f740 d93b 39a6 593c
000002f0: 2e00 873c b8db be3c 41af 84bc a9db 42bd
00000300: 80ea ee3b 6259 42bd c6b6 bcbc ec9b f2bc
00000310: 7ffe d4bc 8ce2 933c b725 7c3a 19b1 163d
00000320: 50a6 c63b 47aa b1bc 7cd7 ee3c 25b8 42bc
00000330: 38cd 49bc 7f55 4d3d a1e0 423d 4e24 a4bc
00000340: c024 00bc 6c14 b83c bba6 18bd 7be1 863a
00000350: 6b3a 04bc afb2 47bd af1c b1bb feb2 e2bc
00000360: 227f 443d 739f 05bc 0e95 a63c 4183 d8bb
00000370: 5a1a 173c aa87 383c 5ef3 06bc 32cc a0bb
00000380: 502a 14bd c909 283d 2295 e33c ee8a c4bb
00000390: c9ea 473d 62e5 fa3b 6d2b d3bc 9d10 34bd
000003a0: 5a06 6ebd 0004 653d 0226 ee3c d836 14bd
000003b0: aa37 cc3c 115a 15bd 46b3 683c b9a5 abbb
000003c0: 53f3 2dbd e864 b7bc 972c 1e3d 0592 2ebd
000003d0: 2e0b 103a ed2b 06bd b14b 4c3d ff71 1abc
000003e0: 267f d1bc 8323 55bb 61a2 5cbc d167 a0bc
000003f0: 7c60 eabc a9a2 653a d231 6f3b d938 3ebc
-0.022963522 0.037328947 0.046283808 -0.019618304 -0.03507512 -0.019978525 0.05411663 -0.020755902
-0.013941987 -0.0033333972 0.042973798 -0.006459794 0.006776144 -0.024692677 -0.0072502345 0.0143849095
-0.011921648 -0.024600737 -0.015855566 0.020528995 -0.053466137 0.045863748 -0.0008089388 0.025032597
0.030824346 -0.006665233 -0.05351293 0.028567923 -0.036920205 -0.031919744 -0.014670984 -0.004139213
-0.024757423 -0.06137981 -0.032438662 -0.0077893026 0.024090536 -0.02002678 0.045722384 0.005771359
-0.012017772 0.04207568 -0.022001222 -0.02323624 0.051092785 0.05493924 0.032629058 0.01339585
0.05955232 0.056933824 0.009371637 -0.014682885 -0.051837012 0.020809582 0.037024383 0.057026315
-0.008644395 0.04664875 -0.04988647 -0.035130262 -0.054432154 0.015917286 0.0115214465 0.00870717
-0.0017515583 -0.030002186 -0.010293496 -0.0092118755 -0.033744067 -0.051724833 -0.053979028 -0.017563164
-0.05214947 -0.052017532 -0.048376244 -0.014870155 -0.0052063335 -0.020146588 -0.002888179 -0.034171686
0.02038862 -0.004692211 -0.030534392 -0.028493848 -0.038885247 -0.039398365 -0.024654295 0.023170654
-0.03360798 -0.059808213 0.056566592 0.0141247 0.044059448 -0.0318239 -2.0365424e-05 0.04035144
-0.05563328 0.0004668438 0.008821103 0.0067090387 -0.014429509 0.0031286653 0.009826332 0.04057733
0.04260804 -0.013683589 0.015760142 -0.058121327 -0.029559858 0.041857444 -0.005580518 -0.0064146947
-0.05309307 0.019154308 0.0036244409 -0.009066369 -0.00035599808 -0.03157973 -0.006925501 0.054906055
-0.0332401 -0.03441444 0.029111767 0.0030639197 -0.05819712 -0.013504305 -0.050499927 0.047763027
-0.023623096 0.031734556 0.022455733 0.017336544 -0.024371926 0.022979574 -0.008927137 -0.051322628
-0.032657333 -0.046699364 -0.0041086515 0.0013267258 0.005615415 -0.0531623 -0.05884671 0.0074413535
0.015995562 -0.004850112 -0.009030601 -0.048583496 -0.05221836 -0.004068226 -0.027262576 -0.045050558
-0.049965937 -0.042038694 0.00031787282 -0.012261176 0.05370717 -0.014863016 -0.032141197 0.04939324
0.047811307 -0.039509226 0.060467616 0.056573853 -0.042937748 -0.050480478 0.035070717 -0.045200862
-0.0104994355 -0.027601767 -0.0060094306 -0.021947248 0.016337179 0.0040193205 0.020828541 0.026286753
-0.0038878652 -0.056015406 -0.04447046 -0.003567723 -0.04651126 0.05896317 -0.053402875 -0.009866704
-0.053248506 -0.043277655 0.006630059 0.0132842595 0.016479578 0.02329813 -0.016196849 -0.047572765
0.007291138 -0.047448523 -0.023036372 -0.029615365 -0.02600026 0.018052362 0.0009618657 0.036789987
0.0060623065 -0.02168764 0.029155485 -0.011884724 -0.012316994 0.050130364 0.047577504 -0.020036843
-0.007821262 0.022470675 -0.03726838 0.0010290587 -0.008070569 -0.04875439 -0.0054050307 -0.02767324
0.047972806 -0.008155691 0.020334747 -0.0066074436 0.009222591 0.011262814 -0.008236734 -0.0049071545
-0.036173165 0.041024957 0.027781073 -0.005998007 0.048807893 0.007656739 -0.025777543 -0.043961156
-0.058111526 0.055912018 0.029070858 -0.036185116 0.024928886 -0.036462847 0.014202898 -0.0052382615
-0.04246838 -0.022386983 0.038616743 -0.042619724 0.000549483 -0.032756735 0.049876872 -0.009426593
-0.025573324 -0.0032522387 -0.0134664485 -0.019580754 -0.02861046 0.0008759895 0.00364982 -0.011610233

7.bias f4 [32]
00000000: 6e5c c03b 0174 983b b44a f2bc d160 9e3d
00000010: 451b fcbb 68c7 503d 66fb 4b3d 60dc a83d
00000020: c396 983d 0a62 11bd 587a 8c3c d7cd d6bc
00000030: 329c 003d 4581 103c 8738 943c 5d3a 50bd
00000040: 3477 62bd 49da f5bb 8c88 d53c c70a c5bc
00000050: 41c4 b7bc 1a10 eb3d f1da 853d 994b 6a3b
00000060: 13da b13d 5b84 c7bc 965c 2e3c 5322 7abc
00000070: 409d 013c c28e 61bd e62b e5bc 1252 49bd
0.0058703935 0.0046525006 -0.029576637 0.0773331 -0.0076936805 0.05097142 0.0498003 0.08245158
0.074506305 -0.035493888 0.017148182 -0.026221199 0.03139896 0.008819883 0.01809336 -0.05083691
-0.055289462 -0.0075028283 0.026066087 -0.02405299 -0.022432448 0.114776805 0.065359004 0.0035750626
0.086841725 -0.024355104 0.010642191 -0.015266973 0.0079110265 -0.055067785 -0.027975034 -0.049150534

9.weight f4 [32, 32, 7]
00000000: c001 c6bb c33d d8bc 51c1 86bd 8680 0abd
00000010: ecaf 5bbd 2cc4 813c 1609 433c 941b 623d
00000020: 1205 25bd ccef 8abc 3a56 57bd 7970 1c3d
00000030: 22e4 163c 26b3 7f3d 828e 813d 6bf7 b03c
00000040: e701 6b3d 168d 483d 6d3e d13c ee90 843d
00000050: c8a8 663d 61f8 8fbc 1f63 5dbd b00a 173d
00000060: 6e55 d53c 8f2a 88bd b23a 893c 82f6 023d
00000070: f2d0 94bc fbd2 18bc 8950 0c3d 75f2 813d
00000080: 7e4d 51bd fd64 65bd aef5 81bd 8eec 7abd
00000090: 24a0 ea3c f123 16bd 6ad0 81ba b689 ac3c
000000a0: 4109 263d cef2 e7bc e1d9 ac3c 2f52 703d
000000b0: 3124 61bd facd 4abd b048 3cbc 7dbf 6cbb
000000c0: 005e 423d d884 eb3c cc3e bdbc a963 ae3b
000000d0: 97a3 d53c e296 9b3b fa29 bebc cc59 653d
000000e0: 23d6 2ebd 49c9 dcbb b70f a83c e584 653d
000000f0: 9be7 5e3d 1919 853d 8fe0 28bd 278f d3bb
00000100: 3bc8 333d d995 1a3d 78e4 1b3d b144 cebc
00000110: 8d9f 663d fe76 85bd 6dd3 a23c ae4d 8a3c
00000120: 4688 62bd 4a21 6c3d 0d8b 2bbd c07a 15bd
00000130: f4a9 ea3b f1f5 d03b 5a37 3abc 10f1 733c
00000140: 65d3 9b3c c6a4 0cbd 6863 65bc cf51 80bd
00000150: a7e5 2abd 2f47 1cbd 2d5f 2c3d 206b 0cbd
00000160: c5bf ba3c f3cb 4abd 667c 6d3d c89e 3bbc
00000170: 883f 953c 0da0 18bd 3c52 86bd 5a53 56bd
00000180: 85cf 8a3c 47e3 4f3d 6561 483d 8d85 fcbc
00000190: 2e40 7b3c 6895 6a3c cf9e 12bd 0f2b 73bc
000001a0: 8f86 bdbc f781 76bd acfb 743d e2ea 273d
000001b0: 4e3d ebbc b339 ebbc 3ada 093d 8b14 ccbc
000001c0: 03de e0bc 289b 91b7 b7d3 70bb 819f 513d
000001d0: 6c48 17bd 4927 da3c 8524 db3c 0eb9 843d
000001e0: 9596 36bd e7a2 4f3d 878e 1fbc a21b c8bc
000001f0: c86a 9fbc fb3c 053d 2c0a fabc e39d 4e3d
00000200: edf8 82bd a582 3a3d fa19 793d 87be 9cbc
00000210: 9eb6 5c3b f462 3ebd 69ff a6bc 9daa d8bb
00000220: 3e96 eabc 3851 4cbd 0222 48bd 0ef8 89bd
00000230: 2695 083d 9dd3 01bd 69cb c9bc 2677 32bd
00000240: 24b6 353d 07d2 15bd af6e 14bd efb7 4dbd
00000250: a946 bb3c 81e7 7abd c696 c43c 469e 30bd
00000260: 5eeb d73c 64df 3f3d 966e de3b 76cf d8bb
00000270: 6467 3d3c 7fed 29bd 826a 623d 8e13 883d
00000280: cb3e 233b 297a 73bd 578e 803d c7ac 55bd
00000290: fa6c aabc 61ae 823d 7efa 6fbd 938b 513c
000002a0: aa0c 30bd 9855 64bc ef48 d03b 3831 aabc
000002b0: 21fd f23c 07f6 383d 3367 473c 4a9e a7bc
000002c0: 5211 26bd f6c6 203d 552f 45bd 2a38 6b3d
000002d0: 5421 c23c 246b 3bbb 66ec 85bd 265e c1bb
000002e0: 3b1b cbbc a59f 003d e6eb 193d dfea c73c
000002f0: 84dd fa3c f24f b0bc bb95 4f3d cc6a 583b
00000300: 8bba 4a3d f867 70bd f474 343d f076 62bd
00000310: 3247 7c3d 6255 fd3c ba19 f23c 4e6e b4bc
00000320: 6875 adbc 1193 2fbd 98cf 9d3c eace 133d
00000330: 5fa3 6d3d 0202 bc3b 9bb1 4ebd 4e4f ddbb
00000340: 7061 31bd 393f 82bd b532 b33c 89f8 5b3d
00000350: 93b1 63bd d17f 143d 9d24 e33c fa24 51bb
00000360: 4e25 bd3c 9850 403c fa50 d73b 79c3 8e3c
00000370: b7be 9a3c 7401 2a3d 7524 223d f18f 46bd
00000380: 34cb b23b d903 7d3c 1c2b dfbc e923 243d
00000390: 5b98 143c d279 4e3d eefc 4cbd 6c6b 2bbd
000003a0: 9602 413d b7b5 d63c c2b9 fe3c 661e 18bc
000003b0: 23a0 d3bc d0fb 55bd 7b2b 4d3d 9f1a 2a3d
000003c0: d787 cb3c 6eda f0bc 1a38 0ebd c19b 773d
000003d0: 6b90 183d b768 3bbd db15 9a3d a540 49bc
000003e0: 2015 fe3b a7f9 0c3d 675d f13c 2711 5ebd
000003f0: c9fb 8abd 148b 883c ab72 813d 69af 5bbd
-0.006042689 -0.026396638 -0.06579841 -0.033813976 -0.05363457 0.015840612 0.011904022 0.05520208
-0.04028804 -0.016960047 -0.052572466 0.0381932 0.009209665 0.06242671 0.06326009 0.021602353
0.05737486 0.048962675 0.025542462 0.06472956 0.056313306 -0.017574491 -0.054049607 0.036875427
0.026041713 -0.066487424 0.01675162 0.03197337 -0.01816604 -0.009327645 0.03425649 0.06345073
-0.051099293 -0.056004513 -0.06345688 -0.061260752 0.028640814 -0.03665537 -0.0009904031 0.02106176
0.04053617 -0.02831402 0.021099987 0.058672126 -0.054966155 -0.04951284 -0.011491939 -0.0036124878
0.047452927 0.028749868 -0.023101233 0.005321939 0.026078982 0.0047482112 -0.023213375 0.05599384
-0.042684685 -0.0067378622 0.020515306 0.05603494 0.054420095 0.064989276 -0.04122978 -0.006456274
0.043892127 0.037740562 0.03805968 -0.025179239 0.056304503 -0.065168366 0.019876206 0.016882744
-0.05530574 0.057648934 -0.041880656 -0.036494017 0.0071613733 0.0063769748 -0.011365736 0.014889017
0.0190217 -0.034336828 -0.014000751 -0.06265604 -0.04172292 -0.038153823 0.042082954 -0.03428185
0.022796521 -0.049510907 0.057979964 -0.011451431 0.01821877 -0.03726201 -0.06558654 -0.052325584
0.016944656 0.050753858 0.048921008 -0.0308254 0.015335126 0.014317848 -0.035795983 -0.014841809
-0.023135452 -0.060182538 0.059810326 0.040995486 -0.028715756 -0.028714037 0.033655383 -0.02491214
-0.027449613 -1.7357597e-05 -0.0036747286 0.051177505 -0.0369343 0.02663006 0.026750812 0.06480609
-0.0445772 0.050692465 -0.009738571 -0.024427239 -0.019460097 0.03252886 -0.030522428 0.05044354
-0.06395135 0.04553475 0.06081579 -0.01913382 0.0033678184 -0.046481088 -0.02038546 -0.0066121356
-0.028636094 -0.049882144 -0.048860557 -0.06736766 0.033345364 -0.03169595 -0.024633126 -0.04357066
0.044363156 -0.03657725 -0.03623837 -0.05022424 0.022860842 -0.061255936 0.023997676 -0.04311969
0.026357349 0.0468439 0.006788085 -0.006616528 0.011560295 -0.04148626 0.055277355 0.06644355
0.0024909254 -0.059442673 0.06277149 -0.052166726 -0.020803917 0.063809164 -0.058588497 0.012789625
-0.042980827 -0.013936423 0.0063563506 -0.020775422 0.029661717 0.045156505 0.012170601 -0.02046122
-0.04054386 0.039252244 -0.048140842 0.05742661 0.023697533 -0.0028597796 -0.0653923 -0.005901116
-0.024793258 0.03140225 0.037578486 0.024403987 0.030623205 -0.021522496 0.050679903 0.003302264
0.049494307 -0.058692902 0.044056848 -0.05528921 0.061591335 0.030924503 0.029553283 -0.022025254
-0.021174148 -0.042864863 0.019264027 0.036086 0.05801713 0.005737544 -0.050462347 -0.0067538386
-0.043305814 -0.06359715 0.021874765 0.05370382 -0.05558927 0.036254708 0.02772742 -0.003191291
0.023089077 0.011737965 0.0065709325 0.017427193 0.018889768 0.041505292 0.03958555 -0.048477117
0.0054563526 0.015442812 -0.027242236 0.04007331 0.0090695275 0.050409146 -0.0500459 -0.041850492
0.047121607 0.026209695 0.031094436 -0.009284591 -0.025833195 -0.0522421 0.050090294 0.041529294
0.024845047 -0.02940103 -0.03472147 0.060451273 0.037247103 -0.04575416 0.075237 -0.012283479
0.007753983 0.034417775 0.029463483 -0.054215576 -0.067863055 0.01666788 0.06320699 -0.05363408

9.bias f4 [32]
00000000: 1a22 003d 4a36 44b9 5010 9dbd 5d60 b5bc
00000010: 185e 24bd 3bca 403b e932 3ebd 7bdd b1bd
00000020: 6c87 83bc de23 1d3c b786 babc ea33 aa3d
00000030: 8354 10bd 5c78 643e 9016 b23d 688a 1bbd
00000040: 0b9a 98bb 5ad0 133e bbd3 23bd d156 c8bc
00000050: c5c1 83bc 7dec 8e3d f483 37bc d8db 71bb
00000060: 690b 7abb 3cbe ea3c 8aa5 80bd 1df3 8d3c
00000070: a13a 88bd 0f56 e0ba 41b8 59bd c129 19bc
0.03128252 -0.00018712241 -0.07669127 -0.022140676 -0.040128797 0.0029417414 -0.04643527 -0.08684822
-0.016055785 0.009591071 -0.022769315 0.08310683 -0.035236847 0.22311538 0.0869571 -0.03797379
-0.004657035 0.14434949 -0.039996844 -0.02445546 -0.016083607 0.069787 -0.011200894 -0.0036904719
-0.0038153774 0.028655164 -0.06281574 0.01732784 -0.066518076 -0.0017115491 -0.053154234 -0.009348334

11.weight f4 [32, 32, 5]
00000000: 6696 c83c e771 373d 35a1 b23c 79aa 36bd
00000010: a7cd 243d a969 d23c 4fdd 6f3d c623 903c
00000020: 5469 39bd 59a4 a4bc 73c2 e83c 5632 3b3d
00000030: a5ba f4bc 4120 4f3d ae3a 9bbd 2572 55bc
00000040: 1e43 96bd bdd0 74bd 6a50 7b3d 1479 3fbd
00000050: 5dd7 2d3d a6c7 823d 5cae 583d 3c8e 1d3a
00000060: aabb 4cbd bfcd 823d 9eae 2e3d db8e 6c3d
00000070: 864e 743c 9df0 77bd d51d 683d 40b7 83bd
00000080: dd3c 36bd addb 25bd 6ab0 86bd 30fd 3a3d
00000090: cd87 813d 4b9a 8d3d ed9b 1abc a4ce 113c
000000a0: aee3 43bd 06bd b53c 2334 dd3b 3d14 12bd
000000b0: 2920 73bd 62d3 5cbd d990 2ebd 9dea 113d
000000c0: 0d48 72bd a6b3 663d 8827 523d 9376 873c
000000d0: 3caf 643d 46a6 c4bc ae1b 53bd 547b 823d
000000e0: b1fe db3b 75ae 853c 9dae 8a3d f1e5 063d
000000f0: 12f1 afbd 0e72 bebd 0916 58bd 2ae4 743d
00000100: 3398 85bd 3ec6 f93c 2dfe dc3b e729 653d
00000110: 46c5 583c d10c d2bc fb2b a03d f39c 17bd
00000120: 1636 3ebd 85e4 df3c e698 37bd 2e74 4a3d
00000130: 5e83 35bd 56c6 8abd fc95 edba eb4d 953d
00000140: be8d e63b 2c50 8abd 6840 e8bc 1d93 8b3c
00000150: a6de 20bd 9281 74b9 17c1 873b c672 153d
00000160: d0ce 13bd 086c 0bbd 1e23 6a3d 3f4c abbc
00000170: 5e65 1d3b a628 7ebd 9726 cebc 8ee7 fa3c
00000180: 83ad a63c 9056 62bb 2361 90bc 755d 443d
00000190: bfce b0bd f136 a83c 008e 5bbd 9cc2 28bd
000001a0: 1d0f 15bd 1077 0cbd 45be 7b3d 34c4 073c
000001b0: e015 253d ec1c ae3d 8a82 2cbd 4a35 a1bd
000001c0: a506 933d 4f77 02bc 40b4 cabc 9ca1 a2bd
000001d0: 85c8 c0bb fc7d 1f3d fdc1 333d 9f37 803d
000001e0: 8bed 9a3d 0d77 39bd c053 333d 46dd 82bd
000001f0: 16f2 8ebd 5889 8bbd 2a9e 613d b18a 7b3b
00000200: 4468 283d ddd0 3e3d 2b5a 933d fa77 0a3c
00000210: 7222 a2bb bf7f a1bd 4630 0a3d 91f2 8b3d
00000220: 1764 4f3d 28f0 a1bd fcdf 98bd 3423 6b3c
00000230: c0c6 11bd 0b84 503b abff 443d a3dd ceba
00000240: 93ac 38bd b152 693d 1ada 753c 89a7 1ebd
00000250: 0e29 90bd 9b49 21bc 5905 603d 5d0a 0d3d
00000260: 178e 4fbd 2741 813d b57a 52bc 9af3 92bd
00000270: eeaa bebb 90c8 20bc 3e03 9c3d cd85 9c3c
00000280: 3349 813d 1e99 13bd 996d 29bc c794 c43b
00000290: edf8 9a3d 72d9 593c ff1a 7b3d 7b04 45bd
000002a0: 1dcd 95bd 4089 90bd 4708 4ebc e3f9 893d
000002b0: c3cd 55bd b9b7 1fbd a373 2f3c 9ad8 b5bb
000002c0: 614e 2dbd 32f9 99bd 7edf 0d3d 9a56 883b
000002d0: 4a9f 943d adb5 8a3d ce7d 64bc b1dc 63bd
000002e0: 1ad4 55bc b5e4 073d 59c1 2a3d 6cf6 eebc
000002f0: d38e 663d 9afb 98bc 7322 493d 38ca 2b3c
00000300: d6a3 953d a321 683d c777 25bd ef71 5b3c
00000310: f845 903d e1e3 6ebc d160 9e3d 21b2 65bc
00000320: 8dce 883c 55a5 913d 49ec 3abd 77db 803d
00000330: 011a 563d c2a5 56bc 711f 8e3d 9be5 31bc
00000340: 5373 80bd 0eb9 62bd fdb7 b0bc b104 71bd
00000350: 94e2 94bd 9fb3 653d d2d3 74bd 6d12 983d
00000360: f5ee 893d 4d95 97bc 9259 00bd 30e1 633c
00000370: a928 483d 46d1 8ebc 39a1 ce3b e7cc 24bd
00000380: 78c9 babd f45c 433d 95be c93d e816 0abc
00000390: 8846 b53d 923d af3d 4946 4abd 3510 cfbc
000003a0: 14d0 a63d ea3c 8ebc 6ba5 b8b8 dca1 4e3d
000003b0: 88c4 273d 1117 f5ba 2776 603d 56c8 223b
000003c0: 713e adbc f19c 423d 00fe 46bd e032 703c
000003d0: fa08 80bd ed15 293d 5249 63bd 8053 b83d
000003e0: 99af c83c 7a10 813c 4cf0 f0bc 6b6b 3b3d
000003f0: b100 f33c 5e66 22bd 3a95 1a3d cc81 99bd
0.024485778 0.04478636 0.021805385 -0.04459617 0.040235188 0.025685148 0.058560666 0.017595183
-0.045266464 -0.020097898 0.028413033 0.0457023 -0.029874155 0.05056787 -0.07579552 -0.013027702
-0.0733702 -0.05976938 0.061355986 -0.04674633 0.042441715 0.06385736 0.052900657 0.0006010269
-0.049983658 0.06386899 0.042646997 0.057753425 0.0149113 -0.0605322 0.056669075 -0.064314365
-0.044491637 -0.040492702 -0.06576617 0.045651615 0.0632473 0.06914195 -0.00943659 0.008899365
-0.047824554 0.02218486 0.0067506 -0.035663832 -0.059356842 -0.053912528 -0.042618606 0.035624135
-0.059150744 0.05632367 0.05130723 0.016536033 0.05583118 -0.024005067 -0.05154007 0.06371179
0.006713711 0.01631854 0.06771586 0.032934133 -0.085909024 -0.09299098 -0.05275539 0.059787907
-0.0652317 0.030490037 0.0067441673 0.055948164 0.013230627 -0.025640877 0.078208886 -0.037014913
-0.0464383 0.027330646 -0.04482355 0.049427204 -0.044314735 -0.06776111 -0.0018126364 0.07290252
0.00703594 -0.06753573 -0.028351024 0.017037923 -0.039274834 -0.00023317922 0.004142891 0.03648641
-0.036085904 -0.034038574 0.057162397 -0.02091038 0.0024016718 -0.062050484 -0.025164885 0.030627992
0.020346409 -0.0034536459 -0.017624443 0.04794069 -0.08633184 0.02053401 -0.05360222 -0.04120122
-0.036391366 -0.034293234 0.061460752 0.008286525 0.040304065 0.0850161 -0.04211668 -0.07871492
0.07179002 -0.007963016 -0.024744153 -0.07940981 -0.005883279 0.038938507 0.043886174 0.06260609
0.07564839 -0.04527955 0.043781042 -0.06389861 -0.06979768 -0.068133056 0.055082478 0.0038382227
0.04111506 0.046585906 0.071949326 0.008451456 -0.004947954 -0.07885694 0.033737443 0.06833375
0.050632562 -0.07907134 -0.07464597 0.014351655 -0.035589933 0.0031816985 0.048095386 -0.0015782606
-0.045086455 0.056963626 0.015005613 -0.038733993 -0.070390806 -0.009844209 0.0546926 0.03443371
-0.050672617 0.06311255 -0.012846638 -0.071753696 -0.0058187163 -0.009813443 0.07617806 0.01910677
0.0631279 -0.036034696 -0.0103410715 0.005999181 0.0756701 0.013296472 0.061305042 -0.048099976
-0.07314513 -0.07057428 -0.012575216 0.06737115 -0.052198183 -0.03899357 0.010708722 -0.0055495026
-0.042311076 -0.07518233 0.034636967 0.0041607143 0.072569445 0.06772933 -0.01394601 -0.05563039
-0.013051057 0.033177096 0.041688297 -0.029170237 0.05628855 -0.01867466 0.04910512 0.010485224
0.0730664 0.056672703 -0.04039743 0.013393863 0.070445955 -0.014580698 0.0773331 -0.01401952
0.016700054 0.07111613 -0.045635495 0.062918596 0.052270893 -0.013101043 0.06939591 -0.010857965
-0.06271996 -0.055352263 -0.021572107 -0.058842365 -0.07269779 0.056079503 -0.05977232 0.074253894
0.067350306 -0.01850381 -0.03133542 0.013908669 0.0488669 -0.017433774 0.0063058403 -0.040234473
-0.09120458 0.04769607 0.09850804 -0.008428313 0.088513434 0.085566655 -0.049383435 -0.025276283
0.081451565 -0.01736303 -8.804615e-05 0.05044733 0.04095891 -0.0018698891 0.05480018 0.0024838648
-0.021147938 0.047512952 -0.048582077 0.014660567 -0.06251712 0.041280676 -0.055489846 0.09000301
0.024497794 0.015754927 -0.029411457 0.04575674 0.029663416 -0.039648406 0.03773997 -0.0749546

11.bias f4 [32]
00000000: 06d7 1b3e c39b 133e df7a cb3e 4188 e63c
00000010: 657a 53bd b132 b33d 20ce 303d c84a 2abd
00000020: 44c1 613d bb0e 2fbd 79e4 b7bc f111 453c
00000030: c433 693c 8ce0 a13d 102f 01bd 0f62 8c3c
00000040: 79e8 a4bd 4794 593d 7ce8 e93c b62e aabd
00000050: eba8 93bd 1a32 883e 3eff 6a3c 1a3e 62bc
00000060: e46d 40bd bca1 b7bc 38c5 e6bc 7d7f 013c
00000070: dd03 a0bd 753a c6bc 87aa 38bc bae9 14bd
0.15218744 0.14414887 0.3974218 0.028141143 -0.051630396 0.08749903 0.043165326 -0.041575223
0.055115953 -0.042738657 -0.022447811 0.012028203 0.014233533 0.07904157 -0.031539023 0.017136602
-0.08052153 0.053119924 0.02855324 -0.08309691 -0.07209953 0.26600724 0.014343081 -0.0138087515
-0.0469798 -0.022415988 -0.028170213 0.007903931 -0.07813237 -0.024197796 -0.011271126 -0.03635571

13.weight f4 [32, 32, 3]
00000000: 81f8 323d 19e8 aa3d df40 513d 337d 9ebd
00000010: 5fe3 563d 818a 833d 9692 2e3d e35e 3e3d
00000020: 0c64 09bd 5e46 c7bb 5209 3c3d e224 3b3c
00000030: 7ffa ab3d 07be 3bbd 19c6 a53d 9120 bdbc
00000040: 976a afbd 1e93 88bd d42a 7cbd 1d03 ecba
00000050: 5527 233d 6da6 8abd 7619 c13c 5940 893d
00000060: 3465 c13c e67c 4bbd c8d5 c7bd d8c7 9d3d
00000070: 4701 933d 6464 a5bd 58f3 0dbd 00b1 833d
00000080: af8e 003c 9c8e 253d 6050 b9bd 18f0 d53c
00000090: 8b09 15bd 6d19 a0bd 27fc 4abd 9b25 1ebd
000000a0: f6bf 463d 5fb5 adbd d03a 98bd 35d4 afbd
000000b0: e584 c0bc e71c a63d a030 b53d 0bf8 b03d
000000c0: b523 d0bd 79e5 f83c 0401 a3bd f283 733d
000000d0: 8c74 80bd 7bfd a3bd 7695 293c e102 36bd
000000e0: 662b 0a3d 78c5 923c 9abc 053c af19 80bd
000000f0: 183e 213d 6f35 2f3d c83f 863d a179 7a3d
00000100: 746e 0ebd 900c 8dbd e216 10bd 3b4d 78bd
00000110: d1cf 9a3d 1dfd 6e3d 6567 a93d 19d8 11bc
00000120: d48e 423d c39c c9bd a3dd 313d 9a1d aebd
00000130: 8b03 813d f7fb fcbc 0dc0 9dbd b353 8dbd
00000140: 2fb1 b8bd ee79 47bc 6dfc 513d d1bd 8b3d
00000150: d719 41bd b330 a2bd f890 ccbd c99e 84bd
00000160: fcd4 a1bd aef6 c4bb c408 933d 7722 aabd
00000170: 80a2 d63d c327 c1bd 2263 983d aff5 003d
00000180: 2e92 ab3d 300f 803d 1a2d c3bb b552 333d
00000190: 42ab d6bb c416 d43c 8067 42bc f3f3 323d
000001a0: 86b7 c7bc 71d5 693d 42aa 953d 0326 90bd
000001b0: c9db 80bc 6250 c33c 37b7 ac3d ddf0 8fbc
000001c0: e2c3 babd 70cb c0bd aecf b03d d570 123d
000001d0: 525e 89bd ae27 883d dcb9 20bd 1915 c2bd
000001e0: 8122 86bd e332 583c a150 0ebd fb30 8b3d
000001f0: a9a0 c5bd 9596 0e3c 72ba 433d 7628 8b3b
00000200: f79c afbd 3792 52bd e48e 93bd 53ee 4d3c
00000210: 3a1e 9dbd f3f4 c03d e6b3 643d 1cfe f43a
00000220: e8b6 d03d 6906 36bd 9a85 acbc 0167 953d
00000230: 67c7 24bd 7abd d73d 4557 fc3b 3fb7 ba3d
00000240: fc24 bcbd 6812 9dbd e7eb 96bd f76d f8bb
00000250: e2a7 6fbd 66fa bb3d 0dd4 adbd d308 873d
00000260: 9baf d53c 332f c63c a2f7 8ebd 389b bebd
00000270: a55b 6639 817e e2bc 1236 6ebd 3c55 be3d
00000280: 4739 3dbc 08e3 b0bd 532a 4fbb 650b a0bb
00000290: 48ac 43bd 3818 0bbd 21bd adbd 5ed4 8dbd
000002a0: 7314 71bd 64b8 b23d 6330 fd3c 0654 efbc
000002b0: 2ff7 493c b85e a5bd d9dd 62bd 561f c7bc
000002c0: a0a7 b4bd af3d 1e3c 1585 873d 3f1a 1e3d
000002d0: 3820 d03d d62a c43d 64dd 6d3d 115a d6bb
000002e0: 106b a0bd 6677 2c3d 74bb 0d3d 4248 593d
000002f0: 7f3f 4cbd 7a51 cdbd f0fd 623d 5f45 a0bd
00000300: 9477 e43c a2e7 08bd de8d 86bd 18e1 1fbd
00000310: b9f8 a9bc 7737 503b 3205 c6bd 2113 abbc
00000320: 155d 4e3c 0983 893d 6847 61bc 7e85 3e3c
00000330: 9646 ff3c fd2b cabd 7ef7 5b3d 3891 5d3d
00000340: f48f 873d b3cb 81bd d30c b93c 125e 023d
00000350: dfa0 c7bd 8bbb 7e3d 1617 87bd 7085 9abd
00000360: d975 bcbc c6b8 8ebb 249c 583d 09f5 613d
00000370: e954 23bd 86de ae3d 15ce b43d a6a6 94bd
00000380: e0a8 083d 330f ba3d 6fac 5fbd 6c95 8f3d
00000390: f113 5b3d a571 84bd 36d3 afbd 4d09 c6bd
000003a0: f7d0 943d a7ee 3e3d efe9 9b3c 3e5d ee3c
000003b0: 4404 f33c c205 a33c e499 443d e7c4 d63d
000003c0: 2fcd ca3d 964a bcbc 06fc 47bd 4ced 5ebd
000003d0: cdd4 943d 1e56 c2bd d254 2f3d 692b 75bb
000003e0: 532c c13d d9d2 8d3d 6cf8 c6bc 1d9d 00bd
000003f0: 7e77 4fbd 1638 2e3d 6a96 c4bd 5367 093c
0.043694023 0.0834505 0.051087257 -0.077387236 0.05246293 0.06422902 0.042620264 0.04647721
-0.033542678 -0.0060813865 0.045907326 0.011422368 0.08397388 -0.04583552 0.08094425 -0.023086818
-0.08565252 -0.066686854 -0.06156428 -0.0018006299 0.03983243 -0.067700244 0.023571711 0.067017265
0.023607828 -0.04967966 -0.097575724 0.07704133 0.07177978 -0.080757886 -0.0346559 0.064302444
0.007846518 0.040419206 -0.090485334 0.026115462 -0.036386054 -0.078173496 -0.049556877 -0.038610082
0.048522912 -0.084818594 -0.074330926 -0.08585397 -0.023500869 0.081109814 0.08847165 0.086410604
-0.101630606 0.030382859 -0.07959178 0.059452005 -0.062722296 -0.08007332 0.010350576 -0.04443634
0.033732794 0.017916426 0.008162642 -0.06254899 0.039365858 0.042775568 0.06555134 0.06115115
-0.034773305 -0.06887162 -0.035178073 -0.060620528 0.07559169 0.058346856 0.08271674 -0.008901619
0.047499493 -0.09844353 0.04342426 -0.0850174 0.06299504 -0.030881865 -0.077026464 -0.0690073
-0.0901817 -0.012175066 0.051266123 0.06823314 -0.047143783 -0.07919445 -0.09988588 -0.06475598
-0.07901952 -0.006010852 0.07179406 -0.08307355 0.10480213 -0.09431412 0.07440783 0.031484302
0.08377491 0.06252897 -0.0059563043 0.043780047 -0.0065511772 0.025889762 -0.011865497 0.04368968
-0.024379503 0.05708832 0.07307865 -0.070385 -0.015729802 0.02384204 0.08433383 -0.017570907
-0.09119393 -0.094138026 0.08633362 0.035752136 -0.06707443 0.06648193 -0.03923975 -0.0947668
-0.0654955 0.013195726 -0.034744862 0.06796452 -0.09649784 0.008702894 0.04778523 0.0042467667
-0.085748605 -0.051408973 -0.072049886 0.012569028 -0.07671781 0.0942172 0.055835627 0.0018691453
0.101911366 -0.044439707 -0.0210598 0.07295037 -0.040229227 0.10534187 0.007700833 0.09116983
-0.09186742 -0.07669526 -0.073692136 -0.007581468 -0.058509715 0.09178619 -0.08487711 0.0659348
0.026084712 0.024192428 -0.06980826 -0.093069494 0.0002196865 -0.027648212 -0.058157034 0.09293601
-0.0115493005 -0.08637053 -0.003161092 -0.004884171 -0.047771722 -0.033958644 -0.08483339 -0.069252715
-0.058857393 0.08726576 0.030906862 -0.02921487 0.012327 -0.08074707 -0.05538735 -0.024306934
-0.088210344 0.009658261 0.0661718 0.03859925 0.10162395 0.09578483 0.058072463 -0.0065414985
-0.078329206 0.042106055 0.034602597 0.053047426 -0.049865242 -0.10025306 0.055417955 -0.078257315
0.02788905 -0.033424027 -0.06570028 -0.039033026 -0.020748483 0.003177134 -0.0966896 -0.020883145
0.012595435 0.06714446 -0.013749935 0.011628507 0.031161588 -0.09871671 0.053702824 0.05409357
0.06619254 -0.06337681 0.022589123 0.031827994 -0.097474806 0.062190574 -0.065962 -0.075449824
-0.023005413 -0.004355523 0.052883282 0.055165324 -0.0398759 0.08538537 0.088283695 -0.07258348
0.033364177 0.0908493 -0.054607805 0.07010922 0.053485814 -0.064669885 -0.08585207 -0.09669743
0.072664194 0.046614315 0.019032447 0.029097196 0.02966512 0.019900206 0.047998324 0.10486775
0.09902417 -0.022984784 -0.048824333 -0.054425523 0.07267151 -0.09489082 0.0428055 -0.0037409908
0.09432282 0.069249816 -0.024288379 -0.031399835 -0.050651066 0.042533956 -0.09599002 0.008386451

13.bias f4 [32]
00000000: 510e 91bc fc4d 8cbd 71cf 833d 61b4 babd
00000010: 09fb 3d3b 3c8a c63c c093 1f3e 9a82 9d3d
00000020: 8118 a43e 0ea9 c03e 9c95 0bbd 312e 0b3d
00000030: e915 8ebc f671 693d 60be 4cbc 7d1d e03d
00000040: fb4a 5fbd b6d2 93bd 00dd 31bd 78fe 3ebd
00000050: e0cc 293e 3db6 7a3d 5b69 a3bd 53fd 92bd
00000060: 6ce1 c23a eeeb 503d 94fa aa3e 9db1 eabc
00000070: 0bb8 bf3e 669e ab3e 5afa 333e eb34 f83c
-0.017707022 -0.06850812 0.06436051 -0.09116436 0.002898874 0.024235837 0.15583706 0.07690926
0.32049945 0.37628978 -0.034078225 0.0339796 -0.017344432 0.056993447 -0.012496561 0.109431244
-0.054514866 -0.07217924 -0.043423653 -0.0466294 0.1658206 0.061208952 -0.07979079 -0.07177224
0.0014868206 0.05100625 0.333943 -0.028649146 0.374451 0.33519286 0.1757597 0.03029867
