model.pt (torch, 332143 bytes, 18 tensors)

1.weight f4 [32, 1, 15]
00000000: f8d6 8b3d 640d 8dbd 16ce 4bbd cd3e 5cbe
00000010: c20d 90bd a70a eb3d 1594 babc fe66 5abe
00000020: c75d efbd e2f2 a1bd 51f9 1c3e a0d0 123e
00000030: f396 0ebe 8f73 3abe 2027 163e e9d5 493c
00000040: 4143 cc3d 6695 73be 5d7a 063e 88fe 0c3e
00000050: bac2 4c3d 21cf bb3d f741 373e fbd1 2d3d
00000060: 7511 80be a398 3b3e b6cf 90be f441 113d
00000070: 199b d33d e5dd c9bc f797 0c3d 8569 843d
00000080: 2440 0bbe 9ee8 aabd 50c2 ed3d 68ad 393d
00000090: f8b8 3e3e 65cc 2ebd e3a9 93bd 5c3e afbd
000000a0: 57bf 1fbe 69f1 01bd 075e 2ebe 3a7a 6b3e
000000b0: 9f56 24be d501 6fbe db4d 93bc 5fa5 c7be
000000c0: a7d7 babe 407e 5fbe df7f 3cbe f65f 8abe
000000d0: adcc 453c 57e1 49be 4171 a3be ccb4 d6bd
000000e0: bbcc 92be fcc6 80be 4cde 67b9 3ab6 39bd
000000f0: ad6f 9abe 4552 c8be 714a e0be 15b9 dbbc
00000100: 2307 6cbe 5cce 9dbe 6111 84be 6409 13be
00000110: 5586 88be 2954 9cbe 29b0 093e 5d7c 81bd
00000120: a156 bf3d 720e a73e 861f a83e 69a6 f93a
00000130: f70a 743d 683e 9fbd f74d a7be eef0 0bbe
00000140: cf59 253e d06c 89bd 89e4 adbb 315b 8d3e
00000150: f265 12bd d1c3 753d ff6b a5bd b5df 00be
00000160: 54ac 113e f141 873e ba48 1b3d e3ad 243e
00000170: a3c7 a73d 1053 a6bd 60d8 383e 1518 0ebe
00000180: 9022 6abe ded1 babe 9cd7 aebe f7e1 50be
00000190: 54e8 44be 05c9 a23e 3f0d 53bd 0e06 913e
000001a0: 793d 08be f6f1 2e3d 2c64 db3b f6de 343e
000001b0: e65a 523e d2ac 4e3e a5bc c13c aff7 16bd
000001c0: fe3f 2abe 46f3 00bd bdf8 c63d 238d 463e
000001d0: b72a 783e d463 883d 66e3 e13b 5868 18be
000001e0: 416c d93b 9861 9b3b 5b2e f7bd 3667 9fbe
000001f0: 1308 2cbe b33d a6be 6833 233e ae2d 0c3e
00000200: 5924 02be b18e ec3c 45af b43d 6adb 4cbd
00000210: 9107 603e 3d68 a73e 6c7f 7a3e 0a16 d73c
00000220: 8235 973d 9945 bbbe 0726 b6be a1cf 47bd
00000230: 594a e83c bfe9 50bd 5a5f d13e 4271 973e
00000240: 9aed 723e 2f78 963e 4ed5 c4bd 89f2 d0be
00000250: e7a9 53bd a94b b8be 8850 9bbe c891 04bf
00000260: 1438 9abe 7794 fdbe 9590 05bf 99b1 76be
00000270: d303 02bf 5d22 4e3c e0d1 a1be 2a47 553e
00000280: 550c ab3e bd57 763d 4cde de3e c6bd 473d
00000290: 2f7d 633e 5d77 c0bd 4708 98be 3cf1 40be
000002a0: 0536 58be 6e77 2ebb 75c1 7c3e 8f6a 123e
000002b0: c446 aa3d e781 b9bd 9623 193e 6602 85be
000002c0: d96a 0d3e 70a2 91be 7dbb 003e eb9f cc3c
000002d0: 03a3 243e b551 50be bb45 59be 78ed ed3d
000002e0: b993 aabe 7932 1abe b987 54be a6d7 a13e
000002f0: 95c3 df3e 941b 73bc fbd2 42bd 9134 813d
00000300: b7af 9fbe 35bf 1cbd 323c 7cbd 4add 853d
00000310: 8d68 8a3e bbf4 843c 1607 a03e f78d a03e
00000320: 97a1 bbbd 99a9 66bc 1027 dabe 0161 a2be
00000330: 2711 d8be 34a1 aebe 4fa8 29be 7312 923e
00000340: 6d28 953d c805 ba3d 9d6e 10be b965 45be
00000350: c0b4 76be b909 43bd 1c66 203e 32d0 073e
00000360: 1bfc b13d 532b 5dbe f4e6 6ebd a813 753d
00000370: 6e72 b43d d4d0 abbd 865a 25be f639 d13d
00000380: ecd1 5b3e c003 b9bd 7ece a93c 06a1 c3be
00000390: bf97 0ebe 8763 97be 3527 61be d922 26be
000003a0: b964 9abd 1b58 8cbe e9e5 5abe 1d48 3c3d
000003b0: fd28 02be f5b0 303c 38c5 c03e b1ac 7d3e
000003c0: 717a e43d ab6f 373e 214e 4a3e fbd0 4a3e
000003d0: 4f84 34be 5aa0 223c ca46 403d 7dd0 4e3e
000003e0: d752 003e 2827 2b3d 5f3e 433e cc66 1e3e
000003f0: 27e6 703d b907 833d 89f9 92bd 053e c43d
0.068281114 -0.0688732 -0.049757086 -0.21508332 -0.07033874 0.11476641 -0.02277569 -0.21328351
-0.116878085 -0.07907654 0.15329482 0.14337397 -0.1392477 -0.18208145 0.14663363 0.012319067
0.09973765 -0.2378746 0.13132615 0.13768971 0.049990393 0.09170366 0.17896257 0.04243658
-0.2501332 0.18319945 -0.2828347 0.03546329 0.10332317 -0.02464194 0.034324612 0.06465439
-0.13598686 -0.083451495 0.11609328 0.04533139 0.18625247 -0.042675395 -0.07210138 -0.08556816
-0.15600334 -0.031724367 -0.17028056 0.22995844 -0.16048668 -0.23340543 -0.01798146 -0.38993356
-0.36492655 -0.21825504 -0.18408154 -0.27026337 0.012072724 -0.19714867 -0.31922343 -0.10483703
-0.28671822 -0.25151813 -0.00022112689 -0.0453398 -0.30163327 -0.39125267 -0.43806794 -0.026821652
-0.23049597 -0.30821502 -0.2579451 -0.14359051 -0.26664987 -0.3053296 0.13446106 -0.063225485
0.09342695 0.32628208 0.3283655 0.0019046786 0.05958077 -0.07775575 -0.3267667 -0.13666126
0.1614754 -0.067102075 -0.0053067845 0.27608636 -0.035741754 0.0600012 -0.08077239 -0.12585337
0.14225894 0.26417497 0.037911154 0.16081958 0.081923746 -0.08121312 0.1805129 -0.13876374
-0.22864747 -0.3648824 -0.34148872 -0.20398699 -0.19229251 0.3179399 -0.051526304 0.28324932
-0.133047 0.04271122 0.006695291 0.17663178 0.20542488 0.20183113 0.023649523 -0.036857303
-0.16625974 -0.031482004 0.09715412 0.19389777 0.24235044 0.06659666 0.006893563 -0.14883554
0.0066352193 0.0047418587 -0.120693885 -0.3113343 -0.16799955 -0.32468948 0.15937579 0.136893
-0.12709178 0.028876634 0.088224925 -0.050013937 0.21877886 0.32696715 0.2446267 0.026255626
0.07383253 -0.36576536 -0.35575888 -0.048781995 0.028355764 -0.051004168 0.4089306 0.29578596
0.2372345 0.29388568 -0.09610997 -0.4081004 -0.051675703 -0.35995224 -0.30334878 -0.51784945
-0.3012091 -0.49527332 -0.5217374 -0.24091186 -0.50787085 0.012581435 -0.31605434 0.20827928
0.33407846 0.060142267 0.43528974 0.048764966 0.22215723 -0.09397767 -0.29693815 -0.18842024
-0.21114357 -0.0026621479 0.24683173 0.14298461 0.08314279 -0.0905798 0.14954981 -0.25978392
0.1381029 -0.28444242 0.12571521 0.024978599 0.16077809 -0.20343669 -0.21218006 0.11617559
-0.33315828 -0.15058316 -0.20754899 0.3160984 0.43703905 -0.014838118 -0.047564488 0.06308854
-0.31188747 -0.038268287 -0.061580844 0.06536348 0.2703289 0.016229978 0.31255406 0.3135831
-0.0916168 -0.014078521 -0.42607927 -0.31714633 -0.42200586 -0.34107363 -0.16568111 0.285297
0.07283101 0.09083134 -0.14104696 -0.19277085 -0.24092388 -0.047616694 0.15663952 0.13263014
0.086906634 -0.21598558 -0.058325723 0.0598332 0.08810888 -0.0838944 -0.16147813 0.10216133
0.21466798 -0.090339184 0.020728346 -0.3820879 -0.13925074 -0.2956812 -0.21987613 -0.16224231
-0.075387426 -0.2741097 -0.21376766 0.04596721 -0.12710948 0.010784377 0.37650466 0.24772908
0.11156166 0.17913692 0.19756366 0.19806282 -0.17628597 0.009925926 0.04694251 0.2019672
0.12531601 0.04178539 0.19066761 0.15468901 0.05881324 0.06397957 -0.07176501 0.09582142

1.bias f4 [32]
00000000: 146e 13be 2a8d 44be c677 e6bd d0fc 7dbe
00000010: 33a3 a8be 15f9 013c 6001 39bd 3220 e7bd
00000020: 0349 8bbe a47a 163e a5b1 b6be 3b9f 49bd
00000030: d52a 743d 362c 423d 98be 88bd ebde 54be
00000040: 71f3 5cbe 7694 8f3c 0922 843e 7f32 0b3d
00000050: 3f9c 293d 8460 9d3d b1c9 0e3e 7dea f0bc
00000060: b600 22be a0a6 6bbd 2593 8cbd efca 6fbe
00000070: 5df5 a8bc 3363 76be b8bf 0fbe 705e 3f3e
-0.1439746 -0.19194475 -0.11253314 -0.24803472 -0.3293701 0.007932921 -0.045167327 -0.11285438
-0.2720414 0.14695221 -0.35682407 -0.04922412 0.05961116 0.047405444 -0.06676978 -0.20788161
-0.2157724 0.017526846 0.25807217 0.033983704 0.041408774 0.076844245 0.13944127 -0.029408688
-0.15820584 -0.057531953 -0.06864003 -0.23417257 -0.02062481 -0.24061279 -0.14037979 0.18688369

3.weight f4 [32, 32, 13]
00000000: 2599 c13b d792 10bc 14bf a6bc d7fe 8ebc
00000010: 1191 89bb e1bc e1bc 6f94 b6bc 9f4d f73a
00000020: b305 a63b c239 9abc e2c1 663c edfd 453d
00000030: dab0 e336 069e d1bb d8e9 39bd 2f5d d1bc
00000040: 4a76 c7bc 5147 dbba 7986 02bd 43da 8c3c
00000050: cb24 41bd 9601 933c 308d 21bd 4c67 223c
00000060: 1c54 1f3d cb68 29bd 8f77 333d 4e6a 643c
00000070: e667 de3c 649c 34bc c31e 46bc 7285 27bc
00000080: 3938 6b3c 5b52 0bbd bcbc 4a3d 1de1 063b
00000090: da21 08bc 4850 d6bc 2d82 cf3c 1e30 873b
000000a0: 90c3 d03c 41a7 e93b 8080 fa3c 207c 80bc
000000b0: 5957 f73b 96dc 80bd 6d9d 12bc 3e9d a7bd
000000c0: 8933 fdbc 1a40 08bd bd2a 193d a7e6 4f3c
000000d0: 7cd3 7cbd 90df 01be 3720 dfbd 6071 3fbd
000000e0: 086d c4bc 4b15 60bb d7c6 1dbd 5137 d8bc
000000f0: d4cf aeb9 e1ae 23bd f1a5 323d ab4b 8cbc
00000100: 2dcc 15bd 0809 223d 4168 613d 5984 e33b
00000110: d25c 3cbc e1cb 183d aecf 6f3a 06ea 4abd
00000120: b4f2 edbc cd03 803c 6cb2 523d 055e 9a3c
00000130: b03d 993d f710 3cbc fef1 d3bd 63bc b9bc
00000140: 29a2 82bd 7d7c d8bc a05c 773d c5f9 543d
00000150: c11d 9f3d 78c2 4a3d 606e 9b3a efa2 9ebc
00000160: e5f3 24bd e593 afbb 5e3d 6fbd 393d 69bc
00000170: 6b0a babc 4e14 0fbd 94a0 0c3b b84c 443d
00000180: 5eb0 823d e0f3 593d 6952 d33c 6a21 eb3b
00000190: 4773 1d3d ee8b 8ebb b029 863b 6481 5fbc
000001a0: 1f81 aabd 7e62 16bd 7c45 bdbd 47ab 85bd
000001b0: bc8a 97bb 9681 96bc 2e42 48bd c9f6 87bc
000001c0: 2d01 2fbc ec8e 823d 117e c6bc 26e8 55bc
000001d0: 713e 233d 1a07 973d a020 e2bc b08c 19bd
000001e0: 16e2 7dbd 64b4 aabd 9cdf 62bd fe58 1bbc
000001f0: c0c9 8b3d 003e 143e c1ab 1a3e 8b23 fc3d
00000200: cb2e 543c a2c4 373c a596 e2bd 1c36 f7bd
00000210: 79a4 06be 8fe4 09be 6cda 59bd dbb1 14bd
00000220: 44e0 8bbd b37f f1bc e988 5abd 2189 8bbc
00000230: 90d2 363d 1d33 cebc 9ff7 d53b 8a02 06bd
00000240: 3a2d 6e3d 77bc 4a3d 502c 8dbc 7d2f f73c
00000250: c431 7b3b afa1 f5bc 34ae 69bd 0953 6ebd
00000260: 6692 c7bb db73 753c 472a 2b3c 924c 7c3d
00000270: bb5a 57b9 661e 003d 6870 b7bc 616d debc
00000280: e147 04bd 75f3 abbd 595c 18bd d7e5 2ebc
00000290: 8255 073e 006b 883d c715 e23d 9900 d03d
000002a0: 1ac7 fe3c 7e7c debd 870e 0abd fda2 203d
000002b0: d7bb a43d 5233 f03d 04a4 cd3d 4e4a 3fbc
000002c0: 2e0f d63c 033b afbd d864 f3bd 23b9 afbd
000002d0: 3b83 ebbd df10 aebd d586 c1bc 6e2e 853a
000002e0: e0a2 4a3b 6aeb 853c e416 63bd b20e 4abd
000002f0: e9e1 ccbc b7f8 0d3d 49c9 60bd 0672 2fbd
00000300: 442a 563d 30f7 b1bc 5147 15bd 076a b4bd
00000310: 2918 91bd 441a 8fbd 00e7 c8bd 57c5 bcbd
00000320: a5c0 b13a be55 f0bc 05a0 efbc 6cad 45bd
00000330: 3194 b93c fd7a fdbc fb0e 7ebc 865c cf3c
00000340: 444e d4bd 1200 033c 0aec f73b ebe4 e3bb
00000350: 69a7 c0bc 0a66 b23c 4afa 103d f423 143c
00000360: f90c 463d 0449 0d3d e984 193d 670f 073d
00000370: 8d0e 053d 47f5 3f3d 3b5e 69bd e94b 66bd
00000380: 5e6c d9bc e4bf c4bc 75e9 6cbd c0d4 063d
00000390: 8850 473d 3df8 a53d 1cbe de3d 82ce 4d3d
000003a0: 2d3a 8f3d 184d 2f3d 74a4 6ebd ca44 f0bd
000003b0: d0b7 febd dde5 e2bd b384 a9bd a83e 78bd
000003c0: ae45 83bc c44c 5a3c d5a3 1a3d cc67 a83d
000003d0: 3371 6fbc 592b a2bb 0997 b9bc af18 11bd
000003e0: 3372 37bd 092b 24bd a271 eb3c 8a00 cd3b
000003f0: 64c9 0b3d 8672 5f3b 768b 5cba 962d 343d
0.005908149 -0.008824072 -0.020354785 -0.017455501 -0.0041982015 -0.027555885 -0.022287576 0.0018867737
0.0050665974 -0.01882637 0.014084311 0.048337866 6.7857154e-06 -0.0063970117 -0.045389026 -0.025557129
-0.024348397 -0.0016729628 -0.031866524 0.017193919 -0.04715423 0.017945092 -0.039441288 0.009912323
0.038898572 -0.041359704 0.04381519 0.013941361 0.027149152 -0.011023615 -0.012092295 -0.010224687
0.014356666 -0.034014087 0.049496397 0.0020580955 -0.008308852 -0.026161328 0.025330627 0.004125609
0.025483876 0.007130534 0.030578852 -0.015684187 0.0075482544 -0.062920734 -0.008948666 -0.081842884
-0.030908363 -0.033264257 0.037394274 0.012689269 -0.061725125 -0.12682939 -0.10894816 -0.046738982
-0.023977771 -0.003419238 -0.038519707 -0.026393564 -0.0003334271 -0.0399617 0.043615285 -0.017125925
-0.03657167 0.039559394 0.055031065 0.0069432673 -0.011496739 0.03730381 0.0009148073 -0.04953959
-0.029046394 0.015626812 0.051439688 0.01884366 0.07482469 -0.011478654 -0.10348891 -0.022672838
-0.06378586 -0.026426548 0.06039107 0.05199601 0.07769347 0.049501866 0.0011858456 -0.019364802
-0.04027166 -0.0053582066 -0.058408134 -0.014235788 -0.022710046 -0.034931473 0.0021458017 0.047924727
0.063812956 0.053211093 0.025796132 0.007175614 0.038440015 -0.004350177 0.004094325 -0.013641689
-0.08325409 -0.036715023 -0.09241769 -0.06526809 -0.0046246927 -0.018372338 -0.04889124 -0.016597169
-0.010681433 0.063749164 -0.024230035 -0.013055837 0.03985447 0.073744014 -0.027603447 -0.037487686
-0.06198319 -0.08335188 -0.05538903 -0.009481667 0.0682559 0.14476776 0.15104581 0.12311467
0.012950609 0.0112163145 -0.110638894 -0.120708674 -0.13148679 -0.13466094 -0.05318682 -0.03630243
-0.06829885 -0.029479837 -0.053353224 -0.017033162 0.0446344 -0.025170857 0.006529763 -0.032717265
0.0581486 0.04949614 -0.017233044 0.030174011 0.0038329223 -0.029984323 -0.0570509 -0.058184657
-0.00609045 0.014981235 0.010447091 0.06159646 -0.00020537798 0.03127899 -0.022392467 -0.027151765
-0.03229511 -0.08396045 -0.037197445 -0.010674915 0.13216212 0.06661034 0.1103931 0.10156364
0.031100798 -0.10863589 -0.03370526 0.039217938 0.0804364 0.117285386 0.10041049 -0.01167543
0.026130285 -0.085561775 -0.11884469 -0.08580234 -0.114996396 -0.08499312 -0.023623863 0.0010160932
0.0030919835 0.016347606 -0.055441752 -0.04933042 -0.025010066 0.03466102 -0.05487946 -0.04283335
0.0522864 -0.021724313 -0.036444966 -0.088092856 -0.07084686 -0.06987432 -0.09809685 -0.09217327
0.0013561441 -0.02933776 -0.029251108 -0.04826109 0.022653671 -0.030942434 -0.015506501 0.025312673
-0.103664905 0.007995622 0.00756598 -0.0069547794 -0.023517327 0.021777172 0.035394944 0.009041775
0.048352215 0.03449346 0.03748027 0.032973673 0.03248458 0.046864774 -0.05697463 -0.056224737
-0.026540931 -0.024017282 -0.05783983 0.032917738 0.048660785 0.08103988 0.10876104 0.05024577
0.06993518 0.04279813 -0.058262303 -0.117318705 -0.12437403 -0.11078999 -0.082772635 -0.06060663
-0.016024437 0.013323966 0.0377539 0.08222923 -0.014614391 -0.004949015 -0.022655027 -0.03542393
-0.044786643 -0.040080104 0.028740708 0.006256168 0.034127608 0.003409536 -0.0008413115 0.043988787

3.bias f4 [32]
00000000: 0630 563d c256 0fbd d913 05be ca27 d1bd
00000010: 0187 3ebd 1bd9 c53d 710a a63d 4319 893d
00000020: bdaa 96bd c015 e43d 033a 4ebd 6adc e93d
00000030: 1572 ae3d 6a4d 18bd 52cc 263e 1324 693d
00000040: 2ad9 9bbd ea88 5b3c 336c b9bd 41a4 62bc
00000050: e50c 783d 975a e0bc 9a96 acbc b478 983d
00000060: 2239 153c 1662 693b db56 d1bc 4e37 0ebe
00000070: dbed 1cbd da83 d53c 14a1 c43d 3325 cdbd
0.052291892 -0.034994848 -0.12995853 -0.10212667 -0.04651547 0.0966055 0.0810746 0.066942714
-0.073567845 0.11136961 -0.050348293 0.11418994 0.08517853 -0.037183203 0.1628888 0.05691917
-0.0760978 0.013399342 -0.090538405 -0.0138331065 0.060559172 -0.027386947 -0.021067906 0.07444897
0.00910786 0.0035611442 -0.025554111 -0.13888285 -0.038312774 0.026063848 0.09601036 -0.10016861

5.weight f4 [32, 32, 11]
00000000: c726 5dbd d1df e0bc d401 a0bd 6b92 37bd
00000010: eb56 f1bc 4431 aa3c 856e 433d 369e 133d
00000020: 496c 8cbb 35fc 8e3c 3ab8 513c 4ce6 43bd
00000030: b806 83bd 6156 213d 865a 59bd 5c07 e23c
00000040: e81e f3bb 6db3 323d e83c 4fbd 6659 ca3c
00000050: ec10 1a3c 46e8 5dbd e91e c03c 91e9 353c
00000060: 98c0 55bd 1a10 68bc b7f0 aa3c 730d 63bc
00000070: 13f7 f9bc 042f 4dbd 26a1 87bc a5d3 3abd
00000080: 8eb5 11bd 49e1 24bd 0237 853c d517 2ebb
00000090: f85e 1fbc f375 283d eff4 6c3d 8500 e63c
000000a0: 0a27 65bd 8972 083d 98fa 10bc 246f 1fbd
000000b0: ff5a 7b3d 0239 3f3c e64c a23c f9d8 dbbc
000000c0: 6e32 8cbc 8696 133d 31c6 31bd 5ed5 b6bc
000000d0: 828e 80bc 1266 083c 0524 19bc b58d 13bd
000000e0: ec2b 82bd 3cc7 9cbd 0bac 22bd fc92 1d3b
000000f0: 5614 ddbc 5495 9c3d 407a 04bc a33c 6a3d
00000100: a8a3 483d 476b 633d f6ee 983c 854f 4fbc
00000110: 9297 d53c 7f05 7ebd dd18 fe3c 2010 35bd
00000120: 8c8d 60bd 6d89 7abd b9fa c3bb 8a27 e3bc
00000130: f6fd 1ebd 0394 123d d94e a5bd 246b b3bd
00000140: 0d13 d8bd 3983 b1bd 785e afbd c4f1 99bc
00000150: cdef b0bd c243 1bbd d1b3 77bd 403e bdbb
00000160: 8dd7 053d 72e7 0fbd 8857 2f3c f066 abbc
00000170: 3b78 49bd 1511 f03c cb97 86bd 8909 08bd
00000180: 20eb 0fbd 74e6 273c b774 1dbd b983 5b3d
00000190: f874 3a3c bfe9 c63c 6d1f 18bd 5522 9fbb
000001a0: 31f1 72bd d72e 2cbd 3944 323c 64d2 edbb
000001b0: 5f6d 0f3c 6e36 78bd 10ad 26bd fe56 6e3c
000001c0: fdb9 093d a3bc c63c 3006 473d 22bc 273b
000001d0: e555 8abc c466 8a3d 9114 a23d 61c3 923d
000001e0: 825a 6e3c 7def 4b3d e293 45bd 81d7 fbbc
000001f0: ca3a d0bb 6280 4fbd 8b14 0e3b 7283 6fbb
00000200: 334d f6ba a821 96bc 026c 1abd 12eb 51bd
00000210: 5136 e23c 8aca a63c 802f e23c b37f 783b
00000220: c8c0 11bc f260 22bb 3fd1 043d b457 c63c
00000230: c6ca a2bc 2c12 403c c098 023c 1e86 96bc
00000240: 6485 f7bb d334 93bd 27c4 69bd f0ca 83bd
00000250: 672b 27bc d216 63bc aba7 95bd 0e4a 9bbd
00000260: dd83 dcba 6908 fa3c 871b 0cbd 43f7 be3c
00000270: 5103 aabb 8763 03bc 2155 bc3d ef7f 3a3d
00000280: 6a5c 403c 4f03 b03d d266 4d39 62f0 c53b
00000290: 7430 87bb d2c4 513a 5400 563d e0ae 6b3d
000002a0: e822 303c 5630 f43c 2fea 4abc 6a7c 53bd
000002b0: 4edd 0ebc 9682 06bc f74d 523d 534c bb3c
000002c0: ca10 e3bd 0edc a7bd 9d10 9f3b 8d9b 5dbb
000002d0: 391c bcbc 33e3 7c3d ded9 5a3c 600e 573d
000002e0: 6d72 1f3d f399 083c 0138 c739 e785 26bd
000002f0: f169 0abc a294 a1bd b4ed 31bd 1633 c7bd
00000300: a459 233c f2f9 bdbc 6a7e 6d3c 0237 8dbc
00000310: 7235 24bd 6e6b ffbc 17c8 f9bc cf26 913c
00000320: 4eeb 18bd da38 30bd b934 8bbb 8953 563c
00000330: 90ed 3ebb 4e9c 763c 908c 193d 8c4c f23a
00000340: c0d5 9dbc c06f 0b3d 3eb3 533d fc0f ebbb
00000350: 6cb5 043d 197a 4cbd b12f 37bd dd65 913c
00000360: d3be 12bd b1bc 8dbd 14a7 a1bc 3744 80bd
00000370: 47a6 6e3c 6008 0cbc f958 dfbd 251b babd
00000380: d606 cfbc 0b0a a53b 2aa9 a0bd 681a 92bd
00000390: b20a abbd 3ee6 f63c 3c9e 5a3d dd9b 503d
000003a0: 0857 163d 3e75 26bd 86f4 c3bc cdce ba3c
000003b0: fc43 b5bc a7ad d43c 71a5 24bd 32e2 f9bc
000003c0: 9566 93bc ab48 6a3b 2bb5 923d 3c2a 293d
000003d0: 9e6e 253d 8ced 66bd 446a e6bc f7ab 34bc
000003e0: b950 91bd e4a1 2bbc 2ce2 fabc 62e4 21bd
000003f0: b4f1 2ebc 5ffb 663d f296 913d 7b7a f73c
-0.05399206 -0.027450474 -0.07812849 -0.04481737 -0.029460391 0.020775445 0.04771282 0.036039554
-0.0042853695 0.017454246 0.012800271 -0.04782705 -0.06397766 0.039389018 -0.053064846 0.0275914
-0.007419456 0.043628145 -0.050595194 0.024700832 0.009403449 -0.05417659 0.02345224 0.01110305
-0.052185625 -0.014163995 0.020866735 -0.013858187 -0.030513322 -0.050093666 -0.016556334 -0.045611996
-0.035573535 -0.04025391 0.016261581 -0.0026564498 -0.009727232 0.04112811 0.057850774 0.02807642
-0.055945434 0.033312354 -0.008848809 -0.03892435 0.061366078 0.011671307 0.019812059 -0.026836859
-0.01711389 0.036032222 -0.0434019 -0.022318538 -0.015692953 0.008325117 -0.009346967 -0.036023814
-0.06356034 -0.076551884 -0.039714854 0.0024043908 -0.026987236 0.076456696 -0.008085787 0.057186734
0.0489842 0.05552223 0.018668633 -0.012653236 0.02607325 -0.06201696 0.031017715 -0.04420483
-0.05482249 -0.061166216 -0.005980816 -0.027728815 -0.038816415 0.035785686 -0.080716796 -0.0876067
-0.10550509 -0.08667607 -0.0856294 -0.01879204 -0.08639488 -0.037906416 -0.06047422 -0.005775243
0.03267627 -0.035132833 0.010702021 -0.020923108 -0.049186926 0.02930502 -0.06571921 -0.03321222
-0.035136342 0.010247815 -0.038441386 0.053592417 0.011380427 0.02428138 -0.037139345 -0.0048563876
-0.05931205 -0.042036857 0.010880523 -0.0072577465 0.008754103 -0.060598783 -0.04069239 0.014547108
0.033624638 0.02425987 0.048589885 0.0025594314 -0.01688666 0.06757882 0.07914079 0.07166172
0.014547946 0.04978894 -0.048236735 -0.030742409 -0.0063546645 -0.050659545 0.0021679725 -0.0036546853
-0.0018791318 -0.018326595 -0.03770066 -0.05124957 0.02761379 0.02036025 0.02761054 0.0037917912
-0.00889606 -0.0024777022 0.032426115 0.024211742 -0.01987208 0.0117230825 0.007970989 -0.018374499
-0.007553743 -0.0718781 -0.05707183 -0.06435192 -0.010203219 -0.013860421 -0.07307371 -0.07582484
-0.0016823966 0.030521588 -0.03420594 0.023311263 -0.0051883836 -0.008019335 0.091959246 0.045532163
0.011740783 0.08594381 0.00019588627 0.0060406188 -0.004125649 0.0008002046 0.052246407 0.05753982
0.01075051 0.029808205 -0.012384935 -0.051632322 -0.008719755 -0.008209845 0.051343884 0.022863543
-0.11087187 -0.08196269 0.0048542754 -0.003381464 -0.022962676 0.06174011 0.013357608 0.052503943
0.038927484 0.008337486 0.00037997964 -0.040655043 -0.00844811 -0.078896776 -0.043439582 -0.09726541
0.009970102 -0.023190472 0.0144954715 -0.017238144 -0.040090032 -0.031179156 -0.030490918 0.0177187
-0.03733378 -0.043022968 -0.0042482284 0.01308144 -0.0029133298 0.015051914 0.037487566 0.0018485948
-0.019266963 0.03404212 0.05168461 -0.0071735363 0.03239958 -0.04992113 -0.044723216 0.017748768
-0.035826515 -0.06920756 -0.01973299 -0.06263011 0.014566011 -0.008546919 -0.10905642 -0.09087209
-0.025271814 0.0050365976 -0.078447655 -0.07133943 -0.08351649 0.030139085 0.05337356 0.050929893
0.036704093 -0.040639155 -0.023920309 0.022803688 -0.022127144 0.02596171 -0.04019684 -0.030503366
-0.01799325 0.003574888 0.07163461 0.041300043 0.040388696 -0.056378886 -0.028126843 -0.011027328
-0.07095475 -0.010475609 -0.030625425 -0.039524443 -0.010677744 0.05639207 0.07108869 0.03020977

5.bias f4 [32]
00000000: ded8 173e 7776 3f3d 1776 a8bd b6c7 24bd
00000010: 7857 4cbd 124c f13d 5e6e 633b c18a 74bd
00000020: 9b10 6dbd 5b54 b3bc a8ba b5bc f73f c63d
00000030: 3868 a63d 2652 2b3d 9a77 5b3d 007e c8bb
00000040: 08d4 6cba 975c ab3d f9d9 923b a30f 003b
00000050: 8f05 03be 1462 bebd eaea 06bd 930f 76bc
00000060: 3c83 1d3e 1a37 a23d 5104 6abc f8fc 0b3c
00000070: 16a0 963d 8465 4d3c 249d 6a3c 0cb5 74bd
0.14828822 0.046743836 -0.08225649 -0.04022952 -0.049888104 0.117820874 0.0034703235 -0.05970264
-0.057877164 -0.02189081 -0.022183731 0.09680169 0.08125347 0.04182639 0.053580858 -0.006118536
-0.00090342807 0.083672695 0.004481551 0.001954057 -0.12795089 -0.09296051 -0.032938875 -0.015018362
0.15382093 0.07920666 -0.014283256 0.008544199 0.07354753 0.01253641 0.014319692 -0.059742972

7.weight f4 [32, 32, 9]
00000000: d980 d7bc d94b e4bc c11b 82bc ee79 a5bb
00000010: cfc4 64bd 2d76 633d 92f0 76bd 466a 493b
00000020: a84a 36bd a0c4 05bd a54d dd38 92f4 633d
00000030: 8337 25bc 0dd4 22bd 28cd 453d 6757 0abd
00000040: 41e0 173d 1e57 32bd 68c4 023d 095f c83c
00000050: c7c8 1bbc 4403 0cbc 44e6 74ba aebb 1fbd
00000060: 4892 50bd 0fcb f6bc 8d52 333d c086 693d
00000070: 5e6a d3bb 0c88 5d3d 5aef 053d c7ec 5b3d
00000080: c879 50bd 9978 35bc 3d2f 13bc 7037 2bbd
00000090: 9f0c 113d 46bb 54bd 874f 793c 31bf b5bc
000000a0: 8b02 edbc c004 52bd 555a d03b 0c41 20bd
000000b0: f52f 6bbd 8243 c73b a795 183d c2e2 0dbd
000000c0: 9eb4 4cbd 1cd3 873c 5a88 2f3d bd26 68bd
000000d0: d0bf 0dbd c388 16bc 1b7f ed3c aa11 fc3c
000000e0: e185 1d3c d9a4 063d 3a19 60bd 24dd 1c3d
000000f0: 5f5a 2bbd bca3 3dbb 56d5 32bd 20b7 0dbd
00000100: ce49 533d eac6 4bbd 7cba 28bd e229 3bbd
00000110: b5c7 7e3c bcb6 173d 342f e7bc cef5 28bd
00000120: ef83 4b3d 2fc0 41bc 768e 783c c243 50bd
00000130: fe0e e2bc 4a7e 1a3d 6217 073c 4247 20bd
00000140: fbed 40bd f55c f03c e4c0 d53c d83b c2bc
00000150: 8aba 293c 02f4 12bd 1314 053b e240 4b3d
00000160: 3c3a 65bd 24a0 54bc 2231 e53c 9465 04bd
00000170: 6453 0e3d 5b36 e73c a255 60bd c816 1abd
00000180: 2e36 2ebd a0cb f8bc 3205 8839 3c8b 4f3d
00000190: 7039 8c3c 1707 07bd f5aa 393a e206 2e3c
000001a0: 0efa 42bc 3db4 e8bc f546 72bd 63f2 6b3d
000001b0: 7690 c73c f971 01bd 750b ceba 124b 673d
000001c0: 32e3 0ebc b58f 0b3d 8b6e 63bd 26b7 02bc
000001d0: f932 8fbc b080 333d 9531 88bc 037c 48bd
000001e0: 7ec6 6d3d c594 49bd d7ec 31bc 8fa7 1b3c
000001f0: 1295 cabb 4e53 6a3d 1524 0f3d 60d6 2d3d
00000200: a5ed 27bc f7ac cc3c fe59 07bd c78a e93c
00000210: 2bec d6bc 9efc 333d fd01 a13c c06b 613d
00000220: bfd1 fcbc 5c5c 3bbd a0ab bdbc def8 dd3c
00000230: f197 f03c 5f48 2a3d 2ae6 5ebd ac93 3d3d
00000240: c06a 493d aacd a63c 8675 76bd 1243 50bd
00000250: a13f ec3b 9071 243d 46ec 553d 01ab 46bc
00000260: 6c50 32bd 4c74 6abd 9853 903c 2841 723c
00000270: 73cc b8bb f2d7 e3bc 25ef 6abc 6cae 71bd
00000280: d9b6 8abc 3a62 293d d07f 0fbc ef0d 83bc
00000290: b585 3e3d 611e 653d 8d5a 0cbd 27ea 5bbd
000002a0: 6890 793c 6bb5 d6bc d0d0 37bc ee21 043c
000002b0: bbaa c53c 064a bebc 9f6e 303c f509 213d
000002c0: eae8 16bd 618d d8bc b3da f93c 6c46 42bd
000002d0: 8baf 6cbc 5807 71bd f096 5e3d 7a27 9fbb
000002e0: 6592 3ebd 805a f23c b2f7 a6bc d873 093c
000002f0: 8d8b 77bd 7186 01bc b5cc 3dbd 52c2 3c3d
00000300: bab2 38bb 1a9b 633c c330 49bd fd09 30bd
00000310: 7e18 14bd 6ebf c83b a883 053d dd8c 3439
00000320: 3123 b7bb 7ef5 6abc 84fc 40bc 38d3 9a3c
00000330: c02f 003c 36e5 13bd 3c41 42bd 5a86 903c
00000340: ae32 eabc 2b98 fc3a 6528 653d a841 8ebb
00000350: 2ba8 0c3d 2f88 85bc ff51 b93b 17b5 b53c
00000360: 44cc 9ebb 338e f2bc 0319 67bd eadf 84ba
00000370: 7e76 083c 0ff4 2e3c 5a3b 293d 2f74 473d
00000380: fb16 713d eb4b f8bc b589 eb3c cb0e a03b
00000390: 5f2a 54bc 6e96 88bc d2ee 04bc 3dad 013d
000003a0: 5063 05bd 18e4 63bd f548 863a 0088 2e3d
000003b0: bfd9 34bc 5ae4 463a 3377 78bc 54bb db3c
000003c0: 5578 4abd 6a90 35bd 3b41 a83c 8c71 43bd
000003d0: 4e0e 683c a049 f8bb 600f 513d 5aa2 253d
000003e0: 3f32 dcbc 3886 e6bc 032e 40bd 936a 86bc
000003f0: df34 5b3d 2157 443d ee85 b8bc a155 55bd
-0.026306557 -0.027868198 -0.015882375 -0.0050499355 -0.055851754 0.055532623 -0.06028802 0.003073351
-0.04450479 -0.03265822 0.000105525636 0.055653162 -0.010084036 -0.03975301 0.048291355 -0.03377476
0.0370791 -0.043540113 0.03192559 0.024459379 -0.009508318 -0.0085457 -0.00093421736 -0.038997345
-0.050920755 -0.030126123 0.0437799 0.057013273 -0.006451889 0.054084823 0.032698967 0.053692605
-0.05089739 -0.011076116 -0.00898343 -0.041800916 0.035412427 -0.05193641 0.015216715 -0.022185894
-0.028931877 -0.05127406 0.0063584247 -0.039124534 -0.057418782 0.0060810456 0.037252095 -0.03464008
-0.049976937 0.016580157 0.042854644 -0.05667757 -0.034606755 -0.00918788 0.028991273 0.030770142
0.009614439 0.032872055 -0.054711558 0.038296834 -0.04183423 -0.0028936705 -0.043660484 -0.03459847
0.051584058 -0.049750246 -0.04119347 -0.04569424 0.015550544 0.037039503 -0.02822075 -0.041250043
0.04968637 -0.011825605 0.015170684 -0.05084587 -0.02759504 0.037718095 0.008245321 -0.039130457
-0.047101956 0.0293412 0.026092954 -0.023710176 0.010359416 -0.035877235 0.0020306155 0.049622424
-0.05596374 -0.012977634 0.02797753 -0.032323435 0.034747496 0.02822416 -0.054769166 -0.037619382
-0.04253214 -0.030370533 0.00025943812 0.050669894 0.017117232 -0.032965746 0.00070826645 0.010621758
-0.011900438 -0.028406257 -0.0591497 0.057604205 0.024360877 -0.031602833 -0.0015719967 0.056468077
-0.00872116 0.034072597 -0.055525344 -0.007978236 -0.01748036 0.043823898 -0.016625205 -0.04894639
0.058050625 -0.049214143 -0.01085969 0.009500398 -0.0061823213 0.05720835 0.03494652 0.042440772
-0.01024953 0.02498482 -0.033044808 0.028508557 -0.02623566 0.043942086 0.019654268 0.0550344
-0.030861733 -0.045742378 -0.023153126 0.027096208 0.029369326 0.041572925 -0.05441872 0.04628341
0.04917407 0.02036174 -0.060170673 -0.050845213 0.0072097336 0.040147364 0.05222728 -0.012125731
-0.043533728 -0.057239816 0.017617986 0.014786042 -0.0056396066 -0.027812932 -0.014339243 -0.059004232
-0.016932892 0.04135344 -0.0087585 -0.015997855 0.04651423 0.055937175 -0.034266043 -0.053690102
0.015232183 -0.026209554 -0.011219218 0.00806473 0.024129262 -0.023228657 0.010768562 0.039316136
-0.036843218 -0.026434602 0.030499792 -0.04743044 -0.01444615 -0.058844894 0.054343164 -0.004857001
-0.04652633 0.02958417 -0.020381782 0.008389436 -0.06043582 -0.0079055885 -0.046337802 0.046083756
-0.0028182701 0.01389196 -0.04911877 -0.042978276 -0.03615617 0.006126336 0.03259626 0.00017218613
-0.005588912 -0.014340756 -0.011778954 0.018899545 0.0078238845 -0.036107264 -0.047425494 0.017642189
-0.02858862 0.0019271424 0.055946726 -0.004341323 0.034340065 -0.016300289 0.0056555266 0.022181077
-0.0048461277 -0.029608821 -0.056420337 -0.0010137532 0.008329032 0.010678305 0.041316368 0.048694786
0.058859807 -0.030309638 0.028752187 0.004884576 -0.012949555 -0.016673293 -0.00811358 0.031659354
-0.032565415 -0.05563745 0.0010245132 0.04261017 -0.011038243 0.00075871276 -0.015165138 0.026822723
-0.049431164 -0.044327177 0.020538917 -0.04771571 0.014163567 -0.007577136 0.051040053 0.040438034
-0.026879428 -0.028140172 -0.04691888 -0.01640824 0.05351722 0.047934655 -0.0225248 -0.052083615

7.bias f4 [32]
00000000: 5058 13bd 4c52 573c 6169 a6bd 8914 983d
00000010: 0125 5abd c422 06bd 20a7 63bd b43f 67bd
00000020: 5c58 87bc e26c ab3c 21dd 823d 38e6 08bb
00000030: e608 853c 43ff 40bd 32a5 883d 9ef1 2a3d
00000040: cf89 9e3d a6bc 313d 8858 163d 04cf b73c
00000050: 53ef 7f3c cfa0 e53c e8b0 bb3c 0e07 73bc
00000060: 6969 a9bc 5001 5e3d e63a 50bb 92e0 073d
00000070: 76aa 953d fc35 6cbd 6227 f73d e9b4 943c
-0.035972893 0.01314218 -0.08125568 0.07425792 -0.053257946 -0.032748 -0.055579305 -0.056457236
-0.016521625 0.020925943 0.06389833 -0.0020889174 0.016239595 -0.047118437 0.066721335 0.04173433
0.07741129 0.0433928 0.036705524 0.02243758 0.015621024 0.028030781 0.022911504 -0.014833225
-0.020680146 0.05420047 -0.0031773387 0.03317315 0.073079035 -0.05766867 0.120680586 0.018152671

9.weight f4 [32, 32, 7]
00000000: 5b72 d2bb 1f8a 01bd b75d 8d3c df3d 083d
00000010: 7fd0 413d 566c 113d 1167 a53c a1e6 1a3d
00000020: 4c06 0938 f61a 12bd 475e 813d ee16 73bd
00000030: adb8 423d c925 a4ba 2bec 71bd 00d2 b4bd
00000040: b316 a5bd d091 eebc e75b 433d 2092 81bd
00000050: 9044 7238 cde8 ab3d 8636 bd3d 0236 743c
00000060: fef4 ec3c e4d8 913d 2922 d33d 8e7d 36bc
00000070: d957 2bbd 9eee 35bb 8c99 35bc b3d6 853d
00000080: 212e 9c3d ba47 eebb 0723 e6ba a0b0 903c
00000090: 992d a83c ac4b 98bc b500 cfbc dc8c ebbc
000000a0: 2b7e 2b3d e8dc 203d 65d1 40bd 210e b83c
000000b0: e0d0 80bd 1807 30bd b2fa 6dbd 72b4 463d
000000c0: 6473 08bc c318 86bc d68a 98bd b6ce 51ba
000000d0: 1430 97bd faae bcbd 34c0 133c 181c 2c3d
000000e0: ab4b b0ba a994 923d 4c5b 1cbc c42b 8a3d
000000f0: 807b 653c bdce a43d 3670 0d3d 8727 9f3c
00000100: 5540 1c3d 0889 193d be88 463c eb23 92bb
00000110: 111a 86bd de76 6abd 7126 cdbd 5714 b9bc
00000120: 3dea ed3b fcfb 093d 2ad8 013b 2aec b13d
00000130: df36 713d 5afe cebc ebf9 473d 08a8 2cbd
00000140: 125b bb3c 9dfb aabd 7f81 c2bc ab20 27bd
00000150: cc19 42bd 7995 bebc 7c9f efbd bbd1 efbd
00000160: d6a6 23be c4a8 38be 8473 18be 65c5 82bd
00000170: 1c33 61bd 8ed8 b6bc 4455 94bc 6a29 0ebd
00000180: c541 4b3d 1c33 6d3d 35af 523c fcc0 86bd
00000190: 5482 afbd 4cad e43c 8961 503d 442b ebbc
000001a0: bb3b 58bb fbd5 a43d 3b66 f9bb 6599 6a3d
000001b0: fd13 5a3d f760 323d c6f5 0a3d 6f99 d93c
000001c0: c5b6 0f3c f752 d7bc e2cb c13d 5547 943c
000001d0: b933 84bc 0672 b73d 32c3 2a3c e715 823d
000001e0: 2693 2c3d bfa5 943d 636d 733d 0cd8 463d
000001f0: 44b1 a23c f01b 703d 10e8 073c 58ba 79bd
00000200: 84e5 433c 5f2e bb3d 50cd bf3d bf30 d33c
00000210: a94a 873d f521 493d 92ab d73d fbb4 b63d
00000220: 0d83 d0ba 22a4 8a3d 1d8f b93c 1ed1 6dbd
00000230: 83e1 bb3d e968 703c 8cf6 21bd b05e f83c
00000240: e3e1 9cbd 52be d03c 88f6 163d de99 94bd
00000250: c692 32bd 9f73 063d 3f68 a03d e796 6ebc
00000260: 1244 283c 63cd 123c 1488 2cbd 7e06 9a3c
00000270: 59a3 83bd ad09 223d 43ed c83c 3ff2 19bd
00000280: 1b03 6fbd 8d6b e93c 92c1 28bd 943d 633d
00000290: ee17 14bd 3061 9cbc 46ee 903c 4f88 603d
000002a0: c91b 5cbc f4d6 ce3c 0131 47bc d53a b13a
000002b0: fa11 7abd 9a71 e7ba c1d7 17bd a8e2 153d
000002c0: ae68 183d 914b 333d 78b0 8d3d d3b1 a63d
000002d0: fe95 e63c 4b6a 8d3d f71b 9dbc c5af 74bd
000002e0: 4cab 38bd 62c8 ca3b 93ca 413c f3a9 673d
000002f0: 94bd 62bd 7832 b33d 57dd 0d3d 443b cabc
00000300: 9d5e 063d 9560 7bbd 22c9 8abb 9dda 143d
00000310: f02f ba3d dfde ae3d 012d ee3c 7f0e 223d
00000320: 82ac c53c cbd9 8c3c cd25 18bd e263 d63c
00000330: 1d48 cb3c 2986 9bbb 124c febb e085 8a3d
00000340: bec9 843d 52d2 413c fbf7 f1bd 97e2 0abc
00000350: 383e 17bc 69aa 243d fca6 643d 4d41 40bc
00000360: ae20 a93d ddc2 d93c 870c 7bbd 2c03 bdba
00000370: 1d91 563d f058 9abd 5885 73bd d371 d23c
00000380: 1971 083d 58e2 81bd 9574 3a3c d887 82bd
00000390: cfed 50bd 9a17 093d f7fd b9bb 8f18 48bd
000003a0: 581a 97bc c9f8 6ebd 9b9b 163d a139 2dbc
000003b0: a830 f7bc 4bae 5b3c c123 5e3c 8e88 5fbd
000003c0: 66cd f43c 58ad 5f3d 8886 5f3d c4b2 303d
000003d0: c136 10bd 6280 8abc 7cdf 2ebd e952 5bbd
000003e0: d1ec 16bc 7071 543d 2e6c 423c 9d0f 5dbd
000003f0: 6469 25bd af9a 28bd ef32 6d3c d4e8 263d
-0.0064223236 -0.031625863 0.0172566 0.03326213 0.047317978 0.035503708 0.020190747 0.0378176
3.266921e-05 -0.035670243 0.0631681 -0.05934804 0.0475394 -0.0012523468 -0.059063118 -0.08829117
-0.0806097 -0.029122263 0.047695067 -0.06326699 5.776115e-05 0.083940126 0.09238915 0.014905455
0.028925415 0.07121447 0.1030925 -0.011138333 -0.041831825 -0.0027760635 -0.011083972 0.06535091
0.07625986 -0.007271734 -0.0017558046 0.017662346 0.020529555 -0.01859077 -0.025268892 -0.02875369
0.04186837 0.039273173 -0.047074694 0.022467675 -0.0628984 -0.042975515 -0.05810041 0.04851193
-0.0083282925 -0.01636923 -0.07448356 -0.00080035196 -0.07382217 -0.09213062 0.009017993 0.04201898
-0.0013450285 0.07157261 -0.009543251 0.06746629 0.0140064955 0.08047245 0.03453084 0.019428028
0.03814729 0.0374842 0.012117563 -0.004459848 -0.065479405 -0.057242267 -0.10017098 -0.022592707
0.0072605894 0.033687577 0.0019812682 0.08687623 0.05889022 -0.025267769 0.048822325 -0.042152435
0.022870574 -0.08348773 -0.02374339 -0.04080264 -0.047387883 -0.023264633 -0.11700341 -0.11709925
-0.15981612 -0.18033129 -0.14887816 -0.06385306 -0.054980382 -0.022320058 -0.018107064 -0.034707464
0.04962327 0.05791007 0.012859155 -0.065797776 -0.0856978 0.027914666 0.050874267 -0.028707154
-0.0032994587 0.08048626 -0.007611064 0.057275195 0.05324172 0.043549504 0.033925794 0.02656242
0.008771603 -0.026284678 0.09462716 0.01810042 -0.016137945 0.08957295 0.010422515 0.06351834
0.04213252 0.07258176 0.05943049 0.048545882 0.019859917 0.058620393 0.008295074 -0.060968727
0.011956576 0.09139704 0.09365332 0.02578008 0.06606037 0.04910465 0.10530771 0.08921238
-0.0015908197 0.06769587 0.02265125 -0.058060758 0.09173872 0.01467345 -0.039541766 0.030318588
-0.07660272 0.025481377 0.036856204 -0.0725591 -0.043597005 0.03282511 0.07832383 -0.014562345
0.0102701355 0.008960101 -0.04212196 0.018801924 -0.064276405 0.03956001 0.024527198 -0.03758454
-0.05835257 0.028493667 -0.041200228 0.055478647 -0.036155634 -0.019089311 0.017691743 0.054817494
-0.013434359 0.025248982 -0.01215768 0.0013521562 -0.0610523 -0.0017657757 -0.037070993 0.03659311
0.037209205 0.043773238 0.06918424 0.08139386 0.028147694 0.069050394 -0.019178374 -0.05973794
-0.045085236 0.0061884383 0.011828083 0.05655856 -0.055356577 0.087498605 0.034634914 -0.024686463
0.032805074 -0.061371405 -0.0042354027 0.0363413 0.090911746 0.08538603 0.029074194 0.039564606
0.02413011 0.017193696 -0.037145425 0.026170675 0.02481466 -0.0047462177 -0.007760533 0.06763816
0.06483792 0.011829929 -0.11814877 -0.008476875 -0.009231143 0.04020158 0.05582331 -0.011734319
0.08258186 0.026582176 -0.061291244 -0.0014420501 0.052384485 -0.07536495 -0.05945334 0.025689041
0.033310983 -0.06342 0.011380334 -0.063735664 -0.051008042 0.033469774 -0.005676027 -0.048851546
-0.018445179 -0.05834273 0.03676949 -0.010572822 -0.030174568 0.013408254 0.013558329 -0.054573588
0.029883098 0.054608673 0.05457166 0.043139234 -0.035208467 -0.01690692 -0.0426936 -0.053545866
-0.009211735 0.051865995 0.011866612 -0.053969968 -0.04038371 -0.041163143 0.014477476 0.040749386

9.bias f4 [32]
00000000: d106 b139 5fa6 4e3d 0b19 13bd 4bc7 4abc
00000010: fd95 2ebc 917a 833d dab6 47bc ad37 ffbc
00000020: edd6 a0bc a114 273c 671b 733c d48e 463d
00000030: c6f4 853d e62d fdbc 24f9 02bd f7be 80bd
00000040: e042 66bd 1223 8c3c 40ef bd3c d206 5a3d
00000050: 2bcd bc3d bc96 393b d3f8 7c3d 1fa6 deb9
00000060: 3ef8 8c3c cda1 0c3d 667f 09bd a55e 1e3c
00000070: c160 4fbd a249 a73d e320 f03c 0b4b 5dbd
0.0003376515 0.050451633 -0.035912555 -0.012376617 -0.010655877 0.06419862 -0.012189591 -0.031154478
-0.019633735 0.010197789 0.014838076 0.048476055 0.065408275 -0.030905675 -0.03197588 -0.06286424
-0.05621612 0.017106567 0.023185372 0.05322916 0.0921882 0.0028318604 0.061760735 -0.0004246691
0.017208215 0.034333993 -0.033568762 0.00966612 -0.05062938 0.08168341 0.029312557 -0.054026645

11.weight f4 [32, 32, 5]
00000000: 4766 8a3d 6405 443d 1a5b 37bd 9041 1bb8
00000010: 3ec5 8cbd 43c4 5abc 2c93 8939 475c 6fbb
00000020: 2951 523c 6bbc 13bd 8261 93b8 b960 563b
00000030: 7372 bd3c 309d c0ba 7850 303a d323 983d
00000040: 24c9 0fbd ee72 e0bc 9a49 5c3d 2e4b 8e3d
00000050: 31ca 093d cb40 4d3d 857b 28bd d1d6 cfbc
00000060: a179 89bd 4813 cbbc 2035 22bc 250b 4b3d
00000070: 3a7f 85bd 7496 1abd 1211 a03d c18a ba3b
00000080: 5c2d 5e3c 6c6f 073c 4eed 66bc cd29 41bd
00000090: 9a2e 7a3a 7037 7a3d 3511 c83c 7c20 01bd
000000a0: 78a6 853d e233 ff3c e141 593d 27c5 78bd
000000b0: fdaf dc3c ca76 9abd 156c edbb 6894 e2bb
000000c0: 227c 73bd cb38 11bd 1e13 e23c e9da 763c
000000d0: ba83 69bd e879 30bd 729f 64bd df2b 933d
000000e0: 8487 dc3c a179 53bd 7430 3abc 9424 d3bc
000000f0: f976 73bd d256 873d f408 803c 688d 763d
00000100: 0f5b 883d 3453 13bc 8d0c 10bd 2fc0 733d
00000110: 6d43 3ebd 7e1e 81bc ea49 6cbd 5cc8 2fbd
00000120: 09e1 413d 5a53 913c 949e 8cbd d475 293a
00000130: 22c5 61bd 3732 5c3d b1f2 6e3d 430f 3fbd
00000140: 98e3 e6bc cdc3 d73c e7ac 87bd 2b97 9bbd
00000150: 467d cfbc 2558 563d 2b71 093d dd0a 703d
00000160: 62d9 693d f6d8 a33b 9b75 32bd 842c 873d
00000170: 45dd 62bd a605 973c a793 a13c 4ae5 37bb
00000180: ec5a 0cbd 2ae3 7ebc a57d acb9 cd33 1dbd
00000190: 4c73 253d a29f 2bbd b7f3 803c 5e9e 2bbc
000001a0: e010 15bb d367 733d 8fcc 26bd 0fba 223d
000001b0: 277d 85bd 3561 073a 3325 693d d231 9fbd
000001c0: 689f 44bc d06f 0cbd b1aa 20bd 1124 6cbc
000001d0: 3cd5 4b3d 6b71 023d 5509 1ebc e465 4fbd
000001e0: 7a9b c0bc 87b0 adbb 7669 a1bd b23b 483b
000001f0: 5a3f 713d cc1f 97bc b6ca 95bd 75eb cbbb
00000200: 5eca f53c f3bb 973d f8a8 8bbd 4d67 c43b
00000210: 8fc2 3cbc 7e31 c0bc d926 803c b219 70bd
00000220: 52d9 44bd 8174 19bd 3670 ea3c 56aa 063d
00000230: 6bf4 e23c 4f3b a73b dfaf 0c3d f29e 7dbd
00000240: 0ce7 b8bc 33c1 ef3c eaee 3b3d 372d 963d
00000250: 6335 a2bc 6356 86bd 79de 27bc bf9a 81bd
00000260: 1341 f4bb c550 a1bd 10c7 043a 5a80 a53c
00000270: 796a d13c 8690 633b 2eb5 68bd 39c1 8d3d
00000280: f67f debc d130 dbbd 0d68 79bd 18a1 0dbe
00000290: 7cd3 81bd d2cb 093d f8b2 e8bc 4969 313d
000002a0: f4bc 5cbc 92f8 7abd 7ebd 893d 1e4e 733d
000002b0: 4b47 61bd 06d3 8f3b d284 9fbd 6c05 85bd
000002c0: 93e7 813b 8d86 5fbd 9e98 8c3c 98fc 263d
000002d0: 7c3d a0bd dc9e b4bd 10c4 21bd 5744 d3bb
000002e0: c812 35bc 084c d3bc 0e09 9f3d f7d3 6abd
000002f0: b3da a53b a142 3cbc 76cd d2bc 2250 a33d
00000300: 1fe2 273d a007 fa3c 9f4c 843c 8dda 7dbc
00000310: ceac a23c d312 7e3d 9ffd 71bc d773 493c
00000320: 5108 a33b 18e0 b1bc a5d2 333c 2b22 173d
00000330: 3e36 a53c e8d9 29bd ac12 d0bd 6d78 133d
00000340: 6b7b e2bc 986c 33bd f9c8 6bbd 21df 8f3c
00000350: beed f4bc 4123 213d 93cc 97bd 3ab2 293d
00000360: 1ae7 e83c 8e7a 273d 7cc7 483d c50a 703c
00000370: b741 9d3d a943 d33d 29b2 ca3d 60b6 db3d
00000380: cbad bb3d 54a1 e23c 1d8b 3d3d f4c9 55bd
00000390: cdb8 1cbd 9f5a 5a3d 54e7 6fbb af15 d93c
000003a0: 3247 2f3d bc5a 513c 97fe 7ebc 6cc6 973d
000003b0: c867 6e3c 6e29 683d 7b99 be3c ff49 403d
000003c0: b3c2 9b3d e668 5dbd 8ce9 033d 5ae3 7c3d
000003d0: c5d6 863c 0cf5 b43c 62d5 4bbd 2692 183c
000003e0: 5313 8a3d e774 973d b8bc 793d a8c2 e93b
000003f0: b32a f63c e811 c43d 5107 63bd 4be1 553a
0.06757789 0.047856703 -0.044764616 -3.701594e-05 -0.068735585 -0.0133524565 0.00026240328 -0.0036523507
0.012836733 -0.03606836 -7.0276685e-05 0.003271146 0.023125863 -0.0014695283 0.0006725858 0.07428708
-0.035103932 -0.027398553 0.05378113 0.06947933 0.03364009 0.05011062 -0.041133422 -0.025370987
-0.06712652 -0.024789467 -0.009900361 0.049571175 -0.06518407 -0.03774114 0.07815756 0.0056928103
0.013560619 0.008266311 -0.014094664 -0.047159005 0.00095436873 0.061088026 0.024422267 -0.03152512
0.06525892 0.03115267 0.053041343 -0.060734894 0.026939387 -0.075421885 -0.0072455504 -0.006914664
-0.059444554 -0.035454553 0.027597006 0.015066841 -0.05701039 -0.04308501 -0.05581612 0.07186102
0.026920088 -0.051629666 -0.011364091 -0.025774278 -0.059439633 0.066083565 0.01562927 0.06019345
0.06657993 -0.008992005 -0.03516822 0.059509452 -0.04645102 -0.01576161 -0.057687677 -0.042915687
0.04733375 0.01773994 -0.06866184 0.0006464396 -0.05511964 0.053758826 0.058336917 -0.046645414
-0.028184697 0.026338482 -0.066247754 -0.075971924 -0.02532829 0.052330155 0.03355519 0.05860411
0.057092078 0.005000229 -0.04356919 0.066002876 -0.0553868 0.01843531 0.019723726 -0.002806025
-0.034266397 -0.01555709 -0.0003290001 -0.03837948 0.04039316 -0.041900285 0.015741212 -0.010474769
-0.0022745654 0.059425186 -0.040722426 0.03972822 -0.065180115 0.0005164326 0.05692024 -0.07773174
-0.012000896 -0.03428632 -0.039225284 -0.014412896 0.049763903 0.031846445 -0.00964578 -0.05063428
-0.023511637 -0.0053005847 -0.07881443 0.003055316 0.058898307 -0.01844778 -0.07314055 -0.006223137
0.030003723 0.07408895 -0.068193376 0.0059937597 -0.011520996 -0.0234611 0.015643524 -0.058618255
-0.048058815 -0.037464622 0.02861796 0.03287729 0.027704438 0.0051035057 0.03434741 -0.06191916
-0.02257111 0.02926693 0.045882143 0.07332843 -0.019800847 -0.06559446 -0.010245913 -0.063283436
-0.0074540465 -0.07876734 0.0005065063 0.020202804 0.025563465 0.0034723594 -0.05681341 0.0692162
-0.027160626 -0.1070267 -0.060890246 -0.13830984 -0.063391656 0.033641644 -0.028405651 0.0433133
-0.013472784 -0.06127221 0.06725596 0.05940067 -0.05499963 0.0043891696 -0.07789005 -0.06495175
0.0039643734 -0.054571677 0.017162617 0.040768236 -0.07824227 -0.088193625 -0.03949362 -0.0064473557
-0.011051841 -0.02579309 0.07765399 -0.05733105 0.0050614714 -0.011490495 -0.025732737 0.079742685
0.04098713 0.030521214 0.016149817 -0.015494001 0.01985779 0.06202967 -0.014769941 0.012295685
0.0049753566 -0.021713302 0.010975515 0.03689782 0.020167466 -0.041467577 -0.101598114 0.03600352
-0.02764674 -0.043804735 -0.05756471 0.01756245 -0.02989852 0.03934026 -0.07412066 0.041429736
0.02843051 0.04088836 0.049018368 0.014651005 0.0767855 0.103156395 0.098972626 0.10728145
0.09164008 0.027664818 0.046275247 -0.05219455 -0.038262177 0.05330908 -0.0036606388 0.026499597
0.042792507 0.01277798 -0.015563629 0.07410893 0.014551111 0.056680135 0.023266545 0.04694557
0.07605495 -0.054055117 0.03220515 0.061740257 0.016459832 0.022089504 -0.049764045 0.009312188
0.06741967 0.07395344 0.06097099 0.0071338005 0.030049657 0.09573728 -0.0554269 0.00081588764

11.bias f4 [32]
00000000: e1ad 83bd 531f b63d 6d51 53bc 1bd9 17bd
00000010: 93c8 733d cca2 2a3d f02e 1dbc 1289 2a3d
00000020: de20 5bbd 298d 93bd b760 f23d 8cc9 573c
00000030: f704 e63c 4ef3 2dbd 52e8 e4bc 94f3 b23d
00000040: f1f3 523d e080 f2bc 0210 1a3d ed38 383d
00000050: 3e8d 383c 6236 773d abfc 013e 2375 cb3d
00000060: 0100 5f3d 9feb cabd 9aed b3bb e014 67bd
00000070: 3e39 e43d 368a 9abd 8c0c 3b3d b98a a6bc
-0.06429649 0.08892693 -0.012897831 -0.037072282 0.059517454 0.04165916 -0.00959371 0.041634627
-0.05349814 -0.072046585 0.11834853 0.013170611 0.02807854 -0.04246836 -0.02794281 0.08737865
0.051502172 -0.029602468 0.037612922 0.044976164 0.0112641435 0.060354598 0.12694041 0.099344514
0.054443363 -0.099082224 -0.005490971 -0.056416392 0.111437306 -0.07545893 0.045666263 -0.02032982

13.weight f4 [32, 32, 3]
00000000: c259 73bd 43a1 fe3c f011 ccbd 85bb aabd
00000010: e4f9 cdbd be9c 363d 5d22 823d b969 bc3d
00000020: e213 9abd 3138 41bd 09c6 cf3d 2547 aebd
00000030: f3bc b03d ac62 f93c 5e13 fe3d 301e 1e3d
00000040: dbdd c83d 5821 3d3d 0ecf 18bd 3981 c93d
00000050: 02e3 8f3d 50eb c73d 6492 ad3d ecba 24bc
00000060: 8459 14bd 6cd7 113d 090c babd 8e99 86bd
00000070: dc2f 6c3d 9ab7 3e3d 9051 6c3d 9972 923d
00000080: fa5a 253d 2754 1c3c fcb0 da3d 1bd3 b3bc
00000090: 3c8a d03d 1ea4 9e3c d704 213c 5838 b33d
000000a0: 68f7 5ebd 3b69 643d d502 b8bd dfc5 31bd
000000b0: eccf e53c 6beb d7bd 1097 e2bc 4df8 933c
000000c0: 3b51 8a3d 1fe5 c13d ea65 54bd 1a36 c13a
000000d0: 00ac c23c 24a1 b4bc 6c10 52bd 4902 d43d
000000e0: b2ad 9dbc 8f56 a03c c635 9bbc d180 b6bd
000000f0: 54b3 db3d c7f4 8a3d d61d 01bd 3ef4 c4bd
00000100: 084b 5ebd 2c92 d8bd a6bb 7cbc 8853 e63d
00000110: 0490 8b3d 7a4a e43b 7187 33bd aa36 c63d
00000120: a78a 693d b696 0f3d 831c 773d 70b6 7bbd
00000130: d3db 1bbd 449c 8cbd 8d99 f63b 56e3 c93d
00000140: caa2 acbd b67f b2bd 7503 a6bd 9a87 31bd
00000150: 68f5 a23d ae39 c8bd ac29 31bd f5ce acbd
00000160: 71dd d03c 12b1 773d d727 6cbd 3d16 a93d
00000170: a43a 9dbd 7b5d 2e3d 4c30 e1bc 677a ebbc
00000180: 5e80 00bd 74ad e23c 0fbc ccbd 6f8f 96bd
00000190: 7a1e 40bd 9abb 033d 395f c43d ecd0 943d
000001a0: 3d69 3ebd 6a9e 0d3d 4a0f c9bd f821 bfbd
000001b0: 54b0 593d 4d54 b63b b055 b83d f99e 2bbd
000001c0: 0cbb cfbb a69d 47bd b507 83bd a7ce ccbd
000001d0: 43f0 aa3c 1526 8ebd db3b 9bbd 189f 8cbd
000001e0: 8604 9c3c a8a1 a93d e093 0a3d dc6b 233d
000001f0: d8c3 cdbd 3c30 9fbd 2faf 90bc 0d4f a7bc
00000200: 10ca a83d b9ce 0b3c 8230 d3bd 62ac a8bc
00000210: 2aaa 1cbc fb71 44bd f91a 8f3d be4d 00bd
00000220: 2614 debc c03c 58bd 072a 393c b607 9a3d
00000230: 1be6 bc3d 9a4d 863b 8e25 8a3d 7388 7dbd
00000240: 36b7 83bd c636 1c3d f6b9 9c3c 93f9 c3bd
00000250: 87a8 cabd af15 0dbc 2036 03bd a923 0ebd
00000260: db01 953b 4153 32bd 7a84 d3bd 55ae abbc
00000270: c8d3 c8bd 6edc afbd fd90 fc3c 45b5 af3d
00000280: 3754 d93c 4807 903d 9b6c b1bc 537d b63d
00000290: 6ae3 ca3d 0618 b5bd a6ec 85bd 33fe 9b3d
000002a0: cd8c 033d f5e7 ba3d fc39 d13d c602 ce3d
000002b0: c1e9 bc3c b32c 75bd 8cd1 943d d783 a1bd
000002c0: 2993 0f3d 1e1d 263d 2476 c63d e0c9 d0bc
000002d0: 2652 24bc eabc 89bd c44c c9bd 0976 7b3d
000002e0: b0e0 b3bd 98f3 94bd d0ac cd3d 3400 0a3d
000002f0: ed27 25bd fff8 ca3d 1275 2abd 3e4a d5bc
00000300: 83ee 193d 7240 c9bd 5104 bebd 8e0a b93d
00000310: c75f 75bd 8e66 61bd d87d 8fbd dcf8 9d3d
00000320: dc1e abbd 67f2 a2ba 9606 6c3b 96e1 63bd
00000330: e63e ccbd 2107 ac3d 4f07 b2bc 8572 34bd
00000340: afd3 a23d fcd9 2cbd c7fb babc 1293 20bd
00000350: c47d 40bc 1109 7d3c 04a3 ca3c 6b0a 98bd
00000360: 9d17 e9ba 8b76 2e3d 8ec7 953d e7ac ca3d
00000370: 7193 c23d 4f68 9a3c 5995 a23c 71bf aeba
00000380: 0c71 9f3d 0bfa 81bd 6206 fe3c 7986 82bd
00000390: bc91 8cbd 3fe4 0ebd 4673 8b3a d3c9 613d
000003a0: a580 4a3d 6218 7fbd 18ae 713d 5c8a 71bd
000003b0: 35d2 0f3d c2df 573c d6e0 bdbd 556c 463d
000003c0: aeec 5c3b 09d4 a9bd 8d2c 00bd 05ad 8cbd
000003d0: 1eb5 b3bc 38f1 143c e99f 6b3b 984f d03d
000003e0: 5298 c43d a271 60bc d42a c0bd d8e1 aebd
000003f0: b0d4 a3bd a085 20bd ab15 343d 8a60 16bd
-0.05941177 0.031082755 -0.09964359 -0.08336548 -0.100574285 0.044583075 0.063542105 0.091998525
-0.075233236 -0.04717273 0.10145194 -0.085096635 0.08629789 0.030442558 0.12406038 0.038603008
0.098079406 0.046174377 -0.037306838 0.098391004 0.0702572 0.09761679 0.084751874 -0.010054331
-0.03621818 0.035605833 -0.09084327 -0.06572257 0.05766283 0.046561815 0.05769497 0.07150764
0.040369965 0.009541548 0.10678288 -0.021951249 0.10182616 0.019365367 0.009827814 0.08750981
-0.054435164 0.055764418 -0.08984915 -0.043401595 0.028053246 -0.10542949 -0.027659923 0.018062735
0.06753775 0.094675295 -0.051855005 0.0014740855 0.023763657 -0.022049494 -0.051285192 0.10351998
-0.019247863 0.019572524 -0.01894654 -0.089112885 0.107275635 0.06784969 -0.031522594 -0.09616898
-0.054270774 -0.10574755 -0.015425598 0.11246401 0.06814578 0.006966886 -0.04383034 0.09678395
0.057016995 0.03505584 0.060329925 -0.061453283 -0.038051438 -0.06865743 0.007525629 0.09857814
-0.08429487 -0.08715765 -0.08106128 -0.04334221 0.07956964 -0.097766265 -0.043252632 -0.084379114
0.025496216 0.0604716 -0.05765518 0.08256195 -0.076772004 0.04256962 -0.02748885 -0.02874489
-0.03137242 0.0276706 -0.09996807 -0.073515765 -0.046904065 0.032161333 0.09588475 0.07266411
-0.04648708 0.034574904 -0.09817369 -0.09332651 0.053146675 0.0055642487 0.090007186 -0.041899655
-0.0063394364 -0.04873433 -0.063979544 -0.10000353 0.020866519 -0.06940857 -0.07579776 -0.06866282
0.019045126 0.082827866 0.03383243 0.039897785 -0.1004712 -0.07772872 -0.017661659 -0.020423437
0.08241665 0.008533173 -0.103119865 -0.020590011 -0.009562055 -0.047960263 0.069875665 -0.03132414
-0.027109217 -0.05279231 0.011301524 0.07521002 0.09223577 0.0040986063 0.06745444 -0.061897706
-0.06431429 0.038138174 0.019131642 -0.09569087 -0.09895425 -0.008611127 -0.03203404 -0.034701977
0.0045473403 -0.04353643 -0.10328002 -0.020957151 -0.09806019 -0.085869655 0.030830855 0.08579496
0.026529415 0.07032639 -0.021658232 0.089106224 0.09906657 -0.08842473 -0.06539278 0.07616844
0.0321167 0.091262735 0.10216138 0.10059123 0.023060681 -0.05985708 0.072665304 -0.078864746
0.035052452 0.040555112 0.09690502 -0.025486887 -0.010029351 -0.067254856 -0.09829095 0.061391864
-0.0878309 -0.07273024 0.10042727 0.0336916 -0.04032128 0.099107735 -0.041615553 -0.026036378
0.037580978 -0.09826745 -0.09278167 0.09035216 -0.059905794 -0.055029444 -0.07006425 0.07713482
-0.08355495 -0.0012431861 0.0036014668 -0.055635057 -0.099729344 0.08399797 -0.021732 -0.044054527
0.07950532 -0.042200074 -0.022825135 -0.039202757 -0.011748735 0.015444056 0.024735935 -0.07423862
-0.0017783527 0.04259352 0.07313453 0.0989626 0.095007785 0.018848566 0.019846605 -0.00133322
0.07785234 -0.0634652 0.031008903 -0.06373305 -0.06863734 -0.03488564 0.0010639213 0.055124115
0.04943909 -0.062279113 0.05900392 -0.05896984 0.03511258 0.013175907 -0.092714 0.048443157
0.0033710408 -0.082923956 -0.031292487 -0.06868938 -0.02193695 0.009090714 0.0035953468 0.10171431
0.09599365 -0.013698967 -0.09383169 -0.0853917 -0.07999551 -0.039189935 0.043965977 -0.03671316

13.bias f4 [32]
00000000: 82a5 7ebd d4bb 0a3d a181 88bd 0ae9 86bd
00000010: 495e 1e3d c2b4 b73d 1b70 943d b0ce b13d
00000020: 9e79 663d 71f1 dd3b ef74 663d 1def 443e
00000030: bd41 72bd 1098 233c 0951 32bd 87fa 84bd
00000040: 8357 2bbc 70fe c03d 6c2b ec3d 8e33 e03d
00000050: c640 b13c 1d4f adbd a6cd 253e cf7c 12bd
00000060: d7f2 8bbd 98d1 ca3d eb1b ce3d bc67 a1bd
00000070: cb55 dd3d 7c8d 94bd a69a 76bd f66a d73d
-0.06216956 0.033870533 -0.0666535 -0.065874174 0.038664136 0.08970024 0.07247945 0.08682001
0.056268327 0.006773167 0.05626386 0.1923184 -0.059144724 0.009984985 -0.043534312 -0.06493097
-0.010457876 0.0942353 0.115317196 0.10947333 0.021637332 -0.08462355 0.1619173 -0.035763558
-0.068334274 0.09903258 0.10063919 -0.07881114 0.10807379 -0.072535485 -0.060206078 0.10518448
