model.pt (torch, 332527 bytes, 18 tensors)

1.conv1.weight f4 [32, 1, 15]
000000 82 18 b2 be a6 3f 24 be 8c aa f5 bc dd 8e bb be
       -0.34784323 -0.16039905 -0.02998855 -0.36632434
000010 9e 07 bc be ef 34 c7 be 0e 67 3a be e6 fd 25 bf
       -0.3672456 -0.38907573 -0.18203375 -0.64840543
000020 92 b2 0a bf 5e 97 e0 be a4 e9 cd be 8f 9f 5e be
       -0.54178727 -0.43865484 -0.40217316 -0.21740554
000030 59 00 6f 3d a6 e1 a3 3e e7 e9 7a 3e b1 89 23 3f
       0.05834994 0.32008094 0.24503289 0.63881975
000040 44 50 08 3f 5e 11 a4 3e 39 37 57 3e f3 70 84 3e
       0.53247476 0.320445 0.2101716 0.25867423
000050 02 fa 52 bd c6 5b 92 be a5 f0 16 bf cd e9 8a be
       -0.051507957 -0.28585643 -0.58960944 -0.271315
000060 ed f2 2a bf b5 e9 e8 be 30 47 4e bc ad ac 8d 3d
       -0.66776925 -0.45490804 -0.012590215 0.06917701
000070 9f cb 73 be 11 c5 11 be 93 db 51 3e eb d3 ff 3e
       -0.23808144 -0.14235331 0.20493917 0.49966368
000080 0a 99 01 3f 8d e2 57 39 41 4b 03 3f 94 ad b6 3d
       0.50624144 0.00020588395 0.51286703 0.08919826
000090 99 1a d8 3e 34 a3 ee be f0 27 6f 3e 66 86 9d 3d
       0.42207792 -0.4660889 0.23355079 0.0769165
0000a0 77 b0 aa 3d 4a 83 1e 3e 15 45 d3 bc 2d b8 37 3e
       0.08334439 0.1547977 -0.025789777 0.17941351
0000b0 10 85 47 3d 21 51 17 bd e2 70 35 3c 2c a1 21 3e
       0.048710883 -0.036942605 0.011074277 0.15784138
0000c0 2c 39 47 bd 6c d8 88 be f8 5e 37 3e 58 ba 0a be
       -0.048638508 -0.26727617 0.17907321 -0.13547647
0000d0 69 cf 9d be 7d 28 8c be 5e 8d 99 3c d3 fe 63 3d
       -0.30822304 -0.2737464 0.018744167 0.05566294
0000e0 f8 09 8a bc f6 66 92 be 11 ad d6 bd 2e 95 10 3e
       -0.016850457 -0.28594178 -0.104822285 0.14119408
0000f0 4d 60 c4 3e 5e c1 cc 3e 9e 2f df 3d 82 42 9c be
       0.38354722 0.39991277 0.10897754 -0.3051949
000100 86 61 46 be 62 09 e7 be c3 ce bc be 07 b1 4e bf
       -0.1937314 -0.45124346 -0.36876497 -0.8073887
000110 69 9a e4 be 2e 1c fc be 72 34 22 3e 98 d8 f6 3d
       -0.44649056 -0.4924025 0.15840319 0.12053031
000120 4b cd c3 3e b4 57 65 3e 2a 24 7a 3e 45 9a 71 be
       0.38242564 0.22396737 0.24427858 -0.23594005
000130 b0 79 ef be 7a e0 e2 be 0d 19 08 bf 69 c8 08 bf
       -0.46772528 -0.44311887 -0.53163224 -0.534308
000140 f0 ce 0f bf 43 87 42 be b4 ee 9b be 7d 4e 7f be
       -0.56175137 -0.18996911 -0.30455554 -0.24932285
000150 5a 8f 05 3e ee a8 93 bd b1 eb 86 3e 79 c6 71 3e
       0.13042966 -0.07209955 0.26351693 0.23610868
000160 76 03 11 bd 02 2a 76 3e 11 96 88 be 18 3e cc 3d
       -0.03540369 0.24039462 -0.26676992 0.09972781
000170 cc b5 32 3e 0d 1d 86 be a0 c9 55 3e 22 36 d7 3d
       0.17452163 -0.2619404 0.20877695 0.10508372
000180 b0 39 c8 bd b0 b7 6a 3d 31 e6 c4 3d 8a fc 52 be
       -0.09776628 0.057304084 0.09614218 -0.20604149
000190 03 ac c3 bd 01 80 a5 be 41 38 f9 bd 59 b7 c9 bd
       -0.09554293 -0.32324222 -0.12168933 -0.09849424
0001a0 e1 3c d7 bd c8 7a 67 be 58 c3 8b be c1 9f bc be
       -0.105096586 -0.22605431 -0.27297473 -0.36840633
0001b0 2b 70 bb be 73 9f db be b5 ba b9 bd 53 92 2c be
       -0.36609015 -0.42895088 -0.09068815 -0.16852693
0001c0 c4 4f 76 be c9 72 55 be 4d 73 ea be 56 64 0c bf
       -0.24053866 -0.20844568 -0.45791093 -0.548406
0001d0 78 8c 91 be 69 2c ce be c3 c5 35 be 22 40 39 be
       -0.28427482 -0.40268257 -0.17751221 -0.18090871
0001e0 3e 82 0a bd 3d 58 58 be 5c 30 0f bd 6b 3f b8 bd
       -0.033815615 -0.2112741 -0.03495823 -0.08996471
0001f0 d3 8c a4 3e a1 02 a0 3e f6 10 a3 3d 38 c5 3c 3e
       0.3213869 0.31252006 0.079622194 0.18434608
000200 e4 c7 a3 3e ac 05 23 3e 13 a2 00 3e 8f 5b b7 bd
       0.31988442 0.15920132 0.12561826 -0.0895301
000210 b5 b6 ee bd 73 cb 23 3c b6 57 08 3e 36 f3 90 3e
       -0.11655942 0.009997237 0.13314709 0.28310555
000220 25 ec c8 3d 6f dc 45 be eb ec 39 bd 69 5b bd 3b
       0.09810666 -0.1932237 -0.04539196 0.005778719
000230 d0 04 96 3e 61 0d 03 3e d5 94 92 bb 26 70 eb 3c
       0.29300547 0.12798072 -0.0044733086 0.02874
000240 d6 8c bf bd b7 8e df 3d a2 61 f2 bd 39 bb 00 bd
       -0.09353034 0.109158926 -0.11835028 -0.03142855
000250 c1 f0 80 bd f0 2d e6 bd 2a e5 c4 3e 99 87 c9 3e
       -0.0629592 -0.11239231 0.38456088 0.39361265
000260 f7 6f 5c 3e c1 46 d2 3d 4a e0 2f 3c 2b 2b 46 be
       0.21527086 0.102674015 0.010734627 -0.19352405
000270 0f 0c 0a be b8 5a ed 38 98 5b 0c be 07 79 9e be
       -0.13481162 0.00011317938 -0.13706815 -0.30951712
000280 65 d0 b2 3d f6 5a e9 bd 38 9b 82 be ae 27 14 be
       0.08731154 -0.113943025 -0.25509048 -0.14468262
000290 59 fd 6e 3e 6d 31 1f 3d 45 08 b4 3e f2 09 78 bb
       0.23338832 0.038865495 0.3516256 -0.0037847725
0002a0 30 e8 a0 3e 0d 58 cd 3e 68 52 9f 3e 69 32 d4 bb
       0.31427145 0.4010624 0.31117558 -0.006475736
0002b0 9c 61 8d be b5 d8 eb bc c6 35 03 be 8b 56 94 bd
       -0.27613533 -0.028789857 -0.12813482 -0.07243069
0002c0 b0 c4 ef be 2b 3c f8 be f1 10 a0 3d bf e7 a3 bd
       -0.46829748 -0.48483405 0.07815731 -0.080031864
0002d0 96 52 ab bd 73 7c 6f 3e 3b 18 e5 3a 1e 98 40 be
       -0.083653614 0.23387317 0.0017478535 -0.18808028
0002e0 66 b1 f4 3d c6 d4 74 be 26 13 3d be 9c 3c 28 3d
       0.119478986 -0.23909292 -0.18464336 0.041073427
0002f0 33 d4 25 3e b9 e8 7e 3e 6b e3 b0 3e aa b7 67 3e
       0.16194229 0.24893464 0.34548506 0.22628656
000300 10 93 91 bd e4 89 80 3e 52 ed e6 3c 49 d5 1b 3e
       -0.07108128 0.25105202 0.028189335 0.1521808
000310 e7 a6 52 be e0 a7 c3 bd dd 86 59 3e 80 b5 71 3e
       -0.2057148 -0.09553504 0.21242853 0.23604393
000320 98 ec 7f be 55 ea 64 be 78 c6 4e 3e 9c 81 c4 bd
       -0.24992597 -0.22355016 0.20192897 -0.095950335
000330 55 e0 0c 3c 2b af 9f bd 45 6e 3c 3d bb 1e 83 be
       0.008598407 -0.077970825 0.0460036 -0.25609383
000340 a1 48 1d 3e e1 50 95 bc a0 5c ba 3e 7e 58 a6 3e
       0.15359737 -0.018227043 0.36398792 0.3248939
000350 ba e2 64 bd 1e a7 8e 3e 96 2f 8b 3e 32 4e 53 3e
       -0.055880286 0.27861875 0.27184743 0.20635298
000360 8b 16 b8 3d e4 d7 80 be 69 af 14 be 9b 8e fc be
       0.08988675 -0.2516471 -0.14520039 -0.4932755
000370 93 d7 c9 3d b6 6c 3f 3a 09 97 c6 bd a4 51 49 be
       0.09855571 0.0007302271 -0.096967764 -0.1966005
000380 db e3 7c be d9 62 10 3f 71 0d 35 3f ba fb 1a 3f
       -0.24696295 0.5640083 0.70723635 0.60540354
000390 25 c4 dc 3e ec ab 30 3e 77 16 5b be dd 1f 90 be
       0.43118396 0.17253083 -0.21395288 -0.2814931
0003a0 58 71 31 3e c9 41 47 be bc f0 63 3e 18 6d 5c be
       0.17328393 -0.19458689 0.22259802 -0.21525991
0003b0 fa 5f 1e be 0d 1d d7 3d 79 7f ac bd c6 d7 57 bc
       -0.154663 0.10503588 -0.08422751 -0.013174003
0003c0 dd 14 8b 3c 91 61 df bd 74 38 6d be 6c 50 21 3e
       0.016977722 -0.10907281 -0.23166066 0.15753335
0003d0 d7 1d 02 3e 9a 30 c5 bc 8d 6c 3c be 34 d7 56 3e
       0.12706695 -0.024071027 -0.18400784 0.20980531
0003e0 6f 1b 94 3d cd 29 7e be 26 30 6f 3e 19 5c 23 be
       0.07231795 -0.24820633 0.23358211 -0.15953101
0003f0 64 ff 05 be 88 34 58 bc ed b9 08 be ab a1 c8 3e
       -0.13085705 -0.013196118 -0.13352175 0.39185843

1.conv1.bias f4 [32]
000000 ec b4 0b bf c0 37 92 3d cf 71 9d be 7b 5a e7 bd
       -0.5457294 0.0713954 -0.30750892 -0.11296555
000010 86 34 e7 bd 7a 2c d8 be 38 71 1b be 57 6f 3c bf
       -0.11289315 -0.42221433 -0.15179908 -0.7360739
000020 b7 ff f8 be 1b ef f0 3d f5 34 30 3d ca ab 00 3e
       -0.48632595 0.11764356 0.043019254 0.12565532
000030 6a 9a 12 bf a8 ed ae bd fb 3a 6c 3e 87 fb f6 3e
       -0.5726687 -0.08541423 0.23069374 0.48238775
000040 fc 8f 8c be cd 7d 2f 3e 1d 69 94 3e 12 5f 87 3c
       -0.274536 0.17137833 0.28986445 0.016524825
000050 65 40 9c bd a6 bc 82 3b f2 9d 1a 3d dd 51 35 be
       -0.0762947 0.003989774 0.037748285 -0.1770701
000060 04 6b 8d 3e a1 e5 44 bf fb 58 76 be 89 68 81 3d
       0.2762071 -0.76912886 -0.24057381 0.063187666
000070 22 d9 66 3d 55 ae 24 3c 17 67 cf 3c c9 c2 76 be
       0.056359418 0.01005133 0.025317712 -0.24097742

1.conv2.weight f4 [32, 32, 13]
000000 76 b1 a3 3c 91 f9 cd bc 52 e3 29 bd 3e 28 82 3c
       0.01998208 -0.025143417 -0.041476555 0.01588833
000010 7d ba 4a bc b1 51 79 3c ec 00 2b 3d f8 ca c0 3c
       -0.012373564 0.015217231 0.041748926 0.023534283
000020 9c bb 23 bd 61 d4 24 3d ab 59 19 bd 4f 33 3d 3d
       -0.03997384 0.040241603 -0.03743903 0.04619151
000030 7a 05 7a 3c 5f c2 ea bc 14 4b a7 bb 76 78 cf 3c
       0.015260095 -0.028657136 -0.0051053856 0.025325995
000040 73 55 fc bb b3 c9 94 3b 5d 34 4d bc 2d 04 62 bd
       -0.007700616 0.004540646 -0.012524691 -0.055179764
000050 14 31 83 3d 91 47 52 3d cb 3a 98 3d 20 2f 34 bc
       0.06405845 0.051337782 0.07433089 -0.010997564
000060 92 f4 a9 3c 4a db 52 bb 0a a8 d0 bc 09 5f f6 bc
       0.020746503 -0.0032174163 -0.025470752 -0.030074613
000070 c6 fc a2 bc 61 9c 93 bd 8a 93 be 3c 96 b2 ab bc
       -0.019895922 -0.07207561 0.023263711 -0.02095918
000080 31 05 0d bd 7c e5 58 3d 84 24 4d 3c a2 2d 4f 3d
       -0.03442878 0.05295323 0.012520913 0.05058063
000090 db 75 07 bd 9c b9 fa 3c 0a 99 03 bd fd c4 67 3b
       -0.03307138 0.030606084 -0.03212837 0.0035365217
0000a0 f9 76 1b bd 51 1c 0f bd f9 99 40 3d d4 60 34 3d
       -0.037955258 -0.034939114 0.04702184 0.044037655
0000b0 d7 2a 1b 3d ea 9f 03 3d 9d 6b 5a 3c d0 ec 3e bd
       0.037882652 0.032134928 0.013331321 -0.04661256
0000c0 5c d8 08 3d 7a 2a 31 bd cd 25 90 3c bb aa 2e 3d
       0.03340946 -0.0432534 0.01759615 0.04264329
0000d0 c3 3a 69 bc 76 ce 5c 3d ec 82 b9 3c f6 6b 19 bb
       -0.014235201 0.053907834 0.022645436 -0.0023410297
0000e0 f0 de a7 bd 8b c2 07 3c 1d 1f d8 b9 1c cf 4f 3d
       -0.08196819 0.008286129 -0.00041221912 0.050734624
0000f0 11 d5 15 bd cf a6 16 3d 97 c9 69 b7 e7 7f f7 3c
       -0.03658015 0.036780175 -1.39348185e-05 0.030212356
000100 ec 1e 15 3d 8f 3e c0 bc ce 9c 0c bc 73 d7 e3 bb
       0.036406443 -0.02346733 -0.008582307 -0.006953174
000110 33 06 b6 ba 29 c5 c8 bc 48 e0 12 3d 16 d4 bd 3c
       -0.0013887346 -0.024508076 0.035858423 0.02317242
000120 55 71 9e 3c cc 45 12 3c 66 b7 dc bc f6 6d e5 bc
       0.01934115 0.008927774 -0.02694292 -0.028006535
000130 9d 29 b1 3c a5 9e 18 bd c6 be 58 bc f1 36 20 bd
       0.021626288 -0.03726067 -0.013229078 -0.039114896
000140 4c 8e 03 bc c7 8d 21 3d ec 9d 2d 3d 49 17 6c bb
       -0.008029532 0.03944185 0.042386934 -0.0036024621
000150 07 20 47 bc 17 f1 0b 3d 4f b1 42 bc 3f 57 b2 3c
       -0.012153632 0.034165468 -0.011883094 0.021770118
000160 1e 14 2f bd c0 db df bc 1c 79 73 bc ab 74 e3 3c
       -0.042743795 -0.027326465 -0.014860418 0.027765593
000170 5e a0 5c 3b 21 43 f7 3b c4 e9 6b 3b 75 28 f7 3c
       0.0033664922 0.007545844 0.003599749 0.030170659
000180 31 4f c9 bc 54 c8 24 bd b9 e2 5b 3c b9 27 37 3d
       -0.024573894 -0.04023011 0.013420754 0.044715617
000190 46 70 07 3d 1a 1f 23 bd e6 08 32 bd 2d 7c 14 bc
       0.033066057 -0.039824583 -0.043465517 -0.009062809
0001a0 20 39 a0 3c 81 1e 22 bd 8d 8d 90 bd b9 7a 27 bd
       0.01955849 -0.039579872 -0.07058249 -0.04088852
0001b0 96 16 80 3b f6 f6 52 3d f6 ed 22 bd b9 12 29 bc
       0.0039089425 0.05150505 -0.03977772 -0.010319405
0001c0 bf c5 ac 3c 20 34 3a 3c 5c 5f 48 bd ee 36 81 bb
       0.021090386 0.011364967 -0.048919067 -0.0039433157
0001d0 19 7c f3 bb 42 7d 12 3d 4e 45 12 3c ff 5d e8 3c
       -0.007430565 0.035763986 0.008927656 0.028365133
0001e0 2e b7 a9 3c 77 4e e2 bb a2 ee e1 3b 17 de 27 3d
       0.02071723 -0.0069063264 0.0068949023 0.040983286
0001f0 72 48 a1 3c c6 66 38 3d 30 1b 3c 3d 34 94 63 bd
       0.019687865 0.045019887 0.045924366 -0.05556126
000200 06 bf 0c 3d 39 fe bf 3c 0d c2 ba bc 24 d5 3b 3d
       0.03436186 0.023436652 -0.022797609 0.045857564
000210 b6 09 d9 3c 3b 59 18 3d 49 4e 98 bc 77 ab 2c bc
       0.026493888 0.03719447 -0.018592017 -0.010538927
000220 2b 28 46 bd 92 67 44 3d 23 a1 8b 3c b0 cc 45 bc
       -0.04837815 0.047950335 0.01704461 -0.012072727
000230 75 96 3b bd 2a 7b 48 bd f9 e2 27 bd fb 1c 4e 3d
       -0.045797784 -0.048945583 -0.040987942 0.050320607
000240 09 c7 85 3b 55 ae c5 bb 2d bb 23 bd 8f d6 5c 3c
       0.0040825647 -0.006032745 -0.039973427 0.013478889
000250 1e 2d 50 bd 0d 86 4a bd f0 79 82 3c 9d 0f 22 3c
       -0.050824277 -0.049444247 0.015927285 0.009891418
000260 52 5c 7d 3d 60 be 0e bd e9 6e 36 3d 0f 0d 45 3c
       0.06185562 -0.034849524 0.044539366 0.012027039
000270 d4 2d 26 bd 43 41 8c bb 6b 4d 0b 3d 28 b3 76 3c
       -0.04057105 -0.0042802407 0.03400938 0.015057363
000280 93 15 3f 3d db 2a 4c 3d a2 43 93 bc a6 ef 23 bc
       0.046651434 0.049845558 -0.017976586 -0.010005867
000290 4c f1 3f bc ba 53 85 bc 9c a5 9c 3c 46 a7 31 bc
       -0.0117152445 -0.016275275 0.019121937 -0.010843104
0002a0 39 7f 26 3c ba af 68 bb 90 fe d4 39 00 b6 4c 3b
       0.010162168 -0.0035505132 0.00040625455 0.003123641
0002b0 e7 77 61 3b 77 f0 3d 3c bf d2 09 3d a8 ce 06 3d
       0.0034403743 0.011592976 0.03364825 0.032911927
0002c0 b1 9c 2f 3d 74 4f ac 3c 66 b3 79 bc f0 a5 83 bc
       0.042874042 0.02103398 -0.015240526 -0.016070336
0002d0 fd 47 a3 b9 38 0c 9c bc 90 b1 dc 3c ec 47 7e bd
       -0.00031143418 -0.019048795 0.026940137 -0.06208031
0002e0 67 a9 43 bb 99 c6 08 3d b1 bc c4 bd 97 00 e9 bc
       -0.002985561 0.033392522 -0.096063025 -0.028442664
0002f0 2c 16 3d bb 7d cf 2a 3d 22 6e 5d 3c 3b 08 cb 3b
       -0.0028852327 0.041701782 0.013515027 0.0061960495
000300 71 fc d9 3c cc 8b 80 bd e4 47 fe bc e5 b5 83 bd
       0.026609631 -0.06276664 -0.03104014 -0.06431178
000310 bc 0f 76 3c b1 0a 9c bd 46 c7 5c bc ca 15 0f bc
       0.0150184 -0.07619227 -0.013475245 -0.008733222
000320 37 95 0d bc 64 8a 05 3d 55 89 d6 3c 70 17 12 bd
       -0.008641533 0.032602683 0.026188532 -0.035666883
000330 87 52 33 bd fd 8d 1b 3c 64 3b 88 3c bd f8 70 3d
       -0.043779876 0.009494302 0.016629882 0.058830965
000340 5e 8a 44 3d cc f3 17 3d be 2a 26 3d 4b bc 30 bd
       0.04798352 0.037097737 0.040568106 -0.04314832
000350 a1 42 08 bb 75 6c 1e 3d 81 68 7e 3b 82 0f 5c bd
       -0.0020791667 0.03867765 0.0038819613 -0.053725727
000360 2b 00 54 3c 07 3a 3c 3d 8a b5 4e 3b 99 95 95 bc
       0.012939493 0.045953777 0.0031541311 -0.01825981
000370 d3 a2 0d 3d 5f b1 e3 3b fd 89 85 bd 20 b0 0d bd
       0.03457911 0.0069486345 -0.0652046 -0.034591794
000380 89 77 9d 3c 28 c2 6b bd 0a 26 ce bc 3c b6 30 bd
       0.019222038 -0.05755821 -0.025164623 -0.043142542
000390 ed 1d 26 bd ad 2d f1 3c 0d 14 37 3c ee 05 1d 3d
       -0.040555883 0.029440725 0.011174214 0.038335733
0003a0 04 a1 d2 bc 87 13 0f 3d 82 10 c5 bd 2a 8e 0e 3d
       -0.025711544 0.034930732 -0.09622289 0.034803547
0003b0 0c a5 23 3d 77 b3 ca 3c 64 e8 b7 b9 82 f5 38 bd
       0.039952323 0.024743779 -0.00035077624 -0.04515601
0003c0 12 a2 d3 3b 7d 86 66 bd b0 04 2d 3b a9 c5 76 3c
       0.0064585293 -0.0562806 0.00264005 0.015061774
0003d0 19 96 f1 bc 32 fd fc bc 0f 80 63 3d ba 2d 18 3c
       -0.029490517 -0.030882452 0.055542048 0.009288246
0003e0 6b 7d cc bc 57 8b b5 bd 05 74 1d 3c 59 05 15 bc
       -0.024962148 -0.088644676 0.009610181 -0.009095513
0003f0 29 bd 1f 3c bc 97 40 bd c9 73 18 bd bb e4 de bc
       0.009749689 -0.047019705 -0.037219796 -0.027208677

1.conv2.bias f4 [32]
000000 df 7e be bd b5 12 09 3d 53 32 cb be be 71 e3 3d
       -0.093015425 0.033465106 -0.39686832 0.11105679
000010 8a ae 60 be 0a 9e 0d be 4f e4 c4 3e 47 cf 57 be
       -0.21941581 -0.13829818 0.38455436 -0.21075164
000020 77 8e dc bd a8 e5 35 be c8 b3 50 3f e1 a6 50 3f
       -0.107693605 -0.17763388 0.81524324 0.81504637
000030 ba ca 59 be 30 62 cd bd cc 4f e8 bd 3f 60 3a bd
       -0.2126874 -0.100284934 -0.11343345 -0.045501944
000040 08 bb b4 3c 38 a8 bf be c4 96 ad 3d 80 43 4a be
       0.02206184 -0.37433028 0.08476022 -0.19752312
000050 2f 1f c9 3d ab de 15 be 0b ab 0b bd 7a 6d 48 be
       0.09820401 -0.14635722 -0.034098666 -0.19573012
000060 3e 71 05 be dc c1 72 bd c2 35 d4 bb 15 db 5d be
       -0.1303148 -0.05926691 -0.006476135 -0.21665604
000070 da 29 eb bc 68 44 14 3e 29 be 93 bd 60 df a6 be
       -0.02870648 0.1447922 -0.072140045 -0.32592297

2.conv1.weight f4 [32, 32, 11]
000000 31 16 44 bd 79 f2 6e bd 03 ed f0 3c 46 df 4c 3c
       -0.047872726 -0.05833671 0.029409891 0.012504404
000010 0f eb 8f 3b 51 45 5c bd 0d 1a 12 bd b4 15 68 3a
       0.004392035 -0.053777043 -0.035669375 0.00088533317
000020 85 2c a6 bb 2a 12 71 bd c1 c8 1e bd b8 a0 2b bd
       -0.005071225 -0.058855213 -0.038765673 -0.04190132
000030 08 2e 92 bc 17 b7 cd 3c b1 37 ed 3c 68 2e b0 3d
       -0.017844215 0.025111718 0.02895722 0.08602601
000040 12 25 46 b9 98 d1 5e bb 30 c2 4b bc 36 d4 b2 bb
       -0.00018896561 -0.003399944 -0.012436435 -0.0054574264
000050 39 a5 4a bb 42 83 15 3d ef b5 4b 3c ac 88 d2 bc
       -0.0030921234 0.03650213 0.012433513 -0.025699936
000060 11 8b 42 bd 2c 93 0b 3d 37 7b 9e 3c 8d a0 8f bc
       -0.047495905 0.0340759 0.019345863 -0.017532611
000070 1a 98 f2 3c 17 85 08 3d 19 4a 19 3d d9 ce 75 bd
       0.029613543 0.03333005 0.03742418 -0.06001172
000080 39 6d 7c 3d 0d 6d f1 bc 9e 4e 41 bc 8f 76 4f bc
       0.0616276 -0.029470945 -0.011798529 -0.012662544
000090 8d ea 1c bd 27 98 70 3c d3 09 22 3d f9 ba 6e 3c
       -0.038309623 0.014684713 0.03956015 0.014570945
0000a0 0a a3 24 3d 6a 78 51 bd 38 e3 29 3c f0 d5 32 3d
       0.04019455 -0.051140226 0.010369115 0.043661058
0000b0 f4 1b 81 3c 17 0d 76 3a 71 e9 09 3d e3 96 b5 3b
       0.0157604 0.0009386106 0.033669893 0.0055416687
0000c0 be b2 f7 3b 61 ba 8c bc 15 8c 16 bd 6c ef 60 3b
       0.0075591495 -0.017178716 -0.036754686 0.0034322394
0000d0 02 1e cc 3a e1 04 5a bd a8 b5 08 3c 3d 52 29 3d
       0.0015572908 -0.05322731 0.0083440915 0.041338194
0000e0 9c a0 0a bd fc 32 0c bd 85 10 c9 3c 37 83 2b 3d
       -0.033844575 -0.03422831 0.02454401 0.041873183
0000f0 87 2f 04 bc f4 15 d5 3c 72 7a f8 bc f0 e0 2e bd
       -0.008067972 0.026011445 -0.030331824 -0.042694986
000100 10 c8 93 bd ca da 60 3d 92 4a 94 bc 97 98 0a 3d
       -0.07215893 0.054896154 -0.018101964 0.033836927
000110 af b4 be bc cd 4a 32 3c e8 48 0c 3d da ec 7e bc
       -0.023279516 0.010882092 0.034249216 -0.0155593995
000120 28 95 ca bc db 12 f5 bb 01 89 18 3c 2f d7 51 bc
       -0.024729326 -0.0074790544 0.009310008 -0.012807651
000130 0c a6 a2 3c 40 e5 be 3c 0e e6 2b bc f5 b0 42 bd
       0.019854568 0.023302674 -0.010491861 -0.04753204
000140 99 45 c1 bb 9b 2c af 3c 85 25 02 3d a5 3c 9b bc
       -0.0058981893 0.021383574 0.031774063 -0.018949816
000150 e5 e9 ca bb 39 f9 39 bd 65 c5 2f bd b1 ce 2b bc
       -0.006192433 -0.045403693 -0.04291286 -0.010486291
000160 d6 85 3c bd e3 7d b5 bc e1 2c 6f bd 78 73 33 3d
       -0.046026073 -0.022154754 -0.05839241 0.04381129
000170 a5 8f 83 3d c3 f3 e2 bc fb a6 d6 bc 96 25 bf 3c
       0.064238824 -0.027704125 -0.02620267 0.023333352
000180 ef b8 48 bb a3 69 3e bd 74 4b 08 bd 91 48 40 3d
       -0.0030627807 -0.04648746 -0.033275083 0.046944205
000190 02 81 04 bd a3 13 01 bd 6f b4 0c bd e3 7d 26 3d
       -0.032349594 -0.031512868 -0.034351762 0.0406474
0001a0 01 50 1d bd c3 f7 1f bd 37 c8 42 bd 70 df 2a bd
       -0.038406376 -0.039054643 -0.04755422 -0.041716993
0001b0 c8 b4 4f bd 0c 23 67 3d 86 78 a4 3c b5 ee 3e bd
       -0.050709516 0.056429908 0.020077001 -0.046614368
0001c0 84 7f 64 bc ab 99 6b 3d 9a b6 7d 3d ef 07 61 3d
       -0.013946418 0.057519596 0.06194172 0.054939207
0001d0 f4 8e 8f 3d 8f eb 7c 3d 5e 86 09 3d 7e 20 5e 3d
       0.07009688 0.061748084 0.03357541 0.054230206
0001e0 a0 a8 aa 3d 9b 68 b6 bc 6e 34 f7 3c 3b 6b 05 ba
       0.08332944 -0.022266677 0.030176368 -0.0005089526
0001f0 ee ef 10 3d a5 71 45 3d b3 57 fa bc 57 61 2b 3d
       0.035385065 0.048204083 -0.030559396 0.041840877
000200 a6 97 c5 bc fc 29 25 3d 50 24 1a bd 80 d9 3f 3d
       -0.024120163 0.040323243 -0.037632287 0.046838284
000210 10 7d e3 3c 13 c5 38 bd e6 94 a0 3c 22 c5 50 3d
       0.027769595 -0.04510982 0.01960225 0.05096925
000220 c4 06 05 3d af 0d 0c bd 1a d6 dd 3c aa 77 f7 3c
       0.032477155 -0.034192737 0.02707963 0.030208427
000230 b0 c1 43 bc b4 56 0b bc 5b f2 f5 3c 03 fa 48 3d
       -0.011948034 -0.008504558 0.03002279 0.049066555
000240 b8 a7 01 3c 45 6b c1 3b bd 71 b4 3c 07 3f e2 3c
       0.007913522 0.00590268 0.02202689 0.027617944
000250 2d 6b 80 3c 0c c8 e9 bc b8 fa 21 3d 6e 36 ac 3c
       0.015676105 -0.028537773 0.039545745 0.021022048
000260 b1 65 2e bd 4b aa f8 3c 24 cd 8d 3c 1a 7f d0 bc
       -0.04257745 0.03035464 0.017309733 -0.025451232
000270 4d 9d 1a bc 88 6c 81 3c e3 46 81 3c 71 0a 0b bd
       -0.0094369175 0.015798822 0.015780872 -0.033945505
000280 17 7c 60 3d 79 77 1d 3d 55 d9 bc 3b 88 eb ba bc
       0.05480584 0.038444016 0.0057632127 -0.022817388
000290 f2 44 28 bc 79 be 53 bd cc 1f 06 3d f3 3e 2d bd
       -0.010270344 -0.05169532 0.032745168 -0.04229636
0002a0 18 cb ff bc e0 e4 c5 3c e3 0e 0d bc af 24 fe 3c
       -0.031224772 0.024156988 -0.008609506 0.031023351
0002b0 63 15 41 3c 49 16 2f 3c 02 60 0d ba b6 8c 21 bd
       0.011784884 0.010686466 -0.00053930294 -0.039440833
0002c0 96 b8 87 bd 9d 72 be bb eb 56 67 3d 7c 17 80 3c
       -0.06627004 -0.005812003 0.056479376 0.015636198
0002d0 cd 3b 76 3d 7a e1 69 3d 01 d1 84 3d 3e cc 59 3d
       0.060115624 0.057099797 0.06485177 0.053173296
0002e0 4a 6c a9 3d 39 b0 1d 3c 20 74 c2 3d 66 7a e2 b9
       0.082726076 0.009624534 0.09494805 -0.00043197273
0002f0 f8 73 b3 3b 5b c2 32 3c a7 0c ee 3c 8f ba 64 3d
       0.005476471 0.010910596 0.029058767 0.05584198
000300 fb 29 11 bd b2 70 da 3c 7f 26 0c 3d 95 a5 14 bd
       -0.035440426 0.026665065 0.0342164 -0.036290724
000310 be 4c 6a bd 63 41 d4 bc b9 63 90 3b 54 c0 51 bd
       -0.057202093 -0.025910085 0.004406419 -0.05120881
000320 35 55 8e 3c e6 ec 4d 3c 0a e0 1d 3d 5b d6 5a 37
       0.017374614 0.012568688 0.03854374 1.3043721e-05
000330 8c 82 07 bd 5d ea 2b bc 86 a5 44 bc 50 50 56 3b
       -0.033083484 -0.010492888 -0.0120023545 0.0032701679
000340 ea 79 b8 bc 9b f3 1e 3c 42 b6 09 3d ba 14 55 b8
       -0.02251907 0.009701635 0.03362108 -5.080246e-05
000350 7d 0c 71 bd 50 27 bd 3c c8 bc 8d bc 22 27 d2 bb
       -0.0588498 0.023090035 -0.017301932 -0.0064133564
000360 45 c4 ec 3c 23 a1 63 bd 82 fb e6 bc 0f 39 f0 bc
       0.028902182 -0.055573594 -0.0281961 -0.029324083
000370 39 3d a3 3c 39 42 f2 bc 45 e2 40 bd 76 66 c6 bc
       0.019926654 -0.029572593 -0.047090787 -0.024218779
000380 49 11 9c 3d 4f 76 44 bd 51 20 4c bd 5f b1 a1 3c
       0.076204844 -0.04796439 -0.049835507 0.019737897
000390 19 c2 31 3c 90 b4 02 bc 66 76 04 bd 18 b9 e5 bb
       0.010849499 -0.00797762 -0.032339476 -0.0070105903
0003a0 46 3d 71 3c b2 be 40 3d 55 85 12 bd bc 9e 7f 3c
       0.014724081 0.04705686 -0.035771687 0.01560181
0003b0 5f ca d8 bc c1 65 51 bd b3 42 24 bd 1c 3b 3a bd
       -0.026463686 -0.05112243 -0.04010267 -0.045466527
0003c0 1f 54 04 3c c8 5e e8 3c 54 1b 22 bd 27 7e c1 3c
       0.008076697 0.028365508 -0.039576843 0.023619724
0003d0 60 44 12 ba 16 73 23 3d d9 20 cf 3d 6e 22 7b 3d
       -0.00055796467 0.039904676 0.10113687 0.06131213
0003e0 50 18 71 3d 1d 52 28 3d 9b c6 41 3c fe 03 f7 ba
       0.058861077 0.041093934 0.011827136 -0.0018845794
0003f0 a0 5f 2c bd 70 ea 03 3d 1f 62 e5 bc 49 5b 05 bd
       -0.042083383 0.032206 -0.02800089 -0.03255776

2.conv1.bias f4 [32]
000000 98 35 02 be 93 4b d8 bc ca 24 1a bd a7 b6 0f be
       -0.12715757 -0.026403224 -0.03763274 -0.1403452
000010 5b c6 40 3e 49 3b 0f 3e da 57 66 bd e3 3d 2f be
       0.18825667 0.13987459 -0.056236126 -0.17113452
000020 83 58 c3 3d 6e 10 5f 3e 53 1f 01 be 01 3a 0c be
       0.09538367 0.21783611 -0.12609605 -0.13694002
000030 60 35 92 bc f8 6d 45 be a9 07 9a 3d c0 5d 79 bc
       -0.017847717 -0.19280231 0.07520992 -0.015220106
000040 04 b7 ad bd ce bc dd 3d df a5 bb bd e1 d4 5e bc
       -0.08482173 0.10827027 -0.09162497 -0.013600559
000050 74 42 34 be 40 b1 ab 3e d9 e4 83 bc 81 1e 58 bc
       -0.17603475 0.3353367 -0.016100334 -0.013190866
000060 28 bc dd bd 8c 29 95 bd d2 98 b5 3c d2 0e d1 bd
       -0.108269036 -0.07283315 0.022167597 -0.10207905
000070 62 bb 11 bd 12 88 4a bd be e1 5f be b4 d6 4e be
       -0.035579093 -0.049446173 -0.21863458 -0.2019909

2.conv2.weight f4 [32, 32, 9]
000000 ae 28 01 3d 6c 2b e4 bc a9 0c 68 3d 06 0f 92 3d
       0.031532936 -0.027852736 0.0566527 0.07131772
000010 13 3c e6 3c 75 a9 86 3a 29 bc 1a 3d 8c 67 0d bd
       0.028104817 0.0010273891 0.0377771 -0.034522578
000020 b4 0d 9b bd 3b 10 de bd 8b 90 b4 3c 7a 22 7c 3d
       -0.07570973 -0.108429395 0.02204158 0.061556317
000030 5c 2e 34 be ef 4d 59 3d 63 75 c1 3c 99 76 36 3d
       -0.1759581 0.05305284 0.023615545 0.044546697
000040 24 05 78 bd 60 ab de 3c 24 b7 13 3d 2c a5 5d 3d
       -0.060551777 0.027181327 0.03606333 0.0541126
000050 db 2d cd bc 38 4f 33 bd 0f 60 2c 3d 04 5c 30 bd
       -0.02504628 -0.04377672 0.042083796 -0.043056503
000060 76 b4 53 3d 73 da 85 bc da 70 0a 3d 3f 02 be 3b
       0.051685773 -0.016339516 0.03379903 0.0057986076
000070 17 23 cb bc cb 6d c7 3d bf e6 84 bd d3 b2 ac 3c
       -0.024797006 0.09737738 -0.06489324 0.021081364
000080 80 44 9d 3c 3b 84 db bc 54 72 12 bd cf ba 32 3b
       0.019197702 -0.02679645 -0.035753563 0.002727199
000090 06 14 0b bd 20 d5 85 bd c2 c6 77 bd f1 48 1a 3d
       -0.033954643 -0.06534791 -0.060492285 0.03766722
0000a0 33 09 b5 bc e6 71 f5 bc 9a 7f 79 3d cf fd 3c bd
       -0.022099113 -0.029961538 0.060912706 -0.04614049
0000b0 be 4e 1d 3d 12 88 9a 3d 53 84 09 3d 7c eb 3d bc
       0.038405173 0.075454846 0.03357346 -0.011591788
0000c0 93 8c 94 3d d3 59 a8 3a 62 8b 27 bd d3 c0 ab bb
       0.07253375 0.0012844153 -0.04090441 -0.0052414923
0000d0 c4 8a f1 bc 8e 33 c8 3c 0b f1 0c bd 29 57 9f bc
       -0.029485114 0.024438646 -0.034409564 -0.01945074
0000e0 a8 88 3a bd 68 5b 1e bd 19 47 fc 3c df a0 3b 3d
       -0.04554048 -0.03866139 0.03079562 0.045807716
0000f0 ca 1c ad bb a6 9b 0c 3d e6 2e 5e 3d a9 29 d5 bc
       -0.005282973 0.034328125 0.054243945 -0.026020842
000100 01 11 6a 3d cd 13 10 3c b4 f6 7e 3d 5a 73 41 bd
       0.057145122 0.008793783 0.062246993 -0.04722915
000110 f6 06 2d 3d 09 34 9b 3d 80 01 22 bd 4f 31 4c bd
       0.042242967 0.07578284 -0.03955221 -0.04985171
000120 66 3f 75 bd ad 7a 50 bd 4b 88 6d 3d 92 0a 9e bd
       -0.059874915 -0.050898243 0.057991307 -0.0771686
000130 23 a3 45 3d d9 3f 3c 3d 7c ea 00 3d fa 99 18 3d
       0.048251282 0.045959327 0.03147362 0.03725622
000140 47 43 7b bc f6 45 e8 3c 88 43 f2 3c 7a 05 42 bd
       -0.015335864 0.028353672 0.029573217 -0.047368504
000150 78 c2 9a bd 15 27 33 3c e0 ba 02 bd b1 7c 85 3d
       -0.07556623 0.010934611 -0.0319165 0.065179236
000160 77 4d 81 bd 9b 87 85 bd 1a d6 29 3d 5a 73 68 3c
       -0.06313603 -0.06520005 0.04146395 0.014187658
000170 05 d5 33 3d 29 d3 9e bd bd 5c 8a 3d 5f 30 3e bd
       0.043904323 -0.07755119 0.0675597 -0.04643285
000180 63 68 30 bc 84 8a 29 bd 3c 8d 89 bd c4 92 c3 3c
       -0.010767075 -0.041391864 -0.067163914 0.023873694
000190 af ba 2b 3d d4 cc 73 3d 97 35 1d 3c 80 20 81 bd
       0.041926082 0.05952151 0.009595296 -0.06305027
0001a0 2a f7 5c 3c 74 9a 0a bd 1b 03 e3 3c f8 1f 04 3d
       0.013486663 -0.033838704 0.027711442 0.03225705
0001b0 41 be 2a ba 62 ef 9f bc 59 26 ed 3c 96 46 d5 3d
       -0.00065133354 -0.019523326 0.02894895 0.10413854
0001c0 37 14 26 bd aa f9 17 3d 57 a4 01 3c 2c 6e 16 bd
       -0.040546622 0.037103333 0.007912717 -0.03672616
0001d0 e6 d9 0a 3d 5e 03 2a 3d fb 52 59 3d b3 82 0e bd
       0.03389921 0.041507117 0.053057652 -0.034792613
0001e0 3c d0 0d 3c 0a 3b 92 3c 88 f3 6e bc 05 71 82 bc
       0.008655604 0.017850418 -0.01458443 -0.015923033
0001f0 92 90 6d 3c 42 87 84 bd 30 68 7e bb 24 d9 30 bc
       0.0144998 -0.06471111 -0.0038819425 -0.010793958
000200 49 6f c8 bd d9 0a ca bd 4b e1 36 bd e0 c9 13 3c
       -0.09786851 -0.0986535 -0.04464845 0.009020299
000210 e1 84 b1 3c a8 6a ba 3c 20 aa 8b bd 14 fb 22 3d
       0.021669807 0.022755936 -0.06819558 0.039790228
000220 52 66 29 bd 60 c8 58 3d 58 07 f9 bc bb e5 27 3b
       -0.041357346 0.052925467 -0.03039901 0.0025619108
000230 3f 81 83 3d 2f 59 db 3c a6 0f 53 3d 57 de 84 3d
       0.06421136 0.026775924 0.051528595 0.064877205
000240 b8 d1 1b 3d 74 90 37 bd 15 22 11 3e b4 8c 94 3d
       0.0380418 -0.044815496 0.14173158 0.072533995
000250 4a e5 c7 bc cb e1 99 3c 85 e9 59 3d 89 f3 13 3d
       -0.024401326 0.018784424 0.053201217 0.036120925
000260 0c c0 28 bd 1d f3 7d 3c 55 e7 1f bd 27 aa 55 3d
       -0.041198775 0.015499857 -0.039038975 0.052164223
000270 8f 23 62 bd 25 c5 35 3b 8c 0e cd 3c 75 24 4d bc
       -0.055209693 0.0027735916 0.02503135 -0.012520899
000280 ac 43 a0 bc 32 5b 29 bd 80 f3 f8 bc 3c bb 27 3d
       -0.019563518 -0.041346736 -0.030389547 0.040950045
000290 b7 d4 c6 bc a1 57 52 3b 9d 01 77 bd 41 9b 52 bd
       -0.024271352 0.0032095688 -0.060304273 -0.051417593
0002a0 2e 1e f3 bc 63 81 f8 bc db 39 73 bb 4a fd 27 3d
       -0.029677477 -0.030335134 -0.0037113342 0.04101304
0002b0 5b 56 3c bd 54 06 ea 3d a1 d8 2e bd 27 c2 44 3d
       -0.045980792 0.11426988 -0.042687062 0.04803672
0002c0 d0 c7 a0 bd e9 c3 94 bd 49 6b b6 bc a5 f8 84 bc
       -0.07850611 -0.072639294 -0.022267954 -0.016231844
0002d0 48 52 d0 bc 6e 5c d1 bc b9 e8 8c bd dd 53 03 3d
       -0.02542986 -0.02555677 -0.06880326 0.0320624
0002e0 98 be b5 3c bb 91 a8 bc e9 db 7d 3a 8e 7e 11 be
       0.022185609 -0.020577302 0.0009683953 -0.14208433
0002f0 db 4a 15 be 51 43 69 3d a5 15 aa 3d 43 b6 20 3d
       -0.14579336 0.056948964 0.083049096 0.03923632
000300 0c 5e ee 3b fe 0a 1f 3d 03 06 9f 3d 93 52 e1 3d
       0.007274395 0.038828842 0.077648185 0.11002078
000310 95 17 d6 bb b2 a5 68 3c 2a 31 c2 3c af 5a d1 39
       -0.006533573 0.014199661 0.023705084 0.0003993115
000320 66 cd 08 bc 2f 46 87 3c c3 40 49 bc 90 8b 32 3d
       -0.008349752 0.016512958 -0.012283507 0.04359013
000330 90 ba 08 bc 30 62 20 bd 8d e1 4e 3d ec 22 35 3b
       -0.008345261 -0.03915614 0.05050807 0.0027639223
000340 98 7c 8a 3b 66 db 52 bc 5b 34 b7 3c 01 d0 0b 3d
       0.0042262785 -0.0128696915 0.022363832 0.034133915
000350 1c ee 0c bd 5c 30 fc bc ac c6 6a bd 65 4c 29 bc
       -0.034406766 -0.030784778 -0.057318375 -0.010333155
000360 63 e8 73 3d c3 c3 3f 3d 09 62 67 bb 3c b1 5a bd
       0.059547793 0.046817552 -0.0035306236 -0.05339168
000370 78 00 6d 3d 38 15 8f 3d d7 9e 5e 3c 8d 42 74 bd
       0.057861775 0.06986469 0.013587675 -0.05963378
000380 b1 c1 11 bd e5 a5 40 bd 9f b2 d1 3d ee 27 43 bd
       -0.03558511 -0.04703321 0.102391474 -0.0476455
000390 00 1b 08 3e 5d e5 98 3c 81 ed 67 bd 2a ed d2 bb
       0.1329155 0.018664056 -0.056622986 -0.0064369636
0003a0 13 83 82 bd dd 58 cd bc c7 2f eb 3c 8d 9f 8d 3c
       -0.06372657 -0.025066787 0.028709305 0.017287994
0003b0 2f 4f c5 bc 1b 66 2b bd fd df 20 bd 51 87 b6 3c
       -0.02408561 -0.041845422 -0.039276112 0.02228132
0003c0 da 0c 91 3c dc c8 2e bd 40 c0 9a 3c bd 27 6d 3c
       0.017706323 -0.042672023 0.0188905 0.014474806
0003d0 a5 86 97 bc b1 c4 fe 3c 02 55 9e bd ca c4 bf 3c
       -0.01849682 0.03109965 -0.07731058 0.023409266
0003e0 38 23 13 3d f4 23 0e bd 18 46 59 3d 5c 26 22 3d
       0.03592226 -0.034702256 0.053045362 0.039587364
0003f0 c1 78 3c bd 32 35 30 3b c9 1d a2 3c 53 41 39 3d
       -0.046013597 0.0026887176 0.019789593 0.045228314

2.conv2.bias f4 [32]
000000 ae e1 a0 bd 1e 0a 54 3d a3 f6 81 be fe 16 4f 3c
       -0.07855545 0.05176746 -0.2538348 0.012639759
000010 56 89 16 be 12 7d aa bd b7 07 ac 3d de 20 14 be
       -0.14700827 -0.083246365 0.08399909 -0.14465663
000020 52 7e a4 bd 4d 4e 6b be b0 4d 56 3e 95 02 21 3e
       -0.08031906 -0.22979088 0.20928073 0.15723641
000030 f5 9e 04 be 96 ed ef bd f4 f3 bd bc 19 b5 ef bd
       -0.12951262 -0.11715238 -0.023187615 -0.117044635
000040 2b 76 e6 bd 69 f7 2c be 66 52 1f be d3 6a 8f bd
       -0.112530075 -0.16891254 -0.15558776 -0.07002797
000050 dc 4f c1 3d 21 da 1f be ea 70 02 bd db 6b 59 be
       0.0943906 -0.15610553 -0.031845964 -0.2123255
000060 7e 75 96 bd 15 96 20 be 1a 76 d9 3d a5 b3 62 be
       -0.073466286 -0.15682252 0.10618229 -0.22138841
000070 3b 30 74 3b d4 01 29 3e 97 a7 82 bd c3 af 41 be
       0.0037260193 0.16504604 -0.063796215 -0.18914704

3.conv1.weight f4 [32, 32, 7]
000000 1e 35 b8 bb 34 3c e3 3c 91 e1 4a bd 0f 91 46 3d
       -0.0056215664 0.027738668 -0.049531523 0.048478182
000010 04 5e 73 bd 15 9a 31 bc 26 fe e9 3c 75 03 f9 bc
       -0.059415832 -0.010839959 0.02856357 -0.030397156
000020 e0 a4 57 3b 32 0d 55 bd 20 f2 39 3d ae 02 76 3d
       0.003290467 -0.052014537 0.045396924 0.06006115
000030 a3 39 93 3b f8 2b d2 bb 86 82 a7 3b cc f5 05 bd
       0.004492955 -0.006413933 0.005111995 -0.032705113
000040 23 ca 93 3d 9e 6f ca 3d 0a d3 87 bd 9f 1c 25 3d
       0.07216289 0.098845705 -0.066320494 0.0403105
000050 1a f2 0d bd 56 15 ad bd 4b ce d4 bc 2d a7 54 bd
       -0.034654714 -0.08451335 -0.025977274 -0.051917244
000060 9c a5 89 3d c7 2a da 3c 6f 9b 14 bd a9 ef c5 bc
       0.067210406 0.026631726 -0.036281046 -0.02416213
000070 fa e3 a4 bc 0c 5c 67 3d 36 92 b4 3c 28 4b c8 3d
       -0.020128239 0.056484267 0.022042375 0.0977996
000080 f3 9a ba bc d6 44 2b ba b5 a9 65 bd 1c 0e 4b bd
       -0.022778964 -0.00065333897 -0.05607005 -0.049574003
000090 c5 fc f5 3c 92 2b 83 3d bc 72 3c 3d 83 83 ce bc
       0.030027756 0.06404795 0.046007857 -0.025209194
0000a0 15 00 68 bd ee ef 50 3b db bc b8 bd 95 53 eb 3c
       -0.056640703 0.003188129 -0.09020396 0.028726378
0000b0 67 1a 10 bd ad 76 90 39 eb a1 46 3d 80 12 b7 3c
       -0.03518143 0.0002755424 0.04849426 0.022347689
0000c0 55 dc b5 bd 7e 15 84 3d b1 5a e8 3c b7 8a 58 bd
       -0.088799156 0.06449412 0.028363558 -0.052866664
0000d0 2f d2 76 bd 06 2b 94 bd 88 7a 19 3d 84 31 03 bd
       -0.06025904 -0.072347686 0.03747037 -0.032029644
0000e0 bb 6c a3 3c 96 a5 4b bd 20 3d 19 3c f6 a3 7d 3d
       0.019949308 -0.049718462 0.009352952 0.061923943
0000f0 89 b7 50 bd 75 fc 80 3c e6 82 88 bd 44 3e e8 3a
       -0.050956283 0.01574538 -0.06665592 0.0017718752
000100 07 3f eb 3c f3 b8 cf 3c a1 14 34 3d 2d 53 e7 39
       0.028716577 0.025356745 0.043964986 0.00044121724
000110 99 e9 16 bd 7e 57 93 bd 18 fe e3 3c b0 9a a3 bd
       -0.03684387 -0.07194422 0.027831122 -0.07988489
000120 c0 ca b9 bd 4b c8 b3 bd 7a 98 0d be be 17 21 bd
       -0.090718746 -0.08778437 -0.13827696 -0.039329283
000130 61 7b 2b be af 39 ea bd 4e 3c 02 be d5 13 69 bd
       -0.16746284 -0.114367835 -0.12718317 -0.05690368
000140 eb 19 02 be 5b e1 25 be 5e da aa bd 6d f2 ab bd
       -0.127052 -0.16199248 -0.083424315 -0.083958484
000150 49 c3 79 3d 98 5b 5b bc 9c 58 94 3c 3f 8c 9a bc
       0.060977254 -0.013388537 0.018108658 -0.018865703
000160 86 a1 6d 3c 6c ea 92 3c e8 c3 74 3c 99 14 bb bc
       0.014503842 0.017934047 0.014939286 -0.02283697
000170 15 cf 88 bd 14 c3 88 3d 63 a7 28 ba 8a c3 5f 3d
       -0.06680123 0.06677833 -0.0006433634 0.05462984
000180 d7 b9 5d bc 40 de 04 bd cd a6 8d bd 69 eb 58 3d
       -0.013533077 -0.032438517 -0.0691658 0.05295888
000190 b0 c4 23 3d c8 be 3f bd c7 18 56 bb 8e fa 69 3b
       0.039982498 -0.046812803 -0.0032668577 0.003570232
0001a0 11 b2 70 3d 8d ee 7f bc 02 06 3e bd 5e f7 0b bc
       0.058763567 -0.01562084 -0.04639245 -0.008542864
0001b0 1d 6f e8 3c a2 96 19 bd f6 2c 55 3d bf 38 96 bc
       0.028373295 -0.03749717 0.05204483 -0.018337606
0001c0 18 f1 04 bd 28 63 d2 bc 23 5b 50 bc bb e4 e1 3d
       -0.032456487 -0.025682047 -0.012717041 0.11029955
0001d0 fd f1 62 3d 38 6d 4c 3d 1f 08 ac bc 2b 88 82 3c
       0.05540656 0.049908847 -0.020999966 0.01593407
0001e0 fc e7 97 3d f8 3b 0b bd e0 8c f0 3d 6b bb 13 3d
       0.074172944 -0.033992738 0.1174562 0.036067408
0001f0 a6 60 ae 3d 49 19 1c 3c b6 13 56 3b 3f ed 8c bd
       0.08514528 0.009527513 0.0032665557 -0.068811886
000200 83 98 bb bd e4 e5 34 3d ec 77 bb bd 51 8f cb bc
       -0.09159949 0.044164553 -0.09153733 -0.024848612
000210 c4 7f 8a bd d1 f7 bf bc 8d 49 d5 3c 33 5c 49 3d
       -0.067626506 -0.023433598 0.026036048 0.049160194
000220 6a bc 01 3d 25 90 27 3d 46 39 2c 3d 41 d7 a7 3c
       0.031673826 0.04090895 0.042046808 0.020488383
000230 73 bd ed 3b db db 20 bd 1a db 8a bc db 32 03 bd
       0.00725525 -0.03927217 -0.016950179 -0.03203092
000240 d6 9e 1a bd 8d 7a a9 bd 9e a6 b8 38 a0 68 61 bd
       -0.037749134 -0.08275328 8.8048386e-05 -0.05503142
000250 4d 30 76 3d 4c c6 1b 3d 3d ad e0 3d 32 3f 0d bd
       0.060104657 0.038030908 0.109705426 -0.034484096
000260 7c 0e 9e bc 29 f7 ba bc 77 91 57 bd 5c dd 5d bd
       -0.019294016 -0.022822933 -0.05262896 -0.054166183
000270 93 4e 66 bd be e8 f1 bc 60 42 79 3c 7d f7 05 bc
       -0.056227278 -0.029529925 0.015213579 -0.008176682
000280 da 02 88 bd 8e 3a 4f 3b db 46 58 bd f9 8e 8c bc
       -0.06641169 0.0031620595 -0.052801948 -0.017158018
000290 a2 01 d1 3d 41 d6 ca bd 76 33 9d 3b 6e 89 69 bd
       0.102053896 -0.09904147 0.0047973944 -0.05701583
0002a0 27 8b 77 3d 98 86 8e bd f7 36 e1 bb a9 b2 3b bd
       0.06043544 -0.069592655 -0.0068730074 -0.04582468
0002b0 80 b9 9c bd 4e f7 35 bd 12 67 2e 3d 25 c2 02 bc
       -0.07652569 -0.0444253 0.042578764 -0.007980858
0002c0 11 23 9f bd 11 6f 0a 3c 12 9a 9f 3d 67 60 9c bd
       -0.0777036 0.008449332 0.077930585 -0.07635575
0002d0 02 f0 3c bd 3f d7 a1 bd 0e b2 57 b8 0a a3 1e 3d
       -0.046127327 -0.07902383 -5.142582e-05 0.038729705
0002e0 33 70 bd bd 8f 4a 5f bd b0 9b 6f 3c f9 61 9d 3d
       -0.09249916 -0.054514464 0.014624521 0.076847024
0002f0 56 98 85 3d 95 36 40 3d 89 07 21 3d 26 1a c9 3c
       0.065231964 0.046927053 0.039313827 0.024548601
000300 5a 31 65 3d b8 8c a1 bd 0c 07 52 3d 00 53 d7 bc
       0.05595527 -0.07888168 0.05127625 -0.026284695
000310 66 41 82 3d 2f 4c 33 bc 44 2d 24 3d a2 41 ee 3c
       0.0636013 -0.010943457 0.04008223 0.02908403
000320 2a 98 a1 bd 62 81 43 bd e6 1c 7e bc b5 b6 a9 bc
       -0.07890351 -0.04773081 -0.01550982 -0.020717004
000330 15 be 37 3d d5 69 0d bd f9 04 54 bd c0 12 65 bd
       0.04485901 -0.034524757 -0.051762555 -0.055926085
000340 ba 96 f0 bd 05 bb ad bc aa 27 26 bd ab f8 59 bd
       -0.11747499 -0.021207342 -0.04056517 -0.053215664
000350 aa 81 8e bd 9f cc b6 3d cb 54 25 3a aa fc 7d 3c
       -0.06958325 0.08925747 0.00063068856 0.015502134
000360 7f 34 56 bb 06 1a 04 3d e8 cc 50 3c 6c cf 61 3d
       -0.0032685099 0.03225138 0.012744166 0.055129454
000370 03 fb e5 3d f2 ca 67 3b 55 fa de bc 45 16 31 bd
       0.11229517 0.0035368768 -0.027218977 -0.04323413
000380 ac 3f a3 bd 59 3b 83 bd 4f c2 e9 3b 19 7e 3b bd
       -0.07971129 -0.06407804 0.007133759 -0.045774553
000390 5c 15 a0 3a e2 c6 57 bd 0c 06 f3 3c 97 1d 08 bc
       0.0012213397 -0.052679904 0.02966597 -0.008307836
0003a0 2f b6 ab 3d b1 d6 02 bb a6 e6 92 3d 00 6e c9 3c
       0.08384358 -0.0019964392 0.07172899 0.024588585
0003b0 55 ad 27 bd 92 9a a2 3d ca 3f a0 bd 5d ae 08 3b
       -0.040936787 0.07939638 -0.07824667 0.0020855882
0003c0 17 d8 3d 3d b2 fa 3d bd 23 6a 69 bd 90 fc 1b bd
       0.046348657 -0.04638166 -0.056985985 -0.03808266
0003d0 fa 68 5a bd 41 1f 1e 3d fa 9d 48 3a c7 db 56 3d
       -0.05332277 0.038604025 0.0007652935 0.05245569
0003e0 f1 74 fe 3d a0 e4 cf 3d 8e 4f 61 3b 44 e4 29 3e
       0.124246486 0.10151029 0.0034379694 0.16590983
0003f0 2d 42 f3 3c b6 fe 7e bd 4c dd a6 bc d1 a6 41 bd
       0.029694641 -0.06225463 -0.020369194 -0.04727823

3.conv1.bias f4 [32]
000000 9b c2 9c 3e 6a ea ae bd e4 b9 3f ba be 69 5c bd
       0.30617222 -0.08540805 -0.00073137716 -0.05381178
000010 c7 de f8 3c 59 3f 7f bd c6 f5 6f 3e b0 c8 f0 3d
       0.030379666 -0.062316272 0.23433599 0.11757028
000020 d5 bc 24 be 99 70 78 3e 5f 48 e2 3b 03 09 06 be
       -0.16087659 0.24261703 0.0069056 -0.13089375
000030 66 1c b8 bd e6 b5 a0 be 15 a5 b9 bc 1a 61 90 3e
       -0.089897916 -0.31388777 -0.022661725 0.28199083
000040 8c b6 43 be 04 0c ee bc 19 1b 11 3b 75 c8 c6 3c
       -0.19112605 -0.029058464 0.0022141396 0.024265507
000050 45 a8 86 be 0f 66 82 bd 15 4b 2b bd db 3c 50 3e
       -0.26300254 -0.063671224 -0.04181965 0.20335715
000060 db 57 02 3e d2 ed c2 bd 2f e8 e0 bc 0d b8 bc bd
       0.12728827 -0.09518017 -0.027454464 -0.092147924
000070 a1 51 68 bd f4 ff 4d 3e 16 a5 ed bc f9 a3 5e 3e
       -0.056718472 0.2011717 -0.029009383 0.21742238

3.conv2.weight f4 [32, 32, 5]
000000 de fc 85 bc 04 b7 b3 3d 71 97 d8 3c f6 de 58 bd
       -0.016355928 0.08775142 0.0264394 -0.052947007
000010 c9 84 6b bc 3e 3f 5a bd a3 70 b3 bc 4f cf e4 3c
       -0.01437492 -0.05328297 -0.021904295 0.027930884
000020 18 44 3e bd 82 5c 11 bd 3d 7a dd 3d 00 77 b9 3d
       -0.046451658 -0.035488613 0.10814331 0.090559006
000030 e2 f1 5c 3d a0 a8 45 3d 03 73 9b 3c 79 30 e8 3d
       0.053941615 0.048256516 0.01897574 0.113373704
000040 ba f3 8b 3d 29 b5 60 3c 38 51 50 3d b5 10 23 3d
       0.068335965 0.013715067 0.050858706 0.039810855
000050 fe 3a a4 ba 49 4f 3a 3c 88 3d 97 bd 7a e4 e6 3c
       -0.0012529788 0.011371442 -0.07384783 0.028185118
000060 6e 7c ac bd ae 40 92 bd ee 2a 22 bc 06 c5 80 3d
       -0.084221706 -0.07141243 -0.009897931 0.06287579
000070 c9 e1 de bc 2a 6e b4 bb 97 0f 44 3d 6c a1 d3 bc
       -0.027207272 -0.0055062966 0.04786643 -0.025833808
000080 3f 3c 79 bc 9d ea 36 bc a3 9e b5 3c 07 f7 8c bd
       -0.015212118 -0.011164335 0.02217037 -0.06883054
000090 4e a5 98 bd 02 56 91 bd fa c5 a1 bb 88 15 c3 3d
       -0.07453404 -0.07096483 -0.0049369307 0.09525591
0000a0 a6 84 98 bc 80 3a b2 3c b8 89 4c 3d c9 c6 b8 3c
       -0.01861794 0.02175641 0.049936026 0.022555726
0000b0 0c 09 d7 bd 9d 49 d6 ba 88 20 48 3b c2 46 fb ba
       -0.104997724 -0.0016348843 0.0030536968 -0.0019170868
0000c0 db 3c 63 3c 5c 80 a9 bc a6 04 84 bd 2d 9e d6 bc
       0.01386949 -0.02069109 -0.06446199 -0.026198471
0000d0 66 41 bd 3c 9c c2 0b be fc c8 5e 3d ff f1 41 bd
       0.023102473 -0.13648456 0.054390892 -0.047349926
0000e0 99 fc 8b 3c 34 9b 17 bc 93 1b 45 3c b0 2a 45 bd
       0.017088221 -0.009253312 0.0120305 -0.048136413
0000f0 68 ef c7 bc 90 c1 61 bc ed c1 5e 3c 0b cb 4f bd
       -0.02440615 -0.013779059 0.01359604 -0.050730746
000100 32 11 dd 3c e2 00 bf bc e1 7b 94 3d 38 b5 b5 bd
       0.026985738 -0.02331585 0.072501905 -0.08872455
000110 91 23 a2 bd 38 47 f4 3a 95 2f 60 bd 17 c7 f5 bc
       -0.0791694 0.0018636947 -0.054732878 -0.03000216
000120 67 d8 8d bc 57 5f 85 3c f5 f4 1e bd 97 b3 3b 3d
       -0.017315103 0.016280813 -0.038807828 0.045825567
000130 8e 3d f5 bc 61 e0 9a bd 70 ba 0d 3d e7 e6 23 bd
       -0.029936578 -0.07562328 0.03460163 -0.040015128
000140 59 57 f5 bc 5f f4 f2 bd f5 f2 c0 3d f8 bb 05 bd
       -0.029948877 -0.11863016 0.094213404 -0.032649964
000150 b1 4d 53 3d 4c 28 2d 3d 8e e8 9c 3d db f6 40 bd
       0.051587764 0.04227476 0.07661544 -0.04711042
000160 ad 30 88 bd 9d 59 11 3d da db 02 3c 7f 50 57 bd
       -0.06649909 0.035485853 0.007986987 -0.052567
000170 98 6c de bc 00 b1 77 3c 12 71 13 3d 00 d7 a6 bd
       -0.02715139 0.015117884 0.035996504 -0.08146477
000180 aa 26 c5 b8 d9 3b 68 3d 56 7b a3 3d 90 ee 1f bd
       -9.400894e-05 0.0566977 0.07982509 -0.03904587
000190 bb 45 af 3d 0a e0 a1 3d 6a 47 0a 3c be 83 96 bd
       0.08558222 0.0790406 0.008439878 -0.073493466
0001a0 5f d3 ff 3c 8a f6 bb bd 67 62 80 3d 1d 8e eb bd
       0.03122872 -0.09177883 0.06268769 -0.11501715
0001b0 f6 e5 ae 3d 6f fb cf 3c 43 6b 8a bc 03 34 93 3d
       0.08539955 0.025388448 -0.01689685 0.07187655
0001c0 b7 73 4c 3c e3 4a 95 bc 19 b2 91 bc 61 5b b2 bd
       0.01247876 -0.018224185 -0.017785119 -0.087088354
0001d0 e6 ec 9d bd 09 0f 83 bd 70 fb 8e bd 3a 52 a0 bd
       -0.077112004 -0.06399352 -0.06981552 -0.078281835
0001e0 72 82 6b 3c df b4 21 3d b2 85 4f bd c3 3e 08 bd
       0.014374362 0.039479133 -0.05066461 -0.03326298
0001f0 db 02 49 3c 1a d3 57 bd f6 01 30 3d 81 fc dd bd
       0.012268747 -0.052691557 0.04297062 -0.10839177
000200 33 4b 03 3d 15 e3 b2 bd e7 a8 ab 3d 72 73 ef 3c
       0.032054137 -0.08734719 0.08381825 0.029229853
000210 1c 49 06 3c 1f 0e 13 bc ef b1 4c 3d 0b 46 1d bd
       0.008196142 -0.008975535 0.04997438 -0.038396876
000220 42 2e 9b 3b 29 66 b7 bd 8f 40 f8 3c 81 81 09 3d
       0.004735739 -0.089550324 0.030304221 0.03357077
000230 e0 c0 8e 3d af fe 1c 3d 3c 86 e5 bc de 1c ad 3d
       0.06970382 0.038328823 -0.02801811 0.084527716
000240 9d 70 86 bb 03 02 04 bc 0a 01 8d bd 1b 8d 35 bd
       -0.00410278 -0.00805712 -0.06884964 -0.04432402
000250 6a d5 1b bd 10 cd 93 3d 03 f9 fc bd 8e ae 5a bd
       -0.038045324 0.07216847 -0.12352183 -0.053389125
000260 a8 f1 60 bd 08 dc 15 3e 27 b6 11 3b 4c e1 30 be
       -0.05491796 0.14634717 0.0022233815 -0.17273444
000270 e0 63 6e 3d cf a6 04 be 0e f7 e7 bd 81 50 80 bd
       0.058200717 -0.12954257 -0.11326419 -0.06265355
000280 e8 49 9d bd 53 d7 77 3d de 7a db bd 10 32 33 3c
       -0.07680112 0.060508084 -0.107167944 0.010937229
000290 f0 ad 5a bd 71 23 ae 3c b9 19 d9 3b 2b 82 99 3d
       -0.053388536 0.021257134 0.006625381 0.07495531
0002a0 8d de 01 bd 6a f6 7b 3c 09 ef e7 3d 0d 88 fc 3c
       -0.03170638 0.015378574 0.11324889 0.030826593
0002b0 e4 b3 14 bd 16 1b 18 bd 98 10 0f 3c 1c c2 e9 3c
       -0.03630437 -0.037135206 0.008731984 0.028534941
0002c0 d9 11 02 3d 8c bb d7 3c 7f ef 9b 3c 7d ae aa 39
       0.031755302 0.026334547 0.0190351 0.0003255493
0002d0 34 33 f7 bc b6 3c 31 3d 8e 25 a7 bd 22 5d 0b bc
       -0.030175783 0.04327079 -0.0816146 -0.008506091
0002e0 9d 70 5e bc f2 5c 4e 3d 82 1c c5 bd 6f 19 03 3e
       -0.013576654 0.05038161 -0.09624578 0.12802671
0002f0 0d 4a 35 3d 73 60 07 bd e9 cc dd bc 65 be 29 3d
       0.044260073 -0.033050966 -0.027075248 0.04144134
000300 d9 e8 cb bc 21 91 fc ba d6 15 94 3d 2b aa 5d 3b
       -0.024891304 -0.0019269326 0.072307274 0.0033823352
000310 f6 ad 5e bd 94 2e 59 3d 6e df 56 bd 3b ff c0 ba
       -0.05436512 0.053022936 -0.052459173 -0.0014724502
000320 59 40 ca bd 4b 17 35 bc d7 93 5e 3c 61 b3 83 bd
       -0.098755546 -0.011052917 0.013585052 -0.06430698
000330 1b 23 30 bd 47 3d 12 bc 02 00 7f bd 80 b0 d5 bd
       -0.04300223 -0.0089257425 -0.062255867 -0.10434055
000340 13 14 ed bc 14 2a 9f bc 13 4a 0b bc 0f f8 cd bb
       -0.028940236 -0.019429244 -0.008501547 -0.0062856744
000350 2c 87 1d 3d d6 03 e4 bd f1 ce 14 3c ca 6e d0 bd
       0.038458988 -0.11133544 0.009082542 -0.10177381
000360 fe 04 02 be d5 41 21 3d 5f 68 a4 bd 97 59 ed bc
       -0.12697217 0.039369423 -0.0802772 -0.028973384
000370 a6 90 be bc 9a fe 4e bd 46 17 19 3d 65 75 bf 3d
       -0.023262333 -0.050535776 0.03737571 0.09348563
000380 48 fb e6 3c 6e bb aa 3c 74 c0 91 3d ed 93 01 bb
       0.028195992 0.020841327 0.07116786 -0.0019772009
000390 64 79 86 bd 76 a6 77 bc a8 82 13 3c 82 95 3d bd
       -0.06566122 -0.015115371 0.009003319 -0.04628516
0003a0 e8 0e b3 bd 39 ca 92 bd 32 e7 8d bd 7a da 7c bd
       -0.087430775 -0.07167477 -0.06928863 -0.061731793
0003b0 12 4d 2f 3d 5e a3 1c bd 3e 7a e5 3b 92 a7 9e bd
       0.04279811 -0.038241737 0.007003098 -0.07746805
0003c0 71 a0 cc 3c 4d 5b e2 bd 12 23 04 3e 25 27 7f bd
       0.024978848 -0.110525705 0.12904003 -0.06229319
0003d0 03 99 5b 3d 2e 3d 7e 3d 69 cc 73 bd 88 28 28 3c
       0.05361272 0.062070064 -0.059521113 0.01026357
0003e0 30 c7 97 3c ce 45 08 3d 72 72 5d bd 71 e7 7e bd
       0.018527597 0.033269696 -0.05406422 -0.06223244
0003f0 22 b1 44 bd 53 ab 0d bd f1 2e 95 3d 2d 92 22 3d
       -0.04802049 -0.034587216 0.07284344 0.039690185

3.conv2.bias f4 [32]
000000 e7 a6 05 be c5 4a a6 bd 67 51 2b be cc 15 03 3c
       -0.1305195 -0.0811973 -0.16730271 0.008000802
000010 7c e0 a7 3d 91 8e b1 bd 31 1e c4 bd c1 fc d1 bd
       0.08197114 -0.086697705 -0.09576071 -0.10253287
000020 88 e7 18 3e 7d d2 f1 bd e5 68 a4 3c 3c a0 5a 3e
       0.14932072 -0.118077256 0.020069549 0.21350187
000030 dc c5 97 be 38 0f 03 be 40 8a 95 bd a6 b7 c8 bd
       -0.29643142 -0.12798774 -0.0730176 -0.09800653
000040 29 cb ac be 94 76 7f be 98 1c 6b 3d 81 b0 56 3e
       -0.3374875 -0.24947578 0.057400316 0.20965768
000050 bc 95 87 3c 4d ab 1e 3e 2a c2 83 bc 6c 84 1b be
       0.016550891 0.15495034 -0.016083796 -0.15187234
000060 cb 80 ae bd 96 1c b4 bd b7 03 d8 bb a6 7d ad bd
       -0.08520659 -0.08794515 -0.0065922397 -0.08471231
000070 9f c0 d4 3c 98 ad f1 bd 81 a5 15 be fa e1 d8 bd
       0.025970755 -0.118006885 -0.14613916 -0.105899766
