model.pt (torch, 164487 bytes, 10 tensors)

1.weight f4 [32, 1, 7]
-0.16465257 0.008305577 -0.08289721 -0.39243135 0.17231736 0.24369878 0.3546507 0.047152232
0.12347855 -0.002921565 0.18962553 0.20550033 0.10643284 -0.13668145 -0.07861549 0.012355007
-0.30391172 -0.09562076 -0.12826583 0.24968517 0.49605748 0.07134513 -0.06475628 -0.039092425
-0.17748746 0.01847084 0.05511393 -0.3775584 0.36055726 0.28537774 -0.5033457 -0.57308966
0.0045649162 0.06180207 -0.015515488 -0.3556208 -0.21911028 0.30828947 -0.20786534 0.1478049
0.0779341 -0.025686441 0.4901958 0.8118642 -0.031055426 -0.92297465 -0.300317 0.11510388
0.14430839 -0.50509113 -0.46057695 -0.14882734 0.25857097 -0.27573165 0.029082485 0.03468659
-0.5379854 0.21253891 -0.15015012 0.26656556 0.15250173 0.18999344 0.06420576 0.34210756
0.19161475 0.2089347 -0.28926504 -0.15277112 -0.12278147 0.15685022 -0.12263703 -0.101748146
-0.11178617 -0.23260486 0.24433282 -0.14961226 -0.33507738 -0.34920037 0.03925373 0.36768997
0.24605589 0.52084416 -0.20473365 -0.5311371 0.039219353 -0.25270608 0.14459725 -0.36682037
-0.31344676 0.14278601 0.006836171 -0.625311 -0.25414148 -0.4648721 0.1680686 0.08515414
0.34620264 -0.011073225 -0.12928066 0.16950092 -0.12065461 0.3059167 -0.23600973 0.2121826
0.43740764 0.12406748 0.3345127 0.05254831 -0.23758791 0.4899038 -0.08931933 -0.7429639
-0.3048492 -0.08669402 0.20291057 0.19971585 0.33762076 -0.47189164 -0.08512262 0.2336313
-0.21934338 -0.03234545 -0.42765406 0.39174613 0.097083546 -0.058483683 0.2342763 0.22436772
0.5842923 -0.30246547 -0.8346013 0.019156363 -0.028084422 0.15717271 0.08682826 0.26506865
0.25944036 0.07769476 -0.28456846 0.3365666 -0.0921959 -0.20958288 0.00016358812 -0.42972422
-0.44749272 -0.4466981 -0.093786255 -0.09857122 -0.47681373 -0.24691394 0.10893782 -0.024396086
-0.035825364 0.33023676 -0.44587946 -0.6440034 -0.75227666 -0.043767884 0.40006682 0.47581542
0.18168902 0.079299085 -0.3722979 0.052100934 0.30906627 0.071997635 -0.31880152 0.27159026
-0.021764072 -0.1595399 0.15159895 -0.062539466 -0.13588782 0.380749 -0.028955434 0.38504118
-0.06189286 -0.17004767 -0.19045183 -0.2046078 -0.12214873 0.29273525 -0.00568876 -0.38342863
0.007586493 0.34464318 -0.0009258649 -0.046506085 -0.2942436 -0.40090886 -0.12779042 0.24409077
0.2910027 0.040139098 0.3364125 -0.244883 -0.053428706 0.37476605 0.0792279 -0.09050697
-0.17925572 -0.40853572 -0.02597639 -0.21486573 0.16525774 0.21265566 -0.25880897 0.38894174
-0.1912151 -0.109561086 -0.12704058 -0.45390794 -0.41088638 -0.08165248 0.3247466 0.39889666
0.2238058 -0.29924992 -0.1555632 0.21423343 0.17532696 -0.07032199 0.17381497 0.24824123
00000000: af9a 28be 1d14 083c 03c6 a9bd c3ec c8be
00000010: f673 303e 2c8c 793e c794 b53e b322 413d
00000020: 52e2 fc3d ba77 3fbb 322d 423e ae6e 523e
00000030: 76f9 d93d 39f6 0bbe 2801 a1bd a86c 4a3c
00000040: 519a 9bbe d1d4 c3bd 1e58 03be 78ad 7f3e
00000050: 3ffb fd3e 651d 923d f19e 84bd 611f 20bd
00000060: 46bf 35be 2950 973c 25bf 613d 564f c1be
00000070: f69a b83e 081d 923e 44db 00bf 01b6 12bf
00000080: 4b95 953b 2b24 7d3d ac34 7ebc ee13 b6be
00000090: 725e 60be 1ed8 9d3e a7da 54be 2b5a 173e
000000a0: ea9b 9f3d 5f6c d2bc f2fa fa3e 55d6 4f3f
000000b0: f367 febc 1148 6cbf 26c3 99be 95bb eb3d
000000c0: 94c5 133e a74d 01bf bed0 ebbe 3266 18be
000000d0: 6a63 843e b32c 8dbe 643e ee3c 8713 0e3d
000000e0: 69b9 09bf cda3 593e f4c0 19be 487b 883e
000000f0: 6a29 1c3e a48d 423e 4f7e 833d b928 af3e
00000100: a836 443e faf2 553e 8c1a 94be 0870 1cbe
00000110: da74 fbbd 589d 203e 2029 fbbd 5561 d0bd
00000120: 26f0 e4bd f82f 6ebe 6232 7a3e f533 19be
00000130: 438f abbe 64ca b2be 85c8 203d dc41 bc3e
00000140: 13f6 7b3e 0b56 053f b3a5 51be 9af8 07bf
00000150: 79a4 203d b162 81be 4d11 143e e1cf bbbe
00000160: 187c a0be 7f36 123e f501 e03b 6214 20bf
00000170: d51e 82be b703 eebe 2d1a 2c3e 4b65 ae3d
00000180: 7941 b13e 796c 35bc 2662 04be a691 2d3e
00000190: c419 f7bd 1da1 9c3e 89ac 71be 6546 593e
000001a0: e5f3 df3e 1717 fe3d 4045 ab3e e63c 573d
000001b0: 3f4a 73be acd4 fa3e 0eed b6bd e232 3ebf
000001c0: 3215 9cbe a28c b1bd cac7 4f3e 5082 4c3e
000001d0: a1dc ac3e c89b f1be c554 aebd 0b3d 6f3e
000001e0: 8d9b 60be aa7c 04bd 79f5 dabe f392 c83e
000001f0: bdd3 c63d 968c 6fbd 20e6 6f3e a7c0 653e
00000200: 2e94 153f c1dc 9abe 6ea8 55bf ceed 9c3c
00000210: 4d11 e6bc e2f1 203e 04d3 b13d 14b7 873e
00000220: 5ed5 843e 6e1e 9f3d f5b2 91be 7552 ac3e
00000230: 34d1 bcbd e59c 56be da88 2b39 d004 dcbe
00000240: c41d e5be 9db5 e4be 0213 c0bd b5df c9bd
00000250: ee20 f4be 02d7 7cbe cb1a df3d 4dda c7bc
00000260: 9ebd 12bd cb14 a93e 504a e4be 68dd 24bf
00000270: 3495 40bf f445 33bd 8fd5 cc3e 149e f33e
00000280: b00c 3a3e 8f67 a23d d59d bebe ca67 553d
00000290: ef3d 9e3e 7f73 933d f439 a3be e10d 8b3e
000002a0: 914a b2bc 6d5e 23be c13c 1b3e b114 80bd
000002b0: 2d26 0bbe 88f1 c23e f233 edbc 1e24 c53e
000002c0: 5e83 7dbd fa20 2ebe ce05 43be b584 51be
000002d0: 1d29 fabd 65e1 953e c768 babb c250 c4be
000002e0: 1e98 f83b 1275 b03e beb5 72ba 2a7d 3ebd
000002f0: 19a7 96be ed43 cdbe 7edb 02be eef2 793e
00000300: 4efe 943e e568 243d 423e ac3e 9cc2 7abe
00000310: 0fd8 5abd 56e1 bf3e 3d42 a23d b85b b9bd
00000320: d08e 37be 982b d1be 70cc d4bc c305 5cbe
00000330: 5339 293e 68c2 593e 9c82 84be 5f23 c73e
00000340: e4cd 43be 9061 e0bd ed16 02be 9f66 e8be
00000350: b35f d2be 6a39 a7bd 3045 a63e 2f3c cc3e
00000360: 592d 653e 4937 99be f64b 1fbe 0260 5b3e
00000370: e988 333e fa04 90bd 8dfc 313e f332 7e3e

1.bias f4 [32]
-0.106477015 0.17201273 -0.3392174 -0.2430941 0.22698689 -0.34797868 0.06576112 0.011870396
0.06562708 0.1919981 -0.33481178 0.020912362 -0.29663005 0.011297288 -0.41620833 0.0748916
0.24510539 0.1236418 0.1337337 -0.115803346 0.35515514 0.27998665 -0.1481769 -0.17036282
0.13682473 -0.17457414 -0.030928237 0.03067977 0.25193617 -0.45874956 -0.30253226 0.1507653
00000000: 9f10 dabd 1b24 303e e7ad adbe a9ed 78be
00000010: 406f 683e 432a b2be c4ad 863d 0d7c 423c
00000020: 7e67 863d 269b 443e 736c abbe 6750 ab3c
00000030: e5df 97be 4318 393c 4219 d5be c460 993d
00000040: e8fc 7a3e e937 fd3d 7df1 083e 4e2a edbd
00000050: e5d6 b53e 695a 8f3e afbb 17be 9773 2ebe
00000060: c81b 0c3e 90c3 32be 375d fdbc 2454 fb3c
00000070: c7fd 803e 39e1 eabe 82e5 9abe 3862 1a3e

3.weight f4 [32, 32, 5]
0.027744297 0.042441305 0.009013557 0.009590584 -0.034677982 -0.08713671 -0.07490373 -0.04932404
0.051368766 -0.08412814 0.042624675 0.022898965 -0.011398289 0.07859587 0.01666851 0.016641825
0.0043534334 -0.04769343 -0.011211748 0.04958899 -0.043352135 -0.031885505 -0.021057164 -0.044643816
-0.0047513526 -0.055013213 -0.02129836 -0.070937976 -0.008257149 -0.069294244 0.008816813 -0.041669752
0.06432076 0.050296266 -0.047950234 0.02914125 -0.056204922 -0.056307327 -0.033723123 0.008111498
-0.04282217 0.024731787 -0.044012092 0.0336281 0.046845935 0.057685696 0.004944403 -0.0627281
-0.015921047 -0.100987226 0.012071642 -0.044722885 -0.0008450767 -0.03338593 0.07383561 0.05939531
0.06728831 -0.014915184 0.046897348 -0.0051996983 -0.046647944 0.074646786 0.065432824 -0.028389666
0.07023035 0.049358714 -0.013691949 0.04861845 0.062842906 -0.012241178 0.03910797 -0.046952117
0.044422865 0.060387 -0.024935976 0.04799634 0.059476476 0.05523096 -0.04077476 0.06649341
0.052173864 -0.06948677 0.065270774 -0.031807363 0.01616733 0.045704383 0.04771537 0.07558643
0.024504947 -0.060457986 0.07247141 0.036423594 0.038281858 -0.0006055722 -0.027689641 -0.013531261
0.05928641 0.024029227 -0.08238064 -0.06315185 0.070301086 0.037094496 0.08269648 0.046480924
-0.059515145 0.03529309 -0.039022274 0.0061631068 -0.061239168 0.04565396 -0.04811487 0.026929278
0.06981259 -0.016985951 0.0684824 -0.025004823 -0.024752602 0.0055755884 -0.000113549286 0.057045832
-0.034220725 0.054451123 -0.016849192 0.090227574 -0.06247609 -0.07857063 0.07166369 -0.05076444
-0.06383389 -0.011766572 0.04930339 -0.04444685 -0.044920072 0.032711074 0.038644936 0.022564013
0.009829726 0.004898205 0.039376233 -0.038702525 -0.017440133 -0.027074663 -0.074573636 -0.08672955
0.04358894 0.032564968 -0.012248588 -0.042270757 0.06357289 0.040786445 -0.032370124 0.030320292
0.013101935 -0.047254167 0.041225977 0.07384935 -0.0014696575 0.026884006 0.08170683 -0.06478381
0.019131849 0.033728953 -0.059779737 0.020214606 -0.07667653 -0.12299103 -0.075855196 -0.04059111
0.03001212 0.04499583 -0.02762038 -0.06241285 -0.070101134 -0.032482263 -0.053930003 0.041553624
0.024628928 0.06827791 0.038749605 0.04233674 -0.068831556 0.046513658 0.017525325 0.058497705
0.0108570475 0.042524792 0.028847348 -0.04811962 0.041544404 0.014858798 0.022402136 0.06726648
0.074793234 0.030083807 0.028950598 0.12066067 0.034183193 -0.028116658 -0.018352892 -0.014975358
0.09157325 0.09087122 0.1175211 0.041459057 0.037278295 -0.12745021 -0.050335865 -0.039575584
-0.06302647 -0.011079052 -0.04630786 0.031583533 0.0134167615 -0.05288393 0.05845959 0.11318449
-0.026057724 0.0910087 0.03452247 -0.038870614 0.04140806 -0.06399462 0.06472299 0.06436038
0.03873992 0.17388755 0.22203256 0.074224435 0.046247903 0.008940323 -0.0090990495 0.027160972
0.041482788 -0.07408733 -0.09246055 0.063320726 0.009667252 0.003118093 0.016168518 0.03998864
-0.019078745 0.048199177 0.07274716 0.007129625 -0.033218887 -0.012261559 -0.02472066 -0.022527955
-0.05597888 0.0009840355 0.0010068532 0.059179742 -0.002453908 -0.017035184 -0.06794294 -0.19272874
00000000: 0248 e33c efd6 2d3d 99ad 133c d321 1d3c
00000010: 800a 0ebd bb74 b2bd 2067 99bd 0108 4abd
00000020: 0e68 523d 604b acbd 3697 2e3d 9c96 bb3c
00000030: e4bf 3abc dff6 a03d 668c 883c 7054 883c
00000040: 3fa7 8e3b 305a 43bd 7bb1 37bc d31d 4b3d
00000050: 0292 31bd 609a 02bd 1380 acbc 6fdc 36bd
00000060: 3cb1 9bbb 8955 61bd e679 aebc ee47 91bd
00000070: fe48 07bc 24ea 8dbd 6574 103c e7ad 2abd
00000080: 9aba 833d 7503 4e3d 7767 44bd a1b9 ee3c
00000090: 2237 66bd 83a2 66bd 4221 0abd 17e6 043c
000000a0: 4d66 2fbd 519a ca3c 0646 34bd 9ebd 093d
000000b0: 86e1 3f3d d647 6c3d a904 a23b 9777 80bd
000000c0: db6c 82bc 64d2 cebd 23c8 453c 582f 37bd
000000d0: 2388 5dba afbf 08bd 2037 973d 7f48 733d
000000e0: 74ce 893d d15e 74bc 6f17 403d 3b62 aabb
000000f0: ea11 3fbd 6ae0 983d a501 863d 7291 e8bc
00000100: eed4 8f3d 5d2c 4a3d 3254 60bc 2424 473d
00000110: c8b3 803d 398f 48bc ae2f 203d dd50 40bd
00000120: c0f4 353d 5c58 773d 8846 ccbc cf97 443d
00000130: 9b9d 733d dc39 623d 6f03 27bd b22d 883d
00000140: 43b4 553d 144f 8ebd afac 853d 7048 02bd
00000150: 5971 843c 8534 3b3d 3171 433d 0fcd 9a3d
00000160: 99be c83c cba2 77bd e46b 943d e830 153d
00000170: 70cd 1c3d 43bf 1eba 63d5 e2bc 39b2 5dbc
00000180: 4fd6 723d f1d8 c43c 2eb7 a8bd c255 81bd
00000190: 04fa 8f3d 66f0 173d c65c a93d c862 3e3d
000001a0: 27c6 73bd 7d8f 103d d2d5 1fbd e3f3 c93b
000001b0: ecd5 7abd a6ff 3a3d 1914 45bd ca9a dc3c
000001c0: e7f9 8e3d 1f26 8bbc 8040 8c3d ead6 ccbc
000001d0: f8c5 cabc 6db3 b63b 4f21 eeb8 e4a8 693d
000001e0: 082b 0cbd 2408 5f3d 5107 8abc 3cc9 b83d
000001f0: eee6 7fbd a3e9 a0bd 6ac4 923d 60ee 4fbd
00000200: 58bb 82bd 94c8 40bc 5af2 493d e60d 36bd
00000210: 1cfe 37bd 0cfc 053d 274a 1e3d 2ad8 b83c
00000220: dc0c 213c 1f81 a03b f948 213d 8a86 1ebd
00000230: 9cde 8ebc afcb ddbc 10ba 98bd 439f b1bd
00000240: 518a 323d d862 053d 4dae 48bc 1a24 2dbd
00000250: 8132 823d b00f 273d 8996 04bd 4362 f83c
00000260: 80a9 563c 968d 41bd 92dc 283d 543e 973d
00000270: 86a1 c0ba d93b dc3c e955 a73d 60ad 84bd
00000280: 65ba 9c3c 5f27 0a3d 99db 74bd 1a99 a53c
00000290: 9608 9dbd b9e2 fbbd f859 9bbd dd42 26bd
000002a0: fadb f53c 8c4d 383d 2344 e2bc 9ea4 7fbd
000002b0: 2f91 8fbd 1f0c 05bd b5e5 5cbd 2234 2a3d
000002c0: 9bc2 c93c 4ad5 8b3d e8b7 1e3d 4a69 2d3d
000002d0: 8ff7 8cbd 1b85 3e3d 4591 8f3c 4a9b 6f3d
000002e0: c2e1 313c 7a2e 2e3d 4651 ec3c 1419 45bd
000002f0: 772a 2a3d 5172 733c af84 b73c 02c3 893d
00000300: 322d 993d 5172 f63c ce29 ed3c f11c f73d
00000310: ad03 0c3d e854 e6bc ce58 96bc 345b 75bc
00000320: c28a bb3d b11a ba3d e7ae f03d f9d0 293d
00000330: 20b1 183d 4f82 02be fb2c 4ebd 021a 22bd
00000340: 0614 81bd ea84 35bc 50ad 3dbd bc5d 013d
00000350: fad1 5b3c d29c 58bd 5373 6f3d 45cd e73d
00000360: 0277 d5bc c562 ba3d 6f67 0d3d cb36 1fbd
00000370: 7f9b 293d 9d0f 83bd 7d8d 843d 60cf 833d
00000380: c0ad 1e3d 940f 323e 815c 633e fb02 983d
00000390: 716e 3d3d 6f7a 123c 2e14 15bc b080 de3c
000003a0: dbe9 293d 19bb 97bd f55b bdbd 4cae 813d
000003b0: 6563 1e3c eb58 4c3b d773 843c 21cb 233d
000003c0: 074b 9cbc 806c 453d 77fc 943d a19f e93b
000003d0: 8710 08bd b5e4 48bc fb82 cabc 8c8c b8bc
000003e0: 1c4a 65bd c1fa 803a 63f8 833a 7566 723d
000003f0: bfd1 20bb 5f8d 8bbc ab25 8bbd af5a 45be

3.bias f4 [32]
-0.028497616 0.072501324 -0.14070295 0.08453878 0.001655292 0.017285679 0.07922625 0.026712338
0.10524026 0.032057494 0.06836868 0.020171793 0.074941054 0.0051192963 0.17999387 0.030665332
-0.0012739798 0.009621337 0.123739965 -0.047523145 0.0048584314 0.22190553 0.046358112 0.09371008
0.24331364 -0.08301153 0.123471335 0.054504167 0.1490118 0.09206679 -0.025826778 0.24672298
00000000: d573 e9bc 937b 943d 6f14 10be ab22 ad3d
00000010: 62f6 d83a b29a 8d3c 5f41 a23d d5d3 da3c
00000020: 3588 d73d b84e 033d e104 8c3d 513f a53c
00000030: b27a 993d c5bf a73b 5050 383e dd35 fb3c
00000040: abfb a6ba d0a2 1d3c 616b fd3d a1a7 42bd
00000050: 7a33 9f3b 343b 633e 01e2 3d3d 12eb bf3d
00000060: 3627 793e f301 aabd 8ade fc3d c33f 5f3d
00000070: 8d96 183e 838d bc3d ae92 d3bc f3a4 7c3e

5.weight f4 [32, 32, 3]
-0.093582824 -0.0051110545 0.09588429 0.097332 0.029709458 -0.08624943 -0.035429902 -0.07866818
-0.0362868 -0.013569428 0.030005842 0.0741247 -0.054459766 -0.057008684 0.026709024 -0.012516292
-0.023441857 0.02635128 0.029236311 0.055229474 -0.045444258 -0.02237149 0.07427723 0.05424626
-0.06875028 -0.09405039 -0.060523022 -0.058130547 0.05651055 -0.045575917 -0.09430098 -0.102270104
0.042840663 -0.061392922 -0.00935244 -0.056631498 -0.005086173 -0.08347984 -0.045787103 -0.035060238
-0.09374515 -0.03550437 -0.0019034441 -0.0827577 0.08145435 -0.060398526 0.10268392 0.0482754
-0.011485517 0.028556503 -0.059620377 0.013431958 0.021860536 0.06560669 0.008262892 0.06913254
-0.043103505 -0.016602363 0.008292053 0.09350115 0.060881477 -0.006232631 0.00027621433 -0.02003994
0.05278766 -0.07798822 -0.020615662 -0.07349826 -0.09994356 -0.06745992 -0.08626146 -0.015530133
-0.05108446 -0.07045345 -0.08236987 -0.006196873 -0.03985243 -0.042617343 0.08053396 -0.06998871
-0.060090836 0.01660395 -0.1020068 0.08584108 0.04224386 -0.028004322 -0.074739024 -0.003403348
0.051058322 0.047465 -0.0037306899 -0.008427614 -0.0850558 0.09755537 -0.0812522 0.017045157
-0.04908376 -0.11136498 -0.016306065 -0.17667781 -0.13770208 -0.09177381 -0.05814802 0.032203462
-0.080464825 0.0032710715 0.148444 0.06077913 -0.049338337 -0.016785357 -0.06254936 -0.052633543
-0.12620676 -0.007426515 0.004172761 -0.114965014 -0.05378959 0.027815675 -0.043300126 0.07364509
0.006223339 -0.0026244656 -0.022932686 0.017648894 -0.04772076 0.08103186 0.016570348 0.08310453
-0.022694437 0.086762056 0.048543274 -0.007573885 -0.08148738 -0.027104892 0.026813367 0.07135522
0.06659806 0.020977339 -0.018346786 -0.051782224 0.026415307 -0.063929796 0.043941025 -0.03825309
0.007361284 -0.057563417 -0.05754119 -0.011470556 0.019575909 0.09603472 -0.05898294 -0.081458114
0.057593007 -0.005782035 -0.016657371 -0.0995127 -0.01595425 0.070761144 -0.019112632 0.13378306
0.14061834 0.15447213 -0.10992605 -0.1393135 0.050564438 0.03567805 0.05806479 0.0032323059
0.1402268 0.16161703 0.099322274 0.017023897 0.002413948 -0.054853495 0.089940354 0.07332423
0.0013062769 -0.05160096 0.032653995 0.09091662 0.0904909 -0.026503332 0.14140521 -0.08542104
0.058107447 0.029776106 -0.06936029 0.06449318 -0.04951605 0.11702487 -0.039823152 0.058851838
0.039324936 0.07672867 -0.103845716 -0.13418534 -0.08828775 -0.009666302 0.018403454 0.0037537515
0.06421741 -0.019762002 0.06552499 0.039853558 0.031198127 0.0063917027 0.09595845 -0.04969702
-0.049479935 0.07184316 0.040928103 0.036411904 -0.12869067 -0.110226616 -0.0036793724 -0.006438037
-0.03352324 0.10658503 0.09231548 -0.012694488 -0.08620934 -0.033365145 0.030407835 0.11381901
-0.040295612 -0.0052935523 -0.04150733 0.061458964 -0.0007009685 0.054554764 0.03506286 0.03985568
0.08331405 0.039007023 -0.04427954 -0.0591567 -0.0638949 -0.056717496 -0.07701283 -0.035272576
-0.0074303043 -0.050075214 0.04723865 -0.009588982 -0.06320588 -0.06591643 0.07980411 0.060225945
-0.025809845 0.018942479 -0.0535817 -0.08383852 0.0021331343 -0.00043735222 0.020222215 0.11378172
00000000: 5aa8 bfbd a27a a7bb fc5e c43d 0056 c73d
00000010: 4061 f33c 8ba3 b0bd f21e 11bd c81c a1bd
00000020: 78a1 14bd 4e52 5ebc d0ce f53c b1ce 973d
00000030: 3411 5fbd f081 69bd e2cc da3c 2211 4dbc
00000040: 2309 c0bc a4de d73c fd80 ef3c 4d38 623d
00000050: c223 3abd 6a44 b7bc a91e 983d 5431 5e3d
00000060: f2cc 8cbd 7e9d c0bd fde6 77bd 4c1a 6ebd
00000070: 9b77 673d d0ad 3abd df20 c1bd fd72 d1bd
00000080: b179 2f3d 2577 7bbd fa3a 19bc 6ef6 67bd
00000090: e9a9 a6bb 7af7 aabd 428b 3bbd 539b 0fbd
000000a0: 75fd bfbd 086d 11bd fc7c f9ba de7c a9bd
000000b0: 8ad1 a63d 7264 77bd f24b d23d 6dbc 453d
000000c0: c02d 3cbc 54ef e93c 7f34 74bd b711 5c3c
000000d0: de14 b33c cd5c 863d 1561 073c 5c95 8d3d
000000e0: 4d8d 30bd ae01 88bc 64db 073c 887d bf3d
000000f0: db5e 793d 193b ccbb dcd0 9039 cd2a a4bc
00000100: e037 583d 4ab8 9fbd 2de2 a8bc 4186 96bd
00000110: 36af ccbd 6d28 8abd d9a9 b0bd 1972 7ebc
00000120: f03d 51bd e649 90bd 89b1 a8bd 230f cbbb
00000130: 4d3c 23bd 868f 2ebd fdee a43d 3e56 8fbd
00000140: cf21 76bd 0205 883c f1e8 d0bd 73cd af3d
00000150: e607 2d3d 5269 e5bc c610 99bd b40a 5fbb
00000160: 8822 513d a96a 423d 977e 74bb fa13 0abc
00000170: bc31 aebd 1ccb c73d 8e67 a6bd 49a2 8b3c
00000180: 0d0c 49bd 5313 e4bd 4c94 85bc 07eb 34be
00000190: c601 0dbe e8f3 bbbd 9e2c 6ebd c7e7 033d
000001a0: beca a4bd 795f 563b b401 183e 89f3 783d
000001b0: ff16 4abd 7281 89bc e119 80bd 4596 57bd
000001c0: 583c 01be 205a f3bb a8bb 883b c772 ebbd
000001d0: 7952 5cbd b3dd e33c 795b 31bd 3dd3 963d
000001e0: 27ed cb3b 3aff 2bbb 54dd bbbc 6a94 903c
000001f0: d876 43bd 08f4 a53d 8abe 873c b532 aa3d
00000200: afe9 b9bc 4eb0 b13d 50d5 463d 5a2e f8bb
00000210: dbe2 a6bd 140b debc b5a7 db3c b022 923d
00000220: 9064 883d abd8 ab3c 004c 96bc 9919 54bd
00000230: ea64 d83c a0ed 82bd 81fb 333d 46af 1cbd
00000240: ed36 f13b 9ec7 6bbd 50b0 6bbd 00ef 3bbc
00000250: a85d a03c daad c43d 1898 71bd 83d3 a6bd
00000260: a5e6 6b3d 3a77 bdbb 0a75 88bc 51cd cbbd
00000270: 7db2 82bc 38eb 903d 1892 9cbc 6dfe 083e
00000280: 41fe 0f3e f12d 1e3e e920 e1bd 33a8 0ebe
00000290: a81c 4f3d 2623 123d 58d5 6d3d 18d5 533b
000002a0: 9d97 0f3e ef7e 253e 7a69 cb3d b375 8b3c
000002b0: 5433 1e3b 0fae 60bd a632 b83d 042b 963d
000002c0: 6137 ab3a 875b 53bd 32c0 053d 7e32 ba3d
000002d0: 4b53 b93d 841d d9bc 87cc 103e 3af1 aebd
000002e0: 1302 6e3d 05ed f33c c50c 8ebd 0015 843d
000002f0: 57d1 4abd bcaa ef3d 9a1d 23bd a00e 713d
00000300: 2f13 213d ec23 9d3d 10ad d4bd e267 09be
00000310: 35d0 b4bd 695f 1ebc d7c2 963c 8001 763b
00000320: 6b84 833d ece3 a1bc f731 863d 7c3d 233d
00000330: 3793 ff3c 7d71 d13b dd85 c43d 1a8f 4bbd
00000340: 79ab 4abd 8222 933d 3aa4 273d a624 153d
00000350: 7dc7 03be 7ebe e1bd a021 71bb 2bf6 d2bb
00000360: aa4f 09bd 4149 da3d e60f bd3d 8bfc 4fbc
00000370: 868e b0bd e4a9 08bd da19 f93c f119 e93d
00000380: 030d 25bd 8975 adbb 9703 2abd 65bc 7b3d
00000390: 33c1 37ba d174 5f3d 139e 0f3d b63f 233d
000003a0: 8fa0 aa3d d4c5 1f3d 775e 35bd 4c4e 72bd
000003b0: 54db 82bd 9b50 68bd e7b8 9dbd fa79 10bd
000003c0: e979 f3bb ab1b 4dbd 517d 413d 1b1b 1dbc
000003d0: 1672 81bd 31ff 86bd 5670 a33d 7baf 763d
000003e0: 2b6f d3bc 422d 9b3c 7c78 5bbd 88b3 abbd
000003f0: 0ecc 0b3b 6c4c e5b9 0fa9 a53c 6406 e93d

5.bias f4 [32]
-0.031162178 0.003816217 0.06700276 -0.088865645 0.062050097 -0.06333562 0.12231106 -0.08818316
0.030080866 0.03828625 -0.08226973 -0.10476256 -0.0062526725 0.12501276 -0.08503822 -0.07208248
0.04951026 0.051237244 -0.062121525 -0.037710536 -0.08417014 -0.09144723 0.043231655 0.07205957
0.049148466 0.11203145 0.003028456 0.05347692 0.24539638 0.16104375 -0.028580151 -0.0939916
00000000: d347 ffbc 7f19 7a3b be38 893d 31ff b5bd
00000010: 3e28 7e3d 1bb6 81bd 397e fa3d 5f99 b4bd
00000020: 266c f63c 0bd2 1c3d 087d a8bd c18d d6bd
00000030: 38e3 ccbb 5803 003e 8528 aebd fb9f 93bd
00000040: 45cb 4a3d 25de 513d 2473 7ebd 5d76 1abd
00000050: 6561 acbd af48 bbbd ad13 313d f893 933d
00000060: e74f 493d bf70 e53d 0f79 463b 9d0a 5b3d
00000070: 3049 7b3e a7e8 243e ec20 eabc ab7e c0bd

7.weight f4 [32, 32, 3]
-0.09340203 0.04038206 0.079697266 0.1240364 0.038484104 -0.011934118 0.04043322 0.15483378
0.08214515 0.100197986 -0.0004967566 0.055503223 0.11193063 0.07431452 0.15397327 0.01154763
-0.040305983 -0.08332703 -0.03995546 -0.00032204457 -0.003702969 -0.04867398 0.09595978 -0.0003192256
-0.023251142 0.08026996 0.03058758 -0.10196022 0.049208473 0.0947367 0.043636277 0.026468761
-0.05889213 -0.018560551 -0.063769795 -0.04731209 -0.021413112 -0.020770969 -0.06640954 -0.08597815
-0.046074796 -0.07044428 -0.05906548 0.019485602 -0.08434246 0.050774954 -0.00039932708 -0.08085163
0.17471582 0.19923677 -0.011246023 0.08849566 0.012790853 0.1127671 -0.0053939032 0.06208419
0.040005185 0.012209174 0.040017877 0.036404576 -0.029118378 0.0021037806 0.04658946 0.005553546
-0.112715274 0.005669984 -0.11057023 -0.09960705 -0.033474427 0.031284638 0.10492476 0.09992415
-0.046939883 -0.08922358 -0.036413234 -0.0028101665 -0.049247876 0.0103752185 -0.03131843 -0.011684164
0.021215582 0.0839475 0.0036174685 0.08367935 0.3764534 0.33123603 0.35918722 -0.05453129
-0.11384752 0.034067318 0.16633663 0.028506938 0.15921874 -0.10318774 0.016443344 -0.07558668
-0.08587319 -0.07874763 -0.001305486 0.06113699 0.12728763 0.13128424 0.071418405 -0.059559174
-0.01957822 0.0037675581 0.043072566 0.025611268 0.1332061 0.11814609 0.06730081 0.048836656
0.05841273 -0.004438496 0.07119966 0.11047291 0.0072716745 0.05947728 0.08329014 0.022034558
0.035857026 0.06134454 -0.08322384 0.00858945 -0.011748696 -0.063440025 0.021686405 0.07243987
-0.10049862 0.014993226 -0.04408703 -0.031042397 -0.11636712 -0.10041243 -0.049909107 -0.07021296
0.055946574 0.07380326 -0.009680299 0.03572996 0.08416258 -0.06331872 -0.0070292433 0.012573139
-0.025364496 0.057936087 -0.05141041 -0.026096776 -0.011192786 0.15723538 -0.096899055 0.06612008
0.06009106 -0.034399338 -0.00026959594 -0.065618224 -0.04356637 0.060016084 0.075176835 0.035971526
0.07484638 -0.029761406 -0.004244636 0.025775738 -0.09586333 0.10729497 0.10451249 0.06900254
0.047020152 -0.014110532 -0.008334755 0.09229632 -0.02840692 0.07484031 0.03651209 -0.09086264
0.0974387 -0.06437461 0.019502636 0.03725289 0.21012303 0.21619496 0.21280785 -0.037262537
-0.05930094 0.014696994 0.1440161 -0.031489193 -0.0032634588 -0.07584033 -0.069910124 0.07062309
0.08524067 -0.048429318 -0.030595494 -0.051892143 -0.062332906 -0.08059025 -0.08505238 -0.082656905
-0.03389062 -0.011376351 0.06635954 -0.0015742767 -0.1322124 -0.13109651 -0.049169183 0.042884383
0.028036026 0.07914586 -0.00068178726 0.09292035 0.15872745 -0.069457285 0.08472103 0.007986363
0.057092864 -0.03141239 0.031444006 0.028006552 0.030305693 -0.042544708 0.04951371 0.01810383
0.08144219 -0.03737086 0.079041354 -0.0018170407 -0.009048684 -0.030089868 -0.017679157 0.13024291
0.08178507 0.04551767 -0.06852334 -0.09114197 -0.070020646 0.07015074 -0.051906552 -0.050190706
-0.06896072 0.049429905 -0.121736765 -0.005536039 0.017862419 -0.12989865 -0.032841854 -0.020801885
-0.07557504 0.032289878 -0.023205452 -0.02508422 -0.084280334 0.055826068 0.058080114 -0.07244068
00000000: 9049 bfbd a967 253d 5238 a33d cc06 fe3d
00000010: 82a1 1d3d 5287 43bc 4e9d 253d bf8c 1e3e
00000020: b73b a83d 9a34 cd3d c538 02ba 5957 633d
00000030: e33b e53d 3632 983d 2bab 1d3e 4532 3d3c
00000040: e317 25bd 5da7 aabd 56a8 23bd 17d8 a8b9
00000050: 83ad 72bb 5e5e 47bd 9086 c43d bc5d a7b9
00000060: 2e79 bebc 9464 a43d ce92 fa3c 85d0 d0bd
00000070: d38e 493d 5105 c23d f4bb 323d 04d5 d83c
00000080: e038 71bd 4c0c 98bc bd99 82bd 52ca 41bd
00000090: 8d6a afbc e127 aabc ba01 88bd 5015 b0bd
000000a0: edb8 3cbd 1745 90bd a5ee 71bd 45a0 9f3c
000000b0: bdbb acbd 66f9 4f3d c65c d1b9 8a95 a5bd
000000c0: b4e8 323e b904 4c3e 3d41 38bc 363d b53d
000000d0: ba90 513c 70f2 e63d 57bf b0bb fe4b 7e3d
000000e0: 7adc 233d fd08 483c c9e9 233d f71c 153d
000000f0: aa89 eebc 95df 093b 97d4 3e3d 85fa b53b
00000100: 44d7 e6bd 46cb b93b a572 e2bd c8fe cbbd
00000110: 7b1c 09bd 5224 003d cbe2 d63d 08a5 cc3d
00000120: 0944 40bd daba b6bd 0b26 15bd c52a 38bb
00000130: 24b8 49bd d2fc 293c c147 00bd f06e 3fbc
00000140: 4dcc ad3c abec ab3d 0d13 6d3b 1460 ab3d
00000150: 80be c03e c597 a93e 63e7 b73e 345c 5fbd
00000160: e328 e9bd 2c8a 0b3d 2654 2a3e 6287 e93c
00000170: 3d0a 233e 1854 d3bd 31b4 863c 30cd 9abd
00000180: 48de afbd 7046 a1bd d71c abba c86a 7a3d
00000190: b057 023e 606f 063e d043 923d 52f4 73bd
000001a0: 8162 a0bc 23e9 763b dc6c 303d b9ce d13c
000001b0: 2e67 083e 94f6 f13d 02d5 893d f208 483d
000001c0: 3042 6f3d ce70 91bb 21d1 913d 9f3f e23d
000001d0: 3a47 ee3b 739e 733d 0594 aa3d d181 b43c
000001e0: d1de 123d 6a44 7b3d 4371 aabd c4ba 0c3c
000001f0: 9a7d 40bc d8ec 81bd b0a7 b13c 5b5b 943d
00000200: 38d2 cdbd 26a6 753c 9a94 34bd a04c febc
00000210: e251 eebd 08a5 cdbd 7e6d 4cbd d0cb 8fbd
00000220: 3c28 653d 2a26 973d 1e9a 1ebc 9459 123d
00000230: 6e5d ac3d 3fad 81bd 9155 e6bb 91ff 4d3c
00000240: 34c9 cfbc 644e 6d3d b993 52bd e8c8 d5bc
00000250: f261 37bc 5002 213e 0373 c6bd f769 873d
00000260: 0b22 763d 52e6 0cbd 8e58 8db9 d962 86bd
00000270: a672 32bd 6dd3 753d 50f6 993d e156 133d
00000280: 0f49 993d 31ce f3bc 9616 8bbb a427 d33c
00000290: fe53 c4bd 77bd db3d a50a d63d 3451 8d3d
000002a0: 3498 403d dc2f 67bc 7f8e 08bc da05 bd3d
000002b0: a1b5 e8bc e045 993d b48d 153d 3116 babd
000002c0: f18d c73d d6d6 83bd fec3 9f3c 7d96 183d
000002d0: 7e2a 573e 3662 5d3e 4dea 593e 9aa0 18bd
000002e0: 8be5 72bd a9cb 703c f578 133e d0fa 00bd
000002f0: c1df 55bb 2d52 9bbd 0a2d 8fbd d7a2 903d
00000300: a992 ae3d d25d 46bd 67a3 fabc db8c 54bd
00000310: ca50 7fbd 800c a5bd f12f aebd 0648 a9bd
00000320: e4d0 0abd e063 3abc 83e7 873d f657 ceba
00000330: b062 07be 2a3e 06be a065 49bd 89a7 2f3d
00000340: cfab e53c 3a17 a23d f8b9 32ba 064d be3d
00000350: 7389 223e 9f3f 8ebd 3882 ad3d 3cd9 023c
00000360: 35da 693d 47aa 00bd 6ecb 003d ff6d e53c
00000370: a543 f83c 5c43 2ebd e3ce 4a3d 7c4e 943c
00000380: 2acb a63d 3012 19bd 6fe0 a13d c529 eeba
00000390: ee40 14bc 077f f6bc e1d3 90bc 665e 053e
000003a0: ee7e a73d bd70 3a3d f755 8cbd a4a8 babd
000003b0: fc66 8fbd 31ab 8f3d f79b 54bd c594 4dbd
000003c0: 473b 8dbd 0377 4a3d 2051 f9bd a967 b5bb
000003d0: 3554 923c 2704 05be 2e85 06bd b768 aabc
000003e0: 16c7 9abd 6442 043d 5c19 bebc 6c7d cdbc
000003f0: 2b9b acbd e0a9 643d 6ae5 6d3d c75b 94bd

7.bias f4 [32]
0.21535397 0.073655255 0.2849328 0.13867205 0.124948785 0.08329292 -0.15572116 0.15759832
-0.078093216 -0.082690164 0.071090154 0.11545959 -0.031719003 -0.075098924 0.12549514 -0.045624606
0.021971585 -0.11841603 -0.08792482 0.17514552 -0.10097295 -0.09219853 -0.050517745 0.0062791086
0.2859464 -0.029114934 0.053919338 0.04756019 0.13138455 -0.014233376 0.15940581 0.14112711
00000000: c085 5c3e 91d8 963d b6e2 913e 0c00 0e3e
00000010: 26e5 ff3d 7a95 aa3d 5e75 1fbe 7461 213e
00000020: 56ef 9fbd 7659 a9bd b797 913d 1476 ec3d
00000030: c9eb 01bd 77cd 99bd cc81 003e dee0 3abd
00000040: c1fd b33c 1b84 f2bd ee11 b4bd 5959 333e
00000050: e8ca cebd 95d2 bcbd b2eb 4ebd fbc0 cd3b
00000060: 9167 923e 7182 eebc 86da 5c3d 79ce 423d
00000070: ac89 063e 1b33 69bc 473b 233e a083 103e

10.weight f4 [30, 960]
-0.023860293 0.012889558 0.012906551 -0.027164374 0.013127545 0.048766974 0.027800484 0.003160192
0.024012748 0.010134141 0.0053964746 0.0043793754 -0.013719288 0.015468452 0.009896084 -0.011136125
-0.05310984 0.01640675 0.032093793 -0.007874699 -0.0075494586 0.02372728 -0.004582559 -0.011749244
0.033030406 0.0021505551 0.01804481 0.015509359 0.028869366 -0.016084502 0.004283124 -0.02397033
-0.019927267 -0.022671385 0.004799952 -0.009072542 0.03603671 0.025236873 -0.015116961 -0.0019645407
0.005002287 -0.0017212839 -0.011609274 0.005832312 0.024951646 -0.0056537623 -0.03678647 -0.027823785
-0.0050747283 0.038983267 0.046079475 -0.008108393 0.019708836 0.024190329 -0.0112165455 -0.0019748034
0.04103012 -0.013615692 0.048794657 0.026332872 0.0022519447 0.002297683 0.0066882684 -0.00015508296
-0.0026868172 -0.026829885 -0.006526735 0.023930341 -0.0040528025 -0.0045613283 -0.017076666 0.04241498
0.00014422917 0.046858985 0.0015082639 0.025069471 0.030893683 -0.02308404 0.018091755 -0.013659379
0.0047337217 -0.035412658 -0.03651088 0.01564633 -0.032731883 -0.013925162 -0.017430624 -0.051053666
-0.040240373 -0.016922263 0.0135855405 0.010420457 -0.034090403 0.01992394 0.015982969 -0.033896253
-0.0046403985 -0.029263616 -0.013159158 -0.0037189152 0.005979335 0.023005791 0.002477909 0.034184754
-0.009188874 -0.015861155 0.004309013 -0.008136543 -0.0026296983 0.0028746072 -0.037877966 -0.021145279
0.015603627 -0.026276227 0.0064192424 0.0014940649 -0.0150256045 -0.026935602 -0.038531605 -0.016784204
-0.02662654 -0.010020777 -0.012019026 0.015278041 -0.011884707 -0.0043099406 0.015744025 -0.012123852
0.031653903 -0.023665791 -0.027468136 0.009111884 0.005775507 -0.027147096 -0.012073077 0.023530496
0.008273733 0.0017647765 0.0034452784 -0.023254463 0.011913652 0.008132902 -0.046867274 -0.0030995999
-0.0038816272 -0.006263461 -0.021875478 -0.03231993 -0.00086090283 0.0017231366 -0.034203626 0.00018055708
0.02387291 -0.013552787 -0.008197859 0.010594064 0.003696633 -0.020538107 0.01943957 0.023224246
0.017729567 0.0039579305 -0.028505748 -0.00018894079 0.004156374 0.014227357 -0.02888093 0.003762264
-0.0034567667 0.029120876 -0.031369414 -0.016288841 -0.03176686 -0.016504047 0.023408286 -0.02578245
0.0018332114 -0.025755644 0.022716897 -0.0007291116 0.01055172 0.021587295 0.009508992 0.0026007097
0.039382383 0.03616067 0.044950943 0.011989233 0.0048515066 0.00367145 0.0021908537 0.027587451
-0.019158196 0.0053167837 0.0024856576 0.0029684482 -0.01876263 -0.0355127 0.008942511 -0.026508862
-0.01201401 0.009610819 -0.016865067 0.025273198 0.0049185525 -0.03607763 -0.029740293 -0.0005771553
0.029189246 -0.020670287 -0.030002307 0.009230287 -0.021074843 -0.031254902 -0.01236464 -0.012786141
-0.027969992 0.0021450515 -0.0140982075 -0.018401107 -0.028718237 0.023352673 -0.022412516 -0.013628532
0.0014733786 -0.010530522 0.024218926 0.038396474 0.041657712 0.012977439 -0.01578893 0.0238537
0.0065955524 -0.005154824 0.009755623 0.03201744 -0.021926554 -0.007593068 -0.0010963863 -0.017165141
0.02791321 -0.005318337 -0.027165359 0.015289299 0.02909489 -0.005575809 -0.006489203 0.019832276
-0.0143350195 0.001049224 0.013873081 0.024667012 0.027483579 -0.025322637 0.012567217 0.030484824
00000000: a976 c3bc ba2e 533c 0076 533c d287 debc
00000010: ea14 573c e1bf 473d d7bd e33c 391b 4f3b
00000020: 62b6 c43c ab09 263c e9d4 b03b dd80 8f3b
00000030: ddc6 60bc 646f 7d3c 2f23 223c 4b74 36bc
00000040: b489 59bd 7367 863c c874 033d e204 01bc
00000050: 7361 f7bb b65f c23c 4b29 96bb e77f 40bc
00000060: e44a 073d 54f0 0c3b b6d2 933c f71a 7e3c
00000070: 737f ec3c a5c3 83bc 7359 8c3b 6d5d c4bc
00000080: 823e a3bc 57b9 b9bc ea48 9d3b 00a5 14bc
00000090: 3b9b 133d 8fbd ce3c 21ad 77bc 86bf 00bb
000000a0: 3aea a33b b49c e1ba d334 3ebc fb1c bf3b
000000b0: 6567 cc3c 3243 b9bb 69ad 16bd b5ee e3bc
000000c0: e849 a6bb ebac 1f3d d5bd 3c3d 11d9 04bc
000000d0: 6d74 a13c cc2a c63c 9ac5 37bc b46b 01bb
000000e0: 330f 283d 5a14 5fbc e8dc 473d 09b8 d73c
000000f0: 5d95 133b b994 163b 4329 db3b c49d 22b9
00000100: 5015 30bb 59ca dbbc 39de d5bb 9009 c43c
00000110: 5fcd 84bb 3277 95bb 5de4 8bbc 54bb 2d3d
00000120: 393c 1739 35ef 3f3d f0b0 c53a 7e5e cd3c
00000130: c014 fd3c be1a bdbc 2935 943c 97cb 5fbc
00000140: 561d 9b3b dd0c 11bd 6f8c 15bd bb2c 803c
00000150: de11 06bd 5d26 64bc abca 8ebc a61d 51bd
00000160: 17d3 24bd 8fa0 8abc e395 5e3c 91ba 2a3c
00000170: 61a2 0bbd 8837 a33c b7ee 823c ccd6 0abd
00000180: 7c0e 98bb 40ba efbc 8299 57bc 0bb9 73bb
00000190: 4cee c33b a476 bc3c 6a64 223b 5005 0c3d
000001a0: ee8c 16bc 41ef 81bc 9f32 8d3b 234f 05bc
000001b0: 0457 2cbb e863 3c3b ed25 1bbd dd38 adbc
000001c0: 5ba6 7f3c 3e41 d7bc 8258 d23b 80d4 c33a
000001d0: f42d 76bc 0da8 dcbc 51d3 1dbd 077f 89bc
000001e0: e71f dabc 2f2e 24bc 73eb 44bc c050 7a3c
000001f0: 13b8 42bc 673a 8dbb 9df9 803c 1fa3 46bc
00000200: 86a7 013d c3de c1bc db04 e1bc 034a 153c
00000210: 7740 bd3b 9663 debc 28ce 45bc 07c3 c03c
00000220: 8d8e 073c 1350 e73a 2eca 613b 2580 bebc
00000230: 7a31 433c dd3f 053c e6f7 3fbd a822 4bbb
00000240: e662 7ebb b83d cdbb 3434 b3bc e761 04bd
00000250: 36ae 61ba dfda e13a 1a19 0cbd ec53 3d39
00000260: 1f91 c33c 820c 5ebc 5050 06bc ba92 2d3c
00000270: 3643 723b 883f a8bc bc3f 9f3c c640 be3c
00000280: 993d 913c 87b1 813b e384 e9bc 681e 46b9
00000290: 3132 883b dc19 693c b397 ecbc 5190 763b
000002a0: ec8a 62bb e78e ee3c 377d 00bd 2d70 85bc
000002b0: f81d 02bd 7f33 87bc bcc2 bf3c b735 d3bc
000002c0: 5e48 f03a 80fd d2bc c918 ba3c da21 3fba
000002d0: 1fe1 2c3c d7d7 b03c 9acb 1b3c ab70 2a3b
000002e0: 6c4f 213d 361d 143d 7b1e 383d 7d6e 443c
000002f0: 63f9 9e3b b69c 703b 6d94 0f3b 14ff e13c
00000300: a6f1 9cbc 6a38 ae3b 6ae6 223b 4c8a 423b
00000310: 16b4 99bc c475 11bd 9c83 123c 1d29 d9bc
00000320: 69d6 44bc b276 1d3c 9c28 8abc bd09 cf3c
00000330: cf2b a13b 23c6 13bd eaa1 f3bc 3d4c 17ba
00000340: 491e ef3c bc54 a9bc 66c7 f5bc a13a 173c
00000350: 26a5 acbc 2405 00bd 0f95 4abc f67c 51bc
00000360: 5321 e5bc fe93 0c3b 2bfc 66bc ebbd 96bc
00000370: 8242 ebbc 1b4e bf3c 749a b7bc 354a 5fbc
00000380: 621e c13a 3688 2cbc c566 c63c 9f45 1d3d
00000390: 47a1 2a3d 539f 543c c957 81bc d668 c33c
000003a0: 811f d83b cce9 a8bb 0cd6 1f3c b824 033d
000003b0: 519f b3bc 45cf f8bb 9fb4 8fba e99d 8cbc
000003c0: 3faa e43c 7245 aebb e389 debc f87f 7a3c
000003d0: 6858 ee3c 47b5 b6bb 61a3 d4bb 4c77 a23c
000003e0: 6edd 6abc 1e86 893a eb4b 633c 7912 ca3c
000003f0: 3e25 e13c 6b71 cfbc bbe6 4d3c 4fbb f93c

10.bias f4 [30]
-0.004298261 -0.05703549 -0.030011762 -0.020090528 -0.007017266 -0.058121733 -0.036152538 -0.04280662
-0.0029958165 -0.023016844 0.01163793 0.017387053 0.020459052 0.01880799 0.032899037 0.00662798
-0.011842294 0.03859443 -3.5579644e-05 0.04056966 0.07601064 0.037118405 0.04416462 0.016902277
0.027105838 0.07942171 0.06312672 0.04829994 0.032060754 0.048786987
00000000: 6dd8 8cbb 0c9e 69bd 3adb f5bc e494 a4bc
00000010: 18f1 e5bb 0e11 6ebd af14 14bd ff55 2fbd
00000020: 7655 44bb d28d bcbc 04ad 3e3c 4b6f 8e3c
00000030: be99 a73c 3713 9a3c 24c1 063d 872f d93b
00000040: 2e06 42bc 3115 1e3d 5a3b 15b8 5f2c 263d
00000050: 77ab 9b3d 7809 183d f6e5 343d a576 8a3c
00000060: 100d de3c d9a7 a23d 9548 813d 28d6 453d
00000070: 2352 033d ddd4 473d
