notebooks/model-4000.pt (torch, 164551 bytes, 10 tensors)

1.weight f4 [32, 1, 7]
000000 af d7 02 3e da 0b 66 be 7d ac 88 be 0f ef 00 bf
       0.1277759 -0.22465459 -0.26694098 -0.50364774
000010 e1 c8 bf bd d0 f9 f5 be 9f 22 95 3d 64 a3 0e be
       -0.093644865 -0.48042154 0.07281994 -0.13929516
000020 ea a3 9d 3d 4b 38 de bd 5b e8 05 bd 46 ec c3 3e
       0.0769728 -0.10850581 -0.032692295 0.382662
000030 0d d4 13 be f4 37 ce be 76 43 b3 3e d8 78 61 3e
       -0.1443636 -0.40277064 0.35012406 0.22018754
000040 4d 18 fe bd 6c 41 13 3f 22 3a 66 be 40 59 91 bf
       -0.12406979 0.575217 -0.22483113 -1.1355362
000050 2b 24 35 3d a5 38 0e bf a4 bd 16 be 31 5d b1 be
       0.044223946 -0.5555518 -0.1472078 -0.34641412
000060 12 7a 2e be 0c 62 ff 3d c6 dd 0d 3f 67 be d6 3e
       -0.17038754 0.12469873 0.55416524 0.4194214
000070 83 4e b0 3f a8 d4 7d 3f 44 7a c1 3e cd 5f c5 be
       1.377396 0.9915261 0.37788594 -0.38549653
000080 44 e9 56 be 51 7c 7f bf 5e 8b 31 bf 00 0f 1a 3e
       -0.20987421 -0.99799067 -0.6935328 0.15044785
000090 cb d7 69 be 79 29 12 bf 76 d9 1a 3f 6a 2c 5f 3e
       -0.22836225 -0.5709453 0.6048807 0.21794286
0000a0 cd 25 9f 3b c0 0b a0 3d 11 fc a9 be 90 5d 80 3e
       0.004856801 0.07814741 -0.33200124 0.25071383
0000b0 57 a1 ea 3e 0c 31 2f 3c 68 04 20 be 88 fb 35 bf
       0.45826218 0.010692846 -0.15626681 -0.7108693
0000c0 00 84 90 bc 0c 1a c3 bc cc c8 f2 3e 0d 60 e7 bd
       -0.017641068 -0.023816131 0.4741882 -0.11297617
0000d0 11 11 40 3e ee 66 93 3e 3a de 37 be a6 37 f2 be
       0.1875651 0.28789467 -0.17955866 -0.4730808
0000e0 68 7c 85 3d 57 c7 c2 3c 5b 07 a7 bd 4d ac 00 be
       0.06517869 0.023776693 -0.081557 -0.12565728
0000f0 df b1 77 bd 53 e1 c2 bd a7 1e cf bc 7d c2 9f bf
       -0.060472365 -0.095156334 -0.02528317 -1.2481228
000100 ba d7 b0 be 7f b5 de be f7 82 39 bf 1d b6 b4 3c
       -0.34539586 -0.43497846 -0.7246546 0.022059495
000110 bf 2e 22 be 9a 16 33 3f 04 1c 9d be 3d 2c 35 3e
       -0.15838145 0.6995636 -0.30685437 0.17692657
000120 9e 1e 9f 3d 86 b7 2e 3f 76 79 84 3e e5 d1 9e bd
       0.07769512 0.68248785 0.25873917 -0.07754878
000130 3a b8 00 bd 98 a4 5f 3e 92 6e a8 3e 45 ad 43 3e
       -0.031425692 0.21840131 0.32896858 0.19109066
000140 a0 56 92 bd a3 e6 f5 3d 4d b0 37 bc 92 c9 0e bf
       -0.07145429 0.12006881 -0.011211467 -0.5577632
000150 b1 55 a8 3b d8 1a ad 3e 73 ef 6a be ce ad f2 3d
       0.0051371683 0.33809543 -0.22942905 0.11849557
000160 70 67 20 3c 7b 65 6e be 5e d8 00 be 5d df d1 3e
       0.009790286 -0.23280899 -0.12582538 0.40990725
000170 93 a3 cd 3e 6d 55 9a 3e 8d c2 b0 3e b9 53 f2 bd
       0.4016386 0.301433 0.3452343 -0.11832375
000180 de ca 3a bf 94 28 13 bb d4 e3 29 be 03 d3 94 be
       -0.729658 -0.0022454606 -0.16590816 -0.2906724
000190 27 5d 91 be 43 bd 60 be 67 26 a5 3e d9 16 b0 be
       -0.28391382 -0.21947198 0.3225586 -0.3439243
0001a0 da 0a 09 3e e7 6c 94 bd 8b 9e 9e 3e a8 9a 7d be
       0.13383046 -0.07247334 0.30980334 -0.24766028
0001b0 3e 84 21 3d 25 d3 f4 3e dd d3 b1 bd c9 d9 93 3e
       0.039432757 0.4781734 -0.08682988 0.28877094
0001c0 fb ec b9 be a6 f9 d6 bd 70 ee 27 bf c3 f2 8b 3e
       -0.36313614 -0.104968354 -0.655982 0.2733365
0001d0 39 8f e7 3e da 39 ef 3e b9 ef 6c 3c 8b 56 58 3e
       0.45226458 0.46723825 0.014461451 0.21126764
0001e0 ff e7 8f 3d ca bb b2 3e aa 89 ba 3e 7f 30 10 3f
       0.070266716 0.34908897 0.36433154 0.56324
0001f0 68 91 04 bf 0a e8 ca bd 03 8c ea be b4 45 22 be
       -0.5178437 -0.09907539 -0.45809945 -0.15846902
000200 0f ef 79 3d 80 ff d7 3e 45 97 ab be 61 6e 56 be
       0.061019 0.4218712 -0.33513847 -0.20940544
000210 31 ab ba 3e 37 b5 64 bd d5 f1 df bd f2 fb c3 3d
       0.36458734 -0.055836882 -0.10934798 0.09569539
000220 b8 01 0f 3b 05 3e a3 3e f3 c8 3e be f0 ce bb be
       0.0021821093 0.31883255 -0.18631344 -0.36681318
000230 be d0 4d 3e b2 83 84 bd e9 a5 3b 3f 3d 35 14 bf
       0.2009916 -0.064704314 0.73300034 -0.57893735
000240 fa 4c ef 3d ca 1a 21 3e d2 f2 77 be e8 61 b5 3d
       0.11684604 0.15732875 -0.24213722 0.08856565
000250 7c 0e 26 bf 2f b2 32 be f8 2c 72 bf dc 3f 97 3d
       -0.6486585 -0.17450784 -0.94599867 0.07385227
000260 53 bd 76 3f a7 d6 01 be be 21 f2 be f0 36 0c bf
       0.96382636 -0.1267954 -0.47291368 -0.5477133
000270 51 32 17 bf 11 dc a2 bc 38 c4 13 3e ad 21 07 bc
       -0.5906115 -0.019880326 0.1443032 -0.008247775
000280 0b 74 34 be 2f 55 04 3e f6 aa 99 be da 86 c0 3e
       -0.17622392 0.1292312 -0.30013245 0.37602884
000290 54 d3 fa bd d1 42 c2 bd 4f f7 02 be 18 c7 e9 3e
       -0.12247339 -0.094854005 -0.12789653 0.4565971
0002a0 7d 1f e5 3d bd ec b4 3d 97 15 8b 3d 1e de 6f be
       0.111876465 0.08834217 0.06791227 -0.23424575
0002b0 5e 2c 84 3e ca 1b c7 bd 00 80 a5 3e 82 27 88 3d
       0.258151 -0.09722097 0.3232422 0.066481605
0002c0 46 08 6e 3e 98 a5 a3 3b 43 ba c9 bd 24 87 26 be
       0.23245344 0.0049941055 -0.0984998 -0.1626249
0002d0 94 f0 b3 be f7 5a b1 bc 68 27 0d bf 38 75 3c be
       -0.35144484 -0.02164982 -0.55138254 -0.1840409
0002e0 8a 57 c7 3e 87 1e 0a 3e cd d9 c8 be 4e 67 14 3e
       0.38933975 0.13488208 -0.3922867 0.14492533
0002f0 8d 57 3d 3e d4 98 fd be 30 e3 40 bf d3 f8 93 bf
       0.18490429 -0.4953066 -0.7534666 -1.156031
000300 b0 c0 94 be bc 66 0e bf ec a1 05 bf cc 85 25 be
       -0.2905326 -0.5562551 -0.522002 -0.1616432
000310 c9 c2 3c 3e f9 ec 17 3f 43 9e d1 3e 3d d5 0d bf
       0.1843368 0.59345967 0.40941057 -0.554035
000320 fd 52 43 bf ad b2 62 3d 39 52 75 3d f7 e0 24 3d
       -0.76298505 0.05534618 0.059892867 0.040253606
000330 e0 66 ed bc 36 8e f3 be 9c 9d 8e 3e 96 c6 9c 3e
       -0.028979719 -0.47569436 0.2785462 0.3062026
000340 30 bc 95 3e a0 87 28 3e 26 95 bc 3e ab 73 45 3e
       0.29245138 0.16457987 0.3683254 0.19282405
000350 28 26 01 bd 36 f4 a6 be 04 46 0f 3f c8 39 ef be
       -0.03153053 -0.32608193 0.5596621 -0.4672377
000360 cc 3a 08 be 51 cb 96 bf 50 2d d5 bf a8 61 06 3e
       -0.13303679 -1.1780797 -1.6654453 0.1312319
000370 03 cf 4f 3f 70 a2 8a 3f d4 44 d3 be 75 74 42 3c
       0.8117525 1.0830822 -0.4126345 0.011868586

1.bias f4 [32]
000000 b1 48 cf 3d 44 c6 1b 3e 8d b8 76 3e 88 c0 da 3c
       0.10121287 0.15212351 0.24093838 0.026703134
000010 71 c4 51 3e 5c 39 ff 3d 61 a0 1a bd ac 7c 47 3e
       0.20485093 0.12462112 -0.037750605 0.19481152
000020 0e 7a 12 be 1d e1 9d 3c 55 d3 bf be 8f 24 c7 be
       -0.14304373 0.019272381 -0.3746592 -0.3889508
000030 cd e8 1f be e7 9a a6 3e dc 37 90 be fa 6b 04 bf
       -0.1561615 0.32540056 -0.28167617 -0.5172726
000040 8c 5b 6a 3c 74 e4 59 be d7 71 61 3e af 4d a7 be
       0.014304053 -0.21278554 0.22016083 -0.32676455
000050 f6 94 95 3d 23 75 12 be a4 82 58 3e 6e 30 a7 be
       0.07303803 -0.14302497 0.21143585 -0.32654136
000060 db 35 03 be b3 ce e9 bd c1 2e da 3d 7d fc 66 bd
       -0.12813513 -0.11416378 0.10653449 -0.056393135
000070 ab 53 59 3e bd 2a 1f be aa 17 c5 3d cd cf 6f be
       0.21223323 -0.15543647 0.09623654 -0.23419113

3.weight f4 [32, 32, 5]
000000 9b f4 8f bd ee a3 8a 3d 8f 0b cf bc e0 ee 48 3d
       -0.07029077 0.06769548 -0.025274066 0.049055934
000010 2b 48 5d 3b 4c 8f 10 3c 16 9d 85 3b 8b de 6f 3c
       0.003376494 0.008823227 0.004077564 0.014640461
000020 e7 d5 41 3d 01 79 5b bd 61 50 47 3c f5 5f 33 bd
       0.047323134 -0.053582195 0.01216516 -0.043792684
000030 90 50 6d 3c 4c 5e 72 3c a5 7a 38 3d d9 76 e0 bc
       0.01448454 0.01479299 0.045038838 -0.027400421
000040 c1 4d 4d bc 4a 15 77 3c 47 24 f5 ba 80 f1 0b ba
       -0.012530745 0.015080759 -0.0018702828 -0.00053384155
000050 fe 33 96 bd 45 fc 04 bd 7d ba 3f 3d cd e6 e0 bc
       -0.073341355 -0.032467145 0.04680871 -0.027453804
000060 26 98 0f bb 51 68 95 3d 06 1c 38 bd 77 c5 2b bd
       -0.0021910756 0.072952874 -0.0449486 -0.041936364
000070 29 75 52 bd 69 9b 7d bd cc b7 99 bd 3a b8 e9 3c
       -0.051381264 -0.06191579 -0.075057596 0.028530229
000080 cf 03 82 bd a8 39 77 3d 97 4b 23 3d f1 48 77 bd
       -0.06348383 0.06035772 0.03986701 -0.060372297
000090 7f 89 20 3d 8b 6c fb bc da 78 61 bd 00 36 47 bd
       0.039193626 -0.030691406 -0.055046894 -0.048635483
0000a0 85 b2 56 3c 93 a8 ef 3c ac 2e 86 3d 0d 83 30 bc
       0.013104086 0.029255187 0.06551871 -0.010773432
0000b0 8b 45 e0 bc b6 17 dd 3c 6d 36 9a bd 9b 8b 1b bd
       -0.02737691 0.026988845 -0.07529912 -0.037974935
0000c0 ff d4 b8 3c 64 d4 36 bd 54 c2 02 3d 05 4f 5e bd
       0.022562502 -0.044636145 0.031923607 -0.054274578
0000d0 08 29 f1 3c a0 68 74 bd 60 35 94 bd 42 bf e1 bc
       0.02943851 -0.05967009 -0.07236743 -0.02755702
0000e0 d0 cd eb 3c 24 c9 f6 bc 98 97 21 3d 0b a4 84 bb
       0.028784662 -0.030125208 0.03945121 -0.0040478758
0000f0 4d 97 7f bd f1 ec 8e 3d 52 fe 91 3c 5a c6 6c 3d
       -0.06240015 0.06978787 0.017821465 0.05780635
000100 19 cd 58 3d 69 89 29 bd 32 8a 8d bd 49 2e 47 3d
       0.05292997 -0.04139081 -0.06911124 0.048628125
000110 04 9c bb 3c e5 8e 95 bd 59 e1 1a bd 68 a9 6c bd
       0.022901542 -0.073026456 -0.037812565 -0.057778746
000120 92 47 5a bd c0 88 99 bd c8 61 31 bd d4 73 96 3d
       -0.05329091 -0.07496786 -0.043306142 0.07346311
000130 a9 a0 91 bd 9c 3a 65 bd 01 a4 23 bd 34 eb 77 3d
       -0.071107216 -0.055964097 -0.03995133 0.06052704
000140 a9 2b 46 bd 22 21 4a 3d b8 9c 99 3d e2 c5 2a bc
       -0.04838148 0.049348004 0.07500595 -0.0104231555
000150 e5 c6 74 3d 0b 1e 8a bd ef 0d 56 3d 7c 52 cb 3c
       0.059759993 -0.067440115 0.05225938 0.024819605
000160 72 b6 6d 3c 5a 8d 0b 3d ff a2 0d bd 4f 5e 9a 3c
       0.01450883 0.03407035 -0.034579273 0.018843798
000170 a8 9b 1b 3d b8 be 61 3d 66 5f 27 bc 49 0d 93 3d
       0.037990242 0.055113524 -0.010215616 0.07180268
000180 58 af e2 bc ff cf 90 bc 9e 5b 1a 3d 84 43 1c 3d
       -0.027671501 -0.017677305 0.03768503 0.038150325
000190 41 ad 55 bd cb 3b 05 bd 57 2d 4a bd a4 d3 07 3c
       -0.05216718 -0.032527726 -0.049359646 0.008290205
0001a0 be 4b 40 3d 8a 5c 2a 3d a7 5b 6f 3d d0 08 9e bd
       0.046947233 0.04159216 0.058437016 -0.077165246
0001b0 79 87 13 bd 18 41 08 bd 5e 27 9f 3d 98 7b 47 3d
       -0.03601787 -0.033265203 0.077711806 0.048701853
0001c0 90 1c 86 bd cb 62 1c 3b 9e ba 10 3d dc dd 93 bd
       -0.065484166 0.0023862596 0.035334222 -0.07220051
0001d0 cf 9a 92 bc be d6 88 3d 4f 17 85 bb 39 72 70 bc
       -0.017896084 0.06681584 -0.0040616165 -0.01467567
0001e0 8f d5 01 3d 9c 17 77 3c 08 b0 98 3d 8f c7 b5 3c
       0.031697806 0.0150813125 0.0745545 0.022189884
0001f0 4e ee 6d bd 15 94 27 3d 31 ce 68 3d eb 05 9a 3d
       -0.058088593 0.040912706 0.056837264 0.0752066
000200 9b dd 3e 3d 79 cd 7f 3d 14 bb 44 bd 52 29 87 3a
       0.04659806 0.062451813 -0.048029974 0.0010311997
000210 99 c4 06 3d bc 68 00 bd f7 0c 37 3c 66 8a 84 3d
       0.032902334 -0.031349882 0.011172525 0.0647171
000220 0e e4 b7 3c e5 fb 4d bd 4f 68 92 bd fe dc 2c 3c
       0.022447612 -0.050289053 -0.071488015 0.0105507355
000230 a7 a2 25 3d 24 a7 0b bd c2 89 95 bd 96 ba 9b bd
       0.04043832 -0.034094945 -0.07301666 -0.07603948
000240 4e 82 20 3d 21 2f 4d bd 18 3f 2a bc 7b 77 fc bc
       0.03918677 -0.050093774 -0.010391019 -0.030818691
000250 d2 0d ef bc a0 b0 56 bd f3 28 9e bd 57 b9 87 3d
       -0.029181395 -0.052414536 -0.07722654 0.06627148
000260 4b c6 0e bd 38 66 8f 3b 2b 89 29 bc 5b 7c 5e bd
       -0.034857076 0.004376199 -0.010347645 -0.054317813
000270 70 a7 35 bd 18 91 8f 3c 26 e6 04 3d 25 fe 1c bc
       -0.044349134 0.01752524 0.03244605 -0.009582077
000280 b5 93 04 3d b6 27 a1 bd 3e 4e 35 bc 6e 8a 74 3d
       0.032367427 -0.078689024 -0.011066018 0.05970233
000290 b6 0d 28 3d af ce da bc 77 c4 dc bc 6c 65 9a 3c
       0.0410287 -0.026709883 -0.02694915 0.01884719
0002a0 63 80 9a 3d ba e5 ec 3b a4 b3 84 bd 20 10 1d 3d
       0.07544019 0.007229534 -0.06479576 0.038345456
0002b0 83 b3 31 3c e8 09 12 3d 06 b0 13 3d da ce 6c 3d
       0.010846022 0.03565398 0.03605654 0.057814457
0002c0 68 b9 12 3d 7a 09 33 bd 6a 08 92 bd 2e 08 c9 b9
       0.03582135 -0.04371021 -0.07130511 -0.00038343802
0002d0 6b 82 85 bd a5 60 0a bd 52 f8 85 3a 10 ea 4f bd
       -0.06519016 -0.033783574 0.00102211 -0.05076033
0002e0 3c ed 0b bd 1f 59 4b 3d f6 89 f7 bc d4 87 6e 3d
       -0.03416179 0.04964554 -0.030217152 0.058235005
0002f0 60 89 79 3d b2 2f 88 3d 58 2e 2b bd e4 52 90 3d
       0.060922027 0.06649722 -0.041792244 0.0704706
000300 a5 94 be 3c 9c f5 87 3d c7 ac 95 3d 67 02 54 3d
       0.023264239 0.06638643 0.07308345 0.051760104
000310 5f 02 64 bd 1d b1 01 bc d1 fa 8a bd cb 34 22 bd
       -0.055666324 -0.007915762 -0.06786121 -0.03960113
000320 39 e5 41 bd 3c 00 8f bd 25 75 01 3b 19 34 99 3d
       -0.047337744 -0.069824666 0.0019753661 0.0748064
000330 3d 3e cb bc 44 58 2f 3d fa 67 53 bd 7d 4f f5 bc
       -0.024809951 0.042808786 -0.05161283 -0.02994513
000340 2b f3 8e bb e1 ad 9c bd f6 76 9c 3d 98 9e 1d bd
       -0.004362484 -0.07650352 0.076398775 -0.038481325
000350 b5 45 3e bd 45 9c 01 3d 24 10 9a bb ad 88 d3 3c
       -0.046453197 0.03164317 -0.004701631 0.025822008
000360 0d 59 b3 bc 71 93 7e 3d 78 f7 14 3c ff ad 72 3d
       -0.021893049 0.06215233 0.009092204 0.059247967
000370 c0 2d 7f 3d 39 a8 76 bd 5c 86 0b 3d 67 97 33 bd
       0.06229949 -0.060219023 0.034063682 -0.04384556
000380 80 4f 2f 3d 7f 2e 69 bd 0f a8 07 bd 2f ca 2d bd
       0.042800426 -0.056929108 -0.033119258 -0.042429145
000390 fe 63 97 bd 17 00 c0 bc 1f 9f 52 bd c9 2a 20 3d
       -0.07392119 -0.023437543 -0.05142128 0.039103303
0003a0 d7 b3 7a 3d 81 f1 a5 bc 7a 85 8c 3d de 60 40 bd
       0.061206665 -0.02025676 0.06861396 -0.04696738
0003b0 fa 10 6c 3d 87 2b 63 bd 9a c5 22 3b 72 7b 8c 3c
       0.057633378 -0.055461433 0.0024837018 0.017148707
0003c0 90 d7 1c bd 11 c3 0d bd e4 32 cf 3c 0f 25 c1 bc
       -0.038291514 -0.034609858 0.025292821 -0.023577241
0003d0 f4 9a 9a bd a8 1b ea 3c 4e e8 18 3d e4 09 3b bd
       -0.07549086 0.02857764 0.037330918 -0.04566373
0003e0 d0 bc 3c bd 80 79 21 3d 22 d7 8d bd 43 c0 46 3d
       -0.046078503 0.039422512 -0.06925799 0.0485232
0003f0 94 17 6c bd c5 75 34 3d d0 55 40 bd 48 64 a1 3c
       -0.057639673 0.044057626 -0.046956837 0.019701138

3.bias f4 [32]
000000 38 96 94 bd 7e b9 19 bd b6 47 6b 3e 41 35 bd bc
       -0.072552145 -0.037530415 0.22976574 -0.023096683
000010 08 5b 07 bd 9a c5 d9 3d 9b d3 81 3e 66 a8 85 be
       -0.0330458 0.10633393 0.25356755 -0.2610504
000020 87 ca 45 3e f6 6a 50 3e 1c 26 34 3e f4 3d e7 bd
       0.1931554 0.20353302 0.17592663 -0.112911135
000030 db bd 58 3e d4 97 e5 ba 59 6c f8 3d a1 d6 67 3d
       0.21166174 -0.0017516562 0.12130041 0.05660117
000040 72 e0 8e 3b 4a 17 62 bd 0c c1 ef be 8a 83 9f 3e
       0.004360252 -0.05519799 -0.4682697 0.31155044
000050 c5 f4 83 3e 10 2b b9 3d 0f 8d 90 3e 46 1f 10 3d
       0.25772682 0.09041417 0.2823262 0.035186075
000060 f1 f4 1e 3c f7 91 b7 3d 74 2c 4a 3e f4 c7 94 3c
       0.009701953 0.089633875 0.1974352 0.018161751
000070 0c 65 85 be 45 7f b4 3d 29 8f 4c 3d 78 b6 0d 3d
       -0.26053655 0.08813337 0.049941216 0.034597844

5.weight f4 [32, 32, 3]
000000 53 b1 15 3d b7 3c bf bd 33 72 bc 3a fb 62 54 bc
       0.036546063 -0.09337752 0.0014377296 -0.012963052
000010 e9 f1 be 3d 55 37 f3 3c ba 01 40 3e 1e ac 26 3e
       0.093234845 0.02968947 0.18750659 0.16276595
000020 40 53 9d 38 7f 82 2f 3e a9 cb 1d 3e 4e 74 22 3d
       7.50185e-05 0.17139624 0.15409721 0.039661698
000030 c4 fc c0 bd 74 56 43 3c cc e4 99 3d 60 2c 23 3e
       -0.09423211 0.0119224675 0.07514343 0.15934896
000040 20 15 68 3d 86 47 58 3d 0e b3 c1 3d 1f 73 1e 3d
       0.05666077 0.052802585 0.0945798 0.038684007
000050 bc ef 31 bd cf e3 fb bc a9 de bb bd d2 19 13 bd
       -0.04344152 -0.030748276 -0.091733284 -0.035913296
000060 0a 36 fa 3d 7b 8d 34 3e 7b 99 b3 bd 9f 53 84 bd
       0.122173384 0.17632096 -0.087695085 -0.06461262
000070 9c 03 d4 bd 7c 7f 13 bd f7 af bf 3d b2 b8 06 3d
       -0.10352251 -0.03601025 0.093597345 0.032890983
000080 c2 9f 32 3e fc ab b2 3d a8 2b c2 bd 6a 11 b4 bd
       0.17443755 0.0872421 -0.09480983 -0.08792384
000090 c9 15 8b bb 16 f6 b0 bd 8c 16 58 bb 98 06 9f bd
       -0.0042445404 -0.08640687 -0.0032972423 -0.077649295
0000a0 7c 42 b2 3c cf 2f a2 bb 62 a2 12 3e d5 24 e3 3d
       0.021760218 -0.004949547 0.14319757 0.110910095
0000b0 2f dc 80 3d b2 4e 1c 3e 34 7d cd bc c2 8d b1 3c
       0.06291997 0.15264395 -0.025084116 0.02167404
0000c0 4b 8c 03 bd b4 8d a4 bc ac 3f cd 3d fd b4 29 be
       -0.032116216 -0.0200871 0.1002191 -0.16572948
0000d0 b6 0c 0f be 66 01 f0 3b 58 77 3f be 52 ad 79 bd
       -0.13969693 0.0073243855 -0.1869787 -0.060956307
0000e0 92 b1 04 bd d6 fa 63 3e 6e 23 c6 3d b4 b9 84 bc
       -0.032395907 0.22263655 0.096747264 -0.016201831
0000f0 60 0b 4f 3e bf 62 2c 3d 53 1d 0c be a4 c8 04 be
       0.20219183 0.04208636 -0.13683061 -0.12967163
000100 a3 3c f2 bc e5 8c 3f be f3 f0 74 bc 36 0f b0 bd
       -0.02956993 -0.18706091 -0.014950025 -0.08596651
000110 fb 12 06 bd 34 37 92 3b e3 5a b3 3d e0 62 ee bb
       -0.032732945 0.004462147 0.0875757 -0.0072749704
000120 0a 7a 2c bd 8b c8 77 bd 16 0f 60 bd ec cc d5 ba
       -0.042108573 -0.060493987 -0.054701887 -0.0016311682
000130 df be 1c 3e 24 85 34 3e 16 3c 14 3e bf 7f 35 bd
       0.15307187 0.17628914 0.14476046 -0.04431128
000140 0e dc 4d 3e d5 01 0d bb 26 d6 17 3d d5 b3 94 bd
       0.20103475 -0.0021515985 0.037069462 -0.07260863
000150 9c 7b 1c bd 0e 43 fb 3b 02 e1 04 bd 42 8d b0 bd
       -0.03820382 0.0076679057 -0.032441147 -0.08620693
000160 c3 7b 90 3d 50 91 aa 3d 56 0b eb 3c 77 bc 6b bd
       0.07054856 0.083284974 0.028691929 -0.05755278
000170 55 a2 00 3e 88 e8 f3 3d 15 1f b3 bd 38 f7 27 3d
       0.12561925 0.11909586 -0.08746163 0.04100725
000180 ed 19 ca 3d 17 42 14 3d ac 41 a6 3c 17 47 6a bd
       0.09868226 0.03619584 0.020294987 -0.057196703
000190 4b b3 7d bd 49 13 2c bd e8 20 1f 3d b9 3d 8f 3d
       -0.061938565 -0.04201058 0.03884974 0.069941945
0001a0 2f e7 8c 3d d0 d2 79 bd 63 ab 01 3e 42 47 a0 3d
       0.06880032 -0.060992062 0.12663035 0.07826091
0001b0 c6 a1 cd 3d 49 ee 85 bd 5a 09 54 bd ed 7d bc 3d
       0.100406215 -0.0653959 -0.05176673 0.09203706
0001c0 1b d2 2b 3d 1b 44 74 bd 00 46 91 3c cc e6 06 3c
       0.04194842 -0.059635263 0.017733574 0.008233737
0001d0 98 66 84 bd 50 20 21 3c 45 c1 f4 bb 4c 30 6f bd
       -0.06464881 0.009834364 -0.0074693286 -0.05839567
0001e0 08 0d ae bb 8a 17 9d 3c c4 6b 70 bd ca 81 23 3e
       -0.005311612 0.019176263 -0.058696523 0.1596748
0001f0 32 2d 0f 3e e2 ef 1d bd ec 12 a7 3c 4b b0 c5 bc
       0.13982084 -0.03855885 0.020394765 -0.024131915
000200 f2 39 a8 bc b8 4e 3d 3d 59 56 df 3d 2c 07 dc 3c
       -0.020535443 0.04621765 0.109051414 0.026858889
000210 8a 7b 9c bd 79 95 2c 39 90 b0 45 bd cd de 32 bd
       -0.07640751 0.00016458881 -0.048264086 -0.04366951
000220 2f 5d f4 3c 46 de 7c bd bb eb 80 3d b2 18 61 3b
       0.02982959 -0.061735414 0.06294962 0.0034346995
000230 20 9e 41 3d ba 4b bb bc 42 89 a3 bc f1 eb 00 3c
       0.04726994 -0.022863258 -0.01996291 0.007868753
000240 c1 47 03 3d 4d 7b b2 3b f7 85 8d bc 71 01 4b bd
       0.03205085 0.0054468275 -0.017275793 -0.04956192
000250 29 e4 be bd e3 86 80 3b 11 d4 92 3c b9 8d de bd
       -0.09320862 0.0039223297 0.017923387 -0.10866875
000260 97 1d 94 bc ba 43 7b bd d5 86 b0 bd 24 a3 c3 3d
       -0.018080516 -0.061343886 -0.08619467 0.09552601
000270 45 3c a8 3d 65 f3 ee 3d 00 c1 f5 3d b3 a6 1c bc
       0.082146205 0.116675176 0.119997025 -0.009561229
000280 cc 65 83 3d 42 00 09 be f0 6f f7 3c a7 47 aa 3d
       0.064159006 -0.13379005 0.030204743 0.08314448
000290 65 28 53 bc f3 7b 6a bd 2a 70 74 bd b0 f6 c5 3d
       -0.012888049 -0.057247113 -0.05967728 0.096661925
0002a0 b7 2c a1 bb b1 12 50 3d 9e 3c c2 bc aa 23 e5 bc
       -0.0049186605 0.050799076 -0.023710545 -0.027971108
0002b0 cd 56 f6 bd aa cd e3 3c 84 05 4b bd 54 9f ba bd
       -0.12028275 0.02780803 -0.049565807 -0.09112421
0002c0 9f bb 5b 3d 60 c7 8f 3d 7d 76 35 bd bf 77 85 bd
       0.053645726 0.0702045 -0.044302452 -0.065169804
0002d0 24 38 1d 3c 6b c9 a0 3c 5e f3 c2 bc f0 8c 45 3c
       0.0095959045 0.019627294 -0.023797687 0.012057528
0002e0 3b fd 3f bd 62 8a 11 3c 91 ca 8b 3d 10 62 47 bc
       -0.04687236 0.008883091 0.06825746 -0.012169376
0002f0 bc 62 bf bd 70 7d d6 3c 9f b1 9c bd f3 2c 86 bd
       -0.09345004 0.02618286 -0.07651066 -0.06551542
000300 0d d8 ee bc c1 be 80 3b a5 90 8e 3c 09 f2 ab 3c
       -0.029155755 0.0039289896 0.017402956 0.020989435
000310 0d 51 c8 bd b0 36 2a bd 3a 2f 1c 3e 9e 3c 05 3e
       -0.09781084 -0.04155606 0.1525239 0.13011405
000320 ea a9 0d 3e e6 14 a1 3d f7 88 27 bd f6 e1 80 3c
       0.13834348 0.07865314 -0.040902104 0.015732747
000330 3d 82 4e bd 6a 13 29 bc 13 50 15 3c 88 12 4c bd
       -0.050417174 -0.01031957 0.009113329 -0.04982236
000340 6f 9e 38 3c 54 1c 37 3c b7 50 20 3e ed a6 ab 3d
       0.011268242 0.011176188 0.1565579 0.08381448
000350 aa 93 7f 3d 01 e7 85 3d 89 b7 65 3b e1 73 d4 3d
       0.062396683 0.06538201 0.0035052022 0.10373665
000360 3d 39 13 bd da 20 41 3d 74 f0 33 bb 18 a6 39 3d
       -0.03594326 0.04715047 -0.0027456554 0.045324415
000370 b3 16 b5 bd 19 e9 0f be 92 14 80 bd 00 3c 4d bd
       -0.0884222 -0.14053763 -0.062539235 -0.05010605
000380 da 86 1f 3d dc 63 34 bd cc 2d b5 3c 70 fa 30 3d
       0.038946964 -0.044040546 0.022116564 0.043207586
000390 ec 3d 8a 3e 34 dd 54 3d 52 4b af 3c d4 73 3f 3d
       0.27000368 0.05196877 0.02139822 0.04674132
0003a0 40 c9 14 3d 45 57 8d bc fb f9 45 bc 7b 83 87 ba
       0.03632474 -0.017253527 -0.012083526 -0.0010338867
0003b0 a9 e9 ab bd f1 1a 1e 3e 5e dc 0d bc 7e 0e f7 bd
       -0.083941765 0.15439965 -0.008658497 -0.12063311
0003c0 cc 16 b7 3d f4 0f 93 3c 38 45 95 3d b4 3a ce bb
       0.08939895 0.017951943 0.07288593 -0.006293619
0003d0 ef 31 28 bd c6 4b c8 bd 2c f3 96 3e 3e 74 0a be
       -0.041063245 -0.09780078 0.294824 -0.13520905
0003e0 da 1a 39 bd 44 ad 05 be e0 02 36 3d 36 4c 6c bd
       -0.045191623 -0.13054377 0.044436336 -0.057689868
0003f0 f1 26 e7 3d eb 49 40 3e a3 49 21 be 90 25 7f be
       0.11286724 0.18778197 -0.15750746 -0.24916673

5.bias f4 [32]
000000 7a 62 71 3d f1 0d ad bc 1b a3 de 3c 3c e9 26 3d
       0.058931805 -0.021124812 0.027177384 0.040749773
000010 9d 45 ba 3d 1b 75 38 3d 5d aa 2e 3e ea 21 b8 bd
       0.09095309 0.045033555 0.17057176 -0.089908436
000020 8d 01 b4 3a 24 fc 12 3e 25 a3 99 bd b8 ff 0a be
       0.0013733372 0.14353997 -0.075018205 -0.13574111
000030 7b d5 ec 3d 2c 7b 88 bd f3 9e c3 3d f7 6f 69 3d
       0.11564156 -0.06664118 0.095518015 0.056991544
000040 38 2a 88 3d 7a 64 3a 3e 3f 40 a6 bc 99 72 c5 bd
       0.066486776 0.18202391 -0.020294307 -0.096409984
000050 8a d0 67 3c 48 42 0c be a2 1a a9 bd 90 e6 03 3e
       0.014148841 -0.1369716 -0.08257033 0.12880921
000060 3d c2 63 3e 52 c8 0c 3d 8c e4 2a 3d b5 48 2a 3e
       0.22242065 0.034370728 0.041721866 0.16629298
000070 11 0c 81 3d 5a 1b a4 3c 25 49 4a 3e 7a 56 23 3d
       0.063011296 0.020032573 0.19754465 0.039877392

7.weight f4 [32, 32, 3]
000000 a4 f9 07 3d 1f 36 bc 3d 0e 2f 58 bd 6f e7 a3 3d
       0.03319706 0.0919001 -0.05277925 0.08003127
000010 b8 ed 88 3d 4b 88 f4 bb a2 8f d7 3d 00 f6 32 bd
       0.06685966 -0.0074625365 0.10525443 -0.043691635
000020 b2 f5 91 bd 28 c3 de 3c 0b c1 2f bd fa 12 67 3d
       -0.07126941 0.027192667 -0.04290871 0.05641458
000030 59 63 83 bd 64 f6 5e 3a bd e6 b1 3c 54 b2 27 3c
       -0.064154334 0.0008505343 0.02171647 0.010235388
000040 db e0 6b 3d a0 dd b8 bd 8b 69 df 3c 35 40 1e 3d
       0.057587486 -0.090266466 0.027272006 0.03863545
000050 64 2e 6b 3d 4c 41 cd 3d 82 24 c4 bd 19 04 91 3c
       0.05741729 0.1002222 -0.09577276 0.01770215
000060 59 08 23 bd 11 1d 32 bd eb 36 c1 3c 8f c3 9d 3d
       -0.039802883 -0.04348475 0.023585757 0.077033155
000070 f0 9c 19 3e a5 6e d5 3d 32 7c a3 bd 9b 2e b0 3c
       0.15001273 0.104214944 -0.07982673 0.021506598
000080 77 4e 5f 3c 57 b3 e4 3b 9c 9a 93 3d a5 3d a7 3d
       0.013629547 0.006979387 0.07207224 0.08166055
000090 c1 d4 89 bd 0c 65 2e 3e 2d 10 48 3d a0 2c 63 bd
       -0.06730033 0.17030734 0.04884355 -0.05546248
0000a0 93 35 68 3e cf cb a7 3d fe b8 fe bb e4 9a 1d be
       0.22676687 0.0819317 -0.0077735176 -0.15391117
0000b0 5a 4d 52 bd a3 ee d6 bd b2 bc ec bd 95 b3 0b be
       -0.0513433 -0.10494735 -0.11559428 -0.13642724
0000c0 db d8 1e 3c b6 aa f3 bd bf a6 47 bb a9 80 13 bd
       0.009695257 -0.11897795 -0.0030464379 -0.03601137
0000d0 1c b3 aa 3d 16 64 80 bd f5 c3 de bd 52 38 83 3d
       0.08334944 -0.0626909 -0.108772196 0.064072266
0000e0 e7 5c eb bd 24 a3 2b 3d a9 bc 85 bc 9e 58 08 3d
       -0.11492329 0.04190363 -0.016325312 0.033287637
0000f0 bd 42 a6 3a 67 34 75 3d 1a 25 b3 3d 5c a5 89 3d
       0.0012684684 0.059864428 0.08747311 0.06720993
000100 06 47 aa 3d ef 5e b4 bd 48 01 61 3d 21 0a 65 bd
       0.08314328 -0.0880717 0.054932863 -0.055917863
000110 0d e5 b5 bd cd dd 07 bd 1d 9c 43 3a ec 7a 92 bc
       -0.088815786 -0.03317051 0.00074619224 -0.01788088
000120 0c 73 c2 bd 2d cd 41 bd 8f ef 5a 3d 50 0f e8 3d
       -0.094946 -0.04731481 0.053451117 0.11331046
000130 8a 04 54 3d 94 0f f0 3d a2 26 48 bd d4 e5 95 3d
       0.05176214 0.11721721 -0.048864968 0.07319227
000140 d2 2f 0e 3d 8d a4 f0 bc 07 e2 70 bd eb 98 9d 3d
       0.034713574 -0.029375339 -0.058809306 0.076951824
000150 7a ba ba bd 3e 7b 16 3e eb 92 af bd 73 7c 25 bd
       -0.09117599 0.1469545 -0.08572944 -0.040401887
000160 ed c4 80 3d 99 66 34 3c d4 1d 50 3d 61 a9 e8 bc
       0.062875606 0.011010789 0.050809696 -0.028401079
000170 74 42 6f bd 8d a4 4d 3d b1 0e ca 3c 7f f5 f0 3c
       -0.058412984 0.050205756 0.024665209 0.029413937
000180 a4 c3 83 bd 9f 58 9d 3d e7 0a bd 3d eb ad cb 3d
       -0.064338 0.07682919 0.09230595 0.099452816
000190 c3 94 e8 bd 86 a9 7b bd ee 35 38 bd 9f 80 c0 bb
       -0.11356499 -0.061440967 -0.044973306 -0.005874708
0001a0 3c 12 27 be 84 19 7f bd 16 b5 db bc f4 74 0d bd
       -0.1631555 -0.062280193 -0.026819747 -0.034535363
0001b0 f5 65 a3 bc 92 31 ad bd 55 08 80 3d 05 3b 82 bd
       -0.019946078 -0.084567204 0.06251589 -0.06358913
0001c0 91 9a 9e 3d 82 fe c1 3d 95 48 06 be ce 20 19 be
       0.07744325 0.09472372 -0.13113625 -0.1495392
0001d0 b2 05 29 be c1 e1 62 3c ae de 98 bd 87 15 b3 3d
       -0.16506079 0.013847769 -0.07464348 0.087443404
0001e0 75 cf 29 bc 0c ad 73 3c 46 7f aa bd 32 96 e5 3e
       -0.010364403 0.014872801 -0.08325057 0.44841152
0001f0 17 8c f3 3e 25 0c c7 3e ad 9d f0 3d 3a 30 b7 3d
       0.47567818 0.38876453 0.11748824 0.08944745
000200 d1 27 79 3c ba f4 51 3c 76 b6 12 bd 5e 98 97 3a
       0.015207247 0.012814695 -0.03581854 0.0011565795
000210 d8 e8 fe 3d b1 00 30 3e bf 1c 10 3e b5 ed af 3e
       0.12446755 0.17187764 0.14073466 0.34361044
000220 bf aa ca 3e 6f a5 a3 3e e1 9a b7 bd 2c 77 63 3d
       0.39583394 0.31962153 -0.08965088 0.055533573
000230 71 1c 4b bd 6e 46 b2 3d 45 39 68 3d e3 49 0f bd
       -0.04958767 0.0870484 0.05669524 -0.034982573
000240 fe 32 8b bd c1 22 17 bd fd 13 29 be 13 49 13 be
       -0.06796835 -0.03689838 -0.16511531 -0.14383344
000250 82 2c a2 bd e8 e8 b9 bd 0c 7c b1 bb ba 36 58 3d
       -0.079186454 -0.090776265 -0.005416399 0.052786566
000260 8e af 0e 3d 11 ee c6 bd 5c d9 ba bd 0b ea 24 3d
       0.03483539 -0.09713376 -0.09123489 0.040262263
000270 79 3a 9f 3d 2e 31 05 3d 2f f8 55 3d 8f fb 0e 3e
       0.07774825 0.032517605 0.05223864 0.1396315
000280 55 5f dd 3c bb 83 f1 3c 5d 3a 34 3c 8d 84 64 be
       0.027022997 0.02948176 0.011000243 -0.22316189
000290 b2 e9 c5 bd bd b8 49 bd 9f 7d bd 3d 1b 6f 09 bd
       -0.096637145 -0.049248446 0.09252476 -0.033553224
0002a0 49 d8 19 be 4e 31 50 bd 3e f6 09 be 2b 65 2d be
       -0.15023912 -0.05082827 -0.1347284 -0.16933124
0002b0 ba d1 1f be f0 fd ba bb 07 b1 1a 3e 17 88 d6 3d
       -0.15607348 -0.0057065412 0.15106593 0.10475176
0002c0 a9 29 2e 3d 21 6b e0 bd 40 cb c1 bc 7f 95 5c bc
       0.0425202 -0.10957933 -0.023656487 -0.013463377
0002d0 d2 ea 1e 3e 87 f4 01 3e c5 56 95 3d 59 e6 1c 3a
       0.15519264 0.12690936 0.072919406 0.0005985252
0002e0 bb aa 0f bd 1f 3f e3 3d 04 ab d8 3b f1 60 1f bd
       -0.03507493 0.11096024 0.0066121835 -0.03891081
0002f0 ac 06 09 3d 23 65 8f bd 4c 87 bd 3d 3f eb 2e 3d
       0.03345363 -0.07001712 0.092543215 0.042704817
000300 6a 58 1e bd 7a aa 4f bd e8 6a 62 3d 2a 7c 62 3d
       -0.038658537 -0.05069969 0.055277735 0.055294193
000310 35 f8 b0 3d 5c 8d b7 3c 5a 01 e3 3d 0e c9 67 bd
       0.08641092 0.022406273 0.11084242 -0.056588225
000320 15 ad 71 3c a3 0d eb bc 27 91 c6 bd 5b 09 74 3d
       0.014750739 -0.028693026 -0.09695654 0.059579235
000330 2d af e9 bb 2c ad 69 bd 9c 72 00 bd ac a2 bd bc
       -0.0071314783 -0.057049915 -0.0313593 -0.023148857
000340 23 31 62 3d 30 b9 8b 3d 48 90 ba bc eb c7 a9 bc
       0.05522264 0.06822431 -0.022773877 -0.020725211
000350 e5 b3 91 3c 5d ac 6c bd c5 0a 7a bd 2e fd a2 bd
       0.017785976 -0.057781566 -0.061045427 -0.079584464
000360 06 30 27 bc 64 c0 73 bc fd 6d 3b 3d f3 33 8f bd
       -0.010204321 -0.0148774125 0.04575919 -0.069923304
000370 44 86 b1 3c e5 d4 1e bd 71 3d c4 bd b5 97 75 3d
       0.021670468 -0.03877725 -0.095820315 0.059959132
000380 0a 2b 97 bd aa a5 84 3d c1 e0 67 3d b6 00 5a bd
       -0.07381256 0.064769104 0.056610826 -0.053223334
000390 b3 d8 28 be 8b a8 03 bb b5 b7 00 be bf 30 ce bd
       -0.16488914 -0.0020089473 -0.12570079 -0.10067891
0003a0 dd ee f0 bd 60 42 f8 bd 62 ed 26 bd c3 c5 89 3b
       -0.117643096 -0.12122035 -0.04075373 0.0042044832
0003b0 11 b1 9a bd 0e 49 1f 3e d2 f9 ef bc fe b9 35 3d
       -0.07553304 0.15555212 -0.029293928 0.04436683
0003c0 bd 59 aa 3d b0 18 0e 3c a7 d0 be 3d 2f b3 24 3d
       0.083178975 0.008672878 0.09317141 0.040209945
0003d0 cf b4 54 3d d4 cf a5 3d 10 9d b1 3d 9b e2 81 bc
       0.051930245 0.08096281 0.086725354 -0.015855124
0003e0 38 35 bf bb 64 17 cd 3d a9 a0 f7 b9 0c 93 ae 3d
       -0.0058352016 0.10014227 -0.00047231212 0.08524141
0003f0 51 af 4c 3d bf 8d f2 bc 87 2a 40 3d 4e bc c9 3c
       0.049971882 -0.029608605 0.046915557 0.024625923

7.bias f4 [32]
000000 fb 86 6f be 14 6e 3a bd 60 cd 3e 3e b2 f5 6e 3d
       -0.23391335 -0.045515135 0.18633032 0.058339782
000010 11 45 37 3d 13 53 0e 3e 81 ed a7 3d c4 13 d2 3c
       0.0447436 0.13898878 0.08199597 0.02564419
000020 42 bb b3 bd aa e0 3e bd c0 e6 50 3e 6b 23 d6 bc
       -0.08775951 -0.046600975 0.20400524 -0.026139935
000030 3d 7b 38 3d ad a6 5d 3e 67 92 57 3e ca 30 fe 3b
       0.045039404 0.21645613 0.21051942 0.007757281
000040 17 36 31 bc 7e 1e 1a 3e d3 6f 70 3d 3c 96 88 3e
       -0.010816119 0.15050694 0.058700394 0.2667712
000050 e0 34 29 3e 62 93 34 3e 32 5b d4 bd b0 01 71 be
       0.16524076 0.17634347 -0.103689566 -0.235358
000060 8c 3e e1 bd 39 da 66 bd 5d 24 8e bd f4 34 63 3e
       -0.10998258 -0.056360457 -0.069405295 0.22188169
000070 f8 b9 a3 bd fe 9e 76 3d 1c 4d 64 3e 05 f7 6d 3e
       -0.07994455 0.06021022 0.2229504 0.23238762

10.weight f4 [30, 960]
000000 30 2f c4 bc 22 b8 0c 3d 98 3c 23 bd 92 38 4a 3b
       -0.023948282 0.03435529 -0.03985271 0.0030856472
000010 4f c7 7c 3c 6b 16 05 bc cc 30 60 3d 1c 6f 07 bc
       0.015428378 -0.008123021 0.054734036 -0.008266237
000020 91 72 e0 3c 45 68 28 bd a3 01 f2 bc 4b 1e f2 3c
       0.02739838 -0.041115064 -0.029541796 0.02955546
000030 5b 63 43 3d 3a bd d9 ba 76 f5 e6 3c 52 f2 ee bc
       0.047702175 -0.001661218 0.028193217 -0.029168282
000040 df 71 90 3c 49 d4 00 bd dc c1 5d bd fd 92 95 bc
       0.017632423 -0.03145245 -0.054139957 -0.018258566
000050 72 32 e8 bc 11 93 e1 bc 43 72 63 bc 63 73 1d bb
       -0.028344367 -0.027535947 -0.013882223 -0.0024025075
000060 df 6d a4 3c 67 f4 55 bc 83 8e db bc ce 9a 44 bc
       0.020071922 -0.013058758 -0.026801353 -0.011999799
000070 25 be ef 3c ec 10 af bc 26 bd 96 bc ba 44 a0 3c
       0.029265473 -0.021370374 -0.01840074 0.019564021
000080 55 cb 30 bd a7 e7 f1 bc ad b3 a9 3c 8a e9 fc bb
       -0.043162663 -0.029529406 0.020715559 -0.0077182697
000090 71 7c 8e bc 02 c8 64 3d 64 a6 9d 3d 6a 87 58 3d
       -0.017393323 0.055854805 0.07697752 0.052863516
0000a0 3a 37 55 bd 46 83 64 bd 89 11 2b 3c df 97 93 bc
       -0.05205462 -0.055789255 0.010441192 -0.018016754
0000b0 6d 83 6e 3c 1a 31 ec 3c 22 4b 24 3d e7 7f 00 3b
       0.014557702 0.028832007 0.040110715 0.0019607486
0000c0 6c 8e 35 bc b9 8e d1 bc b5 90 8c 3c 09 5e f0 3c
       -0.011081319 -0.02558075 0.017158845 0.029341714
0000d0 21 3f e6 3c d4 46 6d bd 4b 27 3e bb b9 61 78 bd
       0.028106274 -0.057928875 -0.002901512 -0.06064007
0000e0 a7 79 7e bc d8 08 41 3c f7 1a 59 3d 74 50 0e 3c
       -0.015531934 0.011781894 0.05300423 0.008686174
0000f0 3e 19 c3 3c fa 9b 86 3c a5 29 e7 bb 70 ba 3c 3c
       0.023815747 0.016431797 -0.007054525 0.01151906
000100 f7 61 9e bc b5 cc e6 3c f5 ae 86 3d a9 62 e5 3c
       -0.019333823 0.028173784 0.06576339 0.028001146
000110 05 c1 86 3b 6d f1 f7 3b 3c 8d df bb a0 7e 90 bc
       0.004112365 0.007566622 -0.0068222564 -0.017638505
000120 fe d4 b9 b9 eb 92 65 bc 5f 9c db 3c d7 2d 17 3d
       -0.0003544464 -0.014012079 0.026807962 0.03690895
000130 43 9c 34 bd 14 ad 73 bc 0e 3b cf bc 84 e5 2e 3c
       -0.044094335 -0.014872808 -0.025296714 0.010674838
000140 3e 70 89 3b e3 7f 17 bd 1e e8 d3 bb c2 e9 95 bc
       0.0041942885 -0.036987197 -0.0064668795 -0.018299941
000150 93 4a bd 3c 1d 50 18 bd 27 c2 46 bb 11 36 4a bc
       0.023106849 -0.037185777 -0.0030328126 -0.012341992
000160 7f 78 e7 3c 41 5d 1b 3d 58 57 6e 3c df 07 a8 bb
       0.0282557 0.03793073 0.014547192 -0.0051278914
000170 5d 06 51 bc 4d 53 08 bd 7a 19 60 3d 72 28 b1 bc
       -0.012757865 -0.033282567 0.054711796 -0.021625731
000180 8d c5 cb 3c d2 16 42 3d e7 b3 9f b9 7c 63 91 3d
       0.024874473 0.047385044 -0.0003046088 0.07099053
000190 65 48 a6 bd e5 db 86 bd 76 78 d1 bc c0 db 6a 3d
       -0.08119277 -0.0658491 -0.025570136 0.057338476
0001a0 16 3f 66 bc e0 d9 0d 3c 54 8c f7 39 1e 32 60 3d
       -0.014053127 0.0086579025 0.00047216064 0.054735295
0001b0 fe 26 6b 3d 9d 28 69 3d 80 8d 0d 3d ee bd 0e 3d
       0.057410233 0.056923497 0.034558773 0.0348491
0001c0 05 8d e8 3c 3e 01 7d 3d fd cb 08 bd 40 f3 88 3d
       0.028387556 0.061768763 -0.033397663 0.06687021
0001d0 97 77 bd 3d 82 1d b5 3c 99 80 5b bc e9 d2 bc 3c
       0.092513256 0.022108797 -0.013397359 0.023049789
0001e0 c0 e3 e5 3c f9 5d 2b 39 e6 82 ad bb 59 b5 55 bc
       0.028062701 0.00016342838 -0.0052951453 -0.013043725
0001f0 a0 a6 8b bc ef 8b 09 3b 63 72 b0 3c 96 00 f6 bc
       -0.017047226 0.0020987948 0.021538919 -0.030029576
000200 06 ba be 3c b0 19 12 3d 66 04 c7 bd d9 01 80 bd
       0.023282062 0.03566903 -0.09717636 -0.062503524
000210 fb 1f e1 3c 7a 20 9e bc be f6 cb 3c 2f c9 03 3c
       0.02748107 -0.019302595 0.02489793 0.008043571
000220 bd 71 e1 bb 86 3c 6e 3d b6 80 03 bd 6f b1 08 bd
       -0.0068800137 0.05816319 -0.03210517 -0.03337234
000230 3a 1c 4b 3c e4 59 d6 3c 88 a5 13 bc 00 85 c3 bb
       0.012396866 0.02616591 -0.009011634 -0.0059667826
000240 f6 85 39 3b c7 fb 64 3c 59 4b 91 3d 67 7c d6 3d
       0.0028308607 0.013976044 0.070944495 0.104729466
000250 93 fe 4b 3c da b9 52 3d 81 87 e2 bc 7a 2f 72 ba
       0.012450832 0.051446773 -0.027652504 -0.0009238642
000260 43 61 e2 3c 60 9f d9 3c 9c 58 b5 bc 92 9e cb bc
       0.027634269 0.026565254 -0.022136979 -0.024855886
000270 d7 7c 69 3d 3f a8 e9 bc fe d1 98 3d 72 58 76 3d
       0.057003822 -0.028522609 0.07461928 0.06014294
000280 64 f2 55 bd 80 fd 60 bd 3b ba 95 bc fa 73 a7 bc
       -0.052233115 -0.054929256 -0.018277278 -0.020441044
000290 9a 08 eb bb b2 3f b3 3b 7d 20 12 3d 24 06 51 3c
       -0.0071726562 0.0054702396 0.035675514 0.012757812
0002a0 da 57 32 3d d4 2b 8b 3d ef ab e7 bc 43 b5 b9 3c
       0.043540813 0.06795469 -0.028280227 0.02266944
0002b0 f9 0f 53 3d b1 c4 22 bc ac 73 08 3b 58 be 2f 3d
       0.051528905 -0.00993459 0.00208209 0.042906135
0002c0 e0 c4 9f 3b 1d 46 b1 bb e4 de 30 bd 42 f3 26 3d
       0.0048757643 -0.0054099695 -0.043181315 0.040759332
0002d0 2a 2d 95 bc 6f 2a 1c bd d0 39 4e bc ff 19 b3 bc
       -0.018210012 -0.038126405 -0.012587026 -0.021862982
0002e0 1e 98 5d bc e8 69 10 3c 91 63 ed bb ee 1f 5f 3c
       -0.013525037 0.0088143125 -0.0072445353 0.0136184525
0002f0 e2 3e 11 bb 13 6c 67 bd 57 39 d6 b9 55 c8 ab 3b
       -0.0022162725 -0.056499552 -0.00040859982 0.0052423873
000300 98 75 80 bc 9a 9a a4 3c a8 48 2a bc 4c a2 ff 3c
       -0.015681073 0.020093251 -0.010393299 0.031205319
000310 7d 28 7e 3c 92 a2 6a bd 87 d0 79 bd 9f b7 68 bc
       0.015512583 -0.057283945 -0.060989883 -0.014203935
000320 bf 2e 76 bb 13 96 35 bd 03 2b c7 bb 0f aa b8 3c
       -0.0037564484 -0.044332575 -0.0060781254 0.022542028
000330 61 f9 fd 3c ca 05 6e bb e2 d6 91 3c a0 f5 8c 3b
       0.031002702 -0.0036319369 0.01780266 0.0043017417
000340 44 ac e7 3c 88 6a 0f bd 29 a0 7f bb f8 f4 1c bd
       0.028280385 -0.035013705 -0.0039005375 -0.038319558
000350 58 14 d4 bc 8d 91 a8 bc 69 27 a0 3c 18 73 05 bd
       -0.025888607 -0.020577217 0.019550042 -0.032580465
000360 c8 3e 44 3c 19 21 c4 bb af 68 b0 bc 14 22 07 3d
       0.011977859 -0.005985391 -0.021534292 0.032991484
000370 02 dd fc 3c f7 ea 7c bc c3 43 b1 bb fa 5d 80 3c
       0.030867103 -0.015436879 -0.005409689 0.015669812
000380 33 c7 3b bc df f9 4b bd 76 8a 16 3d e1 bd 97 3c
       -0.011461067 -0.049798843 0.03675314 0.018523159
000390 8c 11 81 bd eb 5d 26 3c b0 cb e3 3c d4 a9 21 3c
       -0.06302175 0.010154228 0.027807087 0.00986715
0003a0 96 d3 1b bb b3 87 c2 3a b7 72 29 bd ec 6b e3 3c
       -0.0023777238 0.0014841467 -0.041369166 0.027761422
0003b0 3b 97 fd bc 28 a4 cd bc c5 63 e4 bc 48 14 1b 3d
       -0.030955901 -0.02510269 -0.027879605 0.03786114
0003c0 a0 db a9 3b 36 d0 a6 3c d2 29 34 3c ec 76 81 ba
       0.005183652 0.020362955 0.010996299 -0.000987736
0003d0 e6 24 c4 bc e3 10 58 bc 2a d5 5b ba 96 f7 4b 3d
       -0.023943376 -0.01318762 -0.0008385951 0.049796663
0003e0 a1 8b 1b bc 92 3e 8c 3c 96 fc 99 bc 9c 84 84 bc
       -0.009493739 0.01711968 -0.0187972 -0.016176514
0003f0 3a 40 17 3d 22 c4 3b bb b0 d5 7b 3d 9f 8a d3 bb
       0.036926486 -0.002865084 0.061483085 -0.006455734

10.bias f4 [30]
000000 a8 e2 5d bd 67 74 dc bb eb b2 4c bd 69 3f 5c bd
       -0.054171234 -0.0067277434 -0.049975317 -0.05377141
000010 93 7a 12 bc af 14 4e bd 04 ac 2d 3c d9 95 4a bd
       -0.008940357 -0.050312694 0.010600094 -0.049459312
000020 a5 cd c9 3c a1 87 bb bc 5f 8a f2 3c ac 69 d6 3c
       0.024634192 -0.022891821 0.029606996 0.026173435
000030 ef a7 44 bc 59 59 3d 3c 55 02 87 3c 28 e6 04 3c
       -0.012002929 0.011556947 0.016480604 0.008111514
000040 f1 52 a0 3b 75 a1 3c bc f8 7f e2 3c 27 32 ca 3a
       0.0048927 -0.011513104 0.02764891 0.0015426324
000050 1a 79 04 3c d5 e2 e0 3c e4 10 3c 3d eb 17 63 3d
       0.0080855135 0.027451912 0.045914546 0.05544273
000060 92 7c 3b 3d a7 1e 44 3d c2 17 d9 3d 23 9f 77 3d
       0.045773096 0.047880795 0.106002346 0.0604545
000070 fd 94 78 3d bb 18 ae 3d
       0.06068896 0.08500811
