notebooks/model.pt (torch, 164551 bytes, 10 tensors)

1.weight f4 [32, 1, 7]
0	0xbd2cabf0	-0.04215616
1	0x3e5a77cb	0.2133476
2	0x3e966dfc	0.29380786
3	0xbd4da13a	-0.050202586
4	0xbe3a5824	-0.18197685
5	0xbdbed891	-0.093186505
6	0xbe9c826d	-0.30568257
7	0x3e398bfe	0.18119809
8	0xbebede7d	-0.3727912
9	0x3e2ae9a2	0.16690686
10	0xbec4edfd	-0.3846282
11	0xbbf35840	-0.0074262917
12	0xbe0adb06	-0.13560113
13	0xbeb7079e	-0.35748
14	0x3e1dcf38	0.15411079
15	0x3e944337	0.2895753
16	0xbea0f8e6	-0.31439894
17	0xbeb7b23e	-0.35878175
18	0xbe96e823	-0.2947398
19	0xbe859e24	-0.26097214
20	0x3eabbc2c	0.33542
21	0xbe5a0ff8	-0.21295154
22	0x3ca5f8d8	0.02026026
23	0xbe696f46	-0.22796354
24	0x3e981c86	0.29709262
25	0x3e25cd84	0.16191679
26	0xbdab742f	-0.0837177
27	0xbea14b00	-0.31502533
28	0xbd517cdd	-0.05114447
29	0x3e9df853	0.3085352
30	0xbeb9ac3b	-0.36264214
31	0x3dbb308e	0.091401204
32	0x3d288b15	0.041148264
33	0x3e81f3fa	0.25381452
34	0x3e9ed33c	0.31020534
35	0x3e2a4a2b	0.16629855
36	0x3df3d7cf	0.119063966
37	0xbeb12a91	-0.34602788
38	0x3eb4fcf5	0.3534924
39	0xbd19fd0f	-0.03759485
40	0xbe6405b0	-0.22267795
41	0x3ed17634	0.40910494
42	0x3e8c29f5	0.2737576
43	0x3e4b1763	0.1983314
44	0xbe1a4610	-0.15065789
45	0xbe6fc607	-0.23415385
46	0x3ea5cb70	0.32381773
47	0xbdec2580	-0.1153059
48	0xbea28407	-0.31741354
49	0x3eca99eb	0.39570555
50	0x3e06caca	0.13163295
51	0xbe6c1019	-0.23053016
52	0xbe327ef0	-0.17431235
53	0xbe5d5089	-0.21612753
54	0xbe45d339	-0.19318856
55	0x3e5c18cf	0.21493839
56	0x3df2bba2	0.11852194
57	0xbdfc574a	-0.123213366
58	0xbebe65c4	-0.37187016
59	0xbebfd955	-0.374705
60	0xbd08422e	-0.03326624
61	0xbe17c34d	-0.14820595
62	0xbe3452be	-0.17609689
63	0x3e1795bd	0.14803214
64	0xbe37d18d	-0.17951031
65	0x3d730c63	0.059337985
66	0xbe8618f3	-0.2619091
67	0x3e615562	0.22005227
68	0x3e2de6eb	0.1698262
69	0xbe5a863b	-0.21340267
70	0x3e1e132d	0.15437002
71	0x3ea9fd86	0.33201236
72	0x3eb18f4e	0.34679645
73	0xbe5685dc	-0.20949501
74	0xbd88409f	-0.066529505
75	0x3d6c2559	0.057652805
76	0xbe8d3a39	-0.27583483
77	0xbda14bd9	-0.07875795
78	0x3eaf5bf1	0.34249833
79	0x3e55383a	0.2082223
80	0xbc81e2bc	-0.015855186
81	0xbeb4f827	-0.35345575
82	0xbe3062c7	-0.1722518
83	0xbe270ea3	-0.16314177
84	0xbe89e489	-0.2693217
85	0xbe7a0ede	-0.24419734
86	0x3e652d91	0.22380663
87	0x3e980c66	0.2969696
88	0xbe7d4ca8	-0.24736273
89	0x3d5a003f	0.05322289
90	0x3e86b35e	0.2630872
91	0xbd925430	-0.07144964
92	0xbe8d76a8	-0.2762959
93	0xbd96226a	-0.07330783
94	0x3d43ba0a	0.047784843
95	0x3cf603b6	0.030031066
96	0x3e9c0113	0.3046957
97	0x3ec8d6f1	0.39226487
98	0x3e011167	0.12604295
99	0xbec394d9	-0.381995
100	0xbe0d5ea2	-0.13805631
101	0x3e1c3e61	0.1525817
102	0x3dcdfb0a	0.100576475
103	0x3cee1330	0.029061884
104	0x3ebf539b	0.37368473
105	0xbd831057	-0.06399601
106	0xbce11c82	-0.027479414
107	0xbcba9fae	-0.02278122
108	0xbc3a435a	-0.011368597
109	0xbe17355d	-0.1476645
110	0xbe685825	-0.22689874
111	0x3e3ac4b6	0.18239102
112	0x3ddd4a90	0.10805237
113	0xbd824fb1	-0.06362856
114	0x3e0115a7	0.12605916
115	0x3c2c858a	0.010529885
116	0x3df8efa1	0.121550806
117	0xbd9ba0d0	-0.07599032
118	0xbe2aeda4	-0.16692215
119	0xbe3b78cb	-0.18307798
120	0x3e6b222a	0.22962251
121	0xbebd5197	-0.3697631
122	0xbeb208d0	-0.34772348
123	0xbe490d07	-0.19633876
124	0x3e17907b	0.14801209
125	0xbd9130e6	-0.07089405
126	0x3e5e7e55	0.2172788
127	0x3e8b34f1	0.2718883
128	0x3e55118e	0.20807478
129	0xbebc2e1b	-0.36753926
130	0xbeafb603	-0.3431855
131	0xbe3a2545	-0.1817828
132	0xbd8c5d4b	-0.06853732
133	0xbe30a501	-0.17250444
134	0x3e2bdee7	0.16784249
135	0xbdc9be04	-0.09850696
136	0x3dc708cb	0.09718474
137	0x3c81a3d3	0.015825188
138	0x3e943c1d	0.28952113
139	0x3e6ec90b	0.2331888
140	0x3db25c11	0.087089665
141	0x3e33e3a1	0.17567302
142	0xbe9691d4	-0.29408133
143	0xbeaf6ff7	-0.3426511
144	0xbebffd07	-0.37497732
145	0xbcb2eaf6	-0.021840554
146	0x3d4f56ec	0.050620005
147	0xbe8e5c83	-0.27804956
148	0x3bc875d0	0.00611756
149	0x3df02805	0.11726383
150	0xbeb6ded7	-0.35716888
151	0x3e3fc4eb	0.18727462
152	0xbeb551e2	-0.35414034
153	0x3dabd4a5	0.08390168
154	0x3e868700	0.26274872
155	0x3ea5a0ac	0.32349145
156	0x3d8c201b	0.06842061
157	0xbd3cd46b	-0.046101015
158	0x3e7a4a40	0.24442387
159	0x3d850e21	0.064968355
160	0xbde1016e	-0.10986601
161	0xbd781f98	-0.060577005
162	0x3e99c1e8	0.3003075
163	0xbeb930a3	-0.3616992
164	0x3dedf40d	0.116188146
165	0x3d49599c	0.049157724
166	0xbe7af986	-0.24509248
167	0x3e91d10c	0.28479803
168	0xbdce1b52	-0.10063805
169	0xbea52f81	-0.32262805
170	0xbcbf4e2b	-0.023352703
171	0xbe81961d	-0.2530984
172	0x3d36e707	0.04465392
173	0x3df098a6	0.117478654
174	0xbb28d039	-0.0025758876
175	0x3da999da	0.08281298
176	0xbe360966	-0.17777023
177	0x3d2a7939	0.041619513
178	0x3dd86a86	0.10567193
179	0xbe653775	-0.22384436
180	0x3e8bdc46	0.27316493
181	0xbe43ea38	-0.19132316
182	0x3e877650	0.26457453
183	0xbe015a0c	-0.12632006
184	0x3df0d4b5	0.11759321
185	0x3d8f58d2	0.06999363
186	0xbcff8026	-0.031189036
187	0x3ed07c85	0.4072
188	0x3e037a29	0.12839569
189	0x3d66fe7c	0.05639504
190	0xbdd9ee98	-0.10641211
191	0x3d976e64	0.07394102
192	0xbd9e20bd	-0.07721088
193	0xbd74ab23	-0.05973352
194	0xbe074909	-0.13211454
195	0xbeac4904	-0.33649457
196	0xbe19ebc9	-0.15031351
197	0xbe981fe1	-0.29711822
198	0x3d944078	0.07238859
199	0xbd926445	-0.07148031
200	0x3e06a5cb	0.13149182
201	0xbeabea9a	-0.33577424
202	0x3e01faad	0.12693281
203	0xbe8b9f7b	-0.2727011
204	0x3ea38db3	0.31944045
205	0x3ea70860	0.32623577
206	0xbe84ccd5	-0.25937524
207	0xbe347a61	-0.17624809
208	0x3ec6eb95	0.3885161
209	0xbe38ddf5	-0.1805342
210	0x3e1b377e	0.15157887
211	0x3eb8279f	0.35967728
212	0x3e501b59	0.20322932
213	0x3eba917a	0.36439115
214	0xbd67ee3a	-0.056623675
215	0xbea65c9f	-0.3249254
216	0xbdb14173	-0.086550616
217	0x3e9f3c5e	0.31100744
218	0xbd4f140f	-0.05055624
219	0xbe7f6904	-0.24942404
220	0xbeb7f21e	-0.35926908
221	0xbd60ac75	-0.054851968
222	0xbdb51bf9	-0.08843226
223	0xbd79d4e2	-0.060994036

1.bias f4 [32]
0	0x3e92be2f	0.28660724
1	0x3e9b2a07	0.30305502
2	0x3e5eca59	0.21756877
3	0x3e92c332	0.28664547
4	0xbdd73aec	-0.10509285
5	0x3ed51ba7	0.4162266
6	0x3d10289c	0.035194978
7	0x3e30d865	0.17270048
8	0x3d8dbe31	0.06921042
9	0x3e675f7d	0.2259502
10	0xbee8b10f	-0.45447585
11	0x3e92f3a3	0.28701505
12	0xbdff885a	-0.12477179
13	0xbdf8eaf8	-0.12154192
14	0x3e9b07a9	0.30279282
15	0x3d95407c	0.0728769
16	0x3ebca45b	0.36844143
17	0xbd4bc5db	-0.049749237
18	0x3e69fb40	0.2284975
19	0x3e2ed466	0.17073211
20	0xbe9e9ac3	-0.3097745
21	0xbe8abe75	-0.27098432
22	0x3e1fc153	0.15601091
23	0xbc0a818e	-0.00845374
24	0xbd19ced8	-0.037550777
25	0x3b99bc2d	0.0046916218
26	0xbe60d736	-0.21957096
27	0x3ed3ee6d	0.41392842
28	0x3e2cfb72	0.16892794
29	0xbea2a1be	-0.31764024
30	0xbee5eae0	-0.44905758
31	0x3e8fa4d0	0.2805543

3.weight f4 [32, 32, 5]
0	0x3d1d268f	0.03836685
1	0xbc9a7f6b	-0.018859586
2	0x3d03afb2	0.032149978
3	0xbd82743d	-0.06369827
4	0xbc767eed	-0.01504491
5	0x3d619a49	0.05507878
6	0xbc87da54	-0.0165836
7	0xbd69debd	-0.057097185
8	0xbd93bc14	-0.072136074
9	0x3ccdad92	0.025107179
10	0x3d0527bc	0.032508597
11	0x3d2c0209	0.04199413
12	0xbc20c6d2	-0.009813027
13	0xbd1950bd	-0.037430514
14	0xbd9ae427	-0.07563048
15	0x3d2d0f6e	0.042251043
16	0x3d320f5b	0.043471675
17	0x3d521939	0.051293585
18	0xbd9ed193	-0.07754817
19	0xbd514153	-0.05108769
20	0xbd63ad7e	-0.055585377
21	0x3bb589ae	0.0055400943
22	0x3d5d1ab4	0.053980544
23	0xbd49df59	-0.049285267
24	0xbd97abdb	-0.07405826
25	0x3c9bf620	0.01903826
26	0xbd9e1050	-0.07717955
27	0xbd50ae54	-0.050947502
28	0x3d88a7ee	0.06672655
29	0x3bbe7fe7	0.005813587
30	0x3ca1d2c1	0.019753816
31	0x3d502fdd	0.050826896
32	0x3d2a592f	0.04158896
33	0xbc2f8c28	-0.010714568
34	0xbd96e3fa	-0.07367702
35	0xbd77f2e0	-0.060534358
36	0x3d752b23	0.05985559
37	0xbd80ca6e	-0.062886104
38	0xbc248f08	-0.010043867
39	0xbd08fa1e	-0.033441655
40	0x3d1d4e9d	0.03840505
41	0x3d69cd2b	0.05708043
42	0xbd87fbf1	-0.06639851
43	0x3c8e6845	0.017383704
44	0x3d845633	0.06461754
45	0xbd623e5b	-0.055235248
46	0xbc9b7540	-0.018976808
47	0x3d8061bb	0.062686406
48	0xbcfde5b2	-0.030993316
49	0x3d2ae49e	0.041721933
50	0x3d8d20fc	0.06891057
51	0xbc3e4990	-0.011614218
52	0x3da07e5a	0.078366
53	0x3c965e22	0.018355433
54	0x3c7f4e5d	0.015582648
55	0x3d41ec37	0.047344413
56	0x3cecb19a	0.02889328
57	0xbc7ef8c1	-0.015562237
58	0x3d2f1f4a	0.04275445
59	0xbd7ae091	-0.06124932
60	0x3d584415	0.052799303
61	0xbc8e1c3e	-0.017347451
62	0x3d52cb0f	0.051463183
63	0xbd28ee9e	-0.041243188
64	0x3c48848e	0.012238635
65	0x3ce52cff	0.027975557
66	0xbd806e64	-0.06271055
67	0xbd4d853b	-0.050175887
68	0xbd03de61	-0.0321945
69	0xbcebb2a6	-0.02877171
70	0x3d2fad3c	0.04288982
71	0xbd499a2d	-0.0492193
72	0xbd622119	-0.055207346
73	0xbc874ae9	-0.016515212
74	0xbd3b4ca9	-0.045727406
75	0x3c7df381	0.01549995
76	0xbd288b62	-0.04114855
77	0x3d0218a7	0.03176179
78	0x3cfb7a8a	0.03069808
79	0xbb723a9b	-0.00369612
80	0x3d975d62	0.07390858
81	0x3d6e0b0c	0.058116004
82	0x3d79aecd	0.06095772
83	0xbcac6012	-0.021041904
84	0xbccd9fdf	-0.025100647
85	0xbd85b531	-0.065287
86	0xbd973b6b	-0.0738438
87	0x3d83eea6	0.06442003
88	0x3c63205f	0.013862698
89	0x3c3e1755	0.0116022425
90	0x3d803732	0.06260528
91	0xbcf7c183	-0.03024364
92	0xbd83e27a	-0.06439681
93	0xbd82f1e6	-0.06393795
94	0x3a5c5926	0.0008405618
95	0xbd3ce573	-0.046117257
96	0x3d231ca5	0.03982224
97	0x3cf7b09f	0.030235587
98	0xbd08f08b	-0.033432525
99	0x3d5441f9	0.05182073
100	0xbd6ce63b	-0.057836752
101	0x3d47c360	0.04877031
102	0xbd86d1eb	-0.065830074
103	0x3d1777c7	0.036979463
104	0xbd3a2509	-0.045445476
105	0x3d90d70a	0.070722654
106	0x3c2d9e82	0.010596873
107	0x3ce5d065	0.028053472
108	0xbc9442b2	-0.018098209
109	0xbcc4247c	-0.023943178
110	0x3d47abcb	0.04874782
111	0x3c8c2dda	0.017111707
112	0xbd0e8964	-0.034798995
113	0x3d8af98c	0.067858785
114	0x3c94c183	0.01815868
115	0x3d458749	0.04822472
116	0xbd671ab9	-0.05642197
117	0xbcfe7036	-0.031059366
118	0xbd2dd2e0	-0.042437434
119	0xbd5e2971	-0.05423874
120	0x3d1dff20	0.038573384
121	0x3d49c910	0.049264014
122	0xbc915dab	-0.01774486
123	0x3d9a8bf8	0.07546228
124	0xbc9f315f	-0.019432722
125	0xbcc4b0a0	-0.024010003
126	0xbccb20f0	-0.02479598
127	0xbcc7ea24	-0.02440364
128	0x3d7e2bce	0.062053494
129	0x3d12abc0	0.035808325
130	0x3d5f350c	0.05449395
131	0x3b1b97de	0.0023741643
132	0x3c88d197	0.016701503
133	0xbd99e550	-0.07514441
134	0x3d6bf117	0.057602968
135	0xbd7679e9	-0.060174856
136	0x3d71969f	0.058981534
137	0xbd4aa13c	-0.04947017
138	0xbc22e9a7	-0.009943402
139	0x3c6312ce	0.013859464
140	0xbcbeeefc	-0.023307316
141	0x3d96c569	0.07361872
142	0x3a92ef29	0.0011210191
143	0x3b83c6fe	0.0040215245
144	0x3cfbc67a	0.03073429
145	0x3c8e4175	0.017365197
146	0x3c32cb69	0.010912755
147	0xbae488c4	-0.0017435779
148	0xbda1d8cd	-0.079026796
149	0x3d2de4f6	0.042454682
150	0xbd79a032	-0.06094379
151	0xbd161560	-0.03664148
152	0xbd60a1d1	-0.05484182
153	0x3d14cc4b	0.03632764
154	0xbc8eac61	-0.017416181
155	0x3c4c0f7e	0.0124548655
156	0x3d83d475	0.06437007
157	0xbd8f5f87	-0.07000642
158	0xbbfa12cd	-0.0076316358
159	0xbd3f3996	-0.046685778
160	0x3c24980f	0.010046019
161	0x3dae6cf0	0.08516872
162	0x3d5551df	0.05208003
163	0xbcb05ac4	-0.021527655
164	0xbd805c4d	-0.06267605
165	0x3cf6e88d	0.030140186
166	0x3db6723c	0.08908507
167	0x3da0cb88	0.078513205
168	0x3c5b9039	0.013401085
169	0xbc98dfce	-0.018661406
170	0xbcaf974c	-0.021434449
171	0xbd89fbee	-0.06737505
172	0x3d66c985	0.056344528
173	0xbd78d56d	-0.060750414
174	0x3d2a6613	0.04160125
175	0x3d821ca2	0.063531175
176	0xbb0bc699	-0.002132809
177	0xbd04fde2	-0.032468684
178	0x3d34a82b	0.04410569
179	0xbc7f5b1f	-0.01558569
180	0xbd3694e1	-0.044575576
181	0xbd6d61c3	-0.05795456
182	0x3d347f55	0.044066746
183	0xbd8e113b	-0.0693688
184	0xbd92c6be	-0.07166813
185	0xbc911833	-0.017711734
186	0x3c0f6da6	0.00875417
187	0xbd5529cd	-0.052041817
188	0x3ca9fccf	0.020750431
189	0xbd5391ba	-0.051652648
190	0x3d9538ed	0.07286248
191	0xbc90aa6e	-0.017659392
192	0x3c77874a	0.015107939
193	0xbccd4d50	-0.02506128
194	0xbc439ee9	-0.011939743
195	0x3ad9b426	0.0016609475
196	0xbd66c189	-0.056336913
197	0xbd812bd4	-0.06307188
198	0xbd88b714	-0.066755444
199	0x3ce80db0	0.02832684
200	0x3b8dffa7	0.0043334546
201	0xbd7630cf	-0.06010514
202	0x3da2f20f	0.07956325
203	0x3c908b34	0.017644502
204	0x3cad521b	0.021157315
205	0xbd72e9ba	-0.05930493
206	0xbcd5367c	-0.026026957
207	0xbd248386	-0.040164493
208	0xbce85945	-0.02836288
209	0x3d87a36d	0.06622968
210	0xbd560f3f	-0.052260634
211	0xbd2f5ebe	-0.042814963
212	0x3ca404cc	0.020021819
213	0x3ca01a2d	0.019543732
214	0xbda1732b	-0.07883295
215	0xbca2f2a5	-0.019891093
216	0x3cfa2da5	0.030539343
217	0x3d8b0b41	0.06789256
218	0x3d8a3c66	0.06749801
219	0xbd213cad	-0.039364506
220	0x3d99ec16	0.07515733
221	0x3d65902e	0.056045704
222	0x3cebfde4	0.028807588
223	0x3c9787ba	0.018497337
224	0xbced2e37	-0.028952701
225	0xbd7ceb33	-0.06174774
226	0x3bcb6c50	0.00620798
227	0x3b28bc45	0.0025746983
228	0x3d40915d	0.04701363
229	0xbd42ae80	-0.047529697
230	0xbcb50184	-0.02209545
231	0xbd10e43f	-0.035373922
232	0xbd2b9741	-0.041892294
233	0x3d0b7b8b	0.034053367
234	0x3d65a8fe	0.056069367
235	0xbcdb7270	-0.026787966
236	0x3d119a58	0.035547584
237	0x3c2a8ed2	0.010410028
238	0x3d47fee4	0.048827067
239	0x3d98fae6	0.0746973
240	0x3dac3df5	0.08410255
241	0x3da4737a	0.08029838
242	0x3d3b5d51	0.04574329
243	0x3dabb8ca	0.08384855
244	0x3cd57917	0.026058717
245	0xbd536ea0	-0.051619172
246	0xbc5860d3	-0.013206678
247	0x3d81074b	0.06300219
248	0xbd52b278	-0.051439732
249	0x3ad09215	0.0015912676
250	0x3dab302c	0.083587974
251	0x3cf1ae55	0.029502073
252	0x3d0ad517	0.033894625
253	0x3d1200f1	0.03564543
254	0x3cfebff2	0.031097386
255	0x3d8989fa	0.0671577

3.bias f4 [32]
0	0x3d19da3d	0.037561644
1	0x3dca1937	0.098680906
2	0xbd1b6628	-0.03793922
3	0x3cc0eda4	0.023550816
4	0x3a9d7a79	0.0012014649
5	0xbcdd8d7d	-0.027045006
6	0x3cfc0548	0.030764237
7	0x3dbdd3dd	0.09268925
8	0xbc9136b6	-0.017726284
9	0x3de612ed	0.112340786
10	0x3d960cf5	0.0732669
11	0x3c6710ab	0.014103095
12	0x3e14551f	0.14485596
13	0xbd109d33	-0.035306167
14	0xbd90ed07	-0.070764594
15	0xbd10ef42	-0.035384424
16	0x3d3a69d3	0.045511078
17	0xbc2367e3	-0.009973499
18	0xbc55683b	-0.013025339
19	0x3cfc56d2	0.030803118
20	0x3d767e57	0.06017908
21	0xbc8bb646	-0.017054688
22	0x3d42a181	0.047517303
23	0x3dda8db3	0.10671558
24	0x3dd38d59	0.10329694
25	0xbc8ab7f5	-0.01693342
26	0x3c8ec525	0.01742799
27	0x3d5d27b6	0.05399295
28	0x3d78a501	0.060704235
29	0x3cb35697	0.021891875
30	0xbbc31a58	-0.005954068
31	0x3bf7442d	0.007545969

5.weight f4 [32, 32, 3]
0	0xbd6f814d	-0.05847292
1	0x3c40bf4b	0.011764358
2	0xbcdd57fc	-0.027019493
3	0xbd56a930	-0.052407444
4	0xbcc617e7	-0.02418132
5	0x3de61446	0.112343356
6	0xbd63cbb7	-0.0556142
7	0x3dc988bf	0.09840535
8	0xbd81e3cb	-0.06342276
9	0xbdd567ca	-0.10420187
10	0xbdc26e16	-0.094936535
11	0xbd6acf97	-0.05732688
12	0xbc917c59	-0.017759489
13	0x3db66c79	0.08907408
14	0xbc0e7dc3	-0.008696976
15	0xbda16fbf	-0.07882642
16	0x3daa83b1	0.083258994
17	0xbdbb4409	-0.09143836
18	0x3da43b34	0.080191046
19	0x3d8191ca	0.06326635
20	0xba524e19	-0.0008022502
21	0xbd4f71ed	-0.050645757
22	0xbd18e5da	-0.03732858
23	0x3dd05575	0.1017255
24	0x3c4752f6	0.0121657755
25	0xbbaa7af5	-0.005202646
26	0x3db37384	0.08762267
27	0x3d580a86	0.05274441
28	0xbd77cbf0	-0.060497224
29	0x3d31b332	0.043383785
30	0x3d46e079	0.048553918
31	0x3d947278	0.07248396
32	0x3b196375	0.0023405228
33	0x3d903bce	0.07042657
34	0xbdbc7729	-0.092024155
35	0xbcf3e714	-0.029773273
36	0xbdb5f946	-0.08885436
37	0xbc70faee	-0.014708264
38	0x3da3d335	0.07999269
39	0x3dbcd682	0.092206016
40	0x3ddcec0e	0.10787211
41	0xbd886f0f	-0.06661808
42	0x3d666349	0.05624703
43	0xbd5a550b	-0.05330376
44	0xbd88af3c	-0.06674048
45	0xbda7b80c	-0.08189401
46	0x3b32dd53	0.0027292564
47	0x3d5d608f	0.054047164
48	0x3cb7b419	0.022424744
49	0xbc90bdb5	-0.017668584
50	0xbc688bcd	-0.014193487
51	0xbd5fa45b	-0.0546001
52	0x3d2f6222	0.042818196
53	0x3c71b0a3	0.014751586
54	0x3dc7bb2d	0.09752498
55	0x3dccae9d	0.09994242
56	0xbdb39cbd	-0.0877013
57	0x3c9de48b	0.019274017
58	0x3b84c8e5	0.004052269
59	0xbc109b4b	-0.008826087
60	0xbca7b4c3	-0.020471936
61	0x3d4f808b	0.050659698
62	0xbd5dd2af	-0.054156
63	0x3d87e2b6	0.066350386
64	0x3d366cbb	0.044537287
65	0x3daef576	0.08542912
66	0x3da0d84c	0.07853755
67	0xbd27d0f9	-0.040970776
68	0x3c4e7a45	0.0126023935
69	0xbd29294b	-0.041299146
70	0x3d6024c1	0.05472255
71	0x3c2d074b	0.010560821
72	0x3dd8eef0	0.10592449
73	0x3d731fd8	0.05935654
74	0x3d830ca5	0.06398896
75	0xbd67df00	-0.056609154
76	0x3c2350db	0.009968008
77	0x3db2bdb4	0.08727589
78	0xbc810094	-0.015747346
79	0xbcb6bc92	-0.022306714
80	0x3cffefbf	0.03124225
81	0x3d93b5b2	0.0721239
82	0x3d92ccc8	0.07167965
83	0xbdb63869	-0.08897478
84	0x3dbc2b7f	0.09187984
85	0xbdb58b0a	-0.0886441
86	0x3dbe7aa4	0.093007356
87	0x3d14c19f	0.036317464
88	0x3cca86b7	0.02472244
89	0x3d3055d6	0.04305061
90	0x3d81db46	0.06340651
91	0x3db2e1d4	0.087344795
92	0x3b590b9d	0.0033118494
93	0xbd93ee13	-0.072231434
94	0x3dce296e	0.10066496
95	0x3b92e043	0.0044823005
96	0xbda327bc	-0.07966563
97	0xbdc4836d	-0.0959538
98	0x3d62300d	0.055221606
99	0xbcad2683	-0.021136528
100	0xbcfd54ed	-0.030924285
101	0xbddb9693	-0.10722079
102	0xbcab31e9	-0.020897822
103	0xbcfe101e	-0.031013545
104	0xbd383951	-0.044976536
105	0x3cf9d6f9	0.030498015
106	0x3e080ccb	0.1328613
107	0x3df63110	0.12021077
108	0x3d90a603	0.07062914
109	0xbbb1e381	-0.005428732
110	0x3d42fac3	0.047602426
111	0x3d284753	0.041083645
112	0x3d89a6d4	0.06721273
113	0xbcdbd804	-0.026836403
114	0xbd2ffc26	-0.042965077
115	0xbb9b97ee	-0.004748336
116	0xbd10b68d	-0.035330344
117	0x3b83a16c	0.0040170457
118	0x3ce3eebb	0.027823796
119	0xbe03cd1e	-0.12871215
120	0xbbfe52d0	-0.007761337
121	0x3d86f4c8	0.06589657
122	0x3da2d622	0.07950999
123	0x3e28cac3	0.16483597
124	0x3e55d212	0.20880917
125	0x3dbf90c6	0.09353785
126	0x3e6a1712	0.22860363
127	0x3dbdb6c0	0.092633724
128	0x3e6f4571	0.23366334
129	0xbc51d685	-0.012807493
130	0x3d963a38	0.07335323
131	0x3df80625	0.12110547
132	0xbc8d6359	-0.017259287
133	0x3e2412ea	0.1602284
134	0x3dfe669f	0.12421917
135	0x3d2e025f	0.04248273
136	0x3d9185ea	0.0710562
137	0xbc8d0246	-0.017212998
138	0xbd83abd7	-0.0642926
139	0x3d95ef37	0.07321017
140	0x3db99f7d	0.09063623
141	0xbd8e2e34	-0.06942406
142	0xbd9bb619	-0.07603092
143	0x3d1bb80a	0.03801731
144	0x3db00382	0.08594419
145	0xbdd974eb	-0.106180035
146	0x3d07821d	0.03308307
147	0xbdb00a77	-0.08595746
148	0x3cb13993	0.021633899
149	0x3c8bfaf9	0.017087447
150	0xbe0c1098	-0.13678205
151	0xbd6dac39	-0.058025572
152	0xbd0da7bf	-0.034583803
153	0x3dee673b	0.116407834
154	0xbbf3913f	-0.007433086
155	0x3c80e2a8	0.015733078
156	0xbd914b99	-0.07094497
157	0xbcf83b6b	-0.03030177
158	0x3d872b64	0.06600073
159	0xbd8891dc	-0.066684455
160	0x3c92012b	0.017822823
161	0xbdfaad70	-0.12240112
162	0x3db0eac0	0.08638525
163	0x3d5f3aba	0.054499365
164	0x3dccaf2a	0.099943474
165	0x3c039604	0.008031372
166	0xbd1ca1a9	-0.03824011
167	0xbdc6efef	-0.097137325
168	0x3c9651ad	0.018349493
169	0xbd8008ca	-0.062516764
170	0xbd154868	-0.036446005
171	0x3d03319d	0.032029737
172	0x3dfa1519	0.12211055
173	0x3e15a879	0.14615048
174	0xbc945e2b	-0.018111309
175	0xbc01bacb	-0.00791807
176	0xba419890	-0.00073850993
177	0x3d97cfe9	0.074127026
178	0x3cdb38a1	0.026760401
179	0x3dd24fce	0.10269128
180	0xbd809bc7	-0.06279712
181	0xbcff197d	-0.031140083
182	0xbdd245cc	-0.10267219
183	0x3dee9ccb	0.11651
184	0xbc923eb2	-0.017852161
185	0xbc0826b4	-0.008310009
186	0x3dc009ec	0.093768924
187	0x3cd47df9	0.025938975
188	0xbc90ffcc	-0.017700098
189	0x3d1090a4	0.03529419
190	0xbc9dda07	-0.019269003
191	0x3d58126f	0.052751955
192	0x3c63f926	0.013914382
193	0xbc8139fa	-0.015774716
194	0x3d8a4903	0.06752207
195	0xbd21b3c1	-0.039478067
196	0xbcde060f	-0.027102498
197	0x3db8ede6	0.090297505
198	0xbd475e94	-0.04867418
199	0xbd8ae0a0	-0.06781125
200	0x3d9edc61	0.07756878
201	0xbd39c8e9	-0.04535762
202	0x3d9ff0c9	0.07809598
203	0xbd744444	-0.059635416
204	0xbd9b7951	-0.07591499
205	0x3dbe626b	0.092961155
206	0x3d5fb093	0.054611754
207	0xbd35421a	-0.044252492
208	0x3dcd2d20	0.100183725
209	0x3dbccab0	0.09218347
210	0x3d847f1e	0.06469558
211	0xbdaadb26	-0.083425805
212	0xbdcc8af6	-0.09987442
213	0x3b7dc8d8	0.0038724449
214	0xbc23df0f	-0.010001912
215	0x3b578e6a	0.0032891282
216	0x3d6c3f23	0.0576774
217	0xbdba46c3	-0.09095528
218	0xbdc09959	-0.09404249
219	0xbd928f4a	-0.071562365
220	0x3d972033	0.073791884
221	0x3dbc1b5b	0.09184905
222	0xbd11a21e	-0.035554998
223	0x3b3175c6	0.0027078255
224	0xbb98078c	-0.0046395715
225	0xbd9bb6ca	-0.076032236
226	0x3d7fe408	0.062473327
227	0x3d118a19	0.03553209
228	0x3d65568c	0.05599074
229	0xbdd72c2b	-0.10506471
230	0xbcd132f5	-0.025536994
231	0xbd3a4f4f	-0.04548579
232	0x3dc9afe1	0.09847999
233	0x3db8d415	0.090248264
234	0x3d46e56c	0.048558637
235	0x3c667fdc	0.01406857
236	0x3db04ae9	0.08608038
237	0x3cd73cba	0.026274074
238	0x3dbb046a	0.09131701
239	0x3cea93cf	0.028634934
240	0xbd9122ae	-0.07086693
241	0x3d77c8c9	0.060494218
242	0xbbf72b3b	-0.0075429953
243	0x3d8918ae	0.066941604
244	0xbda45290	-0.0802356
245	0x3d753702	0.059866913
246	0xbd8dcdc5	-0.06924013
247	0xbd902056	-0.070374176
248	0xbd82070c	-0.06349
249	0x3c4c0c9c	0.012454178
250	0xbdac16c0	-0.08402777
251	0xbc9e9870	-0.019359797
252	0xbdb46c98	-0.08809775
253	0x3d8ee072	0.06976403
254	0xbd1da892	-0.03849084
255	0xbd98b696	-0.074567005

5.bias f4 [32]
0	0x3de1704b	0.11007746
1	0x3e04a345	0.12952907
2	0x3c6ae8d7	0.01433774
3	0x3d609579	0.05483005
4	0xbd2d07f5	-0.042243917
5	0x3d5e95be	0.054342024
6	0x3df61a69	0.12016756
7	0xbc799bf5	-0.015234937
8	0xbd982af6	-0.07430069
9	0x3e08c02e	0.1335456
10	0xbc7de569	-0.01549659
11	0x3d282cfb	0.04105852
12	0xbb9a1c7a	-0.0047031017
13	0x3daa2fdc	0.0830991
14	0xbd498594	-0.049199656
15	0xbd222ff2	-0.039596505
16	0x3d92cd10	0.07168019
17	0xbd1074c0	-0.03526759
18	0x3d0c31d5	0.03422721
19	0x3da75a8e	0.08171569
20	0xbd850ba7	-0.06496363
21	0x3dfea85d	0.124344565
22	0xbdac617f	-0.084170334
23	0x3da46254	0.08026567
24	0x3dddb2de	0.10825132
25	0x3d431a64	0.04763259
26	0x3c81ca53	0.015843546
27	0x3dcea200	0.10089493
28	0x3d9b11d6	0.07571761
29	0x3d879d46	0.066217944
30	0x3dd00614	0.10157409
31	0xbdbeb410	-0.09311688

7.weight f4 [32, 32, 3]
0	0xbda1574e	-0.0787798
1	0x3cd6cf0e	0.026221778
2	0x3d90711e	0.070528254
3	0xbdb43b85	-0.08800415
4	0xbdbeb761	-0.093123205
5	0xbdb0c73a	-0.086317495
6	0x3d8c9289	0.06863887
7	0x3d88a8d2	0.06672825
8	0x3ccb53a0	0.024820149
9	0xbdc3e228	-0.0956462
10	0xbd043107	-0.03227332
11	0xbc2e2324	-0.010628495
12	0xbd44dc50	-0.04806167
13	0x3c2b45b5	0.010453631
14	0x3c1c7f0e	0.009551777
15	0xbad89300	-0.0016523302
16	0x3daf8f98	0.0857231
17	0x3d99b589	0.07505328
18	0x3cf97cb7	0.030454976
19	0x3c0b080a	0.008485803
20	0xbcb96966	-0.022633266
21	0x3a8d6343	0.0010787029
22	0x3db57b3c	0.08861396
23	0xbd80d67a	-0.06290908
24	0x3daddefe	0.08489798
25	0xbdcb9110	-0.09939778
26	0x3cc91df3	0.024550414
27	0x3d03957c	0.03212498
28	0xbd98a74a	-0.07453783
29	0x3d1c56ac	0.038168594
30	0x3d863ac6	0.06554179
31	0x3da5c29c	0.080937594
32	0x3db642c1	0.08899451
33	0x3da94741	0.08265544
34	0x3ca6803d	0.02032482
35	0xbdce57f7	-0.10075372
36	0xbd8cf69c	-0.068829745
37	0x3c8a8f1e	0.016913947
38	0xbc9082db	-0.017640522
39	0x3d98bf4e	0.074583635
40	0xbd83f66d	-0.06443486
41	0x3c87ad2a	0.016562063
42	0x3dafc899	0.08583183
43	0xbc9b40d5	-0.018951813
44	0x3db833c1	0.08994246
45	0x3d333c30	0.04375857
46	0x3db70c65	0.08937911
47	0x3cde19b4	0.027111866
48	0xbd270c0f	-0.040782984
49	0x3d1c665d	0.03818356
50	0xbdb48626	-0.08814649
51	0x3d042ce9	0.032269392
52	0xbdc55f50	-0.0963732
53	0x3d99d725	0.07511739
54	0xbdb01e98	-0.08599585
55	0xbcc90f99	-0.02454357
56	0xbd4c4247	-0.049867895
57	0xbda7da49	-0.081959315
58	0x3de2008b	0.1103526
59	0x3d06a3f9	0.03287122
60	0xbce71672	-0.028208945
61	0xbd42f7dd	-0.047599662
62	0x3d914bf1	0.07094563
63	0x3daea7c7	0.08528095
64	0xbd331fb6	-0.043731414
65	0x3b16d533	0.002301526
66	0x3d5d9547	0.05409744
67	0x3d89ac83	0.06722357
68	0xbcb31036	-0.021858316
69	0x3cbc9b2f	0.023023216
70	0xbca59028	-0.02021034
71	0xbd30ccd9	-0.043164108
72	0xbdbd334b	-0.09238299
73	0xbca318c2	-0.019909266
74	0xbd81b716	-0.06333749
75	0xbd805085	-0.06265358
76	0x3d3e5a7b	0.046473008
77	0x3c76231f	0.015023022
78	0xbd199d1c	-0.037503347
79	0x3cdc90a2	0.026924435
80	0xbdb3e54c	-0.08783969
81	0x3d948e10	0.07253659
82	0xbbff1461	-0.007784412
83	0x3c864ea0	0.016394913
84	0xbd63a44b	-0.055576604
85	0xbd9e9264	-0.077427655
86	0xbd40d935	-0.047082145
87	0x3d517d9d	0.051145185
88	0x3db07af0	0.086171985
89	0xbd3285e9	-0.043584738
90	0x3d4eb87d	0.05046891
91	0x3dc95bfc	0.09831998
92	0xbd82d70e	-0.06388675
93	0xbca1a0fd	-0.019730086
94	0x3c11d69d	0.008901265
95	0x3d8ce21f	0.06879067
96	0x3d2c3d3f	0.042050596
97	0x3d8d9bde	0.06914495
98	0xbdb01ded	-0.08599458
99	0x3a399c57	0.00070804864
100	0xbc8474c1	-0.016168954
101	0xbcb81b73	-0.022474026
102	0xbd2b3e4b	-0.041807454
103	0xbdb04560	-0.08606982
104	0xbdba1ae4	-0.0908716
105	0x3d9f165f	0.07767939
106	0xbd342048	-0.0439761
107	0x3d85064e	0.06495343
108	0xbd140a42	-0.036142595
109	0xbd83e02e	-0.06439243
110	0xbdac4535	-0.08411638
111	0xbdcd733d	-0.100317456
112	0x3dac9b59	0.08428068
113	0xbcfef66f	-0.031123368
114	0x3ce7d392	0.028299127
115	0xbdcd78f3	-0.10032835
116	0xbdb9cf5c	-0.09072754
117	0xbd14e45e	-0.0363506
118	0xbcef8413	-0.029237783
119	0xbcacb094	-0.021080293
120	0x3d909d92	0.07061304
121	0x3d8c6cb1	0.06856669
122	0xbcd67d7d	-0.026182884
123	0xbc96ce70	-0.018408984
124	0x3db51c7a	0.08843322
125	0x3d650a60	0.055918097
126	0xbdc5739f	-0.096411936
127	0xbd61e25d	-0.055147517
128	0x3d83eda4	0.06441811
129	0xbce99c33	-0.028516864
130	0x3c7a7852	0.015287476
131	0xbd5c1684	-0.05373241
132	0x3d6e64be	0.058201544
133	0x3d9c6609	0.07636649
134	0xbda8971b	-0.08231946
135	0xbdc484c3	-0.09595635
136	0x3dcdab57	0.10042446
137	0x3b889acc	0.004168844
138	0x3d22bcc0	0.039730787
139	0x3d700c1c	0.0586053
140	0x3d0db3aa	0.03459517
141	0xbd551ae9	-0.052027617
142	0x3cba0640	0.022708058
143	0x3db5b61c	0.08872625
144	0x3dbda26f	0.092594974
145	0x3c1bc70d	0.009507907
146	0xbc5a72b8	-0.013333015
147	0xbd1c2022	-0.03811658
148	0xbbb947d2	-0.0056543136
149	0x3be1a652	0.006886282
150	0xbd565270	-0.052324712
151	0x3d202d03	0.039105427
152	0x3c116006	0.008872991
153	0xbbd9036b	-0.006622722
154	0x3d963d97	0.07335966
155	0xbc886aed	-0.016652549
156	0xbcfede31	-0.031111808
157	0x3c8d764e	0.017268326
158	0xbd9db40a	-0.07700355
159	0x3c798a61	0.015230746
160	0xbcb91ace	-0.02259579
161	0x3dc08a50	0.09401381
162	0x3c383eae	0.011245413
163	0xbc03f154	-0.008053143
164	0xbc60bf44	-0.013717476
165	0x3d96d31a	0.07364483
166	0xbd97b8f8	-0.07408327
167	0x3d185628	0.03719154
168	0xbd43d605	-0.047811527
169	0xbd94dce7	-0.07268696
170	0xbdb17ebd	-0.086667515
171	0xbd9c6cea	-0.07637961
172	0x3d99bcd0	0.07506716
173	0x3c8cbd2e	0.017180052
174	0x3bbf7c31	0.005843662
175	0xbce9701c	-0.02849584
176	0x3ccc80fb	0.024963846
177	0x3d18d758	0.037314743
178	0xbb950ccc	-0.0045486446
179	0x3dbe9f48	0.09307724
180	0xbd4aa36f	-0.04947227
181	0xbcd0af11	-0.025474103
182	0x3caec441	0.021333816
183	0x3cf1b38f	0.029504566
184	0x3dc4c6b2	0.096082106
185	0xbd46a6e6	-0.04849901
186	0xbd92f9e9	-0.07176573
187	0x3d9db755	0.077009834
188	0xbd9cd700	-0.076581955
189	0x3d08faaa	0.033442177
190	0xbdaea50d	-0.08527575
191	0x3d52ce38	0.051466197
192	0x3d512d89	0.051068816
193	0x3a600fe0	0.00085472874
194	0xbdb922e9	-0.09039862
195	0x3c293188	0.010326751
196	0xbd82bff3	-0.06384268
197	0x3cca5fac	0.024703823
198	0x3cd0f663	0.025508111
199	0xbdb17b47	-0.086660914
200	0xbafc7ce2	-0.0019263292
201	0xbd4175de	-0.047231548
202	0x3d2fbc5e	0.04290425
203	0x3dd14cb4	0.10219708
204	0x3d025941	0.0318234
205	0x3cf593e5	0.029977748
206	0x3db32d86	0.08748917
207	0x3c939667	0.018016053
208	0xbb294250	-0.002582688
209	0x3d6e31a0	0.058152795
210	0x3d159474	0.03651853
211	0xbb5355bd	-0.003224715
212	0x3d75f5f9	0.06004903
213	0x3c21af86	0.009868508
214	0x3d1f430f	0.03888231
215	0xbd665565	-0.056233782
216	0x3da48bb9	0.080344625
217	0xbd95d9a8	-0.07316905
218	0xbd79c3e3	-0.060977828
219	0x3dcaecc1	0.099084385
220	0x3d5df339	0.054187033
221	0xbdb71b33	-0.08940735
222	0xbc403214	-0.01173069
223	0xbd14afa7	-0.036300328
224	0xbd27cff7	-0.040969815
225	0xbcf3e65f	-0.029772935
226	0xbd10d4c4	-0.03535916
227	0xbda702fd	-0.08154867
228	0xbd5eb812	-0.054374762
229	0xbc674f1e	-0.014117984
230	0xbc2b6952	-0.010462122
231	0xbd1b6c97	-0.037945356
232	0xbb5f83ef	-0.0034105738
233	0x3da85308	0.08218962
234	0xbd195d95	-0.037442762
235	0xbd26b4e3	-0.04069985
236	0xbd0973ee	-0.033557825
237	0xbd80672f	-0.06269681
238	0xbd67a085	-0.056549568
239	0x3cb359db	0.021893432
240	0x3c9fd6d6	0.019511621
241	0x3d16208b	0.03665213
242	0x3dc132e1	0.094335325
243	0x3cae8b20	0.021306574
244	0x3c6ad19d	0.014332202
245	0xbd916758	-0.070997894
246	0x3ce87222	0.028374735
247	0xbd0ee374	-0.034884885
248	0xbd621df7	-0.055204358
249	0xbba1409d	-0.0049210326
250	0x3cc439fa	0.023953427
251	0xbd6e255f	-0.05814111
252	0x3db79ed5	0.08965842
253	0x3d84438f	0.06458198
254	0xbcb7378c	-0.022365354
255	0xbbaca2cd	-0.005268431

7.bias f4 [32]
0	0x3cbc2ba9	0.022970038
1	0xbb82348e	-0.00397355
2	0x3e19fb62	0.15037301
3	0x3de1836a	0.11011393
4	0x3e0b42ea	0.13599744
5	0x3dc1560e	0.09440242
6	0xbd2b2b7e	-0.041789524
7	0xbd690486	-0.05688908
8	0x3d703c9d	0.058651555
9	0xbd96e2cd	-0.073674776
10	0xbd530d93	-0.051526617
11	0xbdbc6d82	-0.092005745
12	0x3c494ac8	0.012285896
13	0xbd2e8aa3	-0.042612683
14	0x3d819ff9	0.063293405
15	0x3e0f8f5f	0.14019535
16	0x3dddc0b9	0.108277746
17	0x3d871915	0.06596581
18	0xbd9a58f7	-0.075365
19	0xbc1b52b6	-0.009480169
20	0x3ddb99eb	0.10722717
21	0xbd4aff4f	-0.049559887
22	0x3df251ed	0.11832032
23	0x3de36ee4	0.11105135
24	0x3b9c9196	0.0047780974
25	0xbd73ac07	-0.05949023
26	0xbdde677f	-0.10859584
27	0xbd31b656	-0.04338678
28	0xbd1ea2a5	-0.03872933
29	0x3d78f6a7	0.0607821
30	0xbda7528f	-0.08170044
31	0x3db1c4a6	0.08680086

10.weight f4 [30, 960]
0	0xbc84a75e	-0.016193088
1	0x3ceb212e	0.028702345
2	0xbb92ceb0	-0.0044802055
3	0xbcca0c90	-0.024664193
4	0xbbe8e5ae	-0.007107458
5	0x3bc16d27	0.0059029046
6	0xbb6af139	-0.0035849346
7	0xba78f5d5	-0.0009497081
8	0x38c4df43	9.387594e-05
9	0x3cd3c4db	0.025850704
10	0xb96abb5a	-0.00022385773
11	0x3c694397	0.014237306
12	0x3c3e4dbd	0.011615214
13	0xbcc398fc	-0.02387666
14	0x3c1a4c42	0.009417595
15	0x3c6b789c	0.014372017
16	0x3cc6d6d8	0.024272367
17	0x3d043d67	0.03228512
18	0xbbcc1391	-0.0062279184
19	0xbc9797d0	-0.018505007
20	0x3cb84abe	0.022496577
21	0x3ce60b36	0.028081518
22	0xbc974df9	-0.018469797
23	0xbd028fec	-0.031875536
24	0xbcef45b4	-0.029208042
25	0xbcccbae4	-0.02499146
26	0x3c29ad8d	0.010356319
27	0x3c059901	0.008154155
28	0x3c88ffdb	0.016723564
29	0x3c2ada64	0.010428045
30	0x3c164d45	0.009173696
31	0x3cc13997	0.023587031
32	0x3b112161	0.002214514
33	0x3a8f073b	0.0010912189
34	0x3cda7a16	0.026669543
35	0xbc5336cc	-0.012891483
36	0xbbb2ca88	-0.0054562725
37	0x3cc4c1f4	0.024018265
38	0xbcf0fb1c	-0.029416613
39	0x3cd32b82	0.025777582
40	0x3c0af7d2	0.0084819365
41	0xba7b81d5	-0.00095942366
42	0xbc641647	-0.013921327
43	0x3cacee7d	0.021109814
44	0x3b9a9d16	0.004718433
45	0xba4ac669	-0.0007735254
46	0xbc22d4d8	-0.009938441
47	0xbcd7740e	-0.026300456
48	0x3c51bcf2	0.012801396
49	0xbcb67473	-0.022272324
50	0x3cfed896	0.031109136
51	0xbaba6d74	-0.0014223293
52	0xbc7852e5	-0.015156482
53	0xbc2efca6	-0.010680353
54	0xbc4ab823	-0.012373003
55	0x3cc65bc9	0.024213688
56	0xbcdf9c87	-0.027296318
57	0x3cde405f	0.027130304
58	0x3c8036b6	0.015651088
59	0x3a94631f	0.0011321044
60	0x3ac326e3	0.0014888908
61	0xbb8b1ff0	-0.0042457506
62	0xbcce67c4	-0.025195964
63	0x3b592f8b	0.003313991
64	0x3c6f4148	0.014602967
65	0xbbb3140a	-0.0054650353
66	0x3c497362	0.012295576
67	0x3cbb7363	0.02288217
68	0x3c65a355	0.014015992
69	0xbcd0f4ba	-0.02550732
70	0x3cad416e	0.021149363
71	0x3b5e5e93	0.0033930882
72	0x3cb0619c	0.021530919
73	0x3cab1d72	0.020888064
74	0xbcaba573	-0.020952916
75	0xbc79fb31	-0.015257643
76	0xbc3b58a1	-0.011434705
77	0xbcb18955	-0.02167193
78	0x3c82af72	0.0159528
79	0x3cac62e5	0.02104325
80	0x3c8e0df5	0.01734064
81	0xbc8d1dc3	-0.017226106
82	0xbd0accfd	-0.0338869
83	0x3c0a50e0	0.008442134
84	0x3cf87a28	0.030331686
85	0xbd02c1f8	-0.031923264
86	0xbb29e5a9	-0.0025924242
87	0xbcaeefb4	-0.021354534
88	0xbca29952	-0.0198485
89	0xbcd8ba5b	-0.026456049
90	0xbc9d3193	-0.019188678
91	0x3b2013f3	0.0024425953
92	0x3cf25054	0.029579319
93	0x3b60acaf	0.0034282615
94	0xbcd7e318	-0.026353404
95	0xbcf0c47d	-0.029390568
96	0xbc1ac3f1	-0.00944613
97	0xbc894fef	-0.016761748
98	0x3bec0d36	0.0072037233
99	0xbbe6378b	-0.007025664
100	0x3bd01dc5	0.006351205
101	0x3bea7a43	0.007155688
102	0x3d008d10	0.031384528
103	0x3c36524f	0.011128022
104	0xbae63326	-0.0017562851
105	0xbc00ba9b	-0.00785699
106	0xbcb0212f	-0.021500198
107	0x3c791c03	0.015204432
108	0x3cc698c4	0.024242766
109	0x3cd5561d	0.026042039
110	0x3ce3c1a8	0.027802303
111	0x3c98831b	0.018617203
112	0x3c0c44d3	0.008561331
113	0xbb49d3bf	-0.0030796377
114	0xbc682e48	-0.014171191
115	0xbb999842	-0.00468734
116	0xbc5bdada	-0.0134188775
117	0x3c55f49f	0.0130588105
118	0x3c9e7d3f	0.019346831
119	0xbc6237b5	-0.013807227
120	0x3c0fc631	0.00877528
121	0x3c822476	0.015886527
122	0x3ce75dd8	0.02824299
123	0xbaefb584	-0.0018288349
124	0xbc33b7d7	-0.010969124
125	0xbc01f1c5	-0.0079311775
126	0x3bfd4fe0	0.007730469
127	0x3b8682fb	0.0041049696
128	0xbce67380	-0.028131247
129	0xbc800c71	-0.015630933
130	0x3ca44309	0.020051496
131	0x3afd091c	0.0019305083
132	0x3b89804c	0.0041962024
133	0xbc03475e	-0.008012621
134	0x3cf37185	0.029717216
135	0xbc9f8652	-0.019473229
136	0x39f5b892	0.00046867557
137	0x3c1bdfe9	0.009513834
138	0x392e3d62	0.000166168
139	0x3c0fcc8b	0.008776794
140	0xbccc7b81	-0.024961235
141	0xbcad7c03	-0.021177297
142	0xbaf97f89	-0.0019035201
143	0xbaca3b61	-0.0015429073
144	0x3c34cf58	0.011035763
145	0x3cbe37ff	0.02322006
146	0xbca125f4	-0.019671418
147	0x3c60f94b	0.013731311
148	0xbb78fd6c	-0.0037992848
149	0x3c0655ae	0.008199139
150	0xbbb6a032	-0.005573296
151	0x3cc91c1a	0.024549533
152	0x3b6203a6	0.0034487038
153	0x3cb71190	0.022347242
154	0xbcfe48bd	-0.031040544
155	0x3b40ec76	0.0029437817
156	0x3d016a23	0.03159536
157	0x3c67d2c6	0.014149373
158	0xbcbecafa	-0.023290146
159	0x3c9eef2f	0.019401161
160	0xbc833800	-0.016017914
161	0xbce2bd48	-0.027678147
162	0x3cbaae5d	0.022788221
163	0x3c6ce752	0.014459448
164	0xbc57a000	-0.013160706
165	0x3c26970c	0.010167848
166	0x3cd7c11f	0.026337205
167	0x3c94e5d5	0.018175999
168	0xbc5cae8d	-0.0134693505
169	0xbc791024	-0.015201602
170	0xbc96ff53	-0.018432295
171	0xbcc63e41	-0.024199607
172	0x3ad1c9c8	0.001600557
173	0xbc4971c8	-0.012295194
174	0xbbd692cd	-0.0065482617
175	0x3c6b0bc1	0.014346064
176	0x3cedbafb	0.029019823
177	0x3cf490c3	0.029854184
178	0x3cf73576	0.03017686
179	0x3b02ab4d	0.001993853
180	0xbc95ebff	-0.018301008
181	0xbcf8c1b5	-0.030365804
182	0xbb4aae32	-0.0030926582
183	0xbcabf470	-0.02099058
184	0xbc11c505	-0.008897071
185	0x3c1ff574	0.00976311
186	0x3ceb912c	0.028755747
187	0x3c66f00f	0.01409532
188	0x3cb826d5	0.022479454
189	0xbc27e743	-0.010248008
190	0xbbf35aa5	-0.007426577
191	0x3ce22a41	0.027608039
192	0x3cce3b7b	0.025174847
193	0xbc93e0f9	-0.018051611
194	0xbc5091e9	-0.0127301
195	0xbce92e12	-0.02846435
196	0x3ca45573	0.020060277
197	0x3cec3379	0.028833138
198	0xbbafb225	-0.0053618127
199	0x3b8f092c	0.004365107
200	0x3cabfea5	0.020995447
201	0x3c09e83b	0.008417184
202	0x3d2042d8	0.039126247
203	0x3ce96544	0.02849067
204	0x3c08dca8	0.00835339
205	0x3cbdda99	0.023175525
206	0x3ce33241	0.027733924
207	0xba1d1db4	-0.0005993501
208	0x3c6b30e7	0.014354921
209	0x3aa1dacd	0.0012348533
210	0xbcc084cb	-0.02350082
211	0x3ccad4b8	0.024759635
212	0xbbe47cb0	-0.0069728717
213	0x3ce74dfe	0.028235432
214	0xbc8a9ef9	-0.016921507
215	0x3c7f67ef	0.015588745
216	0x3c5d78d3	0.013517576
217	0x3c4e4d92	0.012591736
218	0xbc95fb57	-0.018308325
219	0xba2489e2	-0.00062766497
220	0x3c7a1836	0.015264561
221	0x3cdbf657	0.026850862
222	0x3cf29d3b	0.029615989
223	0x3c992fd3	0.018699562
224	0xbc445012	-0.011981981
225	0x3a8e2856	0.0010845761
226	0xbb793ae1	-0.003802948
227	0xbc788751	-0.015168981
228	0x3bbacdd5	0.0057008066
229	0x3cf8f083	0.030388122
230	0x3bf03f25	0.007331746
231	0xbc1dd69f	-0.009633689
232	0xbb62e76c	-0.0034622801
233	0x3c25ce52	0.010119991
234	0xbc7a8d7a	-0.01529252
235	0x3c35e64b	0.011102269
236	0xbb5471f9	-0.0032416566
237	0x3cca8bcf	0.024724869
238	0xbc8e98d1	-0.017406853
239	0x3c8b114a	0.016976018
240	0xbcbbf348	-0.022943154
241	0x3bb2146d	0.005434564
242	0xbd04327a	-0.0322747
243	0x3c6b0ac0	0.014345825
244	0x3b7e51e9	0.0038806146
245	0x3c85db17	0.016339822
246	0xbc9eade7	-0.019370032
247	0xbbfbed41	-0.007688195
248	0xbc7b49cd	-0.01533742
249	0x3c10f67f	0.008847832
250	0xbb3e9598	-0.0029080864
251	0x3bfd1be1	0.0077242707
252	0x3cd62f65	0.026145646
253	0xbcb3c5c6	-0.021944892
254	0xbc9ef14d	-0.01940217
255	0xbcda1c9d	-0.026624972

10.bias f4 [30]
0	0xbc156eae	-0.009120626
1	0xbc186879	-0.009302252
2	0xbc58ac61	-0.013224692
3	0xbbf7518d	-0.0075475634
4	0xbcfcc0d1	-0.03085366
5	0xbc19d801	-0.009389878
6	0x3cdac357	0.026704473
7	0x3d348da8	0.044080406
8	0xbc1b63ca	-0.009484241
9	0x3bae1000	0.005311966
10	0x3cee9c9d	0.029127413
11	0xbc16e7ff	-0.009210586
12	0x3b3dfc49	0.0028989485
13	0xbbc6ad39	-0.00606313
14	0x3d26cc72	0.040722318
15	0x3b4641e4	0.0030251676
16	0xbb0f2250	-0.002184052
17	0x3d58c1c2	0.052919157
18	0x3d51e0da	0.051239826
19	0x3d7d461a	0.061834432
20	0x3c9255b7	0.017863138
21	0x3d711040	0.058853388
22	0x3c1f829b	0.009735729
23	0x3d336adc	0.04380308
24	0x3c8cbe0c	0.017180465
25	0x3d42e77e	0.04758405
26	0x3d49b4d1	0.049244706
27	0x3d7fa734	0.062415317
28	0x3cb46640	0.022021413
29	0x3c4ae778	0.012384288
