notebooks/model-500-0.8499.pt (torch, 164551 bytes, 10 tensors)

1.weight f4 [32, 1, 7]
0.6727438 0.5270165 0.12242235 0.1761703 -0.2543128 0.32100344 0.22270902 -0.074913785
0.4195491 0.18429378 -0.18398455 -0.28003284 0.31848103 0.009666177 0.21885449 -0.17383146
0.23592934 0.3497411 -0.36492947 -0.3771222 0.19818114 0.12801531 -0.2059494 -0.078994036
0.17221643 0.17855991 -0.14475007 0.19375232 0.030720206 0.099000216 -0.31658503 0.109641954
0.11547595 -0.3719986 0.0833986 0.6548545 0.47074115 -0.25763038 -0.35323218 0.26650172
-0.013456836 -0.14012913 0.10661127 -0.0137565 -0.37151855 0.20216475 0.33758047 -0.07172442
0.4194526 0.2397283 -0.19948655 0.49234074 0.57167417 0.30890027 -0.29270333 -0.6923163
-0.06469013 0.19132474 -0.31947947 -0.22065549 0.22863972 -0.1632991 0.4106636 0.6184882
0.62841815 0.27518842 0.2748771 -0.18172613 -0.5557579 -0.1097296 0.18651657 0.079217896
-0.24079958 -0.18317674 0.43217582 0.18226644 -0.23434731 0.2717542 0.05922787 0.008455611
0.309103 -0.25145152 -0.09079861 0.015824225 0.15913515 0.09243652 0.34050027 0.465768
0.1564814 0.32285315 -0.4674107 -0.5158038 -0.12082602 -0.096953675 -0.116106346 0.38121393
-0.14317155 -0.0016373856 -0.39765272 -0.11207587 0.2722242 -0.058052775 -0.22495799 0.22131076
0.42594808 -0.40956914 -0.33031783 -0.06334405 0.13494602 -0.34972998 0.14538771 0.12063604
-0.14861155 -0.1874412 0.020494051 0.21237086 0.28116256 0.29121512 0.20249954 -0.060446523
-0.049032435 0.24892245 -0.2703078 0.4333338 0.34364632 0.3252808 -0.13206354 0.052111752
0.3952936 -0.04434017 -0.42868584 -0.11938972 0.5203755 -0.035767898 -0.42302 -0.47131845
-0.36867505 0.3472585 0.62505335 -0.02860625 0.15694131 0.5321805 0.48660296 0.099612094
0.26385978 -0.03247393 -0.1932257 0.19519955 0.36042145 -0.08099865 0.39538005 0.22562875
-0.5379023 0.04670912 0.14934596 0.22576988 0.38836825 -0.23694251 -0.5109914 -0.32022986
0.19527137 0.082473084 -0.019165084 0.17984188 -0.11017783 -0.43893698 0.35049468 -0.10304547
0.03347452 -0.11198061 -0.14813663 0.06899063 0.15698597 -0.29034865 -0.25969177 0.13350046
0.026722755 -0.31354263 -0.3951608 -0.40294257 -0.20179349 -0.15972055 0.050506864 -0.3196565
-0.16756512 -0.2770741 -0.00035977917 0.068615265 -0.12162905 0.33048537 0.22278704 -0.3143875
-0.07146655 -0.3509209 -0.30874294 0.0034585115 0.0032136892 -0.12376328 0.14076753 -0.1653641
-0.3736293 -0.06834952 -0.12345672 -0.28845242 0.018257866 -0.16600825 0.29073897 0.38250944
0.3544276 0.41151312 0.0035291044 -0.41825622 -0.03868822 0.3990048 -0.098643705 0.2232006
0.36933333 -0.31781983 -0.40638548 0.1992421 -0.22402935 -0.22487079 0.49990305 0.49061307
00000000: f038 2c3f 8eea 063f 92b8 fa3d fd65 343e
00000010: 4a35 82be 905a a43e d50d 643e 666c 99bd
00000020: 24cf d63e 82b7 3c3e 7266 3cbe 7760 8fbe
00000030: f20f a33e e35e 1e3c 641b 603e e000 32be
00000040: 7697 713e 4411 b33e 09d8 babe 2916 c1be
00000050: ffef 4a3e 7216 033e 66e4 52be a0c7 a1bd
00000060: 8159 303e 69d8 363e 5d39 14be 0267 463e
00000070: f1a8 fb3c a0c0 ca3d 6f17 a2be f68b e03d
00000080: a87e ec3d 9a76 bebe e3cc aa3d 8ba4 273f
00000090: fc04 f13e 21e8 83be d9da b4be ea72 883e
000000a0: 107a 5cbc 037e 0fbe 0257 da3d f162 61bc
000000b0: ae37 bebe 4704 4f3e 59d7 ac3e 41e4 92bd
000000c0: 7ec2 d63e 567b 753e 3446 4cbe 1614 fc3e
000000d0: 3d59 123f 2d28 9e3e 36dd 95be a43b 31bf
000000e0: 427c 84bd a2ea 433e d092 a3be 83f3 61be
000000f0: 8820 6a3e e137 27be 8042 d23e 3e55 1e3f
00000100: 03e0 203f 7fe5 8c3e b1bc 8c3e 6a16 3abe
00000110: 2646 0ebf eab9 e0bd 33fe 3e3e fe3c a23d
00000120: 2a94 76be af92 3bbe 2646 dd3e 0ea4 3a3e
00000130: bef8 6fbe 5e23 8b3e ec98 723d 6789 0a3c
00000140: c042 9e3e 41be 80be 9ff4 b9bd cea1 813c
00000150: 53f4 223e 5c4f bd3d 0d56 ae3e 2579 ee3e
00000160: a93c 203e 024d a53e 7550 efbe b80b 04bf
00000170: a273 f7bd a68f c6bd 2ac9 edbd 792e c33e
00000180: 909b 12be 8b9d d6ba 2399 cbbe 0988 e5bd
00000190: f860 8b3e bfc8 6dbd 635b 66be 4a9f 623e
000001a0: de15 da3e 0cb3 d1be 6b1f a9be 86ba 81bd
000001b0: 4a2f 0a3e cf0f b3be 84e0 143e 0710 f73d
000001c0: a02d 18be 96f0 3fbe 24e3 a73c bf77 593e
000001d0: 8af4 8f3e 261a 953e 0a5c 4f3e c696 77bd
000001e0: 3cd6 48bd 87e5 7e3e c965 8abe eedd dd3e
000001f0: 69f2 af3e 348b a63e aa3b 07be 2273 553d
00000200: ec63 ca3e 0a9e 35bd b67c dbbe 9982 f4bd
00000210: 5437 053f 5c81 12bd 1496 d8be a750 f1be
00000220: fac2 bcbe decb b13e 7f03 203f a857 eabc
00000230: 39b5 203e fb3c 083f 0624 f93e 6d01 cc3d
00000240: a118 873e 6203 05bd f5dc 45be 64e2 473e
00000250: 2989 b83e 9fe2 a5bd 416f ca3e 390b 673e
00000260: f7b3 09bf 1052 3f3d 26ee 183e 3830 673e
00000270: 34d8 c63e 0fa1 72be 55d0 02bf 2bf5 a3be
00000280: 38f5 473e a6e7 a83d 1800 9dbc 7828 383e
00000290: eaa4 e1bd 59bc e0be 0a74 b33e 8109 d3bd
000002a0: 941c 093d 1756 e5bd 21b1 17be f64a 8d3d
000002b0: eec0 203e 94a8 94be 52f6 84be 58b4 083e
000002c0: aee9 da3c a988 a0be 8452 cabe 7d4e cebe
000002d0: f4a2 4ebe c98d 23be 49e0 4e3d 04aa a3be
000002e0: 3196 2bbe a8dc 8dbe bea0 bcb9 2986 8c3d
000002f0: a718 f9bd 6135 a93e 4922 643e 66f7 a0be
00000300: 0e5d 92bd e7ab b3be 8e13 9ebe 32a8 623b
00000310: c29c 523b 9a77 fdbd 5d25 103e 3555 29be
00000320: 574c bfbe d5fa 8bbd e0d6 fcbd 09b0 93be
00000330: 8591 953c 11fe 29be bddb 943e 47d8 c33e
00000340: 8977 b53e d9b1 d23e 8c48 673b ae25 d6be
00000350: 8a77 1ebd 5b4a cc3e b605 cabd b38e 643e
00000360: 4219 bd3e 48b9 a2be c211 d0be 1f06 4c3e
00000370: f367 65be 8744 66be 4bf3 ff3e a331 fb3e

1.bias f4 [32]
0.082916014 0.18923509 -0.4358849 0.10364695 -0.3412016 0.27828667 0.083573006 0.10028072
0.077032 0.28797546 -0.2026414 -0.36726314 -0.3514773 0.1707467 0.021801261 0.19343543
0.10783598 -0.31673542 -0.08367199 -0.08083582 -0.0053335456 0.19357668 0.15802021 -0.28633785
0.1514519 -0.00882733 -0.29829675 -0.16057406 -0.13037741 0.13191837 0.010932355 0.18941145
00000000: dfcf a93d d8c6 413e 4e2c dfbe da44 d43d
00000010: fab1 aebe 977b 8e3e 5328 ab3d fa5f cd3d
00000020: f4c2 9d3d 8571 933e 3a81 4fbe ea09 bcbe
00000030: d5f4 b3be 39d8 2e3e 8f98 b23c f013 463e
00000040: 1cd9 dc3d 252b a2be 385c abbd 408d a5bd
00000050: 06c5 aebb f738 463e 0dd0 213e e09a 92be
00000060: 3516 1b3e 81a0 10bc 5aba 98be 876d 24be
00000070: a881 05be 9c15 073e 9f1d 333c 13f5 413e

3.weight f4 [32, 32, 5]
-0.028865375 0.06947298 0.03804608 -0.009374386 -0.01087019 -0.053922668 0.04001771 0.026956663
0.040941123 -0.05401124 -0.055739123 -0.07638121 -0.03410905 0.05484439 0.0047384007 0.047825474
0.055243768 0.0003311005 -0.07099209 -0.028246982 -0.07479318 0.0015793504 -0.03150711 -0.074876994
0.0042229546 0.06102441 -0.031107321 0.06243164 0.02517185 -0.0025088196 0.08580323 -0.084287755
0.014297829 -0.05410934 0.00040281986 -0.083125494 -0.10259815 -0.13697678 -0.07649146 -0.0069969282
0.08292985 -0.07275332 0.10328462 -0.04023214 0.06835575 0.0753279 0.012317234 0.02856986
0.036643256 -0.06445387 -0.08737928 -0.022338608 0.025723191 -0.028314695 0.010797745 0.021271266
0.052838545 0.032490663 -0.019298982 0.025069479 -0.093844 0.07213453 -0.102285534 0.06608729
-0.010690133 0.07828958 0.06449185 0.017886376 -0.00058247376 0.1076523 0.035459228 -0.066946715
0.05285363 -0.050960235 -0.0408633 0.03757339 0.03779362 -0.048169617 -0.016449334 0.05560251
-0.0075799045 -0.07237234 0.06297096 0.050086856 0.010477864 -0.0710357 -0.005022561 0.009794881
0.005730618 0.04325612 -0.095053256 -0.006708549 0.01297507 -0.10892446 0.047113817 -0.0961537
0.0051089497 -0.09741901 -0.045373093 -0.07330884 -0.11499791 -0.08195122 -0.011806364 0.0050959704
0.03186567 0.1053964 -0.04761462 0.07263951 0.016933547 -0.046420604 -0.078097925 -0.049973875
-0.094483994 0.022506962 -0.073652536 -0.056279738 -0.09793785 0.01952546 -0.093692966 -0.009853716
-0.05165236 -0.055721022 -0.062584326 0.028959712 -0.023815844 -0.024444373 -0.04388701 -0.03739805
0.018622441 0.051588733 -0.0016192022 0.058014408 0.0015470495 -0.039222706 -0.07292722 0.02144057
-0.02357445 -0.038661115 0.05995066 0.030936845 -0.019079523 0.02623757 -0.041165695 -0.026518567
-0.0046603153 0.014020162 -0.045623995 -0.010170565 0.024780111 -0.074094236 -0.046790827 -0.063926704
-0.045808166 0.07312149 -0.0801887 0.07138616 -0.04199429 0.090319686 -0.020532165 0.0351652
-0.037981402 -0.09648016 -0.028339801 0.0064432807 -0.07198743 0.022625674 0.058111258 0.022651238
-0.0014997006 0.002679885 0.040060487 0.005041242 0.038936287 0.0147364605 -0.04529587 0.049012836
-0.024299938 0.042067625 0.036564454 0.013149805 0.07807538 -0.034477133 0.04921775 0.011510377
0.05085608 -0.04404788 -0.05279866 -0.013918308 0.017499689 -0.04258775 -0.06214354 -0.009750518
0.015816793 0.04915515 0.06337929 0.080629 -0.038382336 0.080486305 0.08662033 -0.05239073
0.04353136 0.0778106 -0.036756344 0.050452735 0.051708717 -0.08317306 0.008351669 -0.06353352
-0.04138086 -0.0018535958 -0.017381324 0.0037126713 -0.034745265 0.0015617834 0.07159558 -0.021663213
0.05821722 0.0017244222 0.06737272 0.060945217 -0.045101296 -0.077149324 0.0699254 -0.0574326
0.07074239 0.083319366 0.06903481 0.053224675 -0.01621568 -0.04260239 -0.014409037 0.037104134
-0.03801936 0.018023822 0.008926017 0.002111247 0.089048795 -0.032113604 0.033699643 -0.07383946
0.02722753 -0.06609267 -0.03289806 0.0317787 -0.04848807 -0.0523152 0.010890864 0.006582945
-0.061480794 -0.014123133 0.07204548 0.00791058 0.0124518825 0.016442882 0.018569909 -0.0013006596
00000000: 1477 ecbc da47 8e3d 35d6 1b3d 0697 19bc
00000010: e218 32bc 04de 5cbd 9ce9 233d 38d4 dc3c
00000020: e1b1 273d e43a 5dbd b54e 64bd c06d 9cbd
00000030: eeb5 0bbd 83a4 603d 9644 9b3b a5e4 433d
00000040: 4a47 623d 8f97 ad39 4d64 91bd 3766 e7bc
00000050: 2b2d 99bd 3502 cf3a 990d 01bd 1c59 99bd
00000060: b660 8a3b bbf4 793d c8d4 febc 52b8 7f3d
00000070: 3235 ce3c 026b 24bb 9bb9 af3d 0f9f acbd
00000080: 7141 6a3c c1a1 5dbd 9131 d339 b33d aabd
00000090: fb1e d2bd a443 0cbe 8ea7 9cbd 7d46 e5bb
000000a0: 20d7 a93d b1ff 94bd e386 d33d 75ca 24bd
000000b0: 19fe 8b3d 8445 9a3d 39ce 493c 570b ea3c
000000c0: 3d17 163d 6400 84bd e8f3 b2bd 75ff b6bc
000000d0: 71b9 d23c 38f4 e7bc 06e9 303c 1441 ae3c
000000e0: 3b6d 583d ee14 053d e618 9ebc 825e cd3c
000000f0: 4831 c0bd 45bb 933d 147b d1bd c658 873d
00000100: ab25 2fbc 4a56 a03d 4e14 843d 7386 923c
00000110: 27b1 18ba cf78 dc3d b23d 113d 5c1b 89bd
00000120: 0c7d 583d aebb 50bd 4760 27bd 8ee6 193d
00000130: 7ccd 1a3d 814d 45bd c1c0 86bc 75bf 633d
00000140: d960 f8bb f337 94bd ebf6 803d e027 4d3d
00000150: 59ab 2b3c 2a7b 91bd 4c94 a4bb b57a 203c
00000160: e8c7 bb3b 542d 313d 48ab c2bd 63d3 dbbb
00000170: 6395 543c ca13 dfbd 6bfa 403d 3bec c4bd
00000180: fa68 a73b 9e83 c7bd 23d9 39bd f222 96bd
00000190: 0684 ebbd 0bd6 a7bd 7b6f 41bc 19fc a63b
000001a0: 9485 023d 11da d73d 8c07 43bd 06c4 943d
000001b0: 39b8 8a3c 8823 3ebd cef1 9fbd 68b1 4cbd
000001c0: d380 c1bd 8560 b83c 24d7 96bd 9585 66bd
000001d0: a493 c8bd dcf3 9f3c 19e2 bfbd 7b71 21bc
000001e0: 6d91 53bd ba3b 64bd 362c 80bd eb3c ed3c
000001f0: 7219 c3bc 913f c8bc dec2 33bd b32e 19bd
00000200: 178e 983c b54e 533d 693b d4ba 84a0 6d3d
00000210: 5ec6 ca3a fda7 20bd de5a 95bd 22a4 af3c
00000220: 341f c1bc 1e5b 1ebd d38e 753d 446f fd3c
00000230: a94c 9cbc 2cf0 d63c 5c9d 28bd 773d d9bc
00000240: 8fb5 98bb d2b4 653c 3ae0 3abd 71a2 26bc
00000250: a9ff ca3c b8be 97bd bda7 3fbd 01ec 82bd
00000260: 58a1 3bbd b8c0 953d f939 a4bd e832 923d
00000270: 3402 2cbd 87f9 b83d 1233 a8bc 6209 103d
00000280: 6392 1bbd 6497 c5bd df28 e8bc 2822 d33b
00000290: 256e 93bd 7a59 b93c 1206 6e3d 178f b93c
000002a0: 9a91 c4ba 02a1 2f3b 7716 243d 0131 a53b
000002b0: a87b 1f3d 3271 713c 2a88 39bd afc1 483d
000002c0: aa10 c7bc 1a4f 2c3d 9cc4 153d 4872 573c
000002d0: fce5 9f3d e537 0dbd 8d98 493d 0596 3c3c
000002e0: 774e 503d 8d6b 34bd 6843 58bd 9d09 64bc
000002f0: 825b 8f3c 7e70 2ebd 398a 7ebd a3c0 1fbc
00000300: 3892 813c e956 493d 00cd 813d d120 a53d
00000310: cc36 1dbd 01d6 a43d 0066 b13d a997 56bd
00000320: f04d 323d 2a5b 9f3d d28d 16bd 87a7 4e3d
00000330: 85cc 533d a356 aabd 70d5 083c dd1d 82bd
00000340: fa7e 29bd 5bf4 f2ba 4763 8ebc 4a50 733b
00000350: 0d51 0ebd c1b4 cc3a b4a0 923d 0d77 b1bc
00000360: 2e75 6e3d 0206 e23a b5fa 893d b1a1 793d
00000370: 23bc 38bd 7700 9ebd 0c35 8f3d 723e 6bbd
00000380: 63e1 903d 58a3 aa3d 1f62 8d3d 1e02 5a3d
00000390: bfd6 84bc d87f 2ebd e213 6cbc 81fa 173d
000003a0: 30ba 1bbd b2a6 933c 6e3e 123c d95c 0a3b
000003b0: 375f b63d 8e89 03bd a308 0a3d 2539 97bd
000003c0: 450c df3c 985b 87bd 1ec0 06bd 622a 023d
000003d0: 6d9b 46bd 7748 56bd 986f 323c bfb5 d73b
000003e0: 49d3 7bbd b764 67bc 958c 933d 619b 013c
000003f0: fb02 4c3c 39b3 863c ec1f 983c e57a aaba

3.bias f4 [32]
0.079210564 -0.009735944 0.12715949 0.025947727 -0.010269924 0.046524286 -0.07623897 -0.17405474
0.010337413 0.070362136 0.0065349303 -0.016128538 -0.13319927 0.08173739 0.11504222 0.10361362
-0.16291237 -0.061715715 0.01182757 0.09183643 -0.20384891 0.043589078 0.13265541 0.15556133
0.10483004 -0.06300237 0.043483246 -0.06695384 0.012612156 0.0041883267 0.14383437 0.052344445
00000000: 2639 a23d 8283 1fbc 1936 023e 5490 d43c
00000010: 2f43 28bc 4090 3e3d 2d23 9cbd 683b 32be
00000020: 415e 293c 061a 903d f822 d63b ff1f 84bc
00000030: 6465 08be ef65 a73d 419b eb3d 6133 d43d
00000040: 80d2 26be 9ec9 7cbd 6dc8 413c bd14 bc3d
00000050: c5bd 50be 768a 323d d2d6 073e 784b 1f3e
00000060: 22b1 d63d 6307 81bd 7d1b 323d 181f 89bd
00000070: 37a3 4e3c 3b3e 893b 5149 133e 2167 563d

5.weight f4 [32, 32, 3]
0.11265671 0.1342178 0.09560195 0.04277962 -0.036620654 -0.06873725 -0.22786944 -0.07391837
0.012402468 -0.0072042444 -0.078013144 0.046555664 -0.11569975 0.024952963 0.010293538 0.14967707
0.04469097 -0.07275104 -0.021738471 -0.029109446 0.091570996 0.05228431 -0.05465432 0.048036315
0.07997042 -0.1022641 -0.081967406 0.063559815 0.06713707 0.07366157 -0.22666594 -0.046473417
-0.093591645 0.064895876 0.016838146 -0.085904755 -0.1494998 -0.08972998 -0.083386905 -0.15498021
-0.057533458 -0.09700874 -0.12259419 -0.01504312 0.13957056 -0.0536572 -0.02498048 -0.1599431
-0.17360765 -0.16712482 -0.08906628 -0.056541152 0.038893063 -0.023691434 -0.06691937 -0.12135401
-0.1267272 0.046388704 0.066910416 0.114125766 -0.3127805 -0.29934442 -0.096755825 -0.12045375
-0.12040529 -0.14647669 -0.15451567 -0.17104147 -0.11664317 0.035558496 0.00778916 0.08993333
0.048004653 0.010495485 -0.0370705 0.07408165 0.0064307307 -0.045952037 -0.034924187 0.06753356
0.042709056 -0.09936569 -0.08151609 0.035751216 -0.05553427 -0.06292521 0.05355867 0.020574324
0.0915276 0.0042119576 -0.06885139 0.089496635 0.1361989 -0.0028766359 -0.030564291 -0.11681033
0.032939143 -0.025319574 0.017829953 -0.07398181 0.06029949 0.063326344 -0.078821436 0.09238013
-0.02616925 -0.049606137 -0.0740399 -0.097876884 0.046761006 -0.079725504 0.053258777 -0.062230904
-0.06524551 -0.08872919 -0.05499157 0.051345624 0.0734796 0.06893225 0.0929548 -0.033936203
-0.0232338 0.038698006 0.0052155964 -0.0254686 0.0365934 0.09564676 0.065836295 -0.06874007
-0.011158204 0.027633738 -0.09821448 -0.05066039 0.07101295 0.03228902 -0.082544655 0.042422533
-0.009189725 -0.022561548 -0.10157656 0.0028671299 -0.10368184 0.06690752 0.008411005 -0.09234421
0.029285615 -0.03710244 -0.018582234 0.06459849 -0.023433555 0.09173484 0.084669106 -0.038896732
0.015005511 -0.091052175 -0.008058382 -0.032424454 -0.086075045 -0.07572838 0.038913943 0.028577143
0.09585698 0.09909755 0.09010864 0.00421452 -0.05741243 -0.017216282 0.07829741 0.097940005
-0.10741664 0.08106647 0.033672046 -0.055997115 0.0800755 0.041161098 -0.057102285 -0.05188119
0.09152985 0.08998876 0.06952396 0.06365907 -0.0066347555 0.044318262 -0.08734249 -0.03363703
-0.06491176 0.09528758 0.06860361 -0.078315735 0.039583784 -0.009524447 0.004964681 0.025573906
-0.0037068366 -0.10058623 0.015609047 -0.09035521 -0.0065600104 0.099549405 -0.015395858 -0.028216502
0.06515213 -0.06646472 -0.07575421 0.03268112 -0.011591527 -0.013534528 0.047735233 0.06192616
-0.007181443 0.06446553 -0.07058508 -0.11798223 0.05076721 0.040844545 -0.009366398 -0.021455366
-0.045015205 -0.08066854 -0.024434956 -0.0898451 0.055588145 0.021084368 -0.04995231 0.01875754
-0.04762826 0.017189266 -0.09963351 -0.04887273 0.024592077 0.08043021 0.029309914 0.02078159
0.11803207 0.015855717 -0.12268935 -0.0079916855 0.048342843 -0.03384751 0.09727314 0.059968784
0.071952306 -0.09613983 0.100716405 0.02424188 0.08791863 -0.08719784 0.0356467 -0.0062311282
-0.08025418 0.00856245 0.09910344 0.12794656 -0.032955725 0.12397705 -0.048164204 -0.021595769
00000000: 90b8 e63d 6470 093e f5ca c33d af39 2f3d
00000010: 8aff 15bd 1ec6 8cbd 9b56 69be 8462 97bd
00000020: b933 4b3c 9511 ecbb 5bc5 9fbd 27b1 3e3d
00000030: fef3 ecbd 286a cc3c 3aa6 283c f244 193e
00000040: e10d 373d 7ffe 94bd e114 b2bc ef76 eebc
00000050: 9389 bb3d 1328 563d 35dd 5fbd bac1 443d
00000060: 88c7 a33d d76f d1bd 87de a7bd a62b 823d
00000070: 297f 893d e1db 963d 1e1b 68be e95a 3ebd
00000080: faac bfbd 21e8 843d 27f0 893c d5ee afbd
00000090: 7a16 19be 5ac4 b7bd c1c6 aabd 22b3 1ebe
000000a0: 34a8 6bbd 85ac c6bd aa12 fbbd 6b77 76bc
000000b0: 96eb 0e3e a7c7 5bbd dda3 ccbc 20c8 23be
000000c0: 34c6 31be c522 2bbe 6268 b6bd b297 67bd
000000d0: 554e 1f3d 8a14 c2bc 060d 89bd 7488 f8bd
000000e0: c6c4 01be 1502 3e3d 5408 893d c5ba e93d
000000f0: c424 a0be ac43 99be eb27 c6bd 75b0 f6bd
00000100: 0c97 f6bd fcfd 15be 5b39 1ebe 7f25 2fbe
00000110: 9de2 eebd c9a5 113d 363c ff3b f72e b83d
00000120: 87a0 443d 41f5 2b3c 3dd7 17bd 1fb8 973d
00000130: e1b8 d23b 3438 3cbd aa0c 0fbd 094f 8a3d
00000140: b1ef 2e3d 3d80 cbbd e8f1 a6bd de6f 123d
00000150: e777 63bd efde 80bd 5660 5b3d 7c8b a83c
00000160: d372 bb3d 7604 8a3b f501 8dbd 034a b73d
00000170: b977 0b3e f185 3cbb f761 fabc 413a efbd
00000180: 32eb 063d ff6a cfbc 1f10 923c c683 97bd
00000190: 99fc 763d 3eb1 813d 226d a1bd cb31 bd3d
000001a0: e560 d6bc ce2f 4bbd 3ba2 97bd ad73 c8bd
000001b0: 7888 3f3d 2047 a3bd e025 5a3d d5e5 7ebd
000001c0: 709f 85bd a6b7 b5bd d73e 61bd ca4f 523d
000001d0: 797c 963d 5a2c 8d3d 165f be3d b000 0bbd
000001e0: cf54 bebc cd81 1e3d 98e7 aa3b 87a3 d0bc
000001f0: f6e2 153d 73e2 c33d 2ed5 863d 98c7 8cbd
00000200: e6d0 36bc 2660 e23c ac24 c9bd 4581 4fbd
00000210: 3d6f 913d 7e41 043d 2c0d a9bd 40c3 2d3d
00000220: 8090 16bc ffd2 b8bc 5f07 d0bd 75e6 3b3b
00000230: 2557 d4bd cf06 893d 50ce 093c f61e bdbd
00000240: 63e8 ef3c baf8 17bd c539 98bc 374c 843d
00000250: baf7 bfbc 7adf bb3d ff66 ad3d 2e52 1fbd
00000260: add9 753c 9079 babd 4e07 04bc 81cf 04bd
00000270: 1d48 b0bd 7b17 9bbd 3a64 1f3d 9d1a ea3c
00000280: aa50 c43d a8f3 ca3d e18a b83d f519 8a3b
00000290: 4c29 6bbd 2909 8dbc 645a a03d c594 c83d
000002a0: 41fd dbbd 2d06 a63d b3eb 093d 3b5d 65bd
000002b0: a0fe a33d 8a98 283d 16e4 69bd 5f81 54bd
000002c0: 0174 bb3d 074c b83d 9462 8e3d b05f 823d
000002d0: 5d68 d9bb 1187 353d 9fe0 b2bd fbc6 09bd
000002e0: 75f0 84bd 2226 c33d 0d80 8c3d 0064 a0bd
000002f0: 9b22 223d 6d0c 1cbc c3ae a23b 5e80 d13c
00000300: 66ee 72bb 2700 cebd 17bd 7f3c 270c b9bd
00000310: 5bf5 d6bb 8fe0 cb3d e93e 7cbc 4b26 e7bc
00000320: 7b6e 853d a81e 88bd 0625 9bbd a3dc 053d
00000330: 63ea 3dbc edbf 5dbc 0586 433d 49a6 7d3d
00000340: 4f52 ebbb 8106 843d e98e 90bd aba0 f1bd
00000350: 47f1 4f3d 9c4c 273d 8575 19bc 2ac3 afbc
00000360: dd61 38bd 8c35 a5bd d12b c8bc b500 b8bd
00000370: 65b0 633d 20b9 ac3c cb9a 4cbd 6aa9 993c
00000380: da15 43bd 81d0 8c3c a70c ccbd c62e 48bd
00000390: 5375 c93c 98b8 a43d 581b f03c 273e aa3c
000003a0: ccba f13d d9e3 813c 8e44 fbbd 8fef 02bc
000003b0: 2503 463d b0a3 0abd 2437 c73d d4a1 753d
000003c0: bb5b 933d f6e4 c4bd 6744 ce3d e896 c63c
000003d0: af0e b43d c894 b2bd 4602 123d 7e2e ccbb
000003e0: 4e5c a4bd 8549 0c3c bff6 ca3d 6c04 033e
000003f0: 95fc 06bd aee7 fd3d d447 45bd 9ce9 b0bc

5.bias f4 [32]
0.1896464 -0.096092805 0.14610124 0.13218682 -0.053796425 0.198294 0.136512 -0.07699118
-0.049840763 0.15253237 0.19393589 -0.053046666 0.16861294 0.13322361 0.07346152 0.18690802
0.060941566 -0.041885335 -0.113236524 0.1504724 0.01572647 0.12717544 0.2655909 -0.0688915
0.22381854 0.011031851 -0.0729845 0.062243775 -0.04768543 -0.084832974 0.18772033 0.023221198
00000000: aa32 423e 4ecc c4bd 909b 153e fb5b 073e
00000010: a459 5cbd 950d 4b3e cdc9 0b3e 8dad 9dbd
00000020: d425 4cbd 7231 1c3e 2197 463e 7647 59bd
00000030: dfa8 2c3e c56b 083e fe72 963d d164 3f3e
00000040: dd9d 793d f58f 2bbd 8de8 e7bd 7015 1a3e
00000050: ccd4 803c 473a 023e 88fb 873e fd16 8dbd
00000060: b030 653e f0be 343c e678 95bd 54f3 7e3d
00000070: cc51 43bd e9bc adbd c239 403e 623a be3c

7.weight f4 [32, 32, 3]
-0.07620183 0.0031114637 0.029625297 0.07201167 -0.033620786 0.017176481 0.020649785 0.062034577
-0.013897859 -0.0740005 -0.13974258 -0.14641035 -0.08506184 -0.05618347 0.084221914 0.027288483
0.06388737 -0.107555464 0.07230706 0.081660256 -0.003465787 0.08053866 0.017244643 -0.0071841497
0.074604936 0.024091594 0.0530396 0.11004349 -0.0631742 0.0045396853 0.029910281 -0.12074963
0.06699195 -0.059271704 0.015168719 -0.0013306367 0.08467567 0.100214444 0.07809613 -0.045624953
-0.048264597 -0.087913804 -0.06982556 -0.08029944 0.02739174 -0.0102399755 0.00081450783 -0.03760171
-0.047355086 -0.025947727 -0.039414927 -0.040216032 0.07176784 0.008736214 -0.08529163 0.056667045
0.09230764 -0.05636785 0.020114928 -0.00051844 0.08760455 0.048335105 -0.0009459786 -0.052348264
-0.00271014 -0.004683534 -0.0062764212 -0.006395824 -0.014211276 0.047532473 -0.015448001 -0.011282184
0.09153944 -0.05724684 -0.031171985 0.06794831 0.05978603 -0.025818536 0.07330478 -0.037376817
-0.07866925 0.009660987 -0.0049232217 -0.033244748 0.044361822 -0.016522069 0.06279311 0.086893156
-0.01192548 0.09096498 0.036105793 0.09593567 0.060458396 -0.084401466 -0.10371915 -0.07309514
-0.061300877 0.028164884 -0.034600124 0.067116514 -0.06420382 0.059583645 -0.105681606 -0.06631147
-0.038170323 0.07538098 -0.03234596 -0.038029276 -0.08303082 0.024395045 -0.011228375 0.054364346
-0.021085916 0.083815195 0.027777495 0.07291137 0.0639971 -0.06651533 -0.04072282 -0.04478813
0.10115422 -0.02257406 0.03193334 0.04040748 0.0020577575 0.045662627 0.0010334877 -0.027129408
-0.075825885 0.08074949 -0.045024276 -0.09473821 0.007493467 0.026369758 0.059099402 0.053509038
-0.084581815 -0.04628099 0.08401011 -0.035923112 0.09765145 0.011719439 0.06389895 -0.103248715
0.016321413 -0.06447431 -0.012973507 0.033419218 0.08456562 0.09472968 0.06707072 -0.06543413
-0.051509883 -0.05238061 -0.060652252 0.025661001 -0.08388426 -0.033496328 0.064084366 -0.085141145
0.101116665 -0.010024749 0.08363226 -0.023492932 0.02889179 -0.09120288 0.00013605405 0.0874571
0.091535635 -0.101758786 0.023910787 0.008822675 -0.08251323 -0.039774958 -0.09574884 0.036231473
-0.083230756 0.035262138 0.051969726 -0.017770983 0.08945246 0.07847845 0.04950625 -0.10073461
-0.059199557 0.07207424 0.06468419 0.05744994 0.037231136 -0.06266945 -0.008152983 -0.020818008
-0.044437937 0.014597929 0.05815572 -0.023024272 0.09145059 -0.006708635 0.036070317 0.097337306
0.0778512 -0.08418485 -0.010985051 -0.009847103 0.007544697 0.044798758 -0.032091912 -0.049281135
0.06891137 0.05725112 -0.036052383 -0.098582864 0.03549033 0.056967974 0.024981618 0.07586081
0.03452311 0.07595324 -0.01562899 0.0073927846 -0.06377218 0.011179268 -0.05410437 0.06695264
0.05281274 0.0053347023 0.0022912824 -0.048345096 0.022064531 -0.03364672 0.060219657 -0.097097814
0.014214018 0.01193243 0.0010250285 0.014427072 0.037927255 -0.021383733 -0.05085993 -0.019380616
-0.004904287 -0.03329254 0.07200539 -0.040952347 -0.030911002 -0.0824421 -0.0025780688 -0.03744786
-0.009254823 -0.017911049 -0.024381109 -0.06294945 0.09502834 -0.045568783 -0.045824826 -0.042188957
00000000: b40f 9cbd b3e9 4b3b c0b0 f23c db7a 933d
00000010: f3b5 09bd b1b5 8c3c bd29 a93c f817 7e3d
00000020: d8b3 63bc 938d 97bd ae18 0fbe 98ec 15be
00000030: e734 aebd a320 66bd 8a7c ac3d 198c df3c
00000040: 62d7 823d 0a46 dcbd b915 943d 7e3d a73d
00000050: 4222 63bb 74f1 a43d a344 8d3c 0469 ebbb
00000060: 79ca 983d bc5b c53c 0d40 593d 7b5e e13d
00000070: 7a61 81bd a4c1 943b 6806 f53c 954b f7bd
00000080: 1333 893d e3c6 72bd 3886 783c c268 aeba
00000090: 706a ad3d 3b3d cd3d ddf0 9f3d 3be1 3abd
000000a0: 19b1 45bd 270c b4bd b400 8fbd 0874 a4bd
000000b0: a464 e03c 92c5 27bc b284 553a 4004 1abd
000000c0: 68f7 41bd 5490 d4bc 8c71 21bd 91b9 24bd
000000d0: 04fb 923d 5622 0f3c 61ad aebd b41b 683d
000000e0: ca0b bd3d fae1 66bd 10c8 a43c ebe7 07ba
000000f0: 046a b33d 08fb 453d 8dfb 77ba 226b 56bd
00000100: 9b9c 31bb 5578 99bb 70aa cdbb 0f94 d1bb
00000110: 69d6 68bc 69b1 423d 9d19 7dbc e9d8 38bc
00000120: 0879 bb3d aa7b 6abd 645c ffbc 7c28 8b3d
00000130: 32e2 743d 6581 d3bc d120 963d 6f18 19bd
00000140: 581d a1bd 1e49 1e3c fa52 a1bb a52b 08bd
00000150: beb4 353d 4a59 87bc ad99 803d 0af5 b13d
00000160: 1763 43bc d94b ba3d abe3 133d ec79 c43d
00000170: 39a3 773d adda acbd b56a d4bd e8b2 95bd
00000180: a116 7bbd 0bba e63c dcb8 0dbd 6274 893d
00000190: 4b7d 83bd fb0d 743d 996f d8bd 4fce 87bd
000001a0: 7c58 1cbd 5861 9a3d 337d 04bd 96c4 1bbd
000001b0: 100c aabd 1ed8 c73c 38f7 37bc 26ad 5e3d
000001c0: 5fbc acbc 4da7 ab3d a18d e33c 8e52 953d
000001d0: e910 833d 3039 88bd f9cc 26bd c273 37bd
000001e0: f229 cf3d 3ced b8bc 89cc 023d 5082 253d
000001f0: 71db 063b bc08 3b3d 1876 873a 7e3e debc
00000200: 9a4a 9bbd fd5f a53d 606b 38bd 1b06 c2bd
00000210: c28b f53b 6405 d83c 3712 723d 4b2c 5b3d
00000220: 3b39 adbd 2391 3dbd 7e0d ac3d 1d24 13bd
00000230: 7cfd c73d e402 403c 74dd 823d 1074 d3bd
00000240: 7cb4 853c 1b0b 84bd d58e 54bc 97e2 083d
00000250: bd30 ad3d a201 c23d 605c 893d 5402 86bd
00000260: 07fc 52bd 0d8d 56bd 7f6e 78bd 0537 d23c
00000270: 83cb abbd 7233 09bd aa3e 833d 7b5e aebd
00000280: 4116 cf3d d83e 24bc 6447 ab3d 4074 c0bc
00000290: 7aae ec3c 93c8 babd bba9 0e39 b51c b33d
000002a0: 0977 bb3d e966 d0bd 8ee0 c33c fb8c 103c
000002b0: b2fc a8bd 11eb 22bd f817 c4bd 7467 143d
000002c0: e374 aabd 086f 103d 35de 543d 7494 91bc
000002d0: da32 b73d 4fb9 a03d 11c7 4a3d f24d cebd
000002e0: 3c7b 72bd a99b 933d 2579 843d a150 6b3d
000002f0: ad7f 183d d758 80bd 1794 05bc 878a aabc
00000300: 8e04 36bd 272c 6f3c b134 6e3d 669d bcbc
00000310: 724a bb3d 1cd4 dbbb 78be 133d c858 c73d
00000320: 7370 9f3d 1b69 acbd a5fa 33bc be55 21bc
00000330: 8139 f73b e77e 373d cf72 03bd 04db 49bd
00000340: 6821 8d3d 2780 6a3d aaab 13bd d0e5 c9bd
00000350: 4f5e 113d 4057 693d 40a6 cc3c ea5c 9b3d
00000360: 1b68 0d3d 5f8d 9b3d 5e08 80bc 2c3f f23b
00000370: fd9a 82bd 4029 373c 8b9c 5dbd 771e 893d
00000380: 2c52 583d bace ae3b 5729 163b 8205 46bd
00000390: adc0 b43c 25d1 09bd e3a8 763d 38db c6bd
000003a0: eae1 683c 3d80 433c 405a 863a 875f 6c3c
000003b0: 9c59 1b3d f02c afbc 8152 50bd 19c4 9ebc
000003c0: 24b4 a0bb c25d 08bd 9077 933d a6bd 27bd
000003d0: 1239 fdbc 67d7 a8bd d1f4 28bb ed62 19bd
000003e0: 8ba1 17bc 31ba 92bc e4ba c7bc a4eb 80bd
000003f0: 389e c23d 55a6 3abd d0b2 3bbd 54ce 2cbd

7.bias f4 [32]
0.15074946 -0.0734138 -0.014114444 -0.06066158 -0.25394648 -0.045535117 -0.019659106 0.07676376
-0.14592633 0.34789616 0.18533316 -0.043881226 -0.09695247 0.06758086 0.049576376 -0.036548417
-0.11790828 0.10346689 -0.024398847 0.08576599 -0.082208976 0.061695565 0.022090077 0.048650783
0.018364845 0.06221287 0.050569642 -0.018751753 0.105159245 0.057720117 0.026530914 0.051995125
00000000: 115e 1a3e f959 96bd 4540 67bc 4778 78bd
00000010: 4605 82be 0883 3abd 220c a1bc 5136 9d3d
00000020: b66d 15be 721f b23e fac7 3d3e cdbc 33bd
00000030: 048f c6bd d567 8a3d 9910 4b3d cbb3 15bd
00000040: e579 f1bd 73e6 d33d 17e0 c7bc 14a6 af3d
00000050: 2e5d a8bd 7db4 7c3d 40f6 b43c 0b46 473d
00000060: df71 963c ecd2 7e3d 1d22 4f3d 479d 99bc
00000070: bb5d d73d ee6b 6c3d 5c57 d93c d7f8 543d

10.weight f4 [30, 960]
0.011975873 0.017963594 0.018000783 0.015895972 0.013739642 0.012982123 0.030085377 0.011571855
0.024724158 0.028483463 0.027135894 0.02415171 -0.0124714095 -0.010057157 -0.007658668 -0.021716496
-0.00026725346 -0.010293547 0.0028605198 0.003132226 -0.03360778 -0.012644857 -0.013040361 0.015059525
-0.01210795 -0.029669503 -0.047949463 0.002233227 -0.041973114 -0.00030478183 0.01711921 0.022489106
-0.020946527 0.022927042 -0.029593835 -0.022477645 -0.03257554 0.016364958 -0.01789798 -0.0014354653
0.00020684589 0.018264493 0.003168104 -0.031710494 -0.025997272 -0.011787045 0.029071134 0.0026751964
0.01969424 0.01182012 0.021673098 0.032305274 0.0074411687 0.027481994 -0.019828405 0.0038110935
0.032170463 0.034217123 -0.018610194 0.0044687195 0.007919764 0.02476193 -0.0026371088 -0.023885975
0.008139308 0.006921923 -0.024876663 -0.026134776 0.022943705 0.0132159535 0.029599154 -0.0083860615
-0.030035589 0.011722227 -0.0046019917 0.029548645 -0.028710952 0.028815132 0.014513691 -0.011726445
0.022338677 0.0018220047 -0.024316492 0.01183844 0.02477974 0.031120472 -0.020568728 0.024371857
-0.023413759 0.0358521 0.003855753 0.028096272 0.0086463755 0.019620169 0.0049264706 -0.031808775
-0.01829741 -0.00073231896 0.0269062 0.017907692 0.027809845 -0.005835114 0.027741779 -8.158673e-05
-0.0027487667 -0.0062070284 -0.021896822 0.016402982 0.013005187 0.008492894 0.005633354 0.03103789
0.01792505 0.02957677 0.019445209 -0.009456397 -0.019472003 -0.010192265 0.0057912907 0.008740927
0.019291583 0.024215013 -0.007198874 -0.0029769049 0.031269073 0.0014616959 0.008810451 -0.008393
0.048799552 -0.012099784 0.01803383 0.038025048 0.045682624 0.018619869 -0.0057874154 0.02936949
0.010274544 -0.033088777 -0.015287971 -0.016382445 -0.039643336 -0.004093229 0.030584184 -0.029777385
-0.028820693 0.014796677 0.00087705505 0.032660354 -0.0030668855 0.02237632 0.010421458 0.022087358
-0.00045997702 -0.0274507 0.030135151 0.0042820503 0.036396623 -0.0052275155 -0.0011194446 0.037973523
-0.017712459 -0.0042033726 0.01890094 -0.030176247 -0.0029730382 -0.016669253 -0.008088045 -0.024655413
0.02352149 0.019914506 0.015522965 -0.018345278 0.02542754 0.034539837 0.0034322552 0.018107273
0.000771002 0.02662026 0.04060753 0.007343856 0.0005007752 0.009910811 0.012524962 -0.020088691
0.011888445 -0.015944317 -0.009001204 -0.0032524029 -0.0034940457 -0.029146666 -0.030173568 0.0054673254
-0.020165067 0.0039826375 -0.01784902 -0.02300479 -0.0071548587 0.02196528 -0.012375157 -0.026458079
0.018458692 -0.031218683 -0.0058571645 -0.023036964 0.0021688512 -0.016171588 -0.015781498 -0.022287168
0.04132272 -0.01190152 0.0092740655 -0.008964415 0.00984861 0.02549992 0.005257591 -0.012183542
0.023779167 -0.011394204 -0.013446123 0.030779643 0.016303249 -0.008784505 0.0028725863 0.0003167473
0.012282497 -0.010662601 0.001314468 0.026014937 -0.012710048 0.019107617 -0.012901616 0.0022936643
0.021992672 -0.011415274 -0.013905648 0.0019233502 0.013243128 0.03290627 -0.006154455 -0.007421705
0.021256145 -0.008707491 -0.008712719 -0.01428425 0.024139678 -0.0038903966 -0.008796013 -0.014827976
0.034965377 0.0046288837 -0.005931324 -0.00971298 0.008332181 0.011439209 -0.0028947804 0.032023888
00000000: 7436 443c 6328 933c 6176 933c 4538 823c
00000010: 3c1c 613c f8b2 543c 9c75 f63c e197 3d3c
00000020: 518a ca3c 2756 e93c 184c de3c cfd9 c53c
00000030: e254 4cbc c6c6 24bc 90f5 fabb cbe6 b1bc
00000040: 271e 8cb9 44a6 28bc 8f77 3b3b 0846 4d3b
00000050: 50a8 09bd 602c 4fbc 3da7 55bc 3abc 763c
00000060: 6c60 46bc 750d f3bc a866 44bd 555b 123b
00000070: 00ec 2bbd 20cb 9fb9 963d 8c3c 133b b83c
00000080: 0d98 abbc 7ed1 bb3c c56e f2bc 0a23 b8bc
00000090: ee6d 05bd ce0f 863c c99e 92bc 3926 bcba
000000a0: c5e4 5839 6b9f 953c f79f 4f3b dde2 01bd
000000b0: 3bf8 d4bc 731e 41bc 9626 ee3c 5952 2f3b
000000c0: d155 a13c 2da9 413c c88b b13c 8952 043d
000000d0: 0cd5 f33b eb21 e13c 2e6f a2bc 8ac3 793b
000000e0: 2dc5 033d 4127 0c3d 6874 98bc 566e 923b
000000f0: e6c1 013c 88d9 ca3c 58d3 2cbb 85ac c3bc
00000100: bb5a 053c 4cd1 e23b 25ca cbbc 9918 d6bc
00000110: 70f4 bb3c ba87 583c ed79 f23c b165 09bc
00000120: 320d f6bc 950e 403c 4ecc 96bb 0010 f23c
00000130: 3b33 ebbc b60d ec3c d5ca 6d3c 4620 40bc
00000140: 9aff b63c 55d0 ee3a 6133 c7bc 04f6 413c
00000150: e2fe ca3c 5cf0 fe3c c07f a8bc 7da7 c73c
00000160: 36ce bfbc a7d9 123d cdb0 7c3b 272a e63c
00000170: 87a9 0d3c 7aba a03c 3b6e a13b eb49 02bd
00000180: 73e4 95bc 18f9 3fba 646a dc3c 27b3 923c
00000190: 79d1 e33c 7c34 bfbb ba42 e33c 8b19 abb8
000001a0: a724 34bb 5464 cbbb f760 b3bc 8c5f 863c
000001b0: b513 553c c725 0b3c 0098 b83b 2c43 fe3c
000001c0: 8ed7 923c fb4a f23c 8f4b 9f3c 01ef 1abc
000001d0: c083 9fbc 75fd 26bc dec4 bd3b 1b36 0f3c
000001e0: 6209 9e3c 905e c63c 88e4 ebbb 2d18 43bb
000001f0: 0014 003d 6096 bf3a b659 103c cb82 09bc
00000200: 0ae2 473d 2c3e 46bc afbb 933c 27c0 1b3d
00000210: b41d 3b3d b288 983c 5ca4 bdbb 4998 f03c
00000220: 9056 283c 1988 07bd 667a 7abc 7a34 86bc
00000230: 0d61 22bd 7e20 86bb af8b fa3c b4ef f3bc
00000240: 6019 ecbc c36d 723c 2bea 653a ddc6 053d
00000250: cdfd 48bb 8b4e b73c c3be 2a3c 8cf0 b43c
00000260: 1229 f1b9 4ae0 e0bc fedd f63c 7150 8c3b
00000270: a014 153d 944b abbb 54ba 92ba 208a 1b3d
00000280: b819 91bc 72bc 89bb 25d6 9a3c 2d34 f7bc
00000290: 4ed7 42bb f58d 88bc b883 04bc 26fa c9bc
000002a0: 24b0 c03c bf23 a33c 0954 7e3c d648 96bc
000002b0: 6b4d d03c a579 0d3d b0ef 603b b455 943c
000002c0: 121d 4a3a bb12 da3c 1554 263d bba4 f03b
000002d0: 7446 033a f460 223c 8035 4d3c 0a91 a4bc
000002e0: c1c7 423c a89d 82bc c979 13bc 4426 55bb
000002f0: 5cfc 64bb fdc4 eebc 8f2e f7bc 4027 b33b
00000300: 3631 a5bc c980 823b 1c38 92bc 8b74 bcbc
00000310: 4e73 eabb 88f0 b33c 2cc1 4abc 9dbe d8bc
00000320: af36 973c 53be ffbc 75ed bfbb 04b8 bcbc
00000330: 4923 0e3b 477a 84bc 3348 81bc 9493 b6bc
00000340: 0342 293d 98fe 42bc 40f2 173c 7bdf 12bc
00000350: 105c 213c 35e5 d03c df47 ac3b 7b9d 47bc
00000360: 87cc c23c c1ae 3abc 214d 5cbc 9725 fc3c
00000370: 648e 853c e2ec 0fbc 0042 3c3b 1a11 a639
00000380: 873c 493c 31b2 2ebc 3a4a ac3a 471d d53c
00000390: ce3d 50bc 9487 9c3c 4d61 53bc 4d51 163b
000003a0: fa29 b43c 2107 3bbc 84d4 63bc ec18 fc3a
000003b0: b4f9 583c bac8 063d 4fab c9bb c631 f3bb
000003c0: 5e21 ae3c dda9 0ebc cbbf 0ebc 7d08 6abc
000003d0: 93c0 c53c 06f6 7ebb 271d 10bc 0af1 72bc
000003e0: db37 0f3d e4ad 973b 8d5b c2bb 3123 1fbc
000003f0: b383 083c 856b 3b3c 5bb6 3dbb 7b2b 033d

10.bias f4 [30]
-0.034002606 -0.013863264 -0.046782866 -0.037864983 -0.059194606 -0.008192731 -0.03019266 -0.041121446
-0.049890626 -0.015711837 -0.013798331 0.007670859 -0.04040838 0.013308668 0.009305672 0.0036741756
0.008777721 0.003967421 0.014915869 0.024646794 0.016584922 0.026056198 0.033829726 0.01630243
0.036799036 0.03737528 0.012797327 0.006743674 0.06493428 0.061386447
00000000: 5146 0bbd be22 63bc 649f 3fbd 5018 1bbd
00000010: 0b76 72bd ce3a 06bc 9956 f7bc f66e 28bd
00000020: 1d5a 4cbd 1cb6 80bc 6512 62bc d45b fb3b
00000030: 4283 25bd 990c 5a3c d176 183c 70ca 703b
00000040: 6ed0 0f3c 2401 823b b061 743c 13e8 c93c
00000050: 1add 873c cf73 d53c 0a91 0a3d ac8c 853c
00000060: 96ba 163d d216 193d e1ab 513c 0afa dc3b
00000070: 44fc 843d 5b70 7b3d
