notebooks/model-2000-1.4952.pt (torch, 164551 bytes, 10 tensors)

1.weight f4 [32, 1, 7]
0	0xbdf42e21	-0.11922861
1	0x3e88e291	0.26735356
2	0xbf2529ff	-0.64517206
3	0x3e3e8f23	0.1860929
4	0xbeafb9a1	-0.3432131
5	0x3f4759d6	0.77871454
6	0xbe7ccca4	-0.24687439
7	0x3e8ec506	0.27884692
8	0xbcf0814a	-0.029358525
9	0xbc825e06	-0.015913974
10	0x3eef6cdc	0.4676274
11	0xbd5286fc	-0.051398262
12	0xbce76a55	-0.028248945
13	0x3eaef5bc	0.34171855
14	0xbd1453eb	-0.036212843
15	0xbd8a7e27	-0.06762343
16	0xbb24b4f6	-0.0025132275
17	0xbe7fc5ea	-0.24977842
18	0xbeae45f5	-0.34037748
19	0xbd857778	-0.065169275
20	0xbca98856	-0.020694893
21	0xbe91d286	-0.2848093
22	0xbdcd4c5e	-0.100243315
23	0x3e9bea75	0.30452314
24	0xbd1e0cb8	-0.03858635
25	0x3e91d973	0.28486213
26	0xbec7c99c	-0.39021003
27	0xbebb1178	-0.36536765
28	0xbe8df6d9	-0.27727392
29	0xbf0364d3	-0.5132572
30	0xbe1f6503	-0.15565877
31	0x3e2d28ce	0.16910097
32	0x3d9fe1d8	0.07806748
33	0x3b87b1d3	0.0041410713
34	0x3e902027	0.2814953
35	0xbf3da475	-0.74079067
36	0xbf5ac24c	-0.85452724
37	0xbf6ddf9f	-0.92919344
38	0xbf269841	-0.6507607
39	0xbec6ebd8	-0.3885181
40	0xbdd16567	-0.10224419
41	0xbeab2251	-0.3342462
42	0xbe19828a	-0.14991203
43	0xbf008265	-0.50198966
44	0xbf8fe187	-1.12407
45	0x3d46f4dc	0.04857336
46	0x3f70d6ea	0.9407793
47	0x3e364d97	0.17803036
48	0xbe21becc	-0.1579544
49	0xbe994cdb	-0.2994145
50	0xbee0689e	-0.43829817
51	0xbf03567f	-0.5130386
52	0xbd9b6f68	-0.075896084
53	0xbe9f456e	-0.31107658
54	0x3e8e8221	0.27833655
55	0x3e946a7c	0.2898749
56	0x3ec6330f	0.3871083
57	0xbe084547	-0.13307677
58	0x3ea2fa24	0.31831467
59	0x3d87aafc	0.066244096
60	0xbedb6031	-0.42846826
61	0x3e2e5315	0.17023881
62	0x3ef1a18c	0.47193563
63	0xbed72430	-0.42019796
64	0x3e3baad0	0.18326879
65	0x3e4fb03d	0.20282073
66	0x3e1a32c2	0.15058425
67	0xbee18be7	-0.4405205
68	0xbf01362c	-0.50473285
69	0xbeeb43ce	-0.45950168
70	0xbf431b3b	-0.76213425
71	0x3df5d58b	0.12003621
72	0xbe2fb804	-0.1716004
73	0x3e78f623	0.24312644
74	0xbd91b0e2	-0.07113816
75	0x3ef05a9e	0.46944135
76	0x3df5a92a	0.11995156
77	0x3fc87313	1.5660118
78	0x3f031402	0.51202404
79	0x3f494325	0.7861808
80	0x3dc3916a	0.0954922
81	0xbeb124fa	-0.34598523
82	0xbfb7fc5a	-1.4373887
83	0xbf4d3542	-0.8015939
84	0x3ec41fc9	0.383055
85	0x3eb375c8	0.35050797
86	0xbd00abc8	-0.031413823
87	0x3ecb38ba	0.39691716
88	0x3e8fc195	0.2807738
89	0xbe374ae9	-0.1789967
90	0xbf2f28be	-0.6842154
91	0xbf146406	-0.57965124
92	0xbd57bae3	-0.052668463
93	0x3eb60498	0.3555038
94	0x3f02b16e	0.51051986
95	0xbf1e1069	-0.6174379
96	0xbeed25d4	-0.46317923
97	0x3f2eb097	0.68238205
98	0x3ef2a7ae	0.47393554
99	0xbe22f890	-0.15915132
100	0xbd413879	-0.047172997
101	0xbe7fb692	-0.24971989
102	0x3e00f534	0.12593538
103	0x3e27748b	0.16353051
104	0xbda0b3bf	-0.07846784
105	0xbe11232e	-0.14173576
106	0x3ea822b3	0.32838973
107	0xbf379ff9	-0.71728474
108	0x3ed10bd1	0.40829328
109	0x3e31e83e	0.1737375
110	0xbd06efb8	-0.032943457
111	0x3dc5e4ae	0.09662758
112	0xbeca5acd	-0.395224
113	0xbedc0ee3	-0.42980108
114	0xbeb8db79	-0.36104944
115	0x3f1e2e19	0.6178909
116	0x3eb3e2f7	0.35134098
117	0x3e35b140	0.17743397
118	0x3e1b0086	0.15136918
119	0x3db78389	0.08960635
120	0xbf0963b5	-0.53667766
121	0xbe013e3a	-0.12621394
122	0x3eb61d8f	0.35569426
123	0x3f0d090c	0.5509193
124	0xbecd9383	-0.40151605
125	0x3ef64d55	0.48105875
126	0x3e25fc61	0.16209556
127	0x3e42f162	0.19037393
128	0x3e4f4fa9	0.20245232
129	0xbea456b5	-0.32097402
130	0xbb3fb0ae	-0.0029249596
131	0xbeb688b1	-0.35651162
132	0xbe8e1d2f	-0.2775664
133	0x3d1c95cb	0.03822879
134	0xbd740ae7	-0.05958071
135	0x3eeafaa5	0.45894352
136	0xbd1af745	-0.03783347
137	0xbed51afb	-0.41622147
138	0x3e2b331d	0.16718717
139	0x3e1a656e	0.15077755
140	0x3e78c1d9	0.24292697
141	0x3f1d3597	0.61409897
142	0x3e848534	0.25882876
143	0xbeed59e4	-0.46357644
144	0xbe1d095c	-0.15335602
145	0xbee4c7f4	-0.44683802
146	0xbe1fbab8	-0.15598571
147	0xbd244b18	-0.040110677
148	0x3ebbe915	0.36701265
149	0xbed40b95	-0.41415086
150	0xbed2cf80	-0.41173935
151	0xbe959299	-0.29213408
152	0x3ef3ebff	0.47640988
153	0x3e1a0af8	0.15043247
154	0x3e3c6254	0.18396884
155	0xbe8d90e6	-0.2764961
156	0xbd5f6081	-0.054535393
157	0xbea535c6	-0.32267588
158	0x3e949c4e	0.290255
159	0xbeb3c95e	-0.35114568
160	0xbe89caa7	-0.26912424
161	0xbece7b2a	-0.40328342
162	0xbee9169f	-0.4552507
163	0x3c8b81ae	0.01702961
164	0x3d921ce7	0.07134419
165	0x3e81a2ec	0.25319612
166	0x3e845bd9	0.25851324
167	0x3e9e5171	0.3092151
168	0xba510c2d	-0.00079745316
169	0x3f4caf92	0.799554
170	0xbca2104b	-0.01978316
171	0xbeb68835	-0.35650793
172	0x3c8a5ff9	0.016891466
173	0xbf07ce45	-0.5304912
174	0x3ee64f2e	0.44982284
175	0xbf5d2862	-0.86389744
176	0xbd4b7059	-0.04966769
177	0x3f42f920	0.76161385
178	0x3f2803bd	0.65630704
179	0x3c84221e	0.01612955
180	0x3e3ef182	0.18646815
181	0xbea8aeac	-0.32945764
182	0x3d171892	0.036888666
183	0x3d7d3abe	0.0618236
184	0xbe255242	-0.1614466
185	0xbeb8ae05	-0.36070266
186	0x3f15571b	0.5833604
187	0x3d57d078	0.052689046
188	0xbedddf5b	-0.4333447
189	0x3f18f498	0.5974822
190	0x3f00cfa0	0.5031681
191	0x3e0e4faf	0.13897584
192	0xbd801348	-0.062536776
193	0xbdc32218	-0.09527987
194	0xbdd21358	-0.10257596
195	0xbdf90b16	-0.121603176
196	0xbe6ff6fb	-0.2343406
197	0x3e515282	0.2044163
198	0xbe977780	-0.2958336
199	0x3cb85e07	0.022505773
200	0xbead1402	-0.33804327
201	0x3e9f2481	0.31082538
202	0xbdf24dc3	-0.11831238
203	0xbec3311e	-0.3812341
204	0xbf251e42	-0.64499295
205	0xbeb69efa	-0.35668164
206	0x3e351329	0.1768309
207	0xbde4b272	-0.11166848
208	0xbe8be35f	-0.27321908
209	0x3ebd25f8	0.3694303
210	0x3e0dedc3	0.1386023
211	0x3eb6bd3d	0.35691252
212	0x3e0e78d4	0.1391328
213	0x3f203a86	0.625893
214	0xbe20093e	-0.15628526
215	0x3d8f7224	0.070041925
216	0xbd9d67d6	-0.07685821
217	0x3ecf261d	0.40458766
218	0xbe184bdc	-0.14872688
219	0x3e04baad	0.12961836
220	0x3e7eabcf	0.24870227
221	0xbe3d707c	-0.1849994
222	0x3e1b7c8f	0.15184234
223	0x3e3bb196	0.18329462

1.bias f4 [32]
0	0x3e155a8e	0.14585325
1	0xbeb27be4	-0.34860146
2	0xbe897193	-0.26844463
3	0xbc803b99	-0.015653418
4	0x3dd3c883	0.10340979
5	0xbd56d015	-0.052444536
6	0xbe00be1b	-0.1257252
7	0x3dcda9ad	0.10042129
8	0xbef6ce82	-0.48204428
9	0xbd4bf740	-0.049796343
10	0xbd513ba0	-0.051082253
11	0x3e3bce9c	0.18340534
12	0x3e064dae	0.1311557
13	0xbda7eb9c	-0.08199236
14	0x3d9b7add	0.07591794
15	0x3caa3387	0.020776523
16	0xbcb7ee85	-0.022452602
17	0x3d4fb727	0.050711777
18	0xbde4d824	-0.11174038
19	0xbf0f829b	-0.56058663
20	0x3e222a35	0.15836413
21	0x3e1ea69b	0.15493242
22	0xbe4c610f	-0.199589
23	0xbd4b39c1	-0.049615625
24	0x3e079c6f	0.13243268
25	0xbebf1121	-0.37317756
26	0xbdacf645	-0.0844541
27	0xbef271ae	-0.47352356
28	0xbe85d5da	-0.26139718
29	0x3de9a847	0.114090495
30	0xbe58a063	-0.21154933
31	0x3d2c643c	0.04208778

3.weight f4 [32, 32, 5]
0	0x3d236b94	0.039897516
1	0xbdc8ed39	-0.09810872
2	0xbca30037	-0.019897563
3	0x3c810586	0.015749704
4	0xbcad7cf7	-0.021177752
5	0x3d1b5cda	0.037930347
6	0x3dbd6619	0.09247989
7	0x3d236f1b	0.03990088
8	0x3cce1e13	0.025160825
9	0x3d5d434d	0.05401926
10	0x3d5939e8	0.05303374
11	0x3d61c567	0.0551199
12	0xbd21d2b5	-0.039507587
13	0x3d8fbe80	0.07018757
14	0xbd80a3f7	-0.06281274
15	0x3b4c355c	0.0031159734
16	0x3d2cce29	0.042188797
17	0x3c643683	0.013929012
18	0x3a981c57	0.0011605126
19	0xbd48c3f0	-0.049014986
20	0xbdb6d9d1	-0.08928264
21	0x3d681b71	0.056666795
22	0x3c001594	0.007817645
23	0xbc96f891	-0.018429073
24	0xbcc9d76b	-0.024638852
25	0x3d9963f8	0.07489771
26	0x3c93389e	0.017971333
27	0x3d7e0d68	0.062024504
28	0xbd76f479	-0.06029174
29	0xbab9e895	-0.0014183695
30	0x3d37db87	0.044887092
31	0x3db7d516	0.0897619
32	0x3d9604d3	0.07325139
33	0x3ccb755c	0.024836235
34	0x3d7d0949	0.061776433
35	0x3cc749e6	0.02432723
36	0xbd97c82f	-0.07411229
37	0xbd4bfe59	-0.04980311
38	0x3d8f8942	0.07008602
39	0x3d8cfcad	0.068841316
40	0x3db6b4cc	0.08921203
41	0xbd068456	-0.03284105
42	0x3e0c94ef	0.13728689
43	0x3de27eb4	0.11059323
44	0x3ccabd59	0.024748491
45	0x3a9ed847	0.0012118899
46	0xbda0c38f	-0.078498
47	0xbd30f5ba	-0.043203093
48	0x3d8adf36	0.06780855
49	0xbda06252	-0.07831253
50	0x3d7d3458	0.061817497
51	0xbc4e3393	-0.012585538
52	0x3c9c91b9	0.019112455
53	0xbd8b1ed4	-0.067929894
54	0x3d6b550f	0.057454165
55	0x3c822a5d	0.015889341
56	0x3ca2b0fb	0.019859781
57	0xbd23140c	-0.03981404
58	0xbd6c5763	-0.057700526
59	0xbe51dc18	-0.20494115
60	0xbd8381e1	-0.06421257
61	0x3d9bb2e7	0.07602482
62	0xbd648e5c	-0.055799827
63	0xbdb448bb	-0.08802935
64	0xbd9819b4	-0.074267775
65	0xbd686cf2	-0.056744523
66	0x3d993c6f	0.0748223
67	0x3d8b9108	0.06814772
68	0x3d433b46	0.04766395
69	0xbcca440b	-0.024690649
70	0xbd14739d	-0.03624307
71	0xbc73be1d	-0.0148768695
72	0xbd602706	-0.054724716
73	0xbd95b185	-0.0730925
74	0xbd72eeab	-0.059309643
75	0xbce05c93	-0.027387893
76	0x3c746cb0	0.014918491
77	0xbda5f80e	-0.08103953
78	0xbd2f8be0	-0.042858005
79	0x3d0eb456	0.03483995
80	0x3d812338	0.063055456
81	0x3d88412d	0.06653056
82	0xbd5d154d	-0.053975392
83	0xbbbde2bc	-0.005794851
84	0x3d1cc191	0.038270537
85	0x3d0295d1	0.031881157
86	0xbdb97cca	-0.09057005
87	0xbd62f784	-0.05541183
88	0x3ceff9f8	0.029294
89	0x3a997266	0.0011707067
90	0x3d2dc63d	0.042425383
91	0xbd99439b	-0.07483598
92	0x3d134999	0.03595886
93	0x3cf78b53	0.030217802
94	0xbb8362ca	-0.0040095793
95	0x3d80486e	0.06263815
96	0x3d8051e7	0.06265622
97	0x3dbc73b2	0.09201755
98	0x3e0111e4	0.12604481
99	0x3ddfe47c	0.10932252
100	0xbd9e0b2b	-0.07716974
101	0xbc08f1b9	-0.008358412
102	0x3db787d5	0.08961455
103	0xbd327594	-0.043569162
104	0x3d86a498	0.065743625
105	0xbc73b657	-0.014875016
106	0xbd657428	-0.05601898
107	0xbcc885d6	-0.02447788
108	0xbd9c74ef	-0.07639491
109	0x3bff1e7d	0.007785617
110	0xbd1cc444	-0.03827311
111	0xbd426cf3	-0.047467183
112	0xbd72ab99	-0.05924568
113	0xbd8a63cb	-0.06757315
114	0x3d8e417d	0.06946085
115	0xbc28095f	-0.0102561405
116	0xbd613665	-0.054983515
117	0xbdc6df16	-0.09710519
118	0x3ca4a6a2	0.020098988
119	0xbd7047f8	-0.058662385
120	0xbdf26ba6	-0.118369386
121	0x3d485313	0.04890735
122	0x3d9ff016	0.07809465
123	0xbd394d5a	-0.045239784
124	0xbd97be7d	-0.0740938
125	0x3d957393	0.07297435
126	0x3cbdcb37	0.02316819
127	0xbda93bb4	-0.082633406
128	0x3a99ebed	0.0011743285
129	0xbd160e57	-0.03663477
130	0x3bdb884a	0.0066995965
131	0xbcc6ba57	-0.024258776
132	0x3dc16fd3	0.09445157
133	0x3c9528cb	0.018207928
134	0x3c2bd3f5	0.010487546
135	0xbd1d823d	-0.038454283
136	0x3d724a1d	0.05915271
137	0x3debec9d	0.1151974
138	0xbd6090db	-0.054825645
139	0x3d9b8982	0.07594587
140	0xbd34fb53	-0.044184994
141	0xbd681726	-0.0566627
142	0xbd84237e	-0.06452082
143	0xbd443b45	-0.047908086
144	0x3d547c27	0.051876213
145	0x3d13bc0f	0.03606802
146	0xbd372d50	-0.044720948
147	0x3d90c2b1	0.070683844
148	0x3d90c9e1	0.07069755
149	0x3d845276	0.06461041
150	0x3dac0773	0.08399858
151	0x3dc5d76a	0.096602276
152	0x3cba1edd	0.022719795
153	0x3d99b370	0.07504928
154	0x3d26a460	0.040684104
155	0x3c8e2d9a	0.017355729
156	0x3cce8b90	0.025213033
157	0xbd245c16	-0.040126882
158	0xbc9bed8c	-0.01903417
159	0xbd3b196a	-0.045678534
160	0xbd5359be	-0.051599257
161	0x3c487dfd	0.012237069
162	0x3d36635e	0.044528358
163	0x3da49490	0.080361485
164	0xbe2ac988	-0.1667844
165	0x3cf4f873	0.029903626
166	0xbca05d16	-0.019575637
167	0x3c3a66e0	0.011377066
168	0xbe1dd985	-0.15415008
169	0xbd93bb10	-0.07213414
170	0x3b206e8e	0.0024479958
171	0xbc7b3799	-0.01533308
172	0x3d9e2179	0.07721228
173	0x3c7cc3c0	0.01542753
174	0xbd3b82a2	-0.045778878
175	0x3d92411d	0.071413256
176	0xbe253d75	-0.16136725
177	0x3e045656	0.1292356
178	0x3d7ef62a	0.06224648
179	0xbd0de1de	-0.03463923
180	0xbd3064eb	-0.043064993
181	0x3d85260d	0.06501398
182	0xbd723d6b	-0.059140604
183	0x3d7490e0	0.059708476
184	0x3d679966	0.056542777
185	0xbe91b742	-0.28460127
186	0xbe964f9f	-0.2935762
187	0xbe0ef257	-0.13959633
188	0xbea33098	-0.31873012
189	0xbe17799a	-0.14792481
190	0xbe7a92ed	-0.2447011
191	0xbea54e6f	-0.32286403
192	0xbe311a06	-0.17295083
193	0xbd899a51	-0.06718887
194	0xbda31286	-0.079625174
195	0xbe5ec43d	-0.21754546
196	0x3da21dc1	0.07915831
197	0xbc135742	-0.008992972
198	0x3d0ea330	0.034823596
199	0x3e851ed7	0.2600009
200	0x3b02a48c	0.0019934503
201	0x3d8142eb	0.06311592
202	0x3d836efd	0.06417654
203	0xbd104568	-0.03522244
204	0xbd394fac	-0.045241997
205	0xbdfcd0ce	-0.12344514
206	0xbd80caf9	-0.06288714
207	0xbe062854	-0.13101321
208	0xbd084548	-0.033269197
209	0xbe4ca70e	-0.19985601
210	0xbd9f087d	-0.07765291
211	0xbe24a9d5	-0.16080411
212	0x3dab7a1f	0.08372902
213	0x3de7d49e	0.113198504
214	0x3d510ff3	0.0510406
215	0xbee52979	-0.44758204
216	0xbf2c045b	-0.67194146
217	0xbebf51fd	-0.3736724
218	0x3e754b8e	0.23954603
219	0x3e31c693	0.17360906
220	0xbe0d769a	-0.13814774
221	0xbe7d2ce8	-0.24724162
222	0xbdf004c0	-0.11719656
223	0x3e6735b3	0.22579078
224	0x3d861a90	0.06548035
225	0xbe101651	-0.14071013
226	0xbe95117e	-0.29114908
227	0xbe6867aa	-0.22695795
228	0xbe1447cd	-0.14480515
229	0x3d1de18c	0.038545176
230	0x3ca27948	0.019833222
231	0x3e041338	0.12897956
232	0x3d7b03fb	0.061283093
233	0xbc6e0a69	-0.014528849
234	0xbdad2de1	-0.08456016
235	0x3c9950aa	0.018715221
236	0x3d5a7dbb	0.053342562
237	0xbdfc5828	-0.12321502
238	0x3e1aa8f4	0.15103513
239	0x3d964779	0.07337851
240	0x3d10c809	0.03534702
241	0x3e444214	0.19165832
242	0x3de54100	0.111940384
243	0xbb9edb72	-0.0048479373
244	0x3dafb40f	0.08579265
245	0x3d010773	0.031501245
246	0x3b1bb3aa	0.0023758211
247	0xbe5dee9f	-0.21673058
248	0x3da56d0c	0.0807744
249	0x3dcb9b70	0.09941757
250	0x3d887341	0.06662608
251	0x3d976435	0.0739216
252	0xbc6a6cdf	-0.014308183
253	0xbd75fdd0	-0.060056508
254	0xbc6eeb81	-0.014582516
255	0xbe4614b5	-0.19343837

3.bias f4 [32]
0	0xbdea749c	-0.11448023
1	0x3dfa2c68	0.12215501
2	0xbd581b0a	-0.05276016
3	0xbe859ec0	-0.2609768
4	0x3d2214ff	0.039570805
5	0x3ebbf41c	0.36709678
6	0x3eac9ea9	0.33714798
7	0x3e127290	0.14301515
8	0x3d83839e	0.06421588
9	0x3e03e541	0.12880422
10	0x3d3d4e40	0.046217203
11	0xbd35897e	-0.044320576
12	0x3d6beccb	0.05759887
13	0x38bd166e	9.0164e-05
14	0x3e55bb81	0.20872308
15	0xbce4eda6	-0.02794535
16	0x3d663347	0.056201246
17	0x3dcc7b41	0.09984446
18	0xbea3c4ca	-0.31986076
19	0xbd9d7a91	-0.07689393
20	0x3cfa83d3	0.030580437
21	0xbca42d5e	-0.020041164
22	0xbd11a0d1	-0.035553757
23	0x3d6fab34	0.05851288
24	0xbd5cae1b	-0.053876977
25	0x3e0e5169	0.13898243
26	0x3e1775ae	0.14790985
27	0x3dd4d907	0.10392957
28	0x3ea97261	0.33095077
29	0x3c094a96	0.008379599
30	0x3e159c8d	0.146105
31	0xbda2e459	-0.0795371

5.weight f4 [32, 32, 3]
0	0xbd331f15	-0.043730814
1	0xbce0f211	-0.027459176
2	0x3d86ba5a	0.065785125
3	0xbd8947b4	-0.067031294
4	0xbda1cc72	-0.07900323
5	0xbd852956	-0.06502025
6	0xbdc17577	-0.09446233
7	0xbd9ecea1	-0.07754255
8	0xbcc07442	-0.023492936
9	0x3d27ecd9	0.04099736
10	0x3d6d8413	0.057987284
11	0x3cce6a44	0.025197156
12	0xbd04f0a6	-0.032456063
13	0x3de7be05	0.1131554
14	0xbd16c8e9	-0.036812697
15	0xbc3a09d0	-0.011354879
16	0x3d3f298c	0.04667048
17	0x3d1377af	0.03600281
18	0x3d170efd	0.03687953
19	0xbb978a0c	-0.0046246108
20	0xbd9f4c43	-0.07778218
21	0x3c4da28e	0.012550963
22	0xbddcdc36	-0.107841894
23	0x3d5b8026	0.05358901
24	0x3d0c81c0	0.034303427
25	0x3d61f932	0.05516929
26	0xbd7c275f	-0.061560985
27	0x3df07deb	0.11742767
28	0x3e0416d0	0.12899327
29	0xbcd4763f	-0.02593529
30	0x3d42340b	0.047412913
31	0xbce624f8	-0.0280938
32	0x3d9b94fe	0.075967774
33	0xbcbe607e	-0.02323937
34	0xbd325ed4	-0.043547466
35	0x3ac606cc	0.0015108227
36	0xbcd697e4	-0.026195474
37	0x3d26bfe7	0.040710356
38	0xbe1b999d	-0.15195318
39	0xbcf2e92e	-0.029652204
40	0x3d33e8a9	0.043923054
41	0x3da8210d	0.08209429
42	0xbde49e7b	-0.1116304
43	0x3d874795	0.0660545
44	0x3db39413	0.08768477
45	0x3d8aca01	0.067768104
46	0xbd3112a5	-0.04323067
47	0x3dc87f1c	0.09789869
48	0x3dad41ff	0.084598534
49	0xbbec7d5f	-0.007217094
50	0xbd9dfca8	-0.07714206
51	0xbd3faaff	-0.046793934
52	0xbc1cbb6a	-0.009566167
53	0xbda5d3df	-0.08097052
54	0xbd078850	-0.033088982
55	0x3d966299	0.07343025
56	0x3d720bab	0.05909316
57	0xbc3e35a2	-0.011609467
58	0xbdc195e8	-0.094524205
59	0xbc426b8b	-0.011866461
60	0x3d31d294	0.043413714
61	0xbd95b307	-0.073095374
62	0x3c3fda7b	0.011709805
63	0x3d6a060d	0.057134677
64	0x3c2b0dba	0.010440284
65	0x3e05d523	0.13069586
66	0xbd88c5d2	-0.06678356
67	0xbcf08506	-0.029360306
68	0x3d14c392	0.036319323
69	0xbd36ae6f	-0.044599947
70	0x3d987ed3	0.07446065
71	0xbd91df27	-0.07122641
72	0x3d0121bd	0.031526316
73	0x3c880f04	0.016608723
74	0x3dad8207	0.084720664
75	0xbdd94400	-0.10608673
76	0x3d152a6b	0.036417406
77	0x3cc621a8	0.02418597
78	0xbd811c96	-0.063042805
79	0x3c97c377	0.018525822
80	0x3d651ffb	0.055938702
81	0xbdfef75e	-0.12449525
82	0xbda11e93	-0.0786716
83	0x3d08234a	0.03323678
84	0xbd0b8864	-0.03406562
85	0xbc470377	-0.012146822
86	0x3d90ae2e	0.07064472
87	0xbdbb1393	-0.09134593
88	0x3dbb2281	0.091374405
89	0xbc1a890c	-0.009432089
90	0xbd9a4062	-0.07531811
91	0xbb928f86	-0.0044726757
92	0xbd8f61f2	-0.070011035
93	0xbd3d3c0e	-0.04619985
94	0x3db0f109	0.08639724
95	0xbd3a3208	-0.04545787
96	0xbc8b6027	-0.017013622
97	0xbc6f1d21	-0.014594347
98	0xbcc2b620	-0.023768485
99	0x3f1e42b1	0.61820513
100	0x3f05d9af	0.52285284
101	0x3f1317a7	0.57457966
102	0x3d97ecf4	0.07418242
103	0x3e0ae115	0.13562424
104	0xbd84f733	-0.06492462
105	0xbefbc94a	-0.4917701
106	0xbe7e1356	-0.24812064
107	0xbee543b3	-0.44778213
108	0xbe257fff	-0.16162108
109	0xbd3fe994	-0.046853617
110	0xbe021a9d	-0.12705465
111	0xbf1d9dda	-0.6156899
112	0xbd88a65b	-0.06672355
113	0xbe08d70b	-0.13363282
114	0x3c9c8198	0.019104764
115	0x3d873e9c	0.06603739
116	0x3e3b151c	0.18269771
117	0xbb5c838a	-0.003364774
118	0x3e880579	0.26566675
119	0x3e49927b	0.19684784
120	0xbdc7e487	-0.09760385
121	0x3e495684	0.1966191
122	0x3ea0b4d8	0.31387973
123	0xbed9f3ca	-0.4256881
124	0xbea2c3d4	-0.3179003
125	0xbd99eca1	-0.075158365
126	0xbe3ee6cf	-0.18642734
127	0x3d32e076	0.043671094
128	0x3de882e2	0.11353089
129	0x3e8b2762	0.27178484
130	0x3e8030e9	0.25037315
131	0x3e8d4c9b	0.27597508
132	0x3df00b74	0.117209345
133	0x3d94c084	0.07263282
134	0x3e804a9b	0.2505692
135	0xbd82db78	-0.063895166
136	0x3dc13333	0.094335936
137	0x3e06c49f	0.13160942
138	0x3d4b1624	0.04958166
139	0xbcb75a75	-0.022382
140	0xbdd719d8	-0.10502976
141	0xbdbb02b0	-0.09131372
142	0x3a6d8491	0.00090605865
143	0xbcff20f9	-0.031143652
144	0xbcae962b	-0.02131184
145	0xbb17f951	-0.0023189376
146	0xbd80c79f	-0.06288075
147	0xbd21a284	-0.039461628
148	0xbd735e23	-0.059415948
149	0xbe43dbea	-0.1912686
150	0xbec79280	-0.38978958
151	0xbebe8988	-0.37214303
152	0xbee424a4	-0.44559205
153	0xbc5ed9cb	-0.013601731
154	0xbd853f5d	-0.06506226
155	0x3ceb16fa	0.02869748
156	0x3d2185fc	0.039434418
157	0x3e74eb64	0.2391792
158	0x3e58ef31	0.21184994
159	0xbde42e5a	-0.11141653
160	0xbe2a0da3	-0.16606764
161	0xbdf95370	-0.121741176
162	0xbd827b25	-0.06371144
163	0x3c107981	0.008818031
164	0x3c3182d8	0.010834418
165	0xbc3e7893	-0.011625427
166	0xbdfa3cbd	-0.12218616
167	0xbe488215	-0.19580872
168	0x3dff0ecb	0.124539934
169	0x3d114a2e	0.035471134
170	0x3e0dbfb2	0.13842657
171	0x3e8345f8	0.2563932
172	0x3e8c1da4	0.27366364
173	0x3e99ce60	0.30040264
174	0x3de213db	0.110389434
175	0x3de48ec2	0.111600414
176	0x3de0ad4b	0.10970553
177	0x3e9a235b	0.301051
178	0x3eba29f1	0.36360124
179	0x3ebf48ba	0.37360173
180	0x3ecaca42	0.39607435
181	0x3e9723ac	0.29519403
182	0x3ea6945e	0.3253507
183	0x3d4bdbc5	0.049770135
184	0x3dc23c81	0.094841965
185	0x3da69369	0.08133585
186	0x3dfc2eb0	0.123135924
187	0x3e34dd18	0.17662466
188	0x3e07ce1b	0.13262217
189	0x3d1e8742	0.03870321
190	0xbdb5d314	-0.088781506
191	0xbd0a776e	-0.033805303
192	0xbdba3e45	-0.09093908
193	0x3d7c50f4	0.06160064
194	0xbda99268	-0.08279878
195	0xbd4bd1e0	-0.0497607
196	0x3d9272e6	0.071508214
197	0x3d919c2d	0.07109866
198	0xbdcd073e	-0.10011147
199	0xbc994190	-0.01870802
200	0xbd874b6f	-0.06606185
201	0x3da445ef	0.08021151
202	0x3d0e67d1	0.034766976
203	0xbd9e28c9	-0.07722623
204	0xbd79bb84	-0.060969844
205	0xbd843eae	-0.06457268
206	0x3d8ff8a4	0.07029846
207	0xbd79cfa7	-0.06098905
208	0xbd6368e5	-0.055519957
209	0x3d8c5306	0.06851773
210	0x3ccf380e	0.025295284
211	0x3d3f48a4	0.046700135
212	0xbd731ba2	-0.059352525
213	0xbcbb5561	-0.02286786
214	0xbd85d1a5	-0.06534127
215	0x3bdce231	0.0067408313
216	0xbd825f0e	-0.063657865
217	0x3dc129e1	0.09431816
218	0x3d68282e	0.056678943
219	0x3c7e7d2c	0.015532773
220	0x3cdc705d	0.026909048
221	0xbc77dd5f	-0.015128463
222	0x3d927b8a	0.071524695
223	0x3d74e596	0.059789263
224	0xbd54f396	-0.051990114
225	0xbd924dc7	-0.07143741
226	0x3a2708db	0.0006371864
227	0x3d732c4f	0.059368428
228	0x3dbbe2ba	0.09174104
229	0x3bc88d4b	0.006120359
230	0x3c82f606	0.015986454
231	0xbdadcdc4	-0.08486512
232	0x3d8499b0	0.06474626
233	0xbdb11794	-0.08647075
234	0x3d1523a9	0.03641096
235	0xbda1ab39	-0.07893986
236	0xbd358435	-0.044315536
237	0x3d99af15	0.07504097
238	0x3bf18ecd	0.0073717595
239	0xbc87621e	-0.016526278
240	0xbd93668f	-0.07197296
241	0xbcbebe50	-0.023284107
242	0xbde0cc30	-0.10976446
243	0xbdae98d8	-0.085252464
244	0xbd9b0714	-0.075697094
245	0x3d1bb9fc	0.038019165
246	0xbd57e493	-0.05270822
247	0xbd99e34e	-0.07514058
248	0xbc9cf9f5	-0.019162158
249	0xbd70c98a	-0.058785953
250	0xbdc4faac	-0.09618124
251	0xbdc9ac9e	-0.09847377
252	0x3dbe71ea	0.09299071
253	0xbdac8519	-0.08423824
254	0xbca0caa3	-0.019627875
255	0x3d8428fe	0.06453131

5.bias f4 [32]
0	0x3e0b8a1c	0.13626903
1	0x3c0f04e7	0.008729196
2	0xbddd7cf1	-0.10814846
3	0xbde7e129	-0.11322243
4	0x3c829132	0.015938375
5	0x3b2bba6b	0.0026203643
6	0x3c303ff3	0.010757434
7	0xbdae5ade	-0.08513425
8	0xbcc27b06	-0.023740303
9	0x3d2509f0	0.04029268
10	0x3d805072	0.06265344
11	0xbd4f08df	-0.05054557
12	0xbdbe9034	-0.09304848
13	0xbd05f5f8	-0.032705277
14	0x3e042d64	0.1290794
15	0xbd4d99ed	-0.050195623
16	0x3d4f4f26	0.05061259
17	0x3dcf8533	0.101328276
18	0x3d741d15	0.059598047
19	0x3c502d91	0.012706176
20	0x3e7bdf50	0.24596906
21	0x3e1bb656	0.15206274
22	0xbda3ce84	-0.07998374
23	0x3cfe6177	0.031052334
24	0x3ca5ae38	0.020224676
25	0x3d82a911	0.06379903
26	0xbdcdcc82	-0.100487724
27	0x3de956ad	0.11393485
28	0xbce36c2e	-0.027761545
29	0x3bb3ed55	0.0054909387
30	0xbd1cc3c7	-0.038272645
31	0xbda55910	-0.08073628

7.weight f4 [32, 32, 3]
0	0x3d6e6f36	0.058211528
1	0xbdddee2a	-0.10836442
2	0xbcf682e0	-0.030091703
3	0x3e6f3a96	0.23362193
4	0x3f0896b2	0.5335494
5	0x3ef9c652	0.4878412
6	0x3daa4abf	0.08315038
7	0xbdb7a20f	-0.08966457
8	0xbcfdb0d5	-0.03096811
9	0x3d37cc50	0.044872582
10	0xbde71892	-0.11283983
11	0x3d570df6	0.05250355
12	0xbdc488a3	-0.09596374
13	0xbd4f78ca	-0.050652303
14	0xbd3be2c5	-0.04587056
15	0x3b8068ef	0.003918759
16	0xbe0dd059	-0.1384901
17	0xbdde97e2	-0.10868813
18	0x3e0f3074	0.13983327
19	0x3e3b992d	0.1832015
20	0x3d51ad60	0.051190734
21	0x3dc46407	0.09589391
22	0x3d9ad8bb	0.07560869
23	0x3e18f4b6	0.149371
24	0x3dcf3ab1	0.10118616
25	0x3cdab921	0.026699604
26	0x3ca2798d	0.01983335
27	0x3d7702a9	0.06030527
28	0x3e597fbf	0.21240138
29	0x3e76d777	0.24105631
30	0x3d12f1d0	0.03587514
31	0x3d0baedd	0.03410231
32	0x3ddd248e	0.10797988
33	0xbdfca7ce	-0.12336694
34	0x3d3ff5e4	0.04686536
35	0xbd6804b6	-0.056645118
36	0x3b28b925	0.002574512
37	0x3d285f01	0.041106228
38	0x3d13a957	0.036050167
39	0x3e810a0d	0.2520298
40	0x3e7a97e8	0.2447201
41	0x3e52d696	0.2058967
42	0x3c3c4801	0.011491776
43	0x3d7237cc	0.059135243
44	0xbda18f93	-0.07888713
45	0xbbdc1d8a	-0.0067173885
46	0x3de51b8f	0.11186897
47	0x3d31e1aa	0.0434281
48	0x3d483504	0.048878685
49	0x3dde69db	0.10860034
50	0x3e724275	0.23658164
51	0xbd4e3d45	-0.0503514
52	0xbdf0137b	-0.117224656
53	0xbdc31965	-0.09526328
54	0x3d5468e6	0.05185785
55	0xbd958565	-0.073008336
56	0xbd4faa1f	-0.05069935
57	0x3d92686b	0.071488224
58	0xbd188d06	-0.037243865
59	0xbd88645b	-0.06659766
60	0xbda89838	-0.082321584
61	0xbe32c8d2	-0.1745942
62	0xbe2b3606	-0.16719827
63	0x3deacc79	0.11464781
64	0x3d89bc74	0.06725398
65	0x3d15b4da	0.036549427
66	0xbdcd151e	-0.100137934
67	0xbdf378f4	-0.11888304
68	0x3ca605b0	0.020266384
69	0x3dd18d64	0.10232046
70	0xbdaecf2d	-0.085356094
71	0x3dadfff8	0.08496088
72	0x3e08fb24	0.13377053
73	0x3e9148cd	0.28375855
74	0x3e2380ba	0.15967074
75	0xbd47dee2	-0.048796542
76	0xbe3cc392	-0.18433979
77	0xbe4bc470	-0.19899154
78	0xbc828a2a	-0.015935022
79	0x3d8ecbe4	0.06972483
80	0x3d02406b	0.031799715
81	0x3d950994	0.072772175
82	0x3e10e829	0.14151062
83	0x3cc8419d	0.02444535
84	0xbd5dc9b6	-0.054147445
85	0xbd8b730b	-0.06809052
86	0xbc4e5bca	-0.012595126
87	0x3da81951	0.08207954
88	0x3e967acb	0.2939056
89	0xbda046c4	-0.078259975
90	0xbe311228	-0.17292082
91	0x3cd8a3dc	0.026445322
92	0x3d13e638	0.036108226
93	0x3d46078a	0.048347034
94	0x3daa8454	0.08326021
95	0x3d7d68bb	0.061867457
96	0x3dce7bb6	0.1008219
97	0x3db318c3	0.08744957
98	0x3d2de564	0.042455092
99	0x3dde691a	0.1085989
100	0x3d0565ba	0.032567717
101	0xbda04269	-0.07825167
102	0x3d9a1532	0.07523574
103	0x3cc598ef	0.024120776
104	0x3d6a8bbf	0.05726218
105	0xbd6fd12d	-0.058549095
106	0xbd23e32e	-0.040011577
107	0xbdaf82db	-0.085698806
108	0x3d3b02e2	0.045657046
109	0xbd4145c1	-0.047185663
110	0xbd12d8a4	-0.035851136
111	0xbc96585f	-0.018352685
112	0x3bd74704	0.006569745
113	0x3c8996de	0.016795572
114	0xbda7cada	-0.08192988
115	0xbd6a1afd	-0.057154644
116	0xbd0cde4f	-0.034391697
117	0x3dc9ca4e	0.0985304
118	0xbd2efdc7	-0.04272249
119	0xbd5d0abc	-0.053965315
120	0x3b3c8da3	0.0028770946
121	0x3d490abe	0.04908251
122	0xbb22fe35	-0.0024870757
123	0x3cdd528e	0.027016904
124	0xbcb2bbc2	-0.021818046
125	0xbcfb601a	-0.030685473
126	0xbd9655ad	-0.0734056
127	0x3c81edc9	0.015860455
128	0x3dc2d201	0.09512711
129	0x3d17d401	0.037067417
130	0x3c3b8dc2	0.011447372
131	0xbd5d78b0	-0.054070175
132	0x3d9e9c0d	0.07744608
133	0xbd7cd71b	-0.061728578
134	0x3d53aa50	0.051676095
135	0x3d8468a5	0.06465272
136	0xbd77fa30	-0.06054133
137	0xbd869e22	-0.0657313
138	0xbb977481	-0.0046220426
139	0xbd668762	-0.056281455
140	0x3dbcc5aa	0.09217389
141	0x3dbcb406	0.09214024
142	0xbd7f80a3	-0.062378537
143	0xbd4459a5	-0.047937054
144	0xbc7b31ed	-0.015331727
145	0xbce131f1	-0.027489634
146	0x3c88a2aa	0.016679127
147	0x3d859c53	0.06523957
148	0x3bf94525	0.0076071196
149	0xbdaf01cc	-0.085452646
150	0x3dcab6ca	0.098981455
151	0x3dab013d	0.083498456
152	0xbdb172a0	-0.08664441
153	0x3d91950b	0.07108506
154	0x3daf2659	0.08552236
155	0x3d503db8	0.05084011
156	0xbc86ea6a	-0.0164692
157	0x3bb1b8b6	0.0054236306
158	0x3d58275f	0.052771922
159	0xbc5f2118	-0.01361873
160	0xbd5cb777	-0.053885903
161	0x3d00de50	0.031462014
162	0xbcc770e3	-0.02434582
163	0xbd00a312	-0.031405516
164	0xbcf99fa8	-0.030471638
165	0x3c4b7412	0.01241781
166	0x3d9ab1db	0.075534545
167	0xbdc49a59	-0.09599752
168	0xbdb1d450	-0.086830735
169	0x3c58d4ff	0.013234376
170	0xbd866802	-0.06562807
171	0xbdca77ca	-0.09886129
172	0xbd8bde72	-0.068295375
173	0x3ccac84d	0.024753714
174	0xbdc4e08e	-0.09613143
175	0x3c133f10	0.008987203
176	0xbd989938	-0.07451099
177	0x3d5010db	0.050797325
178	0xbd4e8a33	-0.050424766
179	0x3dc823ec	0.097724766
180	0x3d75b206	0.05998423
181	0xbdcb0253	-0.09912553
182	0xbd42f73e	-0.04759907
183	0x3d491dd1	0.0491007
184	0xbd03150e	-0.0320025
185	0xbdd2139b	-0.10257646
186	0x3c8d3eaa	0.017241795
187	0xbd3c500e	-0.045974784
188	0xbcb18899	-0.02167158
189	0xbda1e13c	-0.07904288
190	0xbc9f7087	-0.019462837
191	0x3c6e6155	0.014549573
192	0x3dc65092	0.09683336
193	0x3d8e21ea	0.06940062
194	0xbd94b3e7	-0.07260876
195	0xbda26f5a	-0.07931395
196	0x3cf656f8	0.030070767
197	0xbd291874	-0.041283086
198	0xbb4981bb	-0.0030747491
199	0x3be0c1e6	0.006859052
200	0x3d5cbbe9	0.053890143
201	0xbd92cf6d	-0.071684696
202	0xbdc1b394	-0.0945808
203	0x3d962997	0.073321514
204	0x3c896c95	0.016775409
205	0x3dad121a	0.08450718
206	0x3c2f7f1b	0.010711457
207	0xb91876f3	-0.00014540162
208	0xbdba38ee	-0.0909289
209	0xbdb881fe	-0.09009169
210	0x3d94d956	0.07268016
211	0xbd0b588e	-0.03402
212	0xbda09510	-0.078409314
213	0xbcf143fc	-0.029451363
214	0x3dc5bc38	0.096550405
215	0xbda053ab	-0.078284584
216	0xbd4c4188	-0.049867183
217	0xbd9a5c44	-0.075371295
218	0xbb416741	-0.0029511007
219	0xbcedeef4	-0.029044606
220	0xbc5fe413	-0.013665217
221	0x3cdcea9f	0.026967345
222	0x3d2bdb8b	0.04195742
223	0xbc2f9deb	-0.010718803
224	0xbd118d26	-0.035535
225	0xbdae7fbf	-0.085204594
226	0xbd816739	-0.06318516
227	0xbcda6ca3	-0.02666313
228	0xbdbf00be	-0.093263134
229	0xbda95cd8	-0.08269662
230	0x3d8532d3	0.065038346
231	0xbd9d8513	-0.076913975
232	0xbd1b5c98	-0.0379301
233	0x3d333a12	0.043756552
234	0x3d939d20	0.072077036
235	0xbdc32c63	-0.095299505
236	0xba64ec05	-0.00087326794
237	0xbd8943a7	-0.06702357
238	0xbd1543d5	-0.036441643
239	0x3d61f4c9	0.055165086
240	0x3d5e7bb6	0.0543172
241	0x3c304df4	0.010760773
242	0x3d8c7fbb	0.068603
243	0xbd453e13	-0.0481549
244	0xbc11c610	-0.008897319
245	0xbdac85a0	-0.084239244
246	0xbcdaae15	-0.026694337
247	0x3dbaa538	0.09113544
248	0xbcf0d430	-0.029398054
249	0x3d012571	0.031529848
250	0xbc9b29ac	-0.01894077
251	0x3d0586f6	0.032599412
252	0x3da0bb94	0.07848278
253	0x3b26aeb0	0.0025433712
254	0x3d0aaace	0.0338543
255	0xbd404050	-0.046936333

7.bias f4 [32]
0	0xbdaca91d	-0.08430693
1	0xbd9d0f7d	-0.0766897
2	0x3e621b9c	0.22080845
3	0x3e1f8272	0.15577105
4	0x3df9396e	0.12169157
5	0x3e2cfc84	0.16893202
6	0x3bd411dd	0.006471856
7	0xbd66e9b1	-0.05637521
8	0xbd97b316	-0.07407205
9	0x3dccc70f	0.09998905
10	0x3e0d6430	0.1380775
11	0x3dee4dce	0.11635934
12	0x3dd26e5e	0.10274957
13	0xbbde09b2	-0.006776058
14	0xbd6d7ce6	-0.05798044
15	0x3da39e1a	0.0798914
16	0x3dd7474c	0.10511646
17	0xbd0dc3f8	-0.03461072
18	0x3e122070	0.14270186
19	0x3d949e49	0.07256753
20	0x3e34a77d	0.17642017
21	0x3e489045	0.19586284
22	0x3e17236e	0.14759609
23	0x3e6c069b	0.23049395
24	0x3ad090b2	0.0015912263
25	0xbdc77ff4	-0.09741202
26	0x3d586915	0.05283459
27	0xbd9b7e6b	-0.07592472
28	0x3de839d2	0.11339153
29	0x3e31fd80	0.17381859
30	0x3d6d999e	0.05800783
31	0xbdfd1d8a	-0.1235915

10.weight f4 [30, 960]
0	0x3d398010	0.045288146
1	0xbcfecf01	-0.031104567
2	0x3d49f3bc	0.04930471
3	0xbc1be74a	-0.009515593
4	0x3c988220	0.018616736
5	0x3cfb97bc	0.030712001
6	0x3b8619a6	0.004092413
7	0x3d715167	0.058915522
8	0x3de2c288	0.1107226
9	0xbd77acb0	-0.060467422
10	0xbd68f409	-0.056873355
11	0x3d8266e0	0.06367278
12	0x3bbdef26	0.005796331
13	0x3c9a91e0	0.018868387
14	0xbcb2aa4d	-0.021809721
15	0xbc3553b9	-0.011067324
16	0x3bc35125	0.005960601
17	0x3bff252b	0.007786413
18	0x3d122715	0.035681803
19	0x3d01c42a	0.031681217
20	0x3d2af4f3	0.041737508
21	0x3cc55031	0.02408609
22	0xbda5c44a	-0.0809408
23	0xbcaa718c	-0.020806096
24	0xbcf7434b	-0.030183455
25	0xbdb73a7a	-0.089467004
26	0xbc928017	-0.017883344
27	0xbc9370a7	-0.017998053
28	0xbcad346b	-0.021143159
29	0x3c9e831d	0.019349629
30	0x3bc03edf	0.00586687
31	0xbbda469d	-0.00666125
32	0xbcf3f09e	-0.029777821
33	0x3c9926e6	0.018695306
34	0xbca97bf1	-0.020688983
35	0xbc029caf	-0.007971927
36	0xbcec2707	-0.028827203
37	0xbc280d1e	-0.010257034
38	0xbb15bbd2	-0.0022847545
39	0xbce0e52a	-0.027453024
40	0xbc717693	-0.014737743
41	0x3b4c5172	0.0031176475
42	0x392b8ba9	0.00016359858
43	0x3aa97b25	0.0012930377
44	0x3c87bb54	0.016568817
45	0x3cc68b17	0.024236245
46	0x3ce70d10	0.02820447
47	0x3cd07e7c	0.025450937
48	0x3caee5cf	0.021349816
49	0x3b0a230b	0.0021078016
50	0xbcb6d177	-0.022316677
51	0xbc99ccba	-0.018774379
52	0xbcee4a7c	-0.029088251
53	0x3cc7f0bb	0.024406781
54	0x3c8e5c72	0.017378066
55	0xbcb0c39f	-0.021577654
56	0xbc957c9a	-0.018247891
57	0xbcb3d870	-0.021953791
58	0xbc30ee98	-0.010799073
59	0x3c737a3c	0.014860686
60	0xbc12236b	-0.008919577
61	0xbcd408bd	-0.025883073
62	0x3cc74a5e	0.024327453
63	0xba3dfbf0	-0.00072473194
64	0xbcf1f461	-0.029535474
65	0x3ca1030e	0.019654777
66	0xbb0185e8	-0.0019763652
67	0xbce04eb8	-0.027381286
68	0xbcc51e04	-0.024062164
69	0xbac96ac4	-0.0015366902
70	0x3c026cd1	0.007960514
71	0xbc25fac6	-0.01013059
72	0x3bcb3c4c	0.0062022563
73	0xbd007d4a	-0.031369485
74	0x3c54a557	0.012978873
75	0x3bd4e010	0.006496437
76	0xbd38dcbb	-0.04513238
77	0x3bbaa5ab	0.0056960187
78	0x3c36d276	0.011158576
79	0xbcccbaed	-0.024991477
80	0xbbe301ab	-0.006927689
81	0x3c904203	0.017609602
82	0xbc49dd5d	-0.0123208435
83	0xbcf43a9b	-0.029813102
84	0xbccffe15	-0.02538971
85	0xbb1df373	-0.0024101406
86	0xbd1333ed	-0.035938192
87	0xbcf667f9	-0.030078875
88	0xbd0dfe0e	-0.034666114
89	0x3ce3f9ca	0.02782907
90	0x3d3b28cc	0.045693204
91	0x3cf3ab0c	0.029744647
92	0xbcd98d6b	-0.026556691
93	0xbcae3e10	-0.021269828
94	0x3cb16432	0.021654222
95	0x3d085f07	0.03329375
96	0x3c406085	0.011741762
97	0xbcceccb8	-0.025244102
98	0x3d109b44	0.035304323
99	0x3c84deab	0.016219458
100	0x3d1e5e0c	0.03866391
101	0x3d248040	0.04016137
102	0xbc25ec4e	-0.01012714
103	0xbc2de5a3	-0.010613832
104	0xbc668ca7	-0.01407162
105	0xbab5a974	-0.0013859705
106	0xbc645630	-0.013936564
107	0xbc57c774	-0.013170112
108	0x3c8595c3	0.016306764
109	0xbd195729	-0.037436638
110	0xba5574c1	-0.0008142703
111	0x3c01bc1d	0.007918385
112	0xbbcf6e91	-0.006330319
113	0xbb02f5ef	-0.0019983014
114	0x3af56928	0.0018723356
115	0xbd1a9834	-0.03774281
116	0xbc4a8456	-0.012360653
117	0xbd0fc963	-0.035104167
118	0xbcf1fe2d	-0.029540146
119	0x3bf55e8d	0.007488078
120	0xba671350	-0.00088148285
121	0xbceb7079	-0.028740155
122	0x3cd80db7	0.026373727
123	0x3c75bc16	0.014998456
124	0xbbda1c0c	-0.0066561755
125	0x3ca4c241	0.020112159
126	0xbd07acad	-0.03312366
127	0x3b79fda6	0.003814557
128	0xbc7430ab	-0.0149041815
129	0x3c828ef5	0.015937308
130	0x3d081373	0.033221673
131	0x3cac8325	0.021058628
132	0x3c15e6db	0.0091492785
133	0xbc84bfc0	-0.016204715
134	0x3d0fc31d	0.035098184
135	0x3c1073c8	0.008816667
136	0xbc89b217	-0.016808553
137	0xbcbbe3f5	-0.022935847
138	0x3c90696f	0.0176284
139	0xbcb31949	-0.021862643
140	0xbbfb9c65	-0.007678556
141	0xbc2044b2	-0.009782003
142	0x3c767440	0.015042365
143	0xbc64a672	-0.013955699
144	0xbbab6a14	-0.0052311514
145	0x3d4c350b	0.049855273
146	0x3cb8232c	0.022477709
147	0x3bba0ba1	0.005677656
148	0x3cec1b9e	0.028821763
149	0xbb3d916c	-0.002892579
150	0xbc141fc4	-0.009040777
151	0x3c10d773	0.00884043
152	0x3c6f533b	0.014607246
153	0x3d0cdfd7	0.034393158
154	0x3d209b29	0.039210472
155	0x3c93e992	0.018055711
156	0xbc7e2f1d	-0.015514162
157	0xbc2d11f5	-0.010563363
158	0xbca78b21	-0.020452084
159	0x3c22f5fc	0.009946343
160	0xbbd94ad1	-0.0066312333
161	0x3b34e8b6	0.0027604527
162	0x3c9ddbec	0.019269906
163	0xbc0ec81b	-0.008714701
164	0x3c4f72f7	0.012661687
165	0xbcd0f12d	-0.025505627
166	0x3c6e1cba	0.014533216
167	0xbd202609	-0.039098773
168	0x3aa52de4	0.0012602177
169	0x3c035ba1	0.0080174515
170	0x3b66e6a8	0.0035232697
171	0xbcf8aeb5	-0.030356744
172	0xbd01691a	-0.031594373
173	0x3c0d123a	0.008610303
174	0x3c636ca8	0.013880886
175	0xbd5bde2c	-0.053678676
176	0xbd2034f1	-0.03911299
177	0xbcdcde31	-0.026961418
178	0xbced33d1	-0.028955372
179	0x3cc61aaf	0.024182646
180	0x3cbeeabb	0.023305288
181	0xbcc7fc29	-0.024412232
182	0xbcd9b17d	-0.02657389
183	0xbcb7d93a	-0.022442449
184	0x3da0248c	0.07819471
185	0xbc9cd76d	-0.019145692
186	0x3c9e06a3	0.019290274
187	0x3db65a69	0.08903963
188	0x3dbb58a0	0.09147763
189	0xbd01def7	-0.031706776
190	0xbcb01059	-0.02149217
191	0x3c87bd36	0.016569715
192	0x3c75f333	0.0150115965
193	0x3d1e9de5	0.0387248
194	0x3c8dafed	0.017295802
195	0xbc017048	-0.007900305
196	0xbd1fa03a	-0.038971163
197	0xbd30ce5d	-0.043165553
198	0x3d97c66c	0.07410893
199	0x3c88d5a2	0.01670343
200	0x3cca43d3	0.024690544
201	0xbd0f78b5	-0.035027225
202	0xbd9113b3	-0.070838355
203	0xbd94a0e1	-0.07257248
204	0xbd2446cf	-0.04010659
205	0xbcada56a	-0.02119704
206	0xbd1ac925	-0.037789483
207	0x3c3cf84a	0.011533806
208	0x3d0c7c92	0.034298487
209	0x3c521900	0.012823343
210	0xbccdf251	-0.02513996
211	0xbc69e4a7	-0.014275706
212	0x3bdd4a96	0.006753276
213	0xbcbe4991	-0.023228439
214	0xbc6e8bbe	-0.014559684
215	0x3cac2eeb	0.021018466
216	0x3cf4af3e	0.029868718
217	0xbcccaa9f	-0.024983702
218	0x3cc6027d	0.024171108
219	0xbc05f087	-0.008175022
220	0xbc81c3b2	-0.015840385
221	0x3cc80d83	0.024420505
222	0x3cd6a943	0.026203757
223	0xbd047dac	-0.032346413
224	0x3bbc3447	0.0057435366
225	0x3b0a6d97	0.002112245
226	0x3acb9253	0.0015531279
227	0xbc9f4fe0	-0.019447267
228	0xbbff8753	-0.0077981143
229	0xbce822f3	-0.028336978
230	0xbcd9f0ae	-0.026604023
231	0xbc986574	-0.018603064
232	0x3cff80a5	0.031189272
233	0x3cf6acd9	0.030111717
234	0xbc0e45db	-0.008683647
235	0xbb6d8a01	-0.0036245587
236	0x3ceb802b	0.028747639
237	0x3d01a0de	0.031647556
238	0xbc165799	-0.009176158
239	0x3cdbde5f	0.026839433
240	0xbb623c0b	-0.0034520652
241	0xbba01f48	-0.0048865415
242	0xbc90b6ce	-0.017665293
243	0xbc91b00d	-0.017784143
244	0x3cbed8a9	0.023296671
245	0x3b0dff98	0.0021667238
246	0xbc8396e9	-0.01606317
247	0xbaf0417c	-0.0018330063
248	0x3b71094f	0.003677923
249	0xbcc27cd7	-0.023741169
250	0x3ca196b4	0.019725181
251	0x3cc71cec	0.024305783
252	0xbbf7b02b	-0.0075588427
253	0xba1b3859	-0.0005921177
254	0x3c5e0193	0.01355018
255	0x3c1e63d6	0.009667357

10.bias f4 [30]
0	0xbce939cb	-0.02846994
1	0xbca8c6b4	-0.020602562
2	0xbd051129	-0.03248707
3	0x3c65ec34	0.014033366
4	0xbca62957	-0.020283384
5	0xbc7f9fc0	-0.015602052
6	0xbd1925e8	-0.037389666
7	0x3ba811af	0.005129061
8	0xbc44522b	-0.011982481
9	0xbc707122	-0.01467541
10	0x3c144674	0.00905
11	0x3c2b43ad	0.010453147
12	0xbc736fd5	-0.014858206
13	0x3c60c9aa	0.013719955
14	0x3cbc8f32	0.0230175
15	0x3cc73f2d	0.024322117
16	0x3d6080d3	0.054810356
17	0xbc9196fd	-0.017772192
18	0xbb154bec	-0.0022780849
19	0x3d00e698	0.03146991
20	0x3c3bf176	0.011471143
21	0x3c972560	0.018450439
22	0x3d0d2731	0.034461204
23	0x3d44dc76	0.04806181
24	0x3d3f57cf	0.0467146
25	0x3d7d463e	0.061834566
26	0x3d9d9ea6	0.076962754
27	0x3d97c5af	0.07410752
28	0x3d5bf696	0.05370196
29	0x3d8b2645	0.06794409
