notebooks/model.pt (torch, 164487 bytes, 10 tensors)

1.weight f4 [32, 1, 7]
0.29665703 -0.08627183 0.20614597 -0.3363897 0.21949692 -0.29352745 -0.23114069 0.35633284
0.21497095 0.3092856 0.1437549 -0.30357245 -0.08047185 -0.094409674 0.048844233 -0.019939704
-0.36022222 -0.30683255 0.06398684 0.2924249 -0.21158655 0.20778205 -0.2626495 -0.07946362
-0.12439315 0.11902563 0.19957183 0.3888068 -0.1979456 0.12616892 0.15279186 -0.27337024
-0.2757764 0.17661709 -0.16133723 -0.16971381 0.03365023 0.033854794 0.17890483 0.11756618
-0.0077089597 0.28934732 -0.24623775 -0.28666914 0.22461824 0.26320788 -0.049867373 -0.103485025
0.20934573 -0.30782747 -0.24526694 -0.3095793 -0.05842373 -0.01512118 -0.0063487305 -0.32806855
-0.12411019 0.3262325 0.26620707 -0.101293236 -0.10790561 0.056723822 -0.20743103 -0.10010468
0.3331922 -0.19885777 0.17319396 -0.12550266 -0.19581513 -0.13059886 0.021052375 -0.29071188
0.35148862 -0.288799 -0.24964598 -0.1617243 -0.12915723 0.107792065 -0.15642443 0.12444124
-0.38348463 -0.116241544 -0.32562438 0.07863808 0.13662195 -0.1844486 -0.19444482 0.03939779
-0.28625184 0.022465048 -0.007520263 0.37276793 -0.10304039 0.08389054 -0.03281493 0.2054975
0.14160484 -0.16750148 -0.032367162 -0.13584183 -0.12703578 0.063995354 -0.3350121 0.064551316
0.2991857 0.30764508 -0.06791614 0.08799356 0.4098774 0.37619695 0.23833667 0.09456005
-0.35158646 -0.015172603 -0.22755514 0.2794432 0.28026855 0.28046188 -0.028799405 -0.27662233
-0.27707958 -0.36785355 0.25028476 0.3252752 0.027051685 -0.047865834 0.191851 0.05692258
-0.009320064 0.36236066 -0.33866546 -0.36999226 -0.3217462 0.18299226 -0.19289318 0.3221057
0.22183385 0.18934396 0.32104477 0.046105262 0.13908856 0.08804118 0.19227591 -0.13907745
-0.24255607 -0.33347645 0.2176473 0.17182222 -0.26529685 -0.14080697 0.0036020787 0.085301705
0.28496128 0.3645701 -0.19116123 -0.028576126 -0.30229926 0.15260077 0.18101856 -0.30261052
0.23371257 -0.17967187 0.077152625 0.106529556 0.076987736 0.37115964 0.015536663 -0.14444894
0.36344138 0.37567562 0.044276644 -0.2318362 0.24695116 -0.2912269 0.12161425 -0.09178534
-0.30458894 -0.11386951 -0.23058866 0.30395833 -0.26105115 -0.2025099 0.20853962 -0.1698159
0.22751138 -0.15743779 0.14931977 0.17390831 0.08913452 0.24920107 -0.3658501 0.2552825
-0.19138232 0.3738754 0.37039894 -0.25998288 0.3561715 -0.033026814 0.124193385 -0.019224385
0.3308301 -0.056702256 0.0031647724 0.14137453 -0.35454476 0.27229264 0.3529593 0.059992816
-0.0030104294 -0.3533341 0.16828786 -0.07626166 -0.28253913 0.2068172 -0.33653387 0.24382535
-0.36565453 -0.19363604 -0.03708481 -0.103727005 0.04318232 0.065863356 0.38892743 0.13375947
00000000: 6ee3 973e 49af b0bd ee17 533e 453b acbe
00000010: cdc3 603e 3b49 96be 25b0 6cbe 4271 b63e
00000020: 5821 5c3e af5a 9e3e 7c34 133e d96d 9bbe
00000030: 6dce a4bd dc59 c1bd e410 483d 9758 a3bc
00000040: 0c6f b8be 2819 9dbe 880b 833d b7b8 953e
00000050: 25aa 58be d1c4 543e ff79 86be d3bd a2bd
00000060: d6c1 febd b6c3 f33d 8f5c 4c3e af11 c73e
00000070: 40b2 4abe 6d32 013e 7875 1c3e 2ff7 8bbe
00000080: 9032 8dbe 1cdb 343e 9635 25be 75c9 2dbe
00000090: d3d4 093d 53ab 0a3d d432 373e 8ac6 f03d
000000a0: 719b fcbb 5525 943e c025 7cbe 4cc6 92be
000000b0: 5302 663e 2fc3 863e bb41 4cbd f5ef d3bd
000000c0: ba5e 563e 909b 9dbe 4227 7bbe 2e81 9ebe
000000d0: b94d 6fbd d3be 77bc 0309 d0bb 9af8 a7be
000000e0: 7c2d febd f207 a73e 4b4c 883e d472 cfbd
000000f0: 9efd dcbd 3d57 683d cd68 54be af03 cdbd
00000100: 2b98 aa3e 5fa1 4bbe c259 313e c583 00be
00000110: c383 48be b5bb 05be 0876 ac3c 30d8 94be
00000120: 51f6 b33e 76dd 93be 32a3 7fbe 0e9b 25be
00000130: cb41 04be 16c2 dc3d ba2d 20be 0ddb fe3d
00000140: 1958 c4be 0c10 eebd 3db8 a6be 000d a13d
00000150: a0e6 0b3e 18e0 3cbe 8b1c 47be 945f 213d
00000160: 9a8f 92be 9f08 b83c 8a6c f6bb 70db be3e
00000170: d706 d3bd cece ab3d f368 06bd f06d 523e
00000180: dc00 113e 8285 2bbe 6e93 04bd 1f1a 0bbe
00000190: ab15 02be ff0f 833d b586 abbe 7b33 843d
000001a0: de2e 993e a883 9d3e 9e17 8bbd f835 b43d
000001b0: 73db d13e e39c c03e 870e 743e b3a8 c13d
000001c0: 2403 b4be 8296 78bc 3704 69be 2e13 8f3e
000001d0: 5c7f 8f3e b398 8f3e bbec ebbc 71a1 8dbe
000001e0: 60dd 8dbe 4d57 bcbe 5325 803e 798a a63e
000001f0: 7f9b dd3c f70e 44bd 9774 443e a727 693d
00000200: 2fb3 18bc 5687 b93e 8f65 adbe a06f bdbe
00000210: ebbb a4be 5362 3b3e ca85 45be 0aeb a43e
00000220: 6a28 633e 62e3 413e fb5f a43e dfd8 3c3d
00000230: 3b6d 0e3e ef4e b43d fae3 443e 526a 0ebe
00000240: 9e60 78be 6dbd aabe efde 5e3e 2af2 2f3e
00000250: fdd4 87be b42f 10be da10 6c3b a9b2 ae3d
00000260: 72e6 913e efa8 ba3e c5bf 43be 7b18 eabc
00000270: f8c6 9abe 6043 1c3e ee5c 393e c4ef 9abe
00000280: 5952 6f3e e7fb 37be 3202 9e3d 2b2c da3d
00000290: bfab 9d3d a308 be3e 7d8d 7e3c 6cea 13be
000002a0: fd14 ba3e 8e58 c03e 6d5b 353d 7866 6dbe
000002b0: c4e0 7c3e b11b 95be e410 f93d f4f9 bbbd
000002c0: 15f3 9bbe 6b34 e9bd 6f1f 6cbe 6da0 9b3e
000002d0: 7fa8 85be c15e 4fbe 698b 553e 38e4 2dbe
000002e0: bef8 683e 5f37 21be 48e7 183e 0515 323e
000002f0: 298c b63d 912e 7f3e b450 bbbe 63b4 823e
00000300: baf9 43be 996c bf3e eea4 bd3e 7a1c 85be
00000310: 1c5c b63e 2047 07bd 1a59 fe3d 757c 9dbc
00000320: 9062 a93e a040 68bd 1268 4f3b 7cc4 103e
00000330: e486 b5be f169 8b3e 15b7 b43e 07bb 753d
00000340: a04a 45bb 35e8 b4be a753 2c3e 132f 9cbd
00000350: f8a8 90be e3c7 533e 2b4e acbe 5aad 793e
00000360: 1237 bbbe 8748 46be 3ee6 17bd d36e d4bd
00000370: f2df 303d 5ee3 863d 7f21 c73e 3ef8 083e

1.bias f4 [32]
0.22680864 -0.24942087 -0.25808537 -0.31429473 0.2534611 -0.19724916 0.14931174 -0.21033931
0.34525684 -0.0031910553 -0.06387099 0.34730944 -0.015528979 0.31474718 0.33282375 0.3124475
-0.015707413 -0.32712305 0.055791344 0.28379726 0.25820506 -0.3723457 -0.21486965 -0.3089938
-0.29031587 0.06300781 -0.05868297 -0.14962614 -0.36289033 0.30381116 -0.33078828 0.265026
00000000: 8640 683e 2f68 7fbe c423 84be 3deb a0be
00000010: a7c5 813e affb 49be 2de5 183e 3063 57be
00000020: 81c5 b03e 0621 51bb cbce 82bd 8bd2 b13e
00000030: 426d 7ebc 8b26 a13e e067 aa3e 1ef9 9f3e
00000040: d5ac 80bc ac7c a7be 7785 643d e04d 913e
00000050: 7433 843e 18a4 bebe ca06 5cbe 6f34 9ebe
00000060: 48a4 94be 3d0a 813d 8e5d 70bd 9837 19be
00000070: c3cc b9be 238d 9b3e 155d a9be 7db1 873e

3.weight f4 [32, 32, 5]
-0.035268545 -0.015029826 -0.01881735 0.0270665 -0.008280605 -0.006657204 0.061171588 0.028672291
0.039738227 -0.021627277 -0.009959672 0.025886942 0.03034735 0.06860226 -0.007033416 -0.040170897
0.020760406 0.040393293 0.04162017 0.06182082 -0.05897545 -0.0040744003 -0.046172246 -0.010026054
-0.022735447 0.024093106 0.051483013 -0.021906357 -0.06585064 0.006586879 -0.055321377 0.021719022
-0.019903908 0.07441333 0.04154293 0.075546 -0.004630455 0.034157205 -0.07385419 -0.011798778
0.06206159 -0.06425695 0.033030447 -0.021103924 0.02208857 -0.047180835 -0.044630263 0.057914652
0.0019317761 0.06172125 -0.012885849 0.053973194 -0.07261217 0.017623236 0.062479388 -0.07243667
0.03725808 0.044081464 0.02338795 -0.023452625 0.049084656 0.010850181 -0.019729652 0.057721388
0.009705159 0.0012843009 0.005190588 -0.032606874 0.032848507 0.06988293 0.07130637 -0.05868533
0.04508153 -0.010653002 0.06508456 -0.0064307204 0.085012 0.05571026 0.083638564 0.1078316
0.016650194 0.05536611 -0.059831757 0.06769821 -0.059821993 -0.07227597 0.0714088 0.0094535025
-0.0787371 -0.049476102 0.021469684 -0.06965787 -0.07820609 -0.008588537 0.031061202 -0.039118454
0.049659215 0.04561077 0.047001492 -0.04033979 -0.04113869 0.0059190956 -0.061048575 -0.019962084
-0.074034154 0.038488083 0.01070384 0.04827032 -0.025794752 0.019108027 0.061436415 0.054521345
0.05288424 -0.06971512 0.02468798 0.06626478 -0.022084145 -0.017490543 -0.07208599 0.034186497
0.071451865 0.031897362 -0.022752617 -0.05416016 0.050580263 0.035453875 0.01729089 -0.01260897
0.051014848 -0.014700057 -0.041956518 -0.040977456 -0.02337394 0.083696686 -0.008905247 -0.0694731
0.050835386 0.02064653 0.00338614 -0.008858144 0.046036027 -0.06429674 0.0016069359 0.02658808
-0.03599651 0.047497 0.04204994 -0.061879087 -0.0651491 -0.047408562 0.032833617 0.057988185
0.06459725 -0.0547923 -0.02392682 0.06454599 0.0064398376 0.026492702 0.04454679 -0.01950193
-0.07080515 -0.0641254 0.007951809 0.07553484 0.023565646 -0.010071938 0.06793769 0.010690091
-0.0076049413 -0.040013924 0.04318759 0.023555819 0.035365976 0.075724095 0.033382125 0.023128847
0.032250773 0.01599831 -0.017667457 -0.03049188 0.0006858756 0.071066335 -0.04602164 -0.037045844
-0.046309635 0.0022335467 -0.02291575 -0.013296364 -0.07330523 0.07803183 0.031584803 0.014342273
0.04442412 0.008987258 -0.07176274 0.011782115 0.064250015 0.07405703 -0.038082708 -0.025236676
-0.015878526 -0.0006101781 -0.04431128 -0.0708197 -0.021039259 -0.036419585 0.054495532 -0.038881607
0.061271165 -0.06881542 -0.04977864 0.07787001 0.077533945 -0.012830468 -0.03369749 -0.032476116
-0.05998211 -0.05115121 0.007575061 -0.07746194 -0.04438581 -0.016957683 0.045918904 -0.019840864
-0.0041342247 0.053378403 -0.053138234 0.082518645 0.058615506 0.024538461 0.02335688 0.06296139
0.07306387 0.07589165 0.025415083 -0.025934566 0.034998946 -0.060995992 -0.001051749 -0.047571186
-0.068649344 -0.040583618 0.0074624545 -0.07263338 0.035155583 -0.06624467 -0.049967103 -0.0013494275
0.013642266 -0.021465162 -0.06693842 -0.01848765 0.04231032 0.055353925 -0.0051799915 0.080929056
00000000: c075 10bd a93f 76bc d826 9abc 91ba dd3c
00000010: 60ab 07bc ad24 dabb 0f8f 7a3d 27e2 ea3c
00000020: 8dc4 223d b02b b1bc e42d 23bc da10 d43c
00000030: 019b f83c 577f 8c3d 9278 e6bb 3d8a 24bd
00000040: ba11 aa3c 7073 253d e979 2a3d d437 7d3d
00000050: 3e90 71bd 8c82 85bb 1c1f 3dbd 5244 24bc
00000060: b03f babc e85e c53c dadf 523d f674 b3bc
00000070: b3dc 86bd bfd6 d73b ab98 62bd 17ec b13c
00000080: 850d a3bc 0466 983d eb28 2a3d dcb7 9a3d
00000090: 12bb 97bb 6de8 0b3d de40 97bd a94f 41bc
000000a0: 4b34 7e3d 2699 83bd ef4a 073d 23e2 acbc
000000b0: 17f3 b43c b140 41bd 39ce 36bd ea37 6d3d
000000c0: a633 fd3a 6ccf 7c3d 2b1f 53bc ff12 5d3d
000000d0: b0b5 94bd 9b5e 903c 63ea 7f3d ad59 94bd
000000e0: ee9b 183d c48e 343d 1698 bf3c b81f c0bc
000000f0: fe0c 493d f5c4 313c 14a0 a1bc 436d 6c3d
00000100: 6302 1f3c fd55 a83a cf15 aa3b c98e 05bd
00000110: 288c 063d c81e 8f3d 1309 923d 0760 70bd
00000120: 69a7 383d ee89 2ebc 0e4b 853d cbb8 d2bb
00000130: c51a ae3d 7130 643d b24a ab3d d0d6 dc3d
00000140: fd65 883c 93c7 623d 2512 75bd 5ca5 8a3d
00000150: e807 75bd 6c05 94bd c73e 923d dde2 1a3c
00000160: eb40 a1bd 74a7 4abd 31e1 af3c c9a8 8ebd
00000170: 842a a0bd efb6 0cbc 1074 fe3c ac3a 20bd
00000180: 7667 4b3d 5cd2 3a3d a384 403d 563b 25bd
00000190: 0b81 28bd f9f4 c13b 120e 7abd 8687 a3bc
000001a0: 389f 97bd aea5 1d3d 295f 2f3c 19b7 453d
000001b0: 844f d3bc 7088 9c3c c0a4 7b3d c651 5f3d
000001c0: 259d 583d cdc6 8ebd 723e ca3c d4b5 873d
000001d0: cfe9 b4bc 5448 8fbc d2a1 93bd 2407 0c3d
000001e0: 5b55 923d cfa6 023d b263 babc 0bd7 5dbd
000001f0: 402d 4f3d 1538 113d a0a5 8d3c da95 4ebc
00000200: f2f4 503d 82d8 70bc 99da 2bbd fad7 27bd
00000210: b47a bfbc 2b69 ab3d 50e7 11bc ea47 8ebd
00000220: c438 503d e922 a93c 01ea 5d3b c021 11bc
00000230: 4690 3c3d 02ae 83bd d29f d23a 3fcf d93c
00000240: 1471 13bd 378c 423d 8f3c 2c3d ed74 7dbd
00000250: e46c 85bd 7b2f 42bd 8b7c 063d 0585 6d3d
00000260: 904b 843d e46d 60bd 2e02 c4bc b030 843d
00000270: 4605 d33b 3907 d93c b276 363d 83c2 9fbc
00000280: 4a02 91bd 2d54 83bd 4e48 023c 03b2 9a3d
00000290: be0c c13c c504 25bc ea22 8b3d 7e25 2f3c
000002a0: df32 f9bb a4e5 23bd 78e5 303d 22f8 c03c
000002b0: eadb 103d 3c15 9b3d b2bb 083d b578 bd3c
000002c0: 6319 043d e30e 833c 58bb 90bc 1bca f9bc
000002d0: 55cc 333a 3a8b 913d 3081 3cbd 62bd 17bd
000002e0: 2caf 3dbd b260 123b d0b9 bbbc fed8 59bc
000002f0: 0d21 96bd 27cf 9f3d 115f 013d dafb 6a3c
00000300: 11f6 353d 4b3f 133c 58f8 92bd c609 413c
00000310: 8395 833d 36ab 973d 9dfc 1bbd 25bd cebc
00000320: af13 82bc 5cf4 1fba bf7f 35bd eb09 91bd
00000330: 865a acbc b42c 15bd b536 5f3d 5242 1fbd
00000340: 79f7 7a3d 19ef 8cbd b0e4 4bbd 507a 9f3d
00000350: 1eca 9e3d e236 52bc 6106 0abd ad05 05bd
00000360: cdaf 75bd ee83 51bd 3838 f83b 5ea4 9ebd
00000370: e5cd 35bd d7ea 8abc 7615 3c3d 4f89 a2bc
00000380: 6478 87bb 50a3 5a3d 7aa7 59bd 89ff a83d
00000390: d016 703d e204 c93c ed56 bf3c e7f1 803d
000003a0: 83a2 953d 156d 9b3d 4b33 d03c ba74 d4bc
000003b0: 0e5b 0f3d efd6 79bd d7da 89ba 01da 42bd
000003c0: 0798 8cbd 023b 26bd 9b87 f43b cfc0 94bd
000003d0: 4dff 0f3d 49ab 87bd 4eaa 4cbd 46df b0ba
000003e0: d083 5f3c b5d7 afbc 0317 89bd 6a73 97bc
000003f0: 964d 2d3d ccba 623d ebbc a9bb 22be a53d

3.bias f4 [32]
-0.012584796 0.0502783 -0.011030692 0.054111898 0.06316127 -0.03741529 -0.072210975 -0.06393194
0.03770724 0.08337847 0.066379435 0.022552041 0.027284596 -0.045517188 -0.037028678 0.07457152
0.07341303 -0.0497291 0.03068919 -0.02595201 0.015767325 0.06850151 -0.002109922 0.024047626
0.010328653 0.058636926 0.047662683 0.042898122 -0.03859875 -0.08175678 0.06989005 0.0270814
00000000: 7630 4ebc 9ef0 4d3d 13ba 34bc 70a4 5d3d
00000010: b25a 813d c640 19bd 59e3 93bd c0ee 82bd
00000020: e872 1a3d 55c2 aa3d f1f1 873d 0fbf b83c
00000030: f283 df3c 3b70 3abd 62ab 17bd f4b8 983d
00000040: 9259 963d beb0 4bbd e567 fb3c 4f99 d4bc
00000050: 7a2a 813c 854a 8c3d 9e46 0abb 87ff c43c
00000060: 8339 293c 462d 703d f239 433d f1b5 2f3d
00000070: b919 1ebd 1970 a7bd 8422 8f3d d0d9 dd3c

5.weight f4 [32, 32, 3]
0.028165624 -0.077471524 -0.041255612 -0.08055932 0.06935852 0.053922318 0.054972485 0.09774116
0.052862424 0.040605117 -0.011906907 0.09483918 -0.044033334 0.031459592 0.032767467 0.017479561
0.07244886 0.070612885 -0.09893648 -0.06762381 0.054877352 0.031231096 -0.04298821 0.014878407
0.038519923 0.03614897 -0.09062993 -0.09578738 -0.09373622 -0.007410573 0.03688347 -0.08613615
-0.08241891 0.044817865 -0.003920285 0.0974172 -0.0016586905 -0.018371588 0.026591336 0.017675206
-0.008834324 -0.04666781 -0.0050078346 0.02002591 0.092391714 0.02053861 -0.050618775 -0.04123671
0.072566204 0.09482482 -0.08283922 0.039600458 0.0925283 -0.028023079 0.08591701 0.07838857
-0.08865097 -0.052659083 -0.08263083 0.07991328 -0.09483974 0.0994283 0.01520024 -0.020992383
-0.07069428 0.039877553 -0.084578924 0.094983794 0.0025837221 -0.06514098 0.06974275 -0.004444148
-0.012055694 -0.098586634 -0.019162107 -0.036247596 -0.025937403 0.020460524 -0.07094442 -0.09678187
0.03130793 -0.010885105 0.052376457 -0.08329933 0.07127008 -0.10033123 -0.024889467 -0.018975304
0.0026449284 -0.03587545 0.028637918 -0.07771639 0.07786851 0.0026888174 -0.061801713 -0.012041306
-0.043262646 0.010888047 0.06947586 0.010041642 0.042005777 -0.089297354 0.04680961 -0.051127363
-0.00067137904 0.021878269 -0.097911365 0.06744829 0.04831546 0.009172848 0.048978657 0.037584472
0.06642393 -0.019557653 -0.05655644 -0.09742836 0.029645626 -0.017651109 0.09499528 0.056724153
0.014011742 0.09508484 0.009066029 -0.0067608287 -0.009781443 -0.026455022 -0.063618764 -0.06266477
0.064105004 0.0124061825 0.07499602 -0.075799756 0.037747327 -0.017215889 0.021025605 0.033854865
-0.0650418 0.041767277 0.036491945 -0.029499065 0.09892212 0.030323278 -0.082006745 -0.047124725
0.104102574 0.11896889 0.08142026 0.06315437 0.047021136 0.09362662 0.10087841 -0.05541114
-0.06855517 -0.010952961 -0.021498008 0.043238003 -0.009041918 -0.0022087572 -0.07569998 0.02174958
-0.076067 -0.099020615 -0.00081084616 -0.0015999489 0.069218166 -0.08242066 -0.021551156 0.04184566
-0.09054036 0.0015465992 0.03995242 -0.058635168 0.02146354 0.02714962 -0.09593299 -0.08586495
-0.018163167 -0.074588396 0.024411492 -0.065700114 0.08801994 0.029808752 -0.009265428 -0.053664435
-0.055029485 0.02061537 0.108233534 0.046360105 0.029290343 0.0083775325 0.03923561 -0.0074085356
-0.058753904 0.010783698 -0.061579045 -0.019478142 0.053388543 0.034071222 0.04235642 -0.07361486
0.086151086 -0.079625644 -0.06334156 0.0679155 -0.06061442 -0.04105114 0.0040997323 -0.09786779
0.07139683 -0.04446219 0.07521794 -0.08380367 -0.07014838 0.0028316474 -0.061626993 0.06370934
0.104373686 -0.09203106 -0.050321795 0.038153887 -0.004678497 -0.03826879 -0.091963395 0.012387439
0.054968383 0.08871945 -0.058133956 -0.003237893 0.07258116 -0.0024006737 0.051290732 0.014102003
0.026217759 -0.07341924 -0.008974511 0.055219382 0.054206688 0.064556144 0.00922908 0.0882611
0.0048977705 0.024058115 -0.07533615 -0.061886545 0.009198288 -0.0028604018 -0.067681596 -0.04089797
-0.058231115 0.06203525 0.07593657 -0.08486526 0.06903069 -0.026563603 0.090157494 0.023315275
00000000: 98bb e63c 64a9 9ebd a5fb 28bd 49fc a4bd
00000010: d70b 8e3d a6dd 5c3d d42a 613d 842c c83d
00000020: 4586 583d 8d51 263d 3015 43bc 0b3b c23d
00000030: 4c5c 34bd c6db 003d 2e37 063d 4c31 8f3c
00000040: 1160 943d 7d9d 903d 369f cabd 5a7e 8abd
00000050: 13c7 603d 5bd8 ff3c 6814 30bd 90c4 733c
00000060: 11c7 1d3d f110 143d 2f9c b9bd 2d2c c4bd
00000070: c6f8 bfbd 64d4 f2bb 1f13 173d 2668 b0bd
00000080: 3fcb a8bd f092 373d bc75 80bb ab82 c73d
00000090: 6b68 d9ba 0380 96bc 13d6 d93c 98cb 903c
000000a0: d7bd 10bc bf26 3fbd c318 a4bb 610d a43c
000000b0: de37 bd3d 9640 a83c a255 4fbd d3e7 28bd
000000c0: 979d 943d 8433 c23d 9ca7 a9bd 1734 223d
000000d0: 7a7f bd3d a890 e5bc 42f5 af3d 308a a03d
000000e0: a48e b5bd 0db1 57bd 5a3a a9bd 93a9 a33d
000000f0: 563b c2bd 11a1 cb3d 6d0a 793c 38f8 abbc
00000100: 2ac8 90bd a556 233d b737 adbd dd86 c23d
00000110: aa53 293b a268 85bd 49d5 8e3d 37a0 91bb
00000120: 3f85 45bc cae7 c9bd daf9 9cbc 5c78 14bd
00000130: ad7a d4bc d49c a73c 4f4b 91bd 9335 c6bd
00000140: be3c 003d 7057 32bc b288 563d d798 aabd
00000150: 0cf6 913d 767a cdbd ffe4 cbbc 1972 9bbc
00000160: 8956 2d3b 23f2 12bd 119a ea3c c529 9fbd
00000170: 8679 9f3d df36 303b cb23 7dbd e648 45bc
00000180: 2c34 31bd c763 323c 5c49 8e3d b385 243c
00000190: 400e 2c3d 88e1 b6bd 6fbb 3f3d ed6a 51bd
000001a0: 7cff 2fba 0e3a b33c c185 c8bd 5422 8a3d
000001b0: 6fe6 453d b749 163c d89d 483d 2df2 193d
000001c0: 4509 883d 5f37 a0bc baa7 67bd 8588 c7bd
000001d0: 62db f23c 0f99 90bc e38c c23d 9657 683d
000001e0: 8191 653c d7bb c23d af89 143c f189 ddbb
000001f0: 5842 20bc 34b8 d8bc 8e4a 82bd 6356 80bd
00000200: 7c49 833d 4d43 4b3c 8397 993d e73c 9bbd
00000210: f19c 1a3d 5608 8dbc e43d ac3c 66ab 0a3d
00000220: a334 85bd 2a14 2b3d 9478 153d 06a8 f1bc
00000230: ae97 ca3d 8668 f83c 27f3 a7bd db05 41bd
00000240: bb33 d53d f6a5 f33d aabf a63d 1457 813d
00000250: 3c99 403d 50bf bf3d 5799 ce3d cbf6 62bd
00000260: a766 8cbd 0c74 33bc 971c b0bc 551a 313d
00000270: 8e24 14bc ccc0 10bb 9708 9bbd 2d2c b23c
00000280: 04c9 9bbd 52cb cabd f78e 54ba 60b5 d1ba
00000290: 41c2 8d3d 2acc a8bd 0d8c b0bc 5b66 2b3d
000002a0: 396d b9bd 42b7 ca3a 26a5 233d 6e2b 70bd
000002b0: 4ed4 af3c e168 de3c 8478 c4bd f7d9 afbd
000002c0: ecca 94bc cdc1 98bd 9cfa c73c c88d 86bd
000002d0: cc43 b43d 7c31 f43c 06ce 17bc 3dcf 5bbd
000002e0: 9966 61bd 90e1 a83c 8ba9 dd3d 18e4 3d3d
000002f0: 4df2 ef3c eb41 093c 85b5 203d 4dc3 f2bb
00000300: efa7 70bd 1cae 303c 4f3a 7cbd a090 9fbc
00000310: f2ad 5a3d 448e 0b3d ed7d 2d3d 63c3 96bd
00000320: fb6f b03d c512 a3bd 38b9 81bd 4817 8b3d
00000330: d346 78bd 3d25 28bd 0c57 863b e86e c8bd
00000340: 8038 923d fc1d 36bd dd0b 9a3d 42a1 abbd
00000350: f4a9 8fbd 2993 393b 966c 7cbd 0b7a 823d
00000360: dfc1 d53d c87a bcbd 3a1e 4ebd 4047 1c3d
00000370: 144e 99bb bcbf 1cbd 4e57 bcbd aff4 4a3c
00000380: 8726 613d 8bb2 b53d df1d 6ebd d532 54bb
00000390: 6ea5 943d 9f54 1dbb 3b16 523d 160c 673c
000003a0: a0c6 d63c d45c 96bd d409 13bc b82d 623d
000003b0: d507 5e3d 0336 843d 9135 173c 3cc2 b43d
000003c0: 7a7d a03b 8615 c53c d749 9abd bf7c 7dbd
000003d0: 6bb4 163c 9475 3bbb a69c 8abd a184 27bd
000003e0: c083 6ebd ad18 7e3d a284 9b3d d6cd adbd
000003f0: f65f 8d3d ea9b d9bc 7ea4 b83d adff be3c

5.bias f4 [32]
-0.076626986 9.743016e-06 0.038069535 0.09116069 -0.0560597 -0.08592753 0.040826134 0.07854813
0.021342305 0.09000741 0.013698981 -0.048586678 0.09814883 -0.04727379 0.087913334 0.05565615
0.069994316 0.071019016 0.03132423 0.028055536 -0.020268466 -0.04441734 0.1280763 0.04424106
0.07172775 -0.059106678 0.080897406 -0.059019815 -0.055483323 -0.069112964 -0.08215367 -0.0050420226
00000000: 9cee 9cbd ef75 2337 cdee 1b3d 75b2 ba3d
00000010: db9e 65bd c6fa afbd 4e39 273d d8dd a03d
00000020: 0fd6 ae3c ce55 b83d b171 603c d302 47bd
00000030: 4102 c93d 29a2 41bd e80b b43d b4f7 633d
00000040: 2e59 8f3d 6b72 913d d64d 003d b9d4 e53c
00000050: 0e0a a6bc f5ee 35bd 6f26 033e 1d36 353d
00000060: 00e6 923d d819 72bd 8aad a53d c3be 71bd
00000070: 7b42 63bd 198b 8dbd 2f40 a8bd 8d37 a5bb

7.weight f4 [32, 32, 3]
-0.08376157 -0.09735245 0.09738947 -0.09449877 0.009418411 0.085038796 0.069949724 0.08557019
0.007012204 0.077923626 -0.01999411 -0.035997868 -0.05054118 0.075136274 0.081648156 -0.01543208
0.019158423 -0.015756464 -0.015901549 0.05999912 -0.09870488 0.015234423 0.0051727886 -0.05880547
-0.06488713 0.084113054 -0.0009024498 -0.012038637 -0.04734644 -0.016082918 0.0945543 0.04176818
0.04272286 0.060050596 -0.052107643 -0.05785891 -0.07099882 -0.060822148 -0.074975975 0.036166813
-0.08930833 -0.07378976 0.09413855 -0.058828406 -0.03876113 0.058727372 -0.0040619667 0.078248285
0.040480956 0.060538676 0.08033113 -0.09967649 -0.064562336 0.0075404234 -0.10079715 -0.042504884
-0.007532519 -0.020602062 -0.08936088 0.058422215 -0.09195174 -0.024424009 -0.05003817 0.091164894
0.08101311 -0.01407307 -0.053861856 -0.07718125 -0.061822154 -0.09055257 0.09439642 0.041421123
-0.06167816 0.08719036 -0.020980291 -0.031064821 0.06328187 -0.07667396 -0.040226553 -0.07195261
0.10200102 -0.04366164 0.09734748 0.081942424 -0.0075822305 -0.093901746 -0.033671197 -0.034694083
0.05016104 -0.023107814 -0.098789036 -0.06181384 0.04485369 -0.018195387 0.032486077 0.04831686
-0.074990764 0.0911769 0.015401774 -0.06285609 -0.08628768 -0.05398298 0.08320018 0.073816754
0.07022954 0.07929836 -0.049434353 0.079633266 0.07937113 -0.073101126 -0.05892097 0.09439123
0.05286588 -0.042532567 0.07640457 -0.013500092 0.04018383 -0.011680132 -0.09091608 0.038065508
-0.050144333 -0.035552233 -0.047702927 0.100334965 0.03465272 -0.03596421 0.039680913 0.053600844
0.0700277 0.014614003 0.0847563 -0.090636164 0.0232378 0.043900337 0.032614335 -0.08227233
-0.065458074 0.00040471708 -0.019788966 0.07125553 0.08445199 0.1043678 0.03225717 0.024551027
0.085001506 -0.064244844 0.04320038 0.10697793 0.061842103 0.04787628 0.09811326 -0.00079066824
-0.056730162 0.074869365 -0.09020569 0.0662981 -0.07945367 0.03025475 0.066061094 -0.074524984
-0.012805503 -0.054371543 -0.02907469 0.036665656 0.09419576 0.05075912 0.049568072 0.04243877
-0.047785826 0.027583554 -0.047715604 -0.069158874 -0.06618553 -0.021013213 -0.0030373652 0.053002853
0.061589904 -0.06975369 -0.049121123 -0.06536889 -0.08045664 -0.031049231 -0.08504658 -0.014835379
-0.031319275 -0.007913587 -0.07957247 -0.04799683 0.09310818 0.030597582 0.0497405 0.0860906
-0.018938407 -0.099586904 -0.09448802 -0.07726619 0.056563295 0.059491213 0.03268932 -0.06418842
-0.028982121 0.059821837 -0.0821478 0.035093077 0.101903796 -0.09057355 -0.078155436 0.014121736
0.058801807 0.0057580164 -0.08339238 -0.028845241 0.07957775 -0.08570038 0.04481423 -0.06958262
-0.024828386 0.013689003 0.09339568 -0.05314061 0.06477081 0.08415851 -0.044752087 0.03401736
-0.04190068 -0.0046018586 0.04452352 0.029796693 0.0114876665 -0.007101956 0.052493516 0.03648816
-0.053519603 0.034183748 -0.06806124 -0.096639656 -0.09914284 0.021578046 -0.02353093 -0.01921157
0.061377805 0.00322338 0.0720653 0.09097853 -0.04276028 0.040526573 -0.014831436 0.039980784
-0.051431604 0.0044493345 -0.023005871 0.061863404 0.07329835 0.009477404 -0.024164215 -0.099180065
00000000: 308b abbd b960 c7bd 2174 c73d 9288 c1bd
00000010: ae4f 1a3c d228 ae3d cd41 8f3d 6c3f af3d
00000020: a1c6 e53b 6c96 9f3d b0ca a3bc 8072 13bd
00000030: 4504 4fbd 0ce1 993d 2637 a73d d6d6 7cbc
00000040: 20f2 9c3c b313 81bc f743 82bc a3c1 753d
00000050: c925 cabd cd99 793c 7f80 a93b 01de 70bd
00000060: 8be3 84bd 7743 ac3d 6292 6cba b43d 45bc
00000070: 57ee 41bd 53c0 83bc afa5 c13d 1c15 2b3d
00000080: 2afe 2e3d 9df7 753d d36e 55bd 77fd 6cbd
00000090: d467 91bd a520 79bd 018d 99bd a723 143d
000000a0: 49e7 b6bd 161f 97bd b6cb c03d 0ef6 70bd
000000b0: fec3 1ebd 1d8c 703d 3f1a 85bb a340 a03d
000000c0: 5ccf 253d 67f7 773d a684 a43d 3023 ccbd
000000d0: 4239 84bd a815 f73b bc6e cebd 9a19 2ebd
000000e0: 59d3 f6bb a8c5 a8bc d602 b7bd 224c 6f3d
000000f0: 3251 bcbd dc14 c8bc d3f4 4cbd a9b4 ba3d
00000100: 34ea a53d bc92 66bc 409e 5cbd 3411 9ebd
00000110: 3a39 7dbd a073 b9bd e952 c13d 32a9 293d
00000120: 3da2 7cbd dc90 b23d dcde abbc a77b febc
00000130: ed99 813d 3d07 9dbd 99c4 24bd e45b 93bd
00000140: e9e5 d03d 8cd6 32bd 1e5e c73d 6ed1 a73d
00000150: 5c74 f8bb 8f4f c0bd cfea 09bd 621b 0ebd
00000160: aa75 4d3d 994c bdbc e851 cabd 8230 7dbd
00000170: 81b8 373d 7e0e 95bc 1f10 053d e6e7 453d
00000180: c294 99bd f4ba ba3d b957 7c3c b2ba 80bd
00000190: 98b7 b0bd 421d 5dbd db64 aa3d 3d2d 973d
000001a0: 81d4 8f3d 2e67 a23d ad7b 4abd c416 a33d
000001b0: 558d a23d 0bb6 95bd 1d57 71bd 3050 c13d
000001c0: e589 583d a136 2ebd 007a 9c3d 7d2f 5dbc
000001d0: cd97 243d 065e 3fbc 3632 babd 94ea 1b3d
000001e0: 2564 4dbd 389f 11bd 2564 43bd 6b7c cd3d
000001f0: 03f0 0d3d 354f 13bd 7488 223d 8f8c 5b3d
00000200: af6a 8f3d 926f 6f3c b694 ad3d 749f b9bd
00000210: 335d be3c d7d0 333d 9c96 053d 657e a8bd
00000220: e20e 86bd 3530 d439 781c a2bc 6bee 913d
00000230: 2af5 ac3d c9be d53d 1820 043d 3c1f c93c
00000240: 4515 ae3d cd92 83bd e2f2 303d 3f17 db3d
00000250: 254e 7d3d eb19 443d 9bef c83d d944 4fba
00000260: e35d 68bd 1c55 993d c3bd b8bd 4cc7 873d
00000270: 9bb8 a2bd cfd8 f73c 0a4b 873d 8ea0 98bd
00000280: 2cce 51bc b2b4 5ebd 0b2e eebc ba2e 163d
00000290: b5e9 c03d cce8 4f3d e407 4b3d 47d4 2d3d
000002a0: 12bb 43bd e8f6 e13c 7071 43bd 2ba3 8dbd
000002b0: 478c 87bd e723 acbc 880e 47bb 8519 593d
000002c0: b245 7c3d 06db 8ebd 3b33 49bd 20e0 85bd
000002d0: 73c6 a4bd f55a febc e72c aebd 1710 73bc
000002e0: a448 00bd fda7 01bc e4f6 a2bd 5398 44bd
000002f0: 80af be3d c8a7 fa3c b2bc 4b3d 4550 b03d
00000300: b824 9bbc 38f4 cbbd ef82 c1bd bc3d 9ebd
00000310: eaae 673d 0fad 733d 3de5 053d 3875 83bd
00000320: ea6b edbc be07 753d 1b3d a8bd c2bd 0f3d
00000330: f0b2 d03d a07e b9bd f50f a0bd db5e 673c
00000340: 2ada 703d bead bc3b a0c9 aabd db4c ecbc
00000350: a9f9 a23d ae83 afbd 208f 373d 5581 8ebd
00000360: e664 cbbc d747 603c 3c46 bf3d f8a9 59bd
00000370: 8fa6 843d 4c5b ac3d f74d 37bd ca55 0b3d
00000380: 0ca0 2bbd 30cb 96bb 4b5e 363d 3218 f43c
00000390: c436 3c3c 86b7 e8bb 7103 573d 9c74 153d
000003a0: 5f37 5bbd 4204 0c3d b163 8bbd 03eb c5bd
000003b0: 670b cbbd 71c4 b03c f0c3 c0bc 9561 9dbc
000003c0: 4b67 7b3d 583f 533b f996 933d f452 ba3d
000003d0: 6725 2fbd 31ff 253d 8dff 72bc e4c2 233d
000003e0: f2a9 52bd b9cb 913b cf76 bcbc 7b64 7d3d
000003f0: 721d 963d 1d47 1b3c 08f4 c5bc eb1e cbbd

7.bias f4 [32]
-0.019149464 0.06258665 -0.081472084 -0.041488778 -0.030354394 -0.08630227 0.004750099 -0.032564837
0.02359552 -0.022679785 -0.031413365 -0.10087774 0.09132424 -0.051128265 -0.032850485 -0.086828545
0.109357305 0.013385487 0.15008846 -0.0048126173 0.021309411 -0.06582708 0.0051577366 0.0051473663
0.13088357 0.008803654 -0.086487606 0.09111992 0.05728182 -0.075700946 0.1356375 0.051529367
00000000: 56df 9cbc 6e2d 803d d6da a6bd 23f0 29bd
00000010: c7a9 f8bc 3fbf b0bd b8a6 9b3b b562 05bd
00000020: 644b c13c f5ca b9bc 4dab 00bd fd98 cebd
00000030: 3408 bb3d df6b 51bd 3b8e 06bd 2ad3 b1bd
00000040: b9f6 df3d cd4e 5b3c cab0 193e 29b3 9dbb
00000050: 1391 ae3c 59d0 86bd 3b02 a93b 3dab a83b
00000060: 5806 063e 343d 103c 6a20 b1bd 159d ba3d
00000070: 57a0 6a3d 1909 9bbd 8fe4 0a3e 7510 533d

10.weight f4 [30, 960]
0.02528752 -0.023524387 0.024982452 -0.008601865 0.0056959554 0.026944943 -0.009615738 0.005514633
0.02484244 -0.0099372165 -0.0030385708 -0.00053826824 0.021380978 -0.0062251533 -0.021171605 0.02243834
-0.027239725 0.011748339 -0.027422782 0.024920432 0.020734992 -0.008480002 -0.0012797302 0.0026032613
-0.023345532 0.01486641 0.018456656 -0.0042691696 0.0034649523 0.030940138 0.006629197 -0.007330005
-0.005946189 -0.0057486193 -0.028488467 -0.03250985 -0.025885545 0.023844548 -0.012358505 -0.014451468
-0.017250072 -0.025652973 0.023838824 0.024644593 0.0065839244 0.0011421187 0.025643855 0.00020463165
0.014222723 0.02575839 -0.005270734 -0.002337782 0.027074987 0.023958681 -0.03427979 -0.034470405
0.020017438 0.0074734828 -0.025603881 -0.02285814 0.0075750556 -0.019949868 0.017278908 0.0049131606
-0.007920807 0.009967808 -0.024358248 -0.016611569 -0.031502876 0.017621227 -0.02794933 -0.006824665
-0.031088721 -0.00833806 0.019136569 -0.012405542 0.00054828846 -0.013553742 0.006399377 -0.03176902
0.008007824 -0.011174932 -0.023196103 -0.02943655 0.031149924 -0.022772308 0.006169684 0.021717248
-0.032039877 0.023454748 0.0033751873 -0.00010370005 0.028813437 0.00261616 0.0112954695 0.018431684
0.011923736 0.0024092717 -0.014446161 0.027720084 0.008250602 -0.0016924598 0.018292239 0.010326674
0.021244228 0.026915018 -0.024402503 0.018211212 0.030649012 -0.020648813 0.032698847 -0.01907017
-0.02124348 0.0057914685 0.00094137166 0.025174469 0.027234538 -0.014882091 0.012218125 -0.009729677
0.02036654 -0.00058141554 -0.027870396 0.020387964 0.013507495 -0.015351873 -0.029395172 -0.006459884
-0.013222138 -0.029934224 0.022419663 -0.015154487 0.0016906651 -0.02173446 -0.00087038236 0.009455843
0.027703471 -0.015720839 -0.023881912 0.029645784 0.03682752 -0.021177651 -0.00715339 -0.010536744
0.013391187 -0.013990074 0.030092878 0.0053322115 0.005173551 0.016637478 -0.0313143 0.027382948
-0.011420205 0.016676644 0.00035910303 -0.012207058 -0.02392426 0.025452586 -0.03247406 0.019981198
0.0089826 -0.029033931 0.019717446 -0.014253261 -0.020181857 0.024289364 0.005401025 0.029606089
0.0027152656 -0.028733077 -0.012672995 0.012146699 0.022468995 -0.006321369 0.009469552 -0.008059944
0.0051651755 0.034159698 -0.00026115414 0.015791405 -0.01486941 0.0016582768 0.008308998 0.021482836
-0.007301515 0.012898132 -0.0006955174 0.010479273 0.021773545 0.030756766 0.025143437 0.018916255
0.021493876 0.01797571 -0.012812805 0.024593422 0.019610962 0.0005804035 -0.0060369144 -0.0139671145
0.010201214 -0.014736055 0.027672421 -0.015296884 0.031485844 0.00027239881 -0.0027807206 0.027077895
0.014059725 -0.0049938215 0.0009847854 0.012206907 -0.022216812 -0.0108016925 0.011175736 0.026804525
0.0035103406 -0.02934375 -0.018450208 0.020175757 -0.021004416 -0.02869973 0.017923178 -0.0043826723
-0.028097674 -0.025439853 0.027736403 -0.02522032 -0.012381295 0.004006146 0.023368081 0.031210741
-0.005321248 0.012125322 -0.0057007675 0.019966241 0.024487339 -0.02597789 -0.02215381 -0.0056152954
-0.009234576 -0.0027303009 -0.03153116 0.02803138 0.0063281776 0.018828329 0.030854797 0.0027659412
-0.0056354986 0.01198823 0.014204265 0.030585466 0.02008564 0.021011816 0.019092413 0.027570648
00000000: c627 cf3c 37b6 c0bc 00a8 cc3c d6ee 0cbc
00000010: 23a5 ba3b a4bb dc3c 548b 1dbc 18b4 b43b
00000020: 5f82 cb3c b5cf 22bc c222 47bb 921a 0dba
00000030: 2927 af3c 5ffc cbbb 1370 adbc 9cd0 b73c
00000040: d825 dfbc 1b7c 403c bea5 e0bc ef25 cc3c
00000050: 6edc a93c b5ef 0abc 9fbc a7ba 7a9b 2a3b
00000060: 213f bfbc 3e92 733c 6a32 973c 64e4 8bbb
00000070: 4114 633b 2c76 fd3c bc39 d93b 8a30 f0bb
00000080: 40d8 c2bb ea5e bcbb a560 e9bc 0c29 05bd
00000090: ec0d d4bc a455 c33c 547b 4abc dac5 6cbc
000000a0: 0650 8dbc 2f26 d2bc a349 c33c 75e3 c93c
000000b0: f6bd d73b 25b3 953a 1013 d23c 6492 5639
000000c0: 6d06 693c 4203 d33c 1fb6 acbb 7935 19bb
000000d0: 5dcc dd3c ff44 c43c f768 0cbd d730 0dbd
000000e0: 9cfb a33c 1ee4 f43b 3bbf d1bc fe40 bbbc
000000f0: 2c38 f83b e86d a3bc 7f8c 8d3c 94fe a03b
00000100: 46c6 01bc 0450 233c f38a c7bc fc14 88bc
00000110: 2909 01bd 645a 903c fef5 e4bc 70a1 dfbb
00000120: c6ad febc 5c9c 08bc 4bc4 9c3c 9d40 4bbc
00000130: 04bb 0f3a 8410 5ebc ddb1 d13b 3b20 02bd
00000140: 4033 033c 1017 37bc c105 bebc eb24 f1bc
00000150: 202e ff3c fe8c babc 102b ca3b 5fe8 b13c
00000160: 3f3c 03bd 2c24 c03c 3f32 5d3b 8a79 d9b8
00000170: 280a ec3c e273 2b3b a210 393c 0bfe 963c
00000180: c65b 433c dfe4 1d3b 97af 6cbc 3b15 e33c
00000190: 882d 073c 87d5 ddba 9bd9 953c 3631 293c
000001a0: 6008 ae3c e27c dc3c c2e7 c7bc ae2f 953c
000001b0: a313 fb3c b327 a9bc 3aef 053d 0c39 9cbc
000001c0: ce06 aebc 5cc6 bd3b 62c6 763a b03a ce3c
000001d0: f71a df3c 04d4 73bc 882e 483c 3969 1fbc
000001e0: bbd7 a63c 236a 18ba 7550 e4bc a904 a73c
000001f0: 8a4e 5d3c 6c86 7bbc 25ce f0bc 6fad d3bb
00000200: aba1 58bc 9e38 f5bc 71a9 b73c 874a 78bc
00000210: 4f99 dd3a 770c b2bc 5f2a 64ba aeec 1a3c
00000220: 64f2 e23c fdc8 80bc 00a4 c3bc b7db f23c
00000230: 74d8 163d c17c adbc fc66 eabb 4fa2 2cbc
00000240: b666 5b3c a036 65bc 5785 f63c d5b9 ae3b
00000250: e486 a93b 524b 883c 6c43 00bd 3452 e03c
00000260: d01b 3bbc 759d 883c fe45 bc39 1d00 48bc
00000270: cffc c3bc f181 d03c 8503 05bd 9caf a33c
00000280: c12b 133c 91d8 edbc 7b86 a13c 8286 69bc
00000290: 6c54 a5bc 7dfa c63c 15fb b03b 7888 f23c
000002a0: 99f2 313b a161 ebbc 65a2 4fbc f302 473c
000002b0: e610 b83c 7d23 cfbb 2e26 1b3c db0d 04bc
000002c0: a240 a93b 0aeb 0b3d 84eb 88b9 fa5c 813c
000002d0: d39e 73bc 895a d93a 7722 083c c6fc af3c
000002e0: 8c41 efbb b052 533c 6253 36ba 42b1 2b3c
000002f0: 6f5e b23c 9df5 fb3c 9cf9 cd3c 43f6 9a3c
00000300: ed13 b03c cc41 933c cdec 51bc 2578 c93c
00000310: 2ba7 a03c 3826 183a 4fd1 c5bb 53d6 64bc
00000320: fe22 273c 7f6f 71bc 46b1 e23c c89f 7abc
00000330: 4df7 003d c0d0 8e39 c03c 36bb 76d2 dd3c
00000340: c35a 663c 36a3 a3bb ea13 813a 7bff 473c
00000350: 0800 b6bc 95f9 30bc 6f1a 373c 2a95 db3c
00000360: be0d 663b 4e62 f0bc e424 97bc a147 a53c
00000370: 7411 acbc b21b ebbc a1d3 923c 859c 8fbb
00000380: 182d e6bc 3d67 d0bc 7437 e33c d89a cebc
00000390: eada 4abc fd45 833b 6b6e bf3c abad ff3c
000003a0: dd5d aebb 49a9 463c 81cd babb 3e90 a33c
000003b0: ac99 c83c 95cf d4bc e87b b5bc 8300 b8bb
000003c0: 9e4c 17bc d9ee 32bb d126 01bd 11a2 e53c
000003d0: 9a5c cf3b de3d 9a3c 33c3 fc3c cb44 353b
000003e0: fda9 b8bb 486a 443c 01b9 683c 5f8e fa3c
000003f0: a48a a43c f920 ac3c b167 9c3c d7db e13c

10.bias f4 [30]
-0.04030363 -0.051147953 -0.031820558 -0.057568338 -0.04592479 -0.027893042 -0.06544889 -0.040220436
-0.008554656 0.011122444 0.008962516 -0.0283847 -0.036396176 -0.058305047 -0.027067201 -0.0054929634
-0.020244852 -0.033726264 -0.039358947 -0.044658676 -0.041259184 -0.023337292 -0.026221158 -0.019192554
-0.0059060296 -0.05030535 0.00063746807 -0.04120569 -0.027665347 -0.020245643
00000000: 6b15 25bd 8480 51bd 4656 02bd c7cc 6bbd
00000010: a21b 3cbd f37f e4bc 110a 86bd 2fbe 24bd
00000020: d428 0cbc e93a 363c 84d7 123c 0887 e8bc
00000030: 2814 15bd 46d1 6ebd 09bc ddbc 51fe b3bb
00000040: 88d8 a5bc 8d24 0abd d936 21bd 04ec 36bd
00000050: 64ff 28bd d92d bfbc c1cd d6bc b439 9dbc
00000060: 5e87 c1bb fc0c 4ebd c21b 273a 4cc7 28bd
00000070: 70a2 e2bc 31da a5bc
